turtlebot3_rl_sim/src/models/td3/trajectory_test/td3_critic1_model_ep1500.pt (torch_old, 640034 bytes, 5 tensors)

linear1.weight f4 [256, 365]
0.027338095 -0.0075570024 -0.042966206 0.013984658 -0.022078793 0.031370286 -0.07598898 -0.08881096
-0.036090348 -0.072226994 -0.041801248 0.023133468 -0.03814597 -0.022316467 -0.021110345 0.018665103
0.05147017 -0.0025700566 0.023326123 0.059709188 0.047892928 0.08853007 0.04656249 0.061354473
0.122222126 0.085604995 0.1410848 0.221871 0.1623398 0.14285932 0.18616138 0.19345929
0.1301852 0.21709326 0.20263009 0.12238437 0.10737232 0.15073995 0.12582119 0.08876354
-0.075402535 -0.11196686 -0.015091596 -0.0989962 -0.16424008 -0.1990962 0.061983194 0.07259789
-0.13421485 -0.0650694 -0.1591528 -0.24317583 0.053607043 -0.40592012 -0.13850196 -0.6324791
-0.57681865 -0.52092946 -0.7558161 -0.6706899 -0.20573243 0.1013284 -1.0780954 -1.0879034
-0.62095684 -0.60198313 -0.89653385 -0.9022569 -0.8482721 -0.8227091 -0.8042744 -0.83545583
-0.42147955 -0.28158033 -0.28365734 -0.28846154 -0.38700402 -0.30233142 -0.54064137 -1.0458616
-0.6848993 -0.3005235 -0.3152918 -0.58977044 -0.4449364 -0.5179787 -0.38585025 -0.6739747
-0.86516994 -0.5249528 -0.58374095 -0.45467427 -0.42064866 -0.22153424 -0.26646063 -0.022158511
-0.3356843 -0.42208856 -0.15887184 -0.21087384 0.021355337 0.05475345 0.092229664 0.06020888
0.07927956 0.07907157 0.016742801 0.0069158785 0.0071875355 0.021789208 0.036723092 0.054142676
0.09038823 0.037496682 -0.029255563 -0.0008698097 0.043617778 -0.028373938 0.019892223 0.05099551
0.070577085 0.063768 0.009758895 0.10050287 0.017159492 0.007955373 0.0064664483 0.046457615
0.09310306 0.05762595 0.113994636 0.07466002 0.12512605 0.08390222 0.076987945 0.13832334
0.117743164 0.10086859 0.13036658 0.1876728 0.10093672 0.10048018 0.14043626 0.1740886
0.082556404 0.08532611 0.17210606 0.1183046 0.12921445 0.10708475 0.06698158 0.13412541
0.09461374 0.11095569 0.12233319 0.082739875 0.085958414 0.11718153 0.09199739 0.09504025
0.09084642 0.038202737 0.06692397 0.06839441 0.12541269 0.09694171 0.041035753 0.008992094
0.032938868 -0.022848371 -0.06336123 -0.0011799436 -0.031013228 -0.028338693 -0.08880711 -0.06310268
-0.08085526 -0.038104072 0.04061148 0.057076626 0.061188575 0.053761005 0.073820315 0.06127764
0.10547351 0.07390216 0.0976586 0.13582787 0.15231775 0.14162107 0.1223953 0.1100601
0.10779289 0.108625695 0.07011929 0.14006455 0.12694429 0.052348793 0.07541565 0.13745125
0.0758778 0.05198445 0.10140383 0.06600797 0.109706536 0.119103715 0.12113016 0.073128276
0.13822694 0.0790365 0.111374035 0.16619319 0.18233593 0.124503754 0.19768628 0.16387542
0.15563357 0.14136003 0.112088084 0.148551 0.132263 0.0908838 0.14920837 0.18612936
0.12824349 0.17265396 0.16452663 0.20110251 0.15414895 0.09622046 0.16513856 0.11105997
0.1337668 0.16387232 0.109267876 0.11078618 0.08851922 0.12962754 0.09433473 0.06204637
0.12533076 0.14099875 0.10076709 0.076633364 0.04278215 0.0934631 0.055896033 0.12933812
0.13326608 0.11166422 0.04779258 0.06940884 0.11253309 0.09936959 0.093255624 0.14279057
00000000: 24f4 df3c bba0 f7bb 55fd 2fbd e81f 653c
00000010: 96de b4bc 217e 003d 1ca0 9bbd 85e2 b5bd
00000020: 79d3 13bd bfeb 93bd c937 2bbd 6682 bd3c
00000030: f33e 1cbd 06d1 b6bc 9aef acbc 8fe7 983c
00000040: 63d2 523d 656e 28bb 6d16 bf3c 9f91 743d
00000050: 602b 443d 414f b53d 4fb8 3e3d d44e 7b3d
00000060: 984f fa3d ac51 af3d 8978 103e 2732 633e
00000070: 683c 263e b749 123e 17a1 3e3e 311a 463e
00000080: 454f 053e b24d 5e3e 437e 4f3e a8a4 fa3d
00000090: 05e6 db3d 935b 1a3e 45d7 003e a9c9 b53d
000000a0: a56c 9abd e24e e5bd be42 77bc 85be cabd
000000b0: 8d2e 28be e0df 4bbe 17e2 7d3d 34ae 943d
000000c0: 9e6f 09be 1b43 85bd f4f8 22be 1603 79be
000000d0: 0f93 5b3d c3d4 cfbe 75d3 0dbe 26ea 21bf
000000e0: 63aa 13bf a25b 05bf 2a7d 41bf 55b2 2bbf
000000f0: 86ab 52be 4485 cf3d 08ff 89bf 6b40 8bbf
00000100: 07f7 1ebf 911b 1abf 3e83 65bf 4ffa 66bf
00000110: 5c28 59bf 109d 52bf ede4 4dbf 6fe0 55bf
00000120: 2bcc d7be 4c2b 90be 893b 91be 3bb1 93be
00000130: 6425 c6be 2fcb 9abe 7967 0abf cbde 85bf
00000140: 8f55 2fbf 37de 99be ed6d a1be 32fb 16bf
00000150: b4ce e3be 419a 04bf 2a8e c5be 9b89 2cbf
00000160: c77b 5dbf 4f63 06bf 0c70 15bf 11cb e8be
00000170: 435f d7be dfd9 62be 876d 88be c485 b5bc
00000180: d0de abbe fe1b d8be 4daf 22be 50ef 57be
00000190: 63f1 ae3c 2745 603d e8e2 bc3d 969d 763d
000001a0: 525d a23d 46f0 a13d 3328 893c 989e e23b
000001b0: 6b85 eb3b 487f b23c f46a 163d b6c4 5d3d
000001c0: 771d b93d 1f96 193d 5da9 efbc f103 64ba
000001d0: 8ea8 323d 7670 e8bc 04f5 a23c abe0 503d
000001e0: b88a 903d cc98 823d c6e3 1f3c 73d4 cd3d
000001f0: 1092 8c3c 4157 023c 80e4 d33b 574a 3e3d
00000200: d1ac be3d 3009 6c3d 0576 e93d 5ae7 983d
00000210: 0b21 003e edd4 ab3d dbab 9d3d a2a4 0d3e
00000220: 5423 f13d 3194 ce3d d17e 053e 4c2d 403e
00000230: e9b7 ce3d 8dc8 cd3d 86ce 0f3e 4844 323e
00000240: 5513 a93d 75bf ae3d 923c 303e af49 f23d
00000250: cb50 043e 404f db3d a32d 893d 2c58 093e
00000260: d9c4 c13d bd3c e33d d389 fa3d 8673 a93d
00000270: f70a b03d dffc ef3d 2169 bc3d 76a4 c23d
00000280: b00d ba3d 797a 1c3d 6f0f 893d 5e12 8c3d
00000290: 2f6c 003e 6089 c63d 1b15 283d 9353 133c
000002a0: e8ea 063d 822c bbbc 88c3 81bd 56a8 9aba
000002b0: 740f febc 8c26 e8bc 81e0 b5bd fa3b 81bd
000002c0: 7197 a5bd 0413 1cbd 3958 263d 2ec9 693d
000002d0: dfa0 7a3d 8034 5c3d 1b2f 973d 43fe 7a3d
000002e0: 7f02 d83d 045a 973d 3b01 c83d 7616 0b3e
000002f0: 2ff9 1b3e 1d05 113e 63aa fa3d 3167 e13d
00000300: 85c2 dc3d 2677 de3d b49a 8f3d 156d 0f3e
00000310: affd 013e b06b 563d 8573 9a3d 05c0 0c3e
00000320: d265 9b3d a6ed 543d d0ac cf3d 302f 873d
00000330: d2ad e03d a6ec f33d 1713 f83d 47c4 953d
00000340: 5d8b 0d3e e3dd a13d 1218 e43d 8c2e 2a3e
00000350: 45b6 3a3e d3fb fe3d 466e 4a3e f5ce 273e
00000360: 685e 1f3e afc0 103e 708e e53d c11d 183e
00000370: f46f 073e 4921 ba3d 14ca 183e b298 3e3e
00000380: 4352 033e 33cc 303e ab79 283e d1ed 4d3e
00000390: 39d9 1d3e 3c0f c53d 151a 293e 6973 e33d
000003a0: 2afa 083e 25ce 273e d6c7 df3d dde3 e23d
000003b0: 9149 b53d 15bd 043e 9132 c13d 5624 7e3d
000003c0: b556 003e fa61 103e fa5e ce3d f4f1 9c3d
000003d0: 563c 2f3d 9569 bf3d 3df3 643d 3671 043e
000003e0: e776 083e 36b0 e43d 27c2 433d 3926 8e3d
000003f0: c077 e63d 4982 cb3d cefc be3d b137 123e

linear1.bias f4 [256]
0.07578668 -0.05521966 0.09523852 -0.020641668 -0.016609782 0.02899605 -0.013508195 -0.04630056
0.011251598 0.094731644 0.0019072498 0.044510927 -0.049752418 0.067972876 -0.006260217 0.1167037
-0.0019179098 0.03611784 0.015410502 -0.052204408 -0.014110189 -0.0019662336 -0.048527543 0.1097822
0.025923388 0.015167068 -0.020952087 0.13080573 0.07287391 -0.025267856 -0.044976592 0.031767443
0.09732866 0.036396492 0.015166323 0.03029204 0.09429107 -0.026121948 -0.040499534 -0.001240816
-0.029065674 -0.09015186 -0.029451616 0.116193786 -0.03931826 0.050355166 0.09311818 0.10485263
-0.0058125295 0.026869984 0.04501831 0.026524296 0.12659436 -0.04886729 0.008472156 -0.02292788
-0.043951392 0.004753242 -0.015342653 0.028509859 0.003920514 -0.04728106 -0.044659197 0.05379665
0.038223375 -0.1133091 0.006856636 0.107824676 -0.014042589 0.020132046 0.0047577326 0.0023836792
-0.03475066 -0.03063067 0.04432158 0.05878998 0.049647547 0.038110126 -0.017772075 -0.041940477
0.032820955 0.06459948 0.13576646 0.032151893 -0.004999112 0.037041713 0.023635313 0.009213676
-0.051952086 0.024040624 0.0149169145 -0.05409015 0.022785664 -0.020105226 -0.021659046 -0.050923653
-0.024485053 -0.021041764 -0.01443747 0.04794863 -0.0605215 0.06316273 0.036059193 -0.037691407
-0.0216773 -0.003543942 -0.07142276 0.0005935964 0.12788337 -0.03587704 -0.02637117 -0.026171494
0.012371421 -0.0354216 -0.038347803 -0.016239488 0.14800896 -0.04417491 0.044770952 0.02586437
-0.036353283 0.14620414 -0.005502213 0.032333687 0.06343152 0.11163096 0.047616333 0.01705309
0.2699101 0.18098322 -0.10416736 -0.024360256 0.10633526 0.0138922725 -0.03677722 -0.027092386
0.08691261 -0.0046182936 0.030338317 0.08332473 -0.009678034 0.007649049 0.0003878272 -0.015037615
0.07427416 -0.028943112 -0.050642017 0.009331581 0.025866391 0.03953915 -0.0015677084 0.1271713
0.018187443 -0.055083316 -0.047669236 0.020935591 0.011066823 0.20387633 0.01862144 0.09289026
0.03551658 -0.037305467 -0.046148717 0.014241705 -0.03134891 -0.03512915 0.11712886 -0.028390309
0.032230124 0.14251615 0.039303713 0.000879921 0.035567988 0.09447905 -0.02992593 -0.013811807
-0.05412448 -0.023836853 -0.020321172 -0.047441248 0.07808094 0.07547349 0.08913251 -0.026980717
0.013926731 0.06455173 -0.027861213 -0.03391098 -0.02425134 0.05915177 -0.035586618 0.14269178
-0.0027802568 -0.030521147 -0.014188993 0.058176048 0.028335888 0.0062546283 0.044182356 -0.017617103
0.06526155 0.008226231 0.0026781834 -0.008530644 -0.025358632 0.009706904 -0.02285263 -0.002085443
-0.016449222 0.031975813 0.03052086 -0.023292214 -0.030068152 -0.03527742 0.023275075 0.02141131
0.023333935 0.03721084 -0.05263803 -0.0012202549 -0.018430334 -0.047919735 -0.0028635636 0.1499168
0.21982099 0.00891474 0.029153962 0.017256118 -0.0052889395 3.1340125e-05 0.001257438 0.065573364
0.039619014 -0.0076529705 -0.023910023 0.14568868 0.043428704 -0.04663062 -0.01648871 0.00488549
0.104008235 -0.031217404 -0.023637922 0.042189322 0.013258041 0.047614843 0.039659105 0.032916322
0.03986772 -0.026772533 -0.024587335 0.029915413 0.029127937 0.0021723816 -0.018179357 0.03577735
00000000: 0c36 9b3d 032e 62bd 6a0c c33d b718 a9bc
00000010: 3d11 88bc 2089 ed3c 7a51 5dbc a8a5 3dbd
00000020: 9f58 383c aa02 c23d affc f93a 1751 363d
00000030: 31c9 4bbd 5d35 8b3d 8222 cdbb 5902 ef3d
00000040: 6062 fbba 4df0 133d 557c 7c3c 4ad4 55bd
00000050: 6c2e 67bc eddb 00bb d1c4 46bd 7dd5 e03d
00000060: 495d d43c 4b7f 783c b6a3 abbc f0f1 053e
00000070: eb3e 953d 89fe cebc 6039 38bd 941e 023d
00000080: 4054 c73d 7d14 153d 2b7c 783c 0327 f83c
00000090: ad1b c13d b2fd d5bc d7e2 25bd e0a2 a2ba
000000a0: 231b eebc 8aa1 b8bd 8444 f1bc 02f7 ed3d
000000b0: 2f0c 21bd 3841 4e3d bfb4 be3d fabc d63d
000000c0: 0877 bebb 711e dc3c 1f65 383d 7b49 d93c
000000d0: f4a1 013e 1129 48bd ccce 0a3c 40d3 bbbc
000000e0: 6006 34bd 15c1 9b3b c05f 7bbc 828d e93c
000000f0: a877 803b c9a9 41bd 90ec 36bd e059 5c3d
00000100: 1d90 1c3d 9a0e e8bd a2ad e03b 2fd3 dc3d
00000110: e312 66bc f6eb a43c c1e6 9b3b 8037 1c3b
00000120: b556 0ebd 2ced fabc 8c8a 353d c3cd 703d
00000130: 3a5b 4b3d 5d19 1c3d be96 91bc c7c9 2bbd
00000140: 446f 063d bb4c 843d 5d06 0b3e b4b1 033d
00000150: 97cf a3bb 0db9 173d d89e c13c f5f4 163c
00000160: b6cb 54bd d8f0 c43c 1366 743c a28d 5dbd
00000170: 00a9 ba3c b7b3 a4bc 506e b1bc 5295 50bd
00000180: e194 c8bc c75f acbc 238b 6cbc c865 443d
00000190: 64e5 77bd 765b 813d ceb2 133d 4e62 1abd
000001a0: 9894 b1bc 7b41 68bb 1946 92bd 959b 1b3a
000001b0: dcf3 023e cef3 12bd 5a08 d8bc 9a65 d6bc
000001c0: 80b1 4a3c 3d16 11bd 9612 1dbd ad08 85bc
000001d0: a98f 173e c0f0 34bd bf61 373d 84e1 d33c
000001e0: 2ee7 14bd 8ab6 153e e84b b4bb 5470 043d
000001f0: 62e8 813d c69e e43d 5809 433d ecb2 8b3c
00000200: a831 8a3e aa53 393e b255 d5bd 298f c7bc
00000210: 4dc6 d93d 6a9c 633c b6a3 16bd daf0 ddbc
00000220: 3dff b13d 0e55 97bb 1088 f83c 28a6 aa3d
00000230: 9e90 1ebc e0a4 fa3b 4955 cb39 5460 76bc
00000240: 0d1d 983d 1b1a edbc 016e 4fbd 7de3 183c
00000250: c1e5 d33c cef3 213d 917b cdba 3139 023e
00000260: d5fd 943c 0b9f 61bd d140 43bd 1e81 ab3c
00000270: 9f51 353c f5c4 503e fd8b 983c 403d be3d
00000280: d579 113d 9ecd 18bd 7006 3dbd 0a56 693c
00000290: b767 00bd 95e3 0fbd 41e1 ef3d cb92 e8bc
000002a0: bc03 043d c1ef 113e eefc 203d 80aa 663a
000002b0: bdaf 113d 3b7e c13d 3927 f5bc eb4a 62bc
000002c0: a1b1 5dbd 8145 c3bc 9678 a6bc c151 42bd
000002d0: e6e8 9f3d d891 9a3d 1b8b b63d aa06 ddbc
000002e0: f22c 643c b333 843d 333d e4bc 3de6 0abd
000002f0: bfaa c6bc 2049 723d 46c3 11bd cb1d 123e
00000300: f834 36bb 7c07 fabc f378 68bc 024a 6e3d
00000310: aa20 e83c a0f3 cc3b 8ff8 343d be51 90bc
00000320: d9a7 853d 50c7 063c 7684 2f3b 1dc4 0bbc
00000330: e8bc cfbc b509 1f3c 7035 bbbc edab 08bb
00000340: 85c0 86bc 12f9 023d e206 fa3c 50cf bebc
00000350: 7c51 f6bc 0e7f 10bd 5fab be3c c666 af3c
00000360: cf26 bf3c 656a 183d fa9a 57bd f6f0 9fba
00000370: 36fb 96bc 7c47 44bd a0aa 3bbb ca83 193e
00000380: c118 613e 210f 123c 4ad4 ee3c b45c 8d3c
00000390: d74e adbb 3473 0338 9ed0 a43a 544b 863d
000003a0: 8c47 223d c5c5 fabb f4de c3bc 6a2f 153e
000003b0: 4ce2 313d c0ff 3ebd 5513 87bc 7616 a03b
000003c0: 4502 d53d a4bb ffbc 51a4 c1bc b6ce 2c3d
000003d0: 4138 593c c807 433d 9671 223d 44d3 063d
000003e0: 564c 233d 1252 dbbc 616b c9bc 2b11 f53c
000003f0: b69d ee3c 845e 0e3b e0ec 94bc 458b 123d

linear2.weight f4 [256, 256]
1.1538891 0.011177465 0.4780403 -0.011823058 0.004910357 0.026147678 0.044619128 -0.06564192
0.04299846 -0.053146403 0.0023857758 -0.05552662 -0.029849475 -0.043234263 -0.022784455 0.4023836
-0.0309918 0.083492026 0.04796322 0.0043379646 -0.0013400697 0.028723009 0.04803059 0.046634562
0.008452413 0.047114167 -0.058893554 0.006364625 0.24416384 -0.025147103 -0.054955907 0.04327711
-0.9608186 0.059536528 0.08324914 -0.045522716 0.86970663 0.022210762 -0.004224941 0.009877726
0.040216412 -0.0005248195 0.03123901 -1.1561738 0.33436704 0.08885944 -0.00025107028 -0.06805564
0.020465462 0.027762905 0.13745588 -0.2879439 -0.00040563653 -0.020152535 0.0154907955 0.0018746029
-0.060722284 -0.017935986 0.050593205 -0.00044503002 0.04003115 0.0057062656 0.021055548 0.14669281
-0.022042356 -0.43931746 0.10674382 0.78132135 -0.014439145 0.0021734529 0.9440391 0.026999399
0.028926346 0.13486606 0.8139511 0.10274733 0.053404517 0.19445586 -0.021277945 0.046711087
0.052062847 0.5253943 -1.7681373 -0.034507025 -0.05789814 0.1383917 -0.03493767 -0.0047306106
0.055609778 -0.057088263 -0.026635291 -0.011227383 -0.009132214 0.022105336 0.13892514 -0.039048154
0.011277302 0.06404898 0.035401095 0.010365165 -0.030640729 -0.15686227 -0.047713302 0.13940497
0.038444936 0.00528568 0.31687206 -0.043812808 0.10801936 0.0059644803 0.04417342 0.062118
0.13522966 0.77047336 0.02869091 -0.042427 -0.23322277 -0.010840698 -0.0016819119 -0.051330455
0.13438922 -1.0263753 -0.038519163 -0.042565577 -0.19043554 -0.1981825 0.07205836 -0.0059048235
0.08281253 0.5232989 -0.37044775 -0.016630642 -0.90396464 0.0021873293 0.028193582 0.056184508
-0.5256718 0.059403162 -0.053599827 -0.13234563 -0.055177934 -0.0058508813 0.037988134 0.025473557
0.15651152 0.0472751 0.011375502 -0.0036862947 0.1584427 0.13509256 -0.008518349 -0.20114352
0.07932567 0.00866345 -0.027252086 -0.025697418 -0.059152078 0.31195015 0.031086646 -0.01743317
0.02782329 0.03783818 0.021869957 0.0039636665 0.04821983 -0.008687664 1.0516316 -0.023144215
0.030517422 0.20150411 -0.29216734 0.050474502 -0.03608804 -0.084237084 -0.014304325 0.029704189
-0.18810241 0.112862244 -0.04803092 -0.035661865 0.19477992 0.62936777 0.7075391 0.042643927
0.10791654 -0.08493415 -0.013936996 0.006637403 -0.041000135 0.42404947 0.027567735 0.866072
-0.008619677 0.045239598 -0.048348725 0.08146547 0.020195749 0.047202084 0.058232673 0.11360879
-0.18643904 -0.05337064 0.053623572 0.028017377 0.11546058 0.01348564 0.033038516 -0.05366067
0.14281435 0.060151204 -0.008638363 0.055705436 -0.035574693 -0.023776501 0.01603683 0.09727711
0.057712626 0.018361643 -0.006047968 0.07757924 0.032310594 -0.030460082 0.044923693 0.17153302
-0.081492335 -0.029476201 0.099732816 -0.0051976694 0.061095938 0.08856141 -0.051005606 0.0500795
-0.010911554 -0.12313315 -0.008276919 -0.44923174 0.038967088 0.018857997 0.019679993 0.0019348362
0.058201335 -0.0042218287 0.05473165 -0.06214314 -0.011809543 -0.14315708 0.02583377 -0.008422238
-0.031657867 0.021399692 0.020076267 0.06399683 0.039870504 0.04177954 0.020182714 0.04512039
00000000: a3b2 933f b021 373c b3c1 f43e 80b5 41bc
00000010: 0fe7 a03b a833 d63c 8cc2 363d 456f 86bd
00000020: 271f 303d 0bb0 59bd ad5a 1c3b e26f 63bd
00000030: e386 f4bc 6916 31bd 77a6 babc 3905 ce3e
00000040: 84e2 fdbc defd aa3d 1575 443d 7c25 8e3b
00000050: 47a5 afba 844c eb3c b9bb 443d e203 3f3d
00000060: fd7b 0a3c c9fa 403d 5e3a 71bd 588e d03b
00000070: 1606 7a3e 4c01 cebc 7219 61bd 5743 313d
00000080: 35f8 75bf 93dc 733d 867e aa3d 0776 3abd
00000090: 18a5 5e3f 58f3 b53c 6071 8abb 30d6 213c
000000a0: f7b9 243d 0a94 09ba f4e8 ff3c 81fd 93bf
000000b0: 2832 ab3e f0fb b53d 15a2 83b9 c160 8bbd
000000c0: 2fa7 a73c 086f e33c 3cc1 0c3e 626d 93be
000000d0: 9dab d4b9 ee16 a5bc 1bcd 7d3c 3cb5 f53a
000000e0: eeb7 78bd 7dee 92bc d23a 4f3d eb52 e9b9
000000f0: b4f7 233d a0fb ba3b af7c ac3c a436 163e
00000100: 2c92 b4bc 38ee e0be 819c da3d ad04 483f
00000110: 2a92 6cbc 7d70 0e3b 8cac 713f d82d dd3c
00000120: f2f6 ec3c 541a 0a3e 195f 503f 316d d23d
00000130: b2be 5a3d 701f 473e 164f aebc 2054 3f3d
00000140: da3f 553d 3e80 063f 5352 e2bf 3d57 0dbd
00000150: 9a26 6dbd 8eb6 0d3e cd1a 0fbd 3d03 9bbb
00000160: 14c7 633d 62d5 69bd 4132 dabc 0ff3 37bc
00000170: 489f 15bc 4016 b53c 6442 0e3e f5f0 1fbd
00000180: 6fc4 383c 1d2c 833d bd00 113d a7d2 293c
00000190: 4402 fbbc 81a0 20be 066f 43bd 2dc0 0e3e
000001a0: 7078 1d3d 7f33 ad3b 0e3d a23e 0f75 33bd
000001b0: 4139 dd3d b071 c33b 30ef 343d 726f 7e3d
000001c0: a579 0a3e be3d 453f 3309 eb3c efc7 2dbd
000001d0: f3d1 6ebe 2f9d 31bc 9973 dcba e23f 52bd
000001e0: 549d 093e 4460 83bf 45c6 1dbd 3e59 2ebd
000001f0: 8901 43be 5af0 4abe 5593 933d 407d c1bb
00000200: 9e99 a93d ebf6 053f 54ab bdbe fc3c 88bc
00000210: 3a6a 67bf 4c59 0f3b 3af6 e63c ba21 663d
00000220: 6d92 06bf bb50 733d 7e8b 5bbd 9d85 07be
00000230: 4202 62bd c0b8 bfbb 7299 1b3d ecad d03c
00000240: 8e44 203e 89a3 413d 5060 3a3c c395 71bb
00000250: ce3e 223e b455 0a3e 8c90 0bbc 91f8 4dbe
00000260: 7f75 a23d 25f1 0d3c c43f dfbc 6483 d2bc
00000270: 7349 72bd eeb7 9f3e 6ca9 fe3c 02d0 8ebc
00000280: abed e33c 35fc 1a3d a028 b33c a5e1 813b
00000290: 2882 453d b456 0ebc dd9b 863f f098 bdbc
000002a0: acff f93c 1857 4e3e f596 95be 5abe 4e3d
000002b0: 0dd1 13bd 7e84 acbd b05c 6abc 3356 f33c
000002c0: eb9d 40be 5224 e73d 12bc 44bd 2d12 12bd
000002d0: 6374 473e 3f1e 213f 4821 353f 66ab 2e3d
000002e0: 5903 dd3d f5f1 adbd 0058 64bc 927e d93b
000002f0: c2ef 27bd 031d d93e bbd5 e13c e5b6 5d3f
00000300: 8c39 0dbc 284d 393d 5009 46bd 5ed7 a63d
00000310: 8e71 a53c f956 413d 6285 6e3d baab e83d
00000320: e0e9 3ebe 2c9b 5abd 64a4 5b3d b384 e53c
00000330: 9976 ec3d e0f2 5c3c 6553 073d 4acb 5bbd
00000340: ed3d 123e 1c61 763d ec87 0dbc 622b 643d
00000350: c5b6 11bd f0c6 c2bc ac5f 833c 3939 c73d
00000360: 1364 6c3d 286b 963c 082e c6bb dde1 9e3d
00000370: 1d58 043d 6c87 f9bc e801 383d 5aa6 2f3e
00000380: 74e5 a6bd 1378 f1bc b840 cc3d 3651 aabb
00000390: bc3f 7a3d af5f b53d 41eb 50bd 2920 4d3d
000003a0: 60c6 32bc 3c2d fcbd ea9b 07bc b401 e6be
000003b0: f49b 1f3d 167c 9a3c f037 a13c 549a fd3a
000003c0: 8664 6e3d 4457 8abb 4b2e 603d ce89 7ebd
000003d0: d07c 41bc c597 12be 58a1 d33c 6dfd 09bc
000003e0: aeab 01bd 684e af3c fc76 a43c c510 833d
000003f0: 414f 233d 0621 2b3d 3856 a53c 28d0 383d

linear2.bias f4 [256]
0.07413282 -0.031403672 0.15235958 -0.00023029157 0.14022678 0.07468711 -0.06635368 -0.008614649
-0.01924282 -0.048515532 0.16082597 0.091496706 0.16058277 0.11372238 -0.048327867 -0.017080659
0.05921502 -0.23331901 0.031417318 -0.042017218 0.11384346 0.11613108 0.057502463 0.1444758
0.17794842 0.011163573 -0.0582215 0.09348857 0.021960245 0.15716827 -0.020905418 0.13079415
0.067646004 0.11038043 0.10539448 -0.053118594 0.047123104 -0.024043607 0.02488403 0.09018671
0.13861026 -0.0147056915 0.10602957 0.124399394 -0.029105535 -0.03855642 0.053171486 0.006257236
-0.0052446164 -0.022697657 0.01120808 -0.023561927 -0.0016774882 0.02973859 0.09031101 0.012962067
0.17963761 0.11185869 0.10564447 0.07716646 0.13313797 0.15511644 0.03411065 0.060794845
-0.0017117539 0.08734604 0.027904514 0.018111818 0.08588394 0.027479071 -0.014910955 0.034369186
-0.013767104 0.036534227 0.04632663 0.08258705 0.07990522 -0.024057018 0.011086381 -0.0069578714
0.07535473 -0.0021028148 0.046786 0.10718509 0.15066496 0.029964587 0.04196059 0.048492763
-0.06158097 0.03921563 0.039451234 0.1648658 0.039360337 0.14640307 -0.04172739 0.07011407
-0.0329414 0.03940516 0.19552596 -0.04805255 0.06478856 -0.026664026 0.060250532 -0.010528891
0.015797066 -0.00165814 0.101272516 0.13852218 -0.03068506 0.016700678 0.085682064 0.070769675
0.19013193 0.2127319 -0.03357926 -0.014260332 -0.040419243 0.13614085 -0.05198685 0.14489223
0.0116298655 0.02543761 0.017860603 -0.044073842 0.08346761 0.001427614 0.19482756 -0.059293427
0.12142827 -0.054304726 0.0017251486 0.16794322 0.18859637 0.17036062 0.12658451 -0.022696912
0.014608735 0.17763409 0.09817516 -0.0061460366 0.14749435 0.10985953 0.19691466 0.08232916
0.11601386 0.11586116 0.030696725 -0.020640336 -0.03862708 0.09148258 0.10839262 0.04104715
-0.054184027 0.004963535 0.15744783 -0.05191905 0.037195377 0.14001043 0.1666906 0.09411713
0.1882794 0.11718476 0.13285391 -0.011164054 -0.024311174 -0.002532711 0.06317824 0.09786699
-0.03716121 -0.015334893 0.037652466 0.031758502 0.0048539513 0.13160948 0.0038921477 -0.05205614
0.027436975 0.010439111 0.1533465 0.0004252277 0.05901145 -0.040509645 0.04133176 0.039909445
0.14950138 -0.05962147 0.18112102 -0.013683843 0.035310198 0.00055940525 0.11132546 0.13544947
-0.08509752 0.19709177 0.14105769 0.10574822 0.09514079 0.136306 -0.009171395 0.0536864
0.0017771397 0.18902482 -0.036731772 0.17114009 0.090437435 0.09756917 0.13912296 0.03495182
-0.01846899 0.17799082 0.07591889 -0.027494347 -0.015892908 0.048193913 0.0124563575 0.08762818
0.024570733 0.13214947 -0.029111622 0.11196158 -0.0034977936 0.16309087 -0.019690229 0.07948905
-0.044962436 0.025113948 -0.0015043087 0.08931062 -0.036985092 0.014072143 0.044788532 0.16077077
0.09586598 0.10080406 -0.008185292 0.022466734 0.024923146 0.016435437 -0.018119644 0.11502507
-0.009904533 0.06719142 -0.07057868 0.04390743 0.19023429 0.10728114 0.12603039 -0.043465614
0.18894075 0.15063435 0.17521478 0.046995584 0.10673967 0.14278628 0.02201353 -0.07323705
00000000: f3d2 973d 23a1 00bd 2604 1c3e 6c7a 71b9
00000010: 9c97 0f3e 8ef5 983d 70e4 87bd 7524 0dbc
00000020: 1ea3 9dbc 39b8 46bd 90af 243e a062 bb3d
00000030: cf6f 243e 47e7 e83d 71f3 45bd bdec 8bbc
00000040: 738b 723d 2eeb 6ebe 72af 003d 3f1a 2cbd
00000050: c326 e93d 22d6 ed3d b487 6b3d 77f1 133e
00000060: 1c38 363e 6be7 363c ab79 6ebd ef76 bf3d
00000070: f9e5 b33c b8f0 203e d741 abbc e7ee 053e
00000080: fd89 8a3d 230f e23d 10d9 d73d e292 59bd
00000090: 2804 413d 19f7 c4bc 98d9 cb3c cfb3 b83d
000000a0: d9ef 0d3e 24f0 70bc 0826 d93d 1cc5 fe3d
000000b0: bb6e eebc 56ed 1dbd 58ca 593d 8009 cd3b
000000c0: 08db abbb 70f0 b9bc 18a2 373c f104 c1bc
000000d0: 2adf dbba 589e f33c fbf4 b83d d95e 543c
000000e0: ecf2 373e 2b16 e53d 215c d83d 7309 9e3d
000000f0: 5255 083e d8d6 1e3e 9cb7 0b3d 0404 793d
00000100: ee5c e0ba 7be2 b23d 0298 e43c 3c5f 943c
00000110: ebe3 af3d ca1b e13c 144d 74bc b4c6 0c3d
00000120: 6b8f 61bc eaa4 153d fec0 3d3d 6623 a93d
00000130: 59a5 a33d 3913 c5bc a7a3 353c dbfe e3bb
00000140: 9553 9a3d 61cf 09bb ada2 3f3d db83 db3d
00000150: ea47 1a3e 4b78 f53c dede 2b3d 59a0 463d
00000160: 543c 7cbd 92a0 203d 9e97 213d 95d2 283e
00000170: 4e38 213d b0ea 153e 57ea 2abd f797 8f3d
00000180: 90ed 06bd 4e67 213d f537 483e c0d2 44bd
00000190: ddaf 843d 846e dabc 43c9 763d 5f81 2cbc
000001a0: d968 813c f255 d9ba f767 cf3d c2d8 0d3e
000001b0: 3c5f fbbc dccf 883c 147a af3d b1ef 903d
000001c0: f2b1 423e 64d6 593e 688a 09bd 2ba4 69bc
000001d0: a68e 25bd 8268 0b3e 2af0 54bd a15e 143e
000001e0: 318b 3e3c 8962 d03c 6650 923c c686 34bd
000001f0: 11f1 aa3d c71e bb3a e080 473e aadd 72bd
00000200: 63af f83d a26e 5ebd 621e e23a 4ff9 2b3e
00000210: 681f 413e 0473 2e3e 5f9f 013e e0ee b9bc
00000220: 7a59 6f3c b6e5 353e 0f10 c93d b164 c9bb
00000230: c208 173e 09fe e03d ffa3 493e 319c a83d
00000240: ad98 ed3d 9e48 ed3d b377 fb3c ec15 a9bc
00000250: 6e37 1ebd 385b bb3d f3fc dd3d 0e21 283d
00000260: 12f0 5dbd 26a5 a23b 013a 213e 12a9 54bd
00000270: 2e5a 183d e55e 0f3e f1b0 2a3e 7bc0 c03d
00000280: 51cc 403e 90fe ef3d db0a 083e 70e9 36bc
00000290: 3a28 c7bc d7fb 25bb 9863 813d 7d6e c83d
000002a0: 5a36 18bd 343f 7bbc 7939 1a3d 3415 023d
000002b0: e50d 9f3b a3c4 063e 6713 7f3b d238 55bd
000002c0: 82c3 e03c ce08 2b3c dd06 1d3e 19f1 de39
000002d0: fdb5 713d 71ed 25bd 7e4b 293d 1678 233d
000002e0: e416 193e a435 74bd ca77 393e 3332 60bc
000002f0: 6da1 103d 0da5 123a 9afe e33d 44b3 0a3e
00000300: 9c47 aebd 6dd2 493e 6d71 103e 8692 d83d
00000310: 2dd9 c23d cd93 0b3e 9e43 16bc 45e6 5b3d
00000320: eaee e83a b98f 413e 0e74 16bd 593f 2f3e
00000330: 4337 b93d 58d2 c73d 4076 0e3e a429 0f3d
00000340: 484c 97bc 3a43 363e 5d7b 9b3d d33b e1bc
00000350: d831 82bc fb66 453d c015 4c3c 6776 b33d
00000360: 9048 c93c 3152 073e 7f7b eebc 1d4c e53d
00000370: 3d3b 65bb 4b01 273e 674d a1bc 28cb a23d
00000380: 882a 38bd c4bb cd3c 392c c5ba 7de8 b63d
00000390: ae7d 17bd d88e 663c 2e74 373d 18a1 243e
000003a0: 6255 c43d 5c72 ce3d 9a1b 06bc 280c b83c
000003b0: a02b cc3c 9ca3 863c a66f 94bc 4492 eb3d
000003c0: 9f46 22bc a89b 893d 8e8b 90bd 47d8 333d
000003d0: c7cc 423e 37b6 db3d 1c0e 013e 0009 32bd
000003e0: af79 413e e43f 1a3e 816b 333e 717e 403d
000003f0: 549a da3d 9136 123e b855 b43c 4efd 95bd

linear3.weight f4 [1, 256]
-2.0637295 0.0018541603 -1.0637214 -0.006314792 -0.20639268 -1.8976912 0.42712525 -0.050932802
0.021160971 1.0160192 -0.33752143 -0.34448615 -0.25482184 -1.6969506 0.03750365 0.0013635623
0.4065447 2.0567224 -1.6303155 0.033747062 -0.23278503 -0.661436 0.41723642 -1.2416503
-0.32765996 0.42978612 0.011699191 -0.23747982 0.66538715 -0.24638158 0.038345564 -0.19726029
-0.14262366 -2.1927137 0.36537522 -0.00056214107 0.009112534 0.014014276 0.015348862 -0.26237595
-0.73962206 -0.035091147 -0.909314 -0.71621186 0.008733485 -0.00089507754 0.45203516 0.037177313
-0.49523175 0.029003087 0.39814433 0.0031288508 0.021576343 0.0086122975 -0.52418697 0.031147739
-1.2976757 0.41018638 -0.24109544 -0.5850722 -0.9378022 -0.20390896 0.021911992 -0.67292297
0.4298006 0.42873675 0.4893861 0.39645895 -0.23580179 0.030085659 0.008499351 0.001428685
0.04489016 0.46627504 0.019272247 -0.41313395 -0.54334754 0.008984943 0.031540945 0.014140377
-2.127616 -0.41118702 -0.32124308 -0.19540554 -0.37207833 0.03657307 0.01465186 0.7672426
0.042976853 -1.5570662 0.060239118 -0.18321218 0.001185144 -0.4933651 0.02150817 -0.6886072
0.65468967 -0.75110984 -1.2422208 -0.053661585 -0.19507925 -0.0042447597 0.41079322 -0.03309141
0.45336807 0.01924021 0.45399866 -0.20985797 0.029840907 0.014595794 0.42885303 -0.70486385
-0.24605468 -0.42870495 2.2299764 0.031938806 0.022806585 -0.20593487 0.03909286 -0.22607735
-0.8098067 0.05072844 0.39596105 0.4641955 -0.21190867 0.021945892 -0.20381631 -0.045297775
-1.3211747 0.0022152693 0.010750174 -0.6766497 -0.20079063 -0.253274 -0.43548337 -0.0009494784
0.0044168006 -0.27664387 0.3898454 0.02406782 0.54070956 0.42389557 -0.38039187 -0.5541808
-0.21964984 -0.1894012 0.42332444 -0.54174614 0.020693745 -0.22267196 0.386803 -0.02855568
0.005008611 0.0010935484 -0.21475889 0.034077868 1.3491682 -0.25839984 -0.22059712 -0.7127079
-0.22387832 -0.37236387 -0.37105522 -0.0007294649 -0.6216124 0.03892224 -0.20030841 -0.18899217
0.048570663 -0.0344422 -1.7162918 0.0077932677 0.38755006 -0.20838341 -2.8465374 0.0022215093
0.015902348 0.03615584 -0.2804745 -0.015726516 0.40511718 0.6185542 0.021594226 0.019454787
-1.9039637 0.00046475077 -0.24307275 0.03844093 0.03011099 0.011492252 -0.2381823 -0.22027653
-1.7724737 -0.44371825 0.4156697 0.37533113 -0.3422441 -2.4978225 0.005911716 0.43531477
0.010649217 -0.21751024 0.02842455 -0.2664561 -2.297249 0.4274359 -0.8053635 0.043055084
-0.047733434 -0.24881984 0.43240663 0.023097752 -0.53754276 0.39939496 0.018045882 0.45684004
0.000114189716 -0.18786314 0.22510946 -0.22770774 0.4347638 -0.2291578 0.02128316 0.44419798
-0.0006000226 -0.59393865 0.007634943 -0.23921509 0.022100119 -1.5526866 -1.0162324 -0.7147824
-0.18135045 -0.20567727 -0.5886549 0.4214189 0.040986054 0.022609366 0.040200017 -1.7739708
0.017814169 0.4391692 -0.004254332 -0.009508347 -0.3586071 2.026753 0.9521344 0.001797233
-0.21153638 -0.21004002 -0.25882494 -1.7859517 -1.822347 -0.2718988 0.38659325 0.03580268
00000000: 2514 04c0 4c07 f33a 0628 88bf 51ec cebb
00000010: 9a58 53be 8ce7 f2bf 29b0 da3e ea9e 50bd
00000020: c659 ad3c eb0c 823f 9ccf acbe 7d60 b0be
00000030: 0278 82be ad35 d9bf 6d9d 193d 8fb9 b23a
00000040: a026 d03e 57a1 0340 2eae d0bf 5c3a 0a3d
00000050: 335f 6ebe df53 29bf 03a0 d53e 66ee 9ebf
00000060: 0cc3 a7be ed0c dc3e f7ad 3f3c e92d 73be
00000070: d056 2a3f 744b 7cbe 3d10 1d3d 9afe 49be
00000080: f00b 12be 6c55 0cc0 7612 bb3e a65c 13ba
00000090: bd4c 153c 229c 653c cb79 7b3c 2456 86be
000000a0: df57 3dbf bcbb 0fbd cdc8 68bf a959 37bf
000000b0: e416 0f3c a3a3 6aba 2771 e73e 3d47 183d
000000c0: 048f fdbe e297 ed3c 93d9 cb3e 680d 4d3b
000000d0: dfc0 b03c 981a 0d3c 1e31 06bf 8b29 ff3c
000000e0: 3d1a a6bf f303 d23e b9e1 76be 4bc7 15bf
000000f0: ce13 70bf 83cd 50be c780 b33c ae44 2cbf
00000100: d30e dc3e 6283 db3e d190 fa3e abfc ca3e
00000110: 0676 71be 3376 f63c dd40 0b3c b742 bb3a
00000120: bfde 373d 9abb ee3e d5e0 9d3c 4b86 d3be
00000130: d318 0bbf 9535 133c 1431 013d 0aad 673c
00000140: dc2a 08c0 1b87 d2be f979 a4be 6418 48be
00000150: 0d81 bebe a5cd 153d 5b0e 703c 036a 443f
00000160: 7f08 303d f24d c7bf 4bbd 763d f99b 3bbe
00000170: d556 9b3a 5a9a fcbe e731 b03c 9048 30bf
00000180: be99 273f bc48 40bf 1701 9fbf 40cc 5bbd
00000190: dbc2 47be a017 8bbb 7d53 d23e dc8a 07bd
000001a0: dc1f e83e a59d 9d3c 8372 e83e 02e5 56be
000001b0: eb74 f43c 3223 6f3c a092 db3e f571 34bf
000001c0: c2f5 7bbe 377f dbbe efb7 0e40 44d2 023d
000001d0: e0d4 ba3c 97e0 52be d61f 203d d280 67be
000001e0: 7e4f 4fbf a0c8 4f3d 68bb ca3e 08ab ed3e
000001f0: 96fe 58be dfc7 b33c 39b5 50be 298a 39bd
00000200: 411c a9bf 0d2e 113b 7f21 303c ea38 2dbf
00000210: 0f9c 4dbe 21ad 81be adf7 debe 6be6 78ba
00000220: cfba 903b 44a4 8dbe d199 c73e e029 c53c
00000230: f16b 0a3f d708 d93e b9c2 c2be cbde 0dbf
00000240: e3eb 60be 63f2 41be fbbd d83e e0af 0abf
00000250: ee85 a93c 1e04 64be 0b0b c63e 9aed e9bc
00000260: 461f a43b 6555 8f3a c1e9 5bbe 3c95 0b3d
00000270: 8bb1 ac3f fc4c 84be 36e4 61be 0674 36bf
00000280: 5c40 65be 7aa6 bebe f3fa bdbe 9039 3fba
00000290: fe21 1fbf ed6c 1f3d a61d 4dbe 2a87 41be
000002a0: 08f2 463d 4413 0dbd 73af dbbf ab5e ff3b
000002b0: f66c c63e 7662 55be ab2d 36c0 be96 113b
000002c0: a445 823c 2518 143d 5b9a 8fbe e5d4 80bc
000002d0: 856b cf3e 9159 1e3f 60e6 b03c a55f 9f3c
000002e0: 15b5 f3bf cba9 f339 10e8 78be 3d74 1d3d
000002f0: 53ab f63c 004a 3c3c 10e6 73be 2c90 61be
00000300: 6be0 e2bf 0a2f e3be a9d2 d43e 672b c03e
00000310: 9e3a afbe 53dc 1fc0 11b7 c13b 94e1 de3e
00000320: 0e7a 2e3c 01bb 5ebe 9ada e83c ef6c 88be
00000330: 2106 13c0 e1d8 da3e 4d2c 4ebf 875a 303d
00000340: 2284 43bd a1ca 7ebe 6764 dd3e 7f37 bd3c
00000350: 679c 09bf 7f7d cc3e f5d4 933c f0e6 e93e
00000360: 2379 ef38 325f 40be 1883 663e 382c 69be
00000370: 5c99 de3e 58a8 6abe 065a ae3c eb6d e33e
00000380: d64a 1dba 5d0c 18bf 8b2e fa3b cdf4 74be
00000390: 4f0b b53c 6fbe c6bf e713 82bf fbfb 36bf
000003a0: efb3 39be 109d 52be 16b2 16bf 38c4 d73e
000003b0: fee0 273d 4737 b93c c6a8 243d 7a11 e3bf
000003c0: 05ef 913c c9da e03e ec67 8bbb e6c8 1bbc
000003d0: 5a9b b7be 52b6 0140 14bf 733f 2291 eb3a
000003e0: fe9c 58be bb14 57be b484 84be 119a e4bf
000003f0: ab42 e9bf 5236 8bbe 8def c53e d5a5 123d
