turtlebot3_rl_sim/src/models/td3/trajectory_test/td3_actor_model_ep1500.pt (torch_old, 639014 bytes, 6 tensors)

linear1.weight f4 [256, 363]
000000 39 cb 76 3c 0d e9 d6 bc 29 96 e1 3b 8d ee 18 3c
       0.0150631005 -0.026234174 0.0068843556 0.009334219
000010 32 2b 8a bd 8c 3a 43 bd d4 72 65 bd 1c 73 3c bd
       -0.0674652 -0.047663257 -0.05601771 -0.046008214
000020 dc a7 7a bb 88 dc dc 3c eb c4 20 bb 93 96 78 bd
       -0.0038247025 0.026960626 -0.0024531435 -0.060690474
000030 57 ad 0d bc 7d 8f c6 3b 80 f0 56 bc b6 db 98 3b
       -0.0086472845 0.0060595856 -0.013118863 0.0046648635
000040 24 84 e2 3b 71 a8 1d bd 7a a9 a7 bc 5f fb ef 3b
       0.006912725 -0.038490716 -0.020466555 0.007323667
000050 5c cd 66 bd 69 21 89 bd 07 43 d1 3b e3 df fd bc
       -0.05634819 -0.066958256 0.006386164 -0.030990547
000060 be e4 16 bd 7a 14 25 3d cf 3a 3c 3d 40 5f a4 3d
       -0.03683924 0.04030273 0.04595452 0.0802598
000070 57 d5 3c 3d 79 27 f6 bc bf 9d cf 3c 40 b5 32 3d
       0.046101894 -0.030048119 0.025343774 0.043629885
000080 4a 54 d4 bc 0c cf 2d 3d b2 af 1d 3c 7e 05 55 3c
       -0.025919098 0.042433783 0.009624409 0.013001798
000090 d3 1d e8 3c 91 2a 0f bd c9 02 48 3c d6 c0 08 bd
       0.028334534 -0.034952704 0.012207695 -0.033387028
0000a0 36 27 20 3d 56 e7 20 3d 6a 09 f1 3c 82 1f 39 bd
       0.039099894 0.03928312 0.029423434 -0.045196064
0000b0 95 0c 20 bd 51 02 b8 bb 16 b4 1c bd c1 69 ca bd
       -0.0390745 -0.0056155105 -0.03825768 -0.09883452
0000c0 1e ff 06 be 84 6e 7b bd 19 2c 2c be 82 17 28 be
       -0.13183257 -0.061384693 -0.16813697 -0.16415218
0000d0 ba 6d c2 bd 16 5d 40 be 5d d1 75 be 05 6e 8f be
       -0.09493585 -0.1878551 -0.24005647 -0.28013626
0000e0 bd b5 94 be fd 09 87 be d7 56 93 be dd 80 66 be
       -0.29044905 -0.26374808 -0.2877719 -0.22510095
0000f0 9a 1c 6d be 77 e5 7f be d5 97 84 be 2e 20 9f be
       -0.23155442 -0.24989878 -0.2589709 -0.3107924
000100 a3 3d 7d be 7b d7 8e be df 06 58 be 83 f0 6b be
       -0.24730544 -0.27898774 -0.21096371 -0.23040967
000110 6d 1d 9f be af 8e 87 be 18 ce 9a be 6b ac 99 be
       -0.31077138 -0.26476046 -0.30235362 -0.30014357
000120 d0 50 9e be 3a da b1 be 39 eb 9c be a6 11 c4 be
       -0.3092103 -0.34736806 -0.3064821 -0.38294715
000130 6c 04 bb be 1a a8 a6 be 0a ba d5 be 84 63 ae be
       -0.3652681 -0.32550126 -0.417435 -0.340603
000140 32 09 b9 be 36 29 d4 be c2 2f ac be 0d 6f a6 be
       -0.36139828 -0.4143769 -0.33630186 -0.325066
000150 29 6e 81 be 3c d0 a0 be 65 0f 74 be 23 bc 88 be
       -0.25279358 -0.3140887 -0.23833998 -0.26706037
000160 92 81 8b be 57 46 9e be 71 4d 61 be d9 a4 8d be
       -0.27247292 -0.3091304 -0.22002198 -0.2766483
000170 9f aa 7d be 54 7d 7e be ff 26 41 be 0e 66 57 be
       -0.24772118 -0.24852496 -0.18862532 -0.21035025
000180 76 d5 86 be e6 44 87 be 27 83 24 be ad bc 4e be
       -0.26334733 -0.26419753 -0.16065656 -0.20189162
000190 76 4c e2 bd 83 89 9f bd 70 46 b5 bd a6 c6 1f be
       -0.1104974 -0.077899 -0.088513255 -0.15603122
0001a0 a6 30 a4 bd da 65 97 bd fb 5e 8b bd 56 6d 08 be
       -0.080170915 -0.073924735 -0.068052255 -0.13322958
0001b0 d2 0f 69 bd e0 a0 73 bd 98 5c f6 bd 31 3e 18 be
       -0.056899853 -0.059479594 -0.120293796 -0.14867474
0001c0 2f 2b 1d be 14 fc 03 be 95 c3 44 be d8 8f fc bd
       -0.15348504 -0.12889129 -0.19215234 -0.123321235
0001d0 2b 8f 2e be aa 79 00 be 89 03 ff bd f4 ea fd bd
       -0.17046802 -0.12546411 -0.12451846 -0.123983294
0001e0 83 7b f7 bd af fd 24 be 91 79 95 bd db 51 86 bd
       -0.12084105 -0.16112398 -0.072985776 -0.065585814
0001f0 84 d8 e3 bd 2c c6 71 bd 62 b2 e7 bd 08 20 99 bd
       -0.111252815 -0.059026882 -0.11313321 -0.074768126
000200 36 9f 89 bd 74 c8 50 bc 70 0b 7e bd ad e4 ad bc
       -0.0671982 -0.012743104 -0.062022626 -0.021227205
000210 f0 cf 48 3c 9f fa 9a bd f5 20 67 3a 40 39 30 3b
       0.012256607 -0.075673334 0.00088168617 0.0026889592
000220 30 96 82 bc 34 ca 8a 3a 08 f7 f2 3c a9 82 80 bc
       -0.015940756 0.0010588826 0.02965881 -0.015687304
000230 50 5a a5 3c ce 71 66 bd f1 f6 0c bd 44 99 52 bd
       0.020184666 -0.056260876 -0.03441519 -0.051415697
000240 85 40 98 bc 8c 0f 11 bc 2b b5 21 bc b7 47 eb bc
       -0.018585453 -0.008853804 -0.009869854 -0.02872072
000250 07 7b be 3c 83 f1 a6 3a be a7 bf 3a 50 a9 15 bd
       0.023252023 0.0012736771 0.0014622135 -0.036538422
000260 d7 13 0d bc ea 46 86 3c 93 7e 04 3d 08 78 41 bc
       -0.008610687 0.016391236 0.032347273 -0.011808403
000270 44 54 0e 3c ad 04 16 3c f7 a3 81 3c ad 1e 4e 3d
       0.008687083 0.009156388 0.015825255 0.050322223
000280 70 1c 45 3d 18 67 46 3d f4 e2 18 3d fd d2 c5 3d
       0.048122823 0.04843816 0.037325814 0.096593834
000290 2e 05 62 3d 06 4a 02 3e 6f 07 67 3d 31 09 71 3d
       0.05518072 0.1272355 0.056403574 0.058846656
0002a0 a5 7c ce 3c a6 af 30 3d ea 23 07 3e 99 e0 3c 3d
       0.02520592 0.04313626 0.13197294 0.04611263
0002b0 ba 28 92 3d 2d 4b 6b 3d cc 1e b4 3d 96 1b 16 3e
       0.07136674 0.05744474 0.087949365 0.1465896
0002c0 f0 5a 16 3e 5b da b5 3d 8c e2 fb 3d 5b 43 1d 3e
       0.14683127 0.088795386 0.1229907 0.15357725
0002d0 ea 8a 0c 3e a1 4b ed 3d 0b 27 22 3e f6 3a f1 3d
       0.13724867 0.11586691 0.15835206 0.11778824
0002e0 f2 ab be 3d a2 86 d0 3d 83 f6 11 3e 09 e7 19 3e
       0.0931014 0.10181929 0.14254193 0.15029539
0002f0 56 90 ae 3d 3a 10 26 3e bc 4a a2 3d d1 ca cc 3d
       0.08523624 0.16217127 0.07924411 0.09999622
000300 51 0e d1 3d 72 d1 16 3e 45 bc bf 3d 2e 5c 04 3e
       0.10207809 0.14728335 0.093620814 0.12925789
000310 33 2c d0 3d fb ba 08 3e 3e 16 04 3e 08 c4 ba 3d
       0.1016468 0.13352577 0.1289911 0.09119421
000320 b9 c3 36 3e 5b cb 29 3e e0 33 16 3e eb e5 a5 3d
       0.178481 0.1658148 0.14668226 0.08100494
000330 f9 b4 36 3e 43 b7 21 3e 5c 81 f3 3d bf f1 12 3e
       0.17842473 0.15792565 0.11889908 0.14350031
000340 4c 95 cf 3d 01 bf 28 3e cf 4a 1c 3e 8b 16 37 3e
       0.10135898 0.16479112 0.15262912 0.17879693
000350 9d 85 29 3e e4 02 e2 3d 0e d2 d9 3d 9c f5 11 3e
       0.16554876 0.110357076 0.10635768 0.14253849
000360 f7 00 3b 3e ee da 28 3e 0a 94 f5 3d d7 52 2d 3e
       0.18262087 0.16489765 0.11991127 0.16926132
000370 87 e8 d0 3d e3 7b fe 3d 62 2b 2f 3e 52 7d f4 3d
       0.10200601 0.12425973 0.17106393 0.119379655
000380 e9 ab b7 3d de 48 f3 3d 2a c3 2e 3e c8 23 05 3e
       0.08968336 0.11879133 0.17066637 0.1300193
000390 88 f6 38 3e de df 15 3e a4 a2 33 3e cc 01 2d 3e
       0.18062794 0.1463618 0.17542511 0.16895217
0003a0 25 7a f0 3d 1a 3b e8 3d 40 68 02 3e af 46 0d 3e
       0.11742047 0.11339398 0.1273508 0.13796495
0003b0 a1 22 38 3e 7d d6 38 3e a1 60 35 3e ae 8b 30 3e
       0.1798196 0.18050571 0.17712642 0.17240784
0003c0 bf e7 0c 3e d5 df 48 3e 37 b5 28 3e 18 fe 2b 3e
       0.13760279 0.19616635 0.16475378 0.16796148
0003d0 9c 3a 15 3e eb d0 05 3e 16 11 c8 3d 5c 36 2b 3e
       0.14573139 0.13067977 0.09768884 0.16719955
0003e0 ab cf 01 3e 55 7d 06 3e e0 ae 17 3e 4c 32 f5 3d
       0.12676875 0.13133748 0.14812803 0.11972484
0003f0 33 5f 13 3e c3 35 50 3e 35 5c 44 3e 4c 22 1d 3e
       0.14391784 0.20333008 0.19175799 0.15345114

linear1.bias f4 [256]
000000 43 c0 9c 3d 13 d3 ff 3c 43 92 7c 3c c3 ca e4 3c
       0.076538585 0.031228578 0.015415731 0.027928716
000010 99 7d d2 3c d6 67 2d 3c 5a 67 cb bd 9d 2c 1e 3d
       0.025694655 0.010583838 -0.09931822 0.038616765
000020 14 67 78 bd 2b 83 e2 bc 9f 09 36 bd c9 1a 44 bd
       -0.060645178 -0.027650436 -0.04444277 -0.047877107
000030 78 3b 84 bd 5e 68 01 be 9f b7 3d 3d c5 32 06 bd
       -0.06456655 -0.12637469 0.046317693 -0.03276326
000040 86 e4 98 3d 5a 7c e6 3c 28 9f 3c bb 47 0c 23 bd
       0.074654624 0.028135467 -0.0028781388 -0.03980663
000050 7b 33 fb 3c 2d f5 81 bc 0a 4a 22 3d e4 4b 02 3d
       0.030664196 -0.01586398 0.03962139 0.031810656
000060 90 ab ce 3c e1 4c 69 3d 60 55 c4 39 ce 54 96 bc
       0.025228292 0.056958083 0.00037447643 -0.018350985
000070 d6 e7 c0 3d d6 a2 09 3d 5d 35 0f bc 7c 81 f7 3c
       0.09419219 0.033602558 -0.00874075 0.03021311
000080 de 1e 99 bc ed b8 0a bd 8a d1 63 3b f1 b2 d6 3c
       -0.018691476 -0.033867765 0.0034762346 0.026208373
000090 3d b6 6d 3d 84 82 08 3d 1d e6 16 3d c6 d3 a8 bc
       0.058035124 0.033327594 0.036840547 -0.020608794
0000a0 05 c8 0b bd 2f 67 0c be df 94 2f bd 8a 4b 48 3d
       -0.0341263 -0.13711236 -0.042866584 0.048900165
0000b0 58 30 53 3c fb 5b ee ba 24 2f 0c 3d f8 ac 13 3d
       0.012889944 -0.0018185371 0.034224644 0.036053628
0000c0 76 02 1b bd 24 46 84 3c 64 b7 07 3c 40 00 e4 bc
       -0.037844144 0.016146727 0.00828347 -0.02783215
0000d0 45 9c 3f bd d9 9d d6 3c 7c 37 72 bc 36 0f 26 bd
       -0.04677989 0.026198315 -0.014783736 -0.04054185
0000e0 1d b6 27 bc a2 4b 08 3d c2 2d b5 bd a5 5b 0c 3b
       -0.01023629 0.033275254 -0.08846618 0.002141693
0000f0 fb fc e8 bc d8 d6 c0 3b 34 e1 79 bc d4 21 0f 3c
       -0.028440943 0.0058849864 -0.0152514465 0.008736093
000100 ca 36 4d bc cb ac ff 3c e0 9d 3a bc 1b 97 ed bc
       -0.01252527 0.031210324 -0.011390179 -0.029002717
000110 d9 53 41 bd 3e 35 9b bc f8 7d 47 3d 38 78 cc bc
       -0.047199104 -0.018946286 0.048704118 -0.024959669
000120 13 8c 41 3d 68 27 38 bd 42 e6 55 bd e7 4e 27 bd
       0.047252726 -0.044959456 -0.052221544 -0.04084673
000130 ad 5c 10 3c 39 1b cc bb 62 c1 ef bc 4e a5 2c 3d
       0.008811158 -0.006228831 -0.029267017 0.042149834
000140 47 75 37 3c 62 2a 00 3d 53 55 13 bd 13 62 9f bb
       0.011197395 0.03129042 -0.035970043 -0.0048639863
000150 d6 12 e8 3c 10 58 3c bd 79 64 8c 3d eb aa 6b bc
       0.028329294 -0.04598242 0.06855101 -0.014384012
000160 ee ca 20 3d 57 53 3f 3c f3 6a 81 3d 15 83 04 bc
       0.03925603 0.011677585 0.06319227 -0.008087893
000170 e4 08 09 3d 62 30 df bc 6c a4 43 bd f8 9a 3e bd
       0.033455744 -0.02724475 -0.047764227 -0.04653451
000180 6e 11 0d 3d 0b 16 fc 3a bd 01 15 3c 54 94 e8 bc
       0.03444045 0.0019232644 0.009094653 -0.02839104
000190 4f 17 33 3d 70 19 05 3b 9d d1 8f bd 10 70 84 3c
       0.0437234 0.0020309351 -0.070224024 0.016166717
0001a0 d6 09 2c 3d 20 7f 66 3d 50 aa a7 bb 0c 26 21 bd
       0.042001568 0.05627358 -0.0051167384 -0.039342925
0001b0 44 48 56 3d fc da f6 bc a8 58 b5 bb 35 da 9c 3d
       0.05231501 -0.030133717 -0.0055342503 0.07658807
0001c0 42 68 f6 bc 04 f4 0c 3d d0 97 a6 bb a7 8d d5 bc
       -0.03007901 0.0344124 -0.0050840154 -0.026068522
0001d0 ce a1 1e bd 5b ac f7 3c e0 28 41 3d 34 e8 fc bb
       -0.038728528 0.030233553 0.047158122 -0.0077181105
0001e0 d4 20 14 3d fc 55 2e 3d 62 1a 08 bd e7 6c 81 3d
       0.03616412 0.04256247 -0.033228286 0.063195996
0001f0 5c dd 8c 3c 12 42 e1 3c 30 4d ba bc 68 90 80 3c
       0.017195396 0.027497325 -0.022741884 0.015693858
000200 e0 35 33 3d 8f e2 27 bc 13 33 c0 bd f1 ff 45 bc
       0.04375255 -0.010246887 -0.09384742 -0.012084947
000210 a7 06 d6 3c 38 38 c3 3c d8 76 37 bc 5b 14 6f bd
       0.026126219 0.023830518 -0.011197768 -0.058369022
000220 0e e6 1c bd 0a fb 5a bd 79 ad e1 bd 69 11 c4 b9
       -0.038305335 -0.053462066 -0.110194154 -0.00037397005
000230 d2 6b 0d 3b b4 ae 97 bc 2b 87 60 3d 2a df db bc
       0.0021579158 -0.018515922 0.054816406 -0.026839811
000240 35 3b b9 bd d9 16 28 bd 92 63 51 bd 93 b1 1e bd
       -0.09044496 -0.041037414 -0.05112035 -0.038743567
000250 85 74 5d bd 72 06 00 3c 22 70 44 3d 2b a9 fd 3c
       -0.0540662 0.007814037 0.0479585 0.030964455
000260 48 24 b8 bb 37 8d 80 bc 28 f8 f6 bc 77 6c 33 3d
       -0.0056195594 -0.015692336 -0.030147627 0.043804612
000270 a5 10 0f bd 7e fb 94 bd 98 ae 52 bd d6 3e 1f bc
       -0.034927983 -0.07274531 -0.051436037 -0.009719571
000280 a5 84 9d bd 9f 27 3c 3d dc 0b 30 bd 41 14 df 3c
       -0.076913156 0.045936223 -0.04298006 0.027231338
000290 36 67 1e bd de f9 1a bb 80 13 f0 bb 76 aa 98 bc
       -0.03867265 -0.0023647468 -0.0073265433 -0.01863597
0002a0 73 ce 8f bc a0 c8 71 3c 20 93 41 3c eb b0 20 3d
       -0.017554497 0.014757305 0.0118148625 0.039231222
0002b0 51 d0 c2 bc 09 cc cd bc b7 a6 22 bd dc 66 0d 3c
       -0.023780974 -0.025121706 -0.039709773 0.008630481
0002c0 9e 49 2e 3c cf 14 29 bd 46 cf f4 3c cc fa 0b 3d
       0.010637669 -0.04127961 0.029883992 0.034174725
0002d0 84 92 93 3d d0 a9 65 3d 9d 83 1c 3d 06 4e 2a bd
       0.0720568 0.05607015 0.038211454 -0.041578315
0002e0 a1 92 dc bc fd 5d 0f bc 97 41 2a bd 86 33 91 bc
       -0.026925387 -0.008750436 -0.041566458 -0.017724764
0002f0 5c 5f c1 3d 65 4d f6 bc 32 38 5f bd 80 81 51 bb
       0.094420165 -0.030066201 -0.05449695 -0.0031968057
000300 02 33 5d bc 78 7c 85 bb 9b 8d 60 bc 0d bc 0a bd
       -0.013500931 -0.0040736757 -0.013705636 -0.033870745
000310 f4 7d 82 3c cc b9 01 3d ed 89 16 3c f6 3b 6a bd
       0.0159292 0.03167133 0.0091881575 -0.05718609
000320 14 de ec bc e7 1d ab bd 58 5e 39 ba 0e b2 ed 3c
       -0.028914489 -0.08355313 -0.0007071248 0.029015567
000330 64 56 35 bd 64 9e 07 3c e0 d5 75 bd 94 da 45 3d
       -0.04427184 0.008277509 -0.06001842 0.048304155
000340 5d 23 12 3c 3f fe a8 3c b5 1f c9 3c c0 ae 0d 3b
       0.008919564 0.020629046 0.024551252 0.0021619052
000350 b0 f4 b1 3c 9f ac 2a bd f2 7f d2 bb 78 e6 40 3b
       0.021723121 -0.04166853 -0.0064239437 0.0029434245
000360 5c 1b c3 3d e5 b2 0e bd 8d 52 8d bc b9 87 91 3d
       0.09526703 -0.034838576 -0.017251277 0.07105965
000370 20 41 be bc a9 bc ce bc de e1 a1 3d 7c af f7 bc
       -0.023224413 -0.025236445 0.07904409 -0.030235045
000380 b8 75 44 3c 6a 42 d9 3b 6e 9f fb 3b 00 60 30 bd
       0.011990957 0.0066302316 0.0076789176 -0.043060303
000390 1b 05 64 bd 47 87 24 ba 5d ea 34 bd ad 06 16 3d
       -0.05566893 -0.00062762614 -0.04416882 0.03662746
0003a0 78 c9 30 b9 f3 a5 cd 3c ad 0d 71 3c d8 45 89 bb
       -0.00016859721 0.025103545 0.014712733 -0.004189234
0003b0 d5 ab 8a 3d dd bb 9c 3b 7e 55 1f bd 88 7e c3 3c
       0.067710556 0.0047831372 -0.03889989 0.023864046
0003c0 0c 6c 57 3a 0d 61 15 3d f2 ff b5 3a da 67 5f bc
       0.00082176994 0.036469508 0.0013885482 -0.0136356
0003d0 c7 76 6b 3d 03 c7 6e bd 73 3d 1b bd 15 7e 89 bc
       0.05748632 -0.05829526 -0.0379004 -0.016783753
0003e0 a4 2f 0e 3d 21 f6 56 3c 07 1b 2c bd 56 4d 87 bc
       0.034713402 0.013120205 -0.042017963 -0.016516369
0003f0 bf 2b 27 bd 7d f9 0c bb dd 30 4a bd fb 6e 6f bd
       -0.040813204 -0.0021511011 -0.049363006 -0.05845545

linear2.weight f4 [256, 256]
000000 f1 db 4b bd 25 0c 16 3d d9 30 cb bd 44 09 fa 3c
       -0.0497703 0.036632676 -0.09921426 0.030521996
000010 a4 3c 77 bd c8 2b 3d bd 6e 45 97 be ac 5a 08 bd
       -0.060360566 -0.04618433 -0.29545158 -0.033289596
000020 f2 68 da bd 35 45 93 bc 36 77 02 3d 4a 13 58 bc
       -0.10664548 -0.017977336 0.03185197 -0.013188193
000030 ec f1 f4 bc 00 44 3d bc b0 b7 a2 3c fd f6 1b 3c
       -0.029900514 -0.011551857 0.01986298 0.009519336
000040 6d 4f 0d bd 16 d0 a5 3b ac a6 0c 3d e5 16 0f bc
       -0.034499574 0.005060206 0.03433864 -0.008733486
000050 00 b6 e2 ba f2 83 62 3d 7c 65 7b 3d e2 63 65 3c
       -0.0017296672 0.055301614 0.06137608 0.014000865
000060 dc 45 fb bc 90 76 39 be ca 06 d8 bd 8b cd ec bc
       -0.03067296 -0.18111634 -0.1054817 -0.028906604
000070 8d 9b 85 bd 44 e0 7b bd 8f 7c b8 3c ad d1 89 bd
       -0.065238096 -0.061493173 0.022520332 -0.067294456
000080 a7 9e 3a 3d ac 21 05 3d 3d c0 08 bb f8 04 3e bd
       0.04556146 0.032502815 -0.0020866536 -0.046391457
000090 bc 7b f0 bb 28 e5 61 bd e0 76 34 bd 0b 4b 6f bc
       -0.007338969 -0.05515018 -0.04405868 -0.014605294
0000a0 47 da 3b 3d 87 0b a0 ba d0 ca 45 bd 48 cd 62 3d
       0.045862462 -0.0012210467 -0.04828912 0.055371553
0000b0 9c 3f a8 3c bd 45 12 bd c9 8f 56 3c 15 b8 10 bd
       0.020538144 -0.03571104 0.0130958045 -0.035331804
0000c0 18 3f 39 bb ae 3a 9e 3c b0 4c b4 bc 38 11 07 bd
       -0.0028266367 0.01931509 -0.022009224 -0.032975405
0000d0 db 16 60 bd e4 d9 7b bd 4a 2e 60 3c c0 d1 b5 be
       -0.054709297 -0.061487094 0.013682911 -0.3551159
0000e0 40 03 34 bc e6 5b 90 bd a8 65 b7 bb 5a 37 65 3d
       -0.010987103 -0.07048778 -0.005596835 0.05596099
0000f0 92 9e 5c bd 41 52 44 bd 4c 4b 70 bd ba db 60 3c
       -0.053862162 -0.047930006 -0.05866556 0.013724262
000100 e8 7f bc bd 93 6e fd 3c 7e 78 95 bd 37 4d 33 3d
       -0.09204084 0.030936515 -0.07298373 0.04377481
000110 d9 1c c6 bc cb b2 fe 3b a7 f3 b0 3c 34 4a 08 3d
       -0.024183678 0.0077727786 0.021600557 0.03327389
000120 27 b8 23 3a c1 40 49 bd f0 93 be ba ec 17 77 bc
       0.00062453974 -0.04913402 -0.0014539938 -0.015081387
000130 ec c5 f3 bc 30 73 b8 bd 0e 51 00 3d e4 5a f3 bc
       -0.029757462 -0.09006345 0.0313273 -0.029706426
000140 69 c6 43 bd 0e 4d 19 bd 1a 0d 52 3d e9 1f 4c bc
       -0.04779664 -0.037427 0.051282026 -0.01245878
000150 74 b7 81 3c 8d 69 05 bd 89 41 49 be e6 4f 92 bc
       0.015834548 -0.032571364 -0.19653906 -0.017860364
000160 60 6c bc bb 20 13 35 bd 6f 93 a3 3d 0d 46 8d bb
       -0.005750224 -0.044207692 0.07987105 -0.004311329
000170 fd ec 8c 3c 44 5e 74 bd 10 1f dc bc e3 ce 68 bd
       0.017202849 -0.05966021 -0.02687028 -0.056837928
000180 cc 70 b4 3c 29 ae 46 bd d4 1a 10 3d 4d 89 87 be
       0.022026442 -0.048505936 0.035181835 -0.2647194
000190 d6 fc 10 bd 20 a2 cb 3c ad 8f 14 bd 06 8f 3f 3d
       -0.035397373 0.02485758 -0.036269832 0.046767257
0001a0 10 74 c8 3c cc cb 7e bd b8 4e a2 bc 94 3d 50 bd
       0.024469405 -0.062206075 -0.019812927 -0.050839975
0001b0 7c 11 a6 bc 8d 38 89 bd 43 06 72 3d f8 cc 3e ba
       -0.02027201 -0.06700239 0.059088003 -0.00072784675
0001c0 70 49 23 bd eb 88 60 3c f9 95 5c 3b 66 d1 30 bd
       -0.039864957 0.013704519 0.0033658727 -0.043168448
0001d0 ca ec ec 3c 26 ef 9e bc 86 56 0f bd a4 b1 09 3d
       0.028921504 -0.019401144 -0.034994625 0.033616677
0001e0 70 64 75 3d 2e 46 9a bc e8 15 ca 3c 29 d6 d0 bd
       0.059910238 -0.018832292 0.024668649 -0.10197098
0001f0 d0 32 d9 3c 2a f8 5b bc 7f 3f ab bc 28 32 83 bc
       0.026513487 -0.013425866 -0.0209043 -0.016015127
000200 e4 3a fb bc 09 34 5e 3d f2 d0 d1 bc 25 e4 0b bd
       -0.03066773 0.054248843 -0.025612328 -0.034153122
000210 a6 bc 1c bd ea 19 26 3d d5 34 10 bd f6 e4 31 bd
       -0.038265847 0.040552057 -0.035206635 -0.043431245
000220 20 16 6f bd 6a 8d 59 3d e9 6c 54 3d e6 9c 1a 3d
       -0.05837071 0.05311338 0.051861677 0.037747286
000230 fe fa 12 bd c8 37 98 3c 25 e8 02 be 1f b4 af ba
       -0.035883896 0.018581286 -0.12783869 -0.0013405121
000240 e4 54 f4 bc 3c 37 8c bc c4 f4 76 bc 25 a6 0d bd
       -0.029825635 -0.017116182 -0.015073005 -0.034582276
000250 9a f6 db 3c d2 f2 68 3d f4 7b 30 3d a8 42 c1 3c
       0.026850987 0.056872196 0.04308696 0.023591354
000260 18 34 46 bc 52 91 59 bd bb a9 f9 3c 90 da c4 3b
       -0.012097381 -0.053117104 0.030476442 0.0060075
000270 53 f3 6a bd b2 3b d4 bc 00 59 95 3b 10 2a 99 bc
       -0.05736096 -0.025907371 0.004557729 -0.018696815
000280 91 d6 c2 be 0b 41 e0 bd 00 79 f4 3b 60 69 b0 bb
       -0.38054326 -0.10949906 0.0074607134 -0.0053836554
000290 00 0a a2 bc 00 45 19 ba 72 a3 32 3d 2c 50 f7 bc
       -0.019780159 -0.00058467686 0.043612905 -0.030189596
0002a0 11 62 cb bb 00 03 4a bb 5a bb 28 bd 5e 51 9b bd
       -0.006206759 -0.0030824542 -0.041194297 -0.07583879
0002b0 95 bb 85 bd 47 57 3c 3d 9a d1 37 3d 3c 4e 82 bb
       -0.06529919 0.04598167 0.044877626 -0.0039766114
0002c0 8e 3a 2a 3d 93 04 65 bd 3f c3 ad bc 03 f2 eb bc
       0.04155975 -0.055912565 -0.021211265 -0.028801924
0002d0 54 53 0d 3d df d0 25 bd 9a 51 51 bd 98 7a 50 bd
       0.034503296 -0.040482398 -0.051103212 -0.050898165
0002e0 ba f0 3a bd c8 85 36 3d 52 af d4 ba 98 6f 5d 3d
       -0.04563973 0.044561177 -0.0016226566 0.054061502
0002f0 0f 0c 38 3d 84 1f cd bc 59 0e 57 3c b3 0e e8 bc
       0.044933375 -0.025039442 0.013125979 -0.028327322
000300 ac c3 03 3d e8 58 36 bd b6 fd 20 bd 75 d1 85 bd
       0.03216903 -0.04451838 -0.039304458 -0.065340914
000310 1c 76 7f 3d bf 6e 39 3d ec fc 01 3d 4b a1 ea bc
       0.062368497 0.04527163 0.031735346 -0.028641364
000320 f0 e6 0a bc d0 24 b7 3a bf 50 3e 3d fe fe 22 3b
       -0.008477911 0.0013972763 0.046463724 0.0024871225
000330 80 a7 bb bc 21 68 44 bb ec 41 09 3d d3 1f 6e bd
       -0.022907019 -0.0029969292 0.033510134 -0.05813582
000340 ea c7 6a bd 7c cb 03 3d 2a 3a ea 3c 80 2e ab bb
       -0.05731956 0.03217648 0.028592188 -0.005224049
000350 be 35 45 3d af 6b 33 3d 63 f2 60 bd 64 b8 0b bd
       0.048146956 0.043803867 -0.054918658 -0.034111395
000360 8c 90 8b 3b 7e 14 ae 3c f4 66 a1 bc 65 09 8b bc
       0.0042591747 0.021250006 -0.019702412 -0.016972253
000370 73 db e2 bc 48 f3 04 3c 96 ac ad 3c 76 0b 26 3c
       -0.027692532 0.008114643 0.02120046 0.010134568
000380 d0 52 e5 3b cf 55 b3 3b 3a 75 d6 bd 7a ee 60 bb
       0.0069983974 0.0054728757 -0.10471578 -0.003432183
000390 e2 ba e3 3c 80 fe b9 bd 9a 87 62 bd cf cc 34 3c
       0.027799074 -0.09081745 -0.0553051 0.011035158
0003a0 1d 5c 94 bd 0e 94 99 bd d4 85 f6 bc 20 6a 50 bb
       -0.07244132 -0.07498942 -0.030093111 -0.0031801537
0003b0 95 3e 1e 3c e6 03 a7 3c af fb b4 3c 73 27 67 bd
       0.009658475 0.020387601 0.022092668 -0.056434106
0003c0 db ad e4 bb db f1 7a 3a ad fe 8e bd 6a 7d 64 3d
       -0.006978733 0.00095727824 -0.06982169 0.055783667
0003d0 b8 8c 37 bd ac cc 0e 3c 66 ea 24 3d 6b 66 6c bc
       -0.044811934 0.00871579 0.040262602 -0.014428715
0003e0 44 7d 0c 3d 27 46 36 3d c4 74 19 bd dd 0c 9c 3b
       0.03429915 0.044500496 -0.037464872 0.0047622756
0003f0 dc dc 8a bd 76 6d 9e bd 7a ae 61 3d 15 1f 84 bd
       -0.06780407 -0.07735722 0.055098034 -0.06451241

linear2.bias f4 [256]
000000 c8 54 32 bd 48 11 ce bd 02 94 51 bd cb 66 e1 bc
       -0.043537885 -0.1006189 -0.051166542 -0.027514836
000010 9b 7b 5c be 14 18 81 3c 76 e3 16 be d3 06 1a be
       -0.21531527 0.015758552 -0.14735207 -0.15041666
000020 a8 d4 19 3e 87 fe 29 3d 8e e2 0a bd 76 c3 82 3c
       0.15022528 0.0415025 -0.033907466 0.015962344
000030 f4 c0 f5 bc 71 13 49 bb fd 21 24 be a9 00 74 bd
       -0.029999234 -0.0030681754 -0.1602859 -0.059570942
000040 3f 31 bd 3c 39 b6 95 bd b1 09 17 be 3a c1 5a bd
       0.023094771 -0.07310147 -0.1474979 -0.05340693
000050 26 c9 73 3d bd 8f 7f bc 09 fc 45 bc a5 da 3b 3c
       0.059518002 -0.015598235 -0.012084016 0.011465703
000060 e8 42 42 3c ef 7b b0 bc 4c 2e 60 bd d8 e2 1a bc
       0.011856772 -0.021543471 -0.054731652 -0.009453498
000070 b8 dd b8 bd 85 e9 84 bd 4a 70 1f 3c b8 e7 45 3c
       -0.090266645 -0.06489853 0.009731362 0.012079172
000080 58 2a aa bd 82 d9 ed 3c 3e 36 11 be 76 38 92 bd
       -0.08308858 0.02903438 -0.14180848 -0.07139675
000090 a0 fe 2b bd a2 70 70 3b 8c 5a 08 bd fb a3 e2 bc
       -0.041990876 0.0036688228 -0.033289477 -0.027666083
0000a0 c6 58 10 bd 15 10 80 be db c3 71 3c 75 ef 19 3d
       -0.03524091 -0.2501227 0.014756168 0.03758188
0000b0 8a ae d4 bb 54 fe b8 bd a2 b2 db ba cb d4 70 3c
       -0.0064905332 -0.09032884 -0.0016761611 0.014699171
0000c0 7c 6f aa 3d ac f5 83 bd 34 f2 72 bd e3 98 82 bd
       0.08322045 -0.064433426 -0.059313014 -0.06376817
0000d0 66 a0 a8 bd 96 7e a4 3c b5 77 95 3c 9e 97 b3 3c
       -0.082337186 0.020079892 0.018245557 0.021922883
0000e0 96 40 b0 bd 85 43 06 bd f0 fa b1 bc 19 9c 17 bd
       -0.08606069 -0.032779235 -0.021726102 -0.0370141
0000f0 36 10 35 be 86 9e cc bd 5c 0d 2c be 28 36 c1 3b
       -0.17681965 -0.099911734 -0.16801971 0.0058963485
000100 7f 97 87 bb 57 02 05 3b f2 6a 73 bd 25 84 82 bd
       -0.004137933 0.0020295584 -0.059428163 -0.06372861
000110 d9 1b 42 bd 69 36 2f 3e b6 f6 9c bd 93 de 39 3b
       -0.04738984 0.171106 -0.07664244 0.0028361424
000120 3d 70 8d bd a9 69 c7 bc 8a 2e e1 3b ff 7d ab bd
       -0.069061734 -0.024342375 0.006872003 -0.08373641
000130 9e a3 05 3e fc e7 22 be 20 5b 28 3e b7 1a b1 3b
       0.13050696 -0.15908808 0.16441011 0.005404796
000140 a9 2f 59 3c fe 36 a1 bd fa 47 8d 3d f5 12 24 be
       0.013255992 -0.07871817 0.06898494 -0.16022857
000150 65 d0 87 ba e4 aa 87 3c 47 17 1e 3e 89 76 55 3d
       -0.0010361789 0.01656098 0.15438567 0.052114997
000160 26 83 41 3c 54 86 78 bc 7e f3 f1 3a ec 80 72 bc
       0.011811053 -0.015168745 0.0018459407 -0.014801245
000170 41 10 5f 3d 63 b5 ff 3a 35 43 8b bb 8d c0 9a bd
       0.05445886 0.0019509014 -0.004249955 -0.075562574
000180 fd 6e a4 bd 10 ad b2 bd 37 83 25 3d 06 26 9e 3c
       -0.08028982 -0.08724415 0.04040834 0.01930524
000190 7c 51 0b bd 18 d2 75 3b 4b cf 3a bd 8b 28 40 3e
       -0.034013256 0.003750926 -0.045607846 0.18765466
0001a0 75 8a 9b 3c b9 57 91 3d b5 23 73 3d f6 13 27 bd
       0.01898692 0.0709681 0.059360225 -0.04079052
0001b0 db 4d 31 3e 40 cc bc bd 65 f5 85 bd a9 d8 c1 bc
       0.17314856 -0.09218645 -0.06540946 -0.023662882
0001c0 2e 6d 5b 3e 66 c4 a2 3c e6 81 92 bd 01 a8 37 bd
       0.21428367 0.01986904 -0.071536824 -0.044837955
0001d0 15 de ce 3c d9 3a db bc f6 48 06 3c 65 86 8b bd
       0.025252381 -0.02676146 0.008196106 -0.06812743
0001e0 ab a1 f0 3c b9 f0 50 3c b3 08 52 bc b3 ae f7 3b
       0.029373964 0.012752705 -0.012819457 0.0075586676
0001f0 22 a6 db bc f7 e5 c6 bd ea 08 53 bd 1b 67 9f 3d
       -0.026812617 -0.09711831 -0.051522173 0.07783338
000200 7f 53 09 bd b9 5a 3f 3e 70 77 4f bd 35 a1 06 bd
       -0.033526894 0.18686952 -0.050651014 -0.032868583
000210 9a 44 e8 3c e1 ba 4a bd da aa 62 bd 4d ff 84 bd
       0.028353024 -0.049494628 -0.055338718 -0.06494007
000220 c1 e9 01 be f7 6e 76 bd 22 f1 14 3e 42 e5 d1 bd
       -0.12686826 -0.060164418 0.1454511 -0.102488056
000230 96 82 4b 3c c3 3a e3 bc 99 24 4c bc 52 dc d9 bc
       0.012421271 -0.02773798 -0.012459897 -0.026594315
000240 27 80 bd 3c e3 a4 13 bd 3c a4 7c bd a7 2c 3c bd
       0.023132397 -0.03604592 -0.061680064 -0.04594102
000250 3a ae ca bd 10 e3 db bc d6 89 3a 3e 28 d0 01 be
       -0.09896512 -0.02684167 0.18216643 -0.12677062
000260 6a ea 21 be dc 06 3c 3e 41 58 5c 3c 68 eb 63 bd
       -0.15812078 0.18361992 0.013448776 -0.055644423
000270 c9 89 41 be 2e 9c 94 bc c7 32 7d 3d 40 9c c0 3b
       -0.18900217 -0.018140879 0.061816003 0.0058780015
000280 88 ad d3 3d ad fa 90 bd ee 15 94 bd d1 36 4d bd
       0.10335833 -0.070790626 -0.07230745 -0.050101105
000290 80 f8 af bd 02 b6 dc bc 3e 9f 43 be cc 80 c8 bd
       -0.085923195 -0.026942257 -0.19103715 -0.09790191
0002a0 79 af bf bc a4 88 5d bc 6f ea 58 bd 78 66 b4 bc
       -0.023399102 -0.013521347 -0.05295795 -0.022021517
0002b0 be 34 fe bd b9 a3 02 be 7c 2b 0d 3c 7e 6a 2b be
       -0.124124035 -0.12757768 0.0086163245 -0.16739842
0002c0 53 aa 14 3e 96 b2 eb bd 73 a7 73 3c 25 58 01 bd
       0.14518099 -0.11508672 0.014871466 -0.0315782
0002d0 f5 09 71 3e e1 a7 05 bc 8e c2 c9 bd 39 1a be 3d
       0.23538955 -0.008157701 -0.098515615 0.09282345
0002e0 5e 25 9a bd f7 42 a3 bc 98 1a 23 3e 53 06 6c bd
       -0.075266585 -0.019929392 0.15928113 -0.05762322
0002f0 c1 f7 50 3c 70 de 87 3d 33 04 24 be 5b a1 e4 bb
       0.012754382 0.066342235 -0.16017227 -0.006977243
000300 be 63 a6 3a 12 ca 79 3c d9 6e 11 be 81 a9 0b 3c
       0.001269452 0.015245931 -0.14202441 0.0085243
000310 b5 3b 86 bd 33 e1 60 bd 30 ce 29 3c 6d c6 0e bc
       -0.06554357 -0.054902267 0.0103641 -0.008714301
000320 66 d5 1b bd 57 74 ad bd 8e 4a fc bc da 49 45 3e
       -0.03804531 -0.08469456 -0.03079727 0.19266453
000330 86 50 bc bd 63 7d e7 bc ec 0d 26 bd d5 7c 84 bc
       -0.09195046 -0.028258031 -0.04054062 -0.016172806
000340 2b 99 3e bd 59 55 97 bd 4c 19 89 3c 84 ed 65 bd
       -0.04653279 -0.07389326 0.016735695 -0.056134716
000350 65 55 8f bd 22 cf 08 3e cd 32 5b bc 7e a5 9a bd
       -0.069987096 0.13360265 -0.013378811 -0.075510964
000360 d5 8e 06 be 0d 67 d9 3d a7 78 20 3e 6d 49 13 be
       -0.13140424 0.106153585 0.15671025 -0.14383478
000370 5c 54 f5 bc 2e e9 9c bd ed 3d 08 be fc 17 7f bb
       -0.029947452 -0.07661663 -0.13304873 -0.0038924208
000380 0a 4b 94 3d eb 25 37 bd 52 5e ee 3c 77 c3 21 3d
       0.07240875 -0.044713896 0.02909771 0.03949305
000390 af c9 1e bd 1f f2 ad bc 51 6c 17 be ca 3f 5b bd
       -0.03876656 -0.021233616 -0.14787413 -0.05352763
0003a0 11 a1 cd bb 89 fd 4b bd b1 47 a5 bd df 4c a2 bd
       -0.006275304 -0.049802337 -0.08070315 -0.07924818
0003b0 11 ed 4e bc cc 3f 8f bd 3b b3 c3 bc 3f 09 5b bc
       -0.012629763 -0.0699459 -0.023889175 -0.013368904
0003c0 d1 6b 7f 3c ee 1f 97 bd a7 d7 61 3d 5c 68 0a 3e
       0.01558967 -0.07379137 0.055137303 0.13516372
0003d0 c0 65 ed bc e2 6e ba 3d 76 d9 22 bb a1 74 5d 3b
       -0.028979182 0.091031805 -0.0024848855 0.003379144
0003e0 7c d8 85 3c 90 81 b3 bc d9 88 02 bd 7a 9d 52 bd
       0.01633858 -0.021912366 -0.03186879 -0.051419713
0003f0 58 90 39 bd 76 c9 15 3e fd 41 83 bd fd ae 8e bc
       -0.045303673 0.14627632 -0.06409071 -0.017417425

linear3.weight f4 [2, 256]
000000 59 17 c9 bd d2 08 b8 3e ac 5f 03 bd 4f fd ae bc
       -0.09818906 0.3594423 -0.03207366 -0.021361021
000010 94 2e 77 3c b4 e9 02 3d 31 23 b6 be b2 a9 fd be
       0.015086789 0.031961158 -0.35573724 -0.4954353
000020 3a b1 4e bc 52 6d 3a bf 05 0f c6 be 14 fc 22 3e
       -0.012615496 -0.7282306 -0.38683334 0.15916473
000030 ed 76 95 bd 10 a8 37 3d fe 48 21 3e 5b 9f ea 3c
       -0.07298074 0.04483801 0.157505 0.02864044
000040 c7 f9 3c 3d 18 6e c0 be 30 8d 14 bf 3c d4 74 bc
       0.046136644 -0.37583995 -0.58027935 -0.014943179
000050 14 0a 66 3e f0 e6 5e 3f 11 55 49 3d f3 07 6f be
       0.22464782 0.8707113 0.04915339 -0.23342876
000060 87 9b 21 bb 98 eb 75 bf 9f fc 3e 3d 2e bb c8 3e
       -0.0024659352 -0.9606261 0.046627637 0.39205307
000070 b5 34 c4 bc 52 9c ab 3d 2f a2 e4 be e0 f6 c0 bc
       -0.023950914 0.08379425 -0.44654986 -0.02355522
000080 bb 81 c5 be 29 54 55 3c 0a fb 0a bf 15 90 9f bc
       -0.3857554 0.013020554 -0.54289305 -0.019477883
000090 bb 6b 1e 3f 17 57 b1 bf 65 02 78 3f a5 df 92 3a
       0.61883134 -1.3854703 0.96878654 0.0011205567
0000a0 46 03 18 bc d4 3b cb 3e 8f 64 3c bd 36 52 95 bc
       -0.009278124 0.39694083 -0.045994338 -0.018227678
0000b0 ad 1a 02 bd 6a 22 10 be b4 f7 08 3d 5c a5 0d bd
       -0.03176372 -0.14075628 0.033439353 -0.034581527
0000c0 ed 4c a5 3f 35 54 04 be 37 e5 bb 3c 0b f9 cf be
       1.2914101 -0.12922747 0.022936447 -0.40619692
0000d0 3d ce c7 be 00 2a b9 bd 47 c7 a1 bc 7e 24 d0 be
       -0.39024535 -0.09041214 -0.019748343 -0.4065284
0000e0 2b c7 53 bf f5 21 9c bc ab cd 60 bd b9 b3 8f bf
       -0.8272578 -0.01905916 -0.05488364 -1.1226722
0000f0 cb 4f 16 bf 29 e8 cd bd 9f ec b2 be 6e 37 2a 3d
       -0.58715504 -0.10054047 -0.34946153 0.041556768
000100 89 c1 95 be 4a fa c2 be f4 f2 93 be 28 65 b5 be
       -0.29249218 -0.3808158 -0.28896296 -0.3542874
000110 a7 7e 37 3c 9c e7 ef 3e d8 17 6b 3f ce 18 e8 ba
       0.01119963 0.4685639 0.9183326 -0.0017707588
000120 8b 76 6e bd 0f aa 26 3b cd b4 06 be 25 a9 99 3d
       -0.05821852 0.0025430953 -0.13154908 0.07502965
000130 fa 29 27 3f 15 ec f2 be 49 b4 27 bf ad 87 8d bb
       0.65298426 -0.4744574 -0.6550947 -0.0043191523
000140 1f 2e bd 3c 39 54 a8 be c6 64 03 be 5d 35 f6 be
       0.023093281 -0.32876757 -0.12831411 -0.48087588
000150 8b 41 fb bc da 7a 00 bd 20 dd 42 3f 4b 92 f9 3c
       -0.030670902 -0.03136716 0.7611866 0.030465266
000160 71 71 80 bf 89 af 58 bd 12 25 4e 3e ae 2a 29 bd
       -1.003462 -0.05290178 0.20131329 -0.04130047
000170 75 42 41 be 4f 39 3e 3d f0 4d b9 bb 59 81 90 3d
       -0.18873008 0.046441372 -0.005655043 0.07055921
000180 4e 0b 1c bc e0 96 37 3d 25 6e a2 be 30 4d 84 bf
       -0.00952418 0.04482162 -0.3172466 -1.0336056
000190 3e 54 02 bf 7b 9e f1 3e d8 18 24 be 6e b4 5f 3f
       -0.50909793 0.47191224 -0.16025102 0.8738469
0001a0 22 f1 6b be b8 ba 0f 3f 0b f8 dc bd d7 0d b7 bf
       -0.23041204 0.56144285 -0.10789498 -1.4301099
0001b0 42 71 83 be 65 82 00 be ee cd 13 bd c3 38 f4 bb
       -0.25672346 -0.12549742 -0.03608506 -0.0074530556
0001c0 f0 54 fb 3d 08 58 3f 3d d1 85 c4 bb e6 66 b9 3d
       0.1227206 0.046714813 -0.0059973975 0.090528294
0001d0 af bc 4e 3f 7b 99 0b 3f ef 04 d8 3e 6f cf 32 3d
       0.8075666 0.5453107 0.42191264 0.043654855
0001e0 64 a7 ef be 8e 98 92 bc 10 42 bb 3e c1 1d 53 bd
       -0.46807396 -0.01789501 0.3657384 -0.051542047
0001f0 20 86 3f bc b0 1f af bf 8a 19 a9 be 54 bd 72 3c
       -0.011689693 -1.3681545 -0.33027297 0.014815647
000200 9a eb 8c be 56 cf 66 3f b2 35 2d bf 89 53 4b bf
       -0.275235 0.9016012 -0.6766006 -0.7942434
000210 64 c5 0d 3d d4 ee 8a 3b e5 02 e2 be fd 92 02 be
       0.034612074 0.0042398963 -0.44142833 -0.12751384
000220 4a ee e0 3f 9b 69 c9 be 7c a7 dc 3e cc 51 0a 3c
       1.757272 -0.39338383 0.4309653 0.008442353
000230 90 c2 f0 be ee a5 22 bd 39 6a dc bd 2d 13 96 3c
       -0.4702344 -0.039709024 -0.10762448 0.01831969
000240 d4 a7 81 3d 26 aa be be 9d f1 92 3c 10 9a 31 bd
       0.06330839 -0.37239188 0.017937476 -0.043359816
000250 2f a2 c8 3f b1 b7 a1 be f1 88 54 bf be 60 ad bd
       1.5674495 -0.31585458 -0.83021456 -0.08465718
000260 72 ba d9 be 76 47 0a 3e 18 28 41 3c 70 88 9c 3e
       -0.4252506 0.13503823 0.011789344 0.30572844
000270 47 44 bc bf 36 26 94 bd 6d 37 8e 3e 7d d7 9a bc
       -1.4708337 -0.07233851 0.27776662 -0.018901581
000280 15 5a 23 be bb c9 93 be d6 09 2c bf 02 41 e3 bb
       -0.15952332 -0.28864846 -0.6720251 -0.00693524
000290 1b 1f 5f bf ba 16 ec bb 71 93 f1 be 8d 79 d5 be
       -0.8715684 -0.0072048577 -0.471828 -0.41694298
0002a0 28 bf 42 3e b5 bc 60 be 51 8c e4 3d fc cd 74 bd
       0.19018233 -0.21946986 0.11159576 -0.059766755
0002b0 30 27 ea be 9f e9 51 3e 58 bd 3e 3d db 84 f7 3e
       -0.45733023 0.20499276 0.04656729 0.48343548
0002c0 f5 ef f0 be 93 8b b5 be a5 d0 88 bb 67 6d 24 bd
       -0.47058073 -0.3545805 -0.004175263 -0.040143397
0002d0 59 cb 40 3f 4f 4f cd be 8e 1a b1 be 0b 30 17 bf
       0.75310284 -0.4009957 -0.34590572 -0.5905768
0002e0 7c a8 86 3c ec 27 85 3a 67 9a 8a bf 15 8b 0b bd
       0.016437761 0.0010158992 -1.082837 -0.034068186
0002f0 ef 0f 22 bd a1 c6 67 bc 84 1d e5 3d 8a c0 6a bd
       -0.039565977 -0.014146478 0.1118727 -0.057312526
000300 1d a9 1c bc 9f 02 ba bd 0d d4 42 bd 96 96 00 3f
       -0.009561804 -0.09082531 -0.04756551 0.50229776
000310 a1 5f 54 3b 6a e3 53 3c 45 4e 95 be 0b 07 72 3c
       0.0032405632 0.012932638 -0.29161277 0.014772187
000320 41 8d 4f 3c c4 c2 0f bd 84 15 57 3f 24 52 c2 3e
       0.012667955 -0.035097852 0.84017205 0.37953293
000330 21 e6 11 be 09 05 51 bc 45 71 68 bf 06 0f 2e 3b
       -0.14247943 -0.012757548 -0.90797836 0.0026559248
000340 d0 2f 83 3d 32 76 fe bd 8d ba 1d 3b d5 f2 81 3d
       0.06405604 -0.12424888 0.0024067492 0.06345145
000350 dd 38 1d bd 12 fe 26 bf e2 a6 18 bf cb dd 62 3d
       -0.038384307 -0.6523143 -0.5962964 0.0553873
000360 c9 95 57 3e a4 47 41 bf f9 33 29 3f e4 15 bf 3e
       0.21053232 -0.7549994 0.6609493 0.3732139
000370 6c a7 8f 3b e5 f2 14 bd 0b 84 3a be f3 ef d0 be
       0.004383972 -0.036364455 -0.18214433 -0.40808067
000380 c8 a8 e2 bd a3 e5 2f bf b0 f8 41 3d 51 d9 2d 3f
       -0.11067349 -0.6870977 0.047356308 0.67909724
000390 61 3f ec be 86 79 96 bc a9 f9 39 3f 75 eb 09 3d
       -0.46142104 -0.018368494 0.72646576 0.033671815
0003a0 c6 90 a8 bb cd 94 1c 3d 8c 50 7f 3e 1f 32 b4 3b
       -0.0051442115 0.038227845 0.2493307 0.005499139
0003b0 f8 81 66 bf bd 58 06 bd 5a 45 eb 3e b5 50 06 3f
       -0.90042067 -0.03279947 0.4595135 0.524669
0003c0 3b 83 7a bf 8e 02 ab bc ce be 46 3e 88 6b 6f 3e
       -0.9785649 -0.020875242 0.19408724 0.23380864
0003d0 eb 24 89 bf d7 e6 a8 be e3 17 43 3e 3e 6f a2 3d
       -1.0714391 -0.32988617 0.19052081 0.07931374
0003e0 67 cd ad 3d 3b 72 e3 bc 0b 4c 53 be e8 d8 a6 3e
       0.08486443 -0.02776443 -0.20634477 0.3258736
0003f0 11 47 43 bc 64 36 c4 bd ad 90 98 bc 68 0a c1 bc
       -0.011918799 -0.09580687 -0.018623674 -0.023564532

linear3.bias f4 [2]
000000 75 a0 a3 3e 63 7f da bd
       0.31958356 -0.10668828
