turtlebot3_rl_sim/src/models/td3/revamped/new_tracking_cp_gcp_nobonus_corrected_3_no_cp/td3_critic2_model_ep900.pt (torch_old, 647202 bytes, 5 tensors)

linear1.weight f4 [256, 372]
00000000: 68fc babd d295 d2be 7a3e dcbe 4672 92be
00000010: 75ba 8dbe 0850 b8be fd11 8bbe 5bc8 eabe
00000020: 4477 f4be 7d18 8cbe 26f5 9dbe 70bf bdbe
00000030: 3a1f dcbd 93fa 6ebe 42a2 d8bd 9649 18be
00000040: c1e6 d73d ca05 54be 8857 bdbe 5e62 94be
00000050: 261f 97be ff3e 29be 85a2 0bbe 1ddb 83bd
00000060: 6ac4 54bd ea1e e13d 2e38 2d3e 5992 41bd
00000070: fc37 0d3e b398 6abd 23ce 65bd cfe0 393d
00000080: a098 3ebe 1eed 99bd 6174 c3bb b25a d3bd
00000090: 634d efbd 9cbb 823d 401c cd3d d6ea 2c3b
000000a0: 6c08 843d aaab 6e3e cfa0 333e 47ba 383e
000000b0: e722 3f3e 0713 be3d 44fe 033e 1d7b 133e
000000c0: a46c 083e 62e9 ee3d f710 3c3e e63d 2e3e
000000d0: b6c6 253e b15d df3d cf51 3c3e a90a db3d
000000e0: a19e d63d f68d 233e 50c5 c83d 7580 1f3e
000000f0: ef0a a7bc ca37 6d3d feb6 15bd 1b3f ebbd
00000100: f344 e0bd 9068 33bd b550 0fbe bd99 84be
00000110: d10e 43be f0ea 3cbe c880 b3bd 01b7 47be
00000120: cd63 07be d0df b5bd 8c4c 75bd fd8d 07be
00000130: 2e0c 93bd c5d4 0cbe e515 0bbd 166f 18bd
00000140: aa91 ea3c 6278 d3bc 5a0a 003d de79 273d
00000150: ee5c aa3d 51c0 cdbc 4702 adbd 15a2 03be
00000160: 3300 60be 35f3 8fbe c10f 4dbe 5600 1fbe
00000170: 7f2d 2ebe 6c4a f9bd f534 04be 10b5 39be
00000180: 8f54 aebd 5839 3bbe 44f4 f4bd 8a12 55be
00000190: a7d9 2cbe c86e b6bd 728c 6b3d 97bb 373e
000001a0: 80fd ce3d 6dc9 9a3d fab0 e43d 44ce 0b3e
000001b0: 34ab 823d 5c1a 873d ee42 a63d ce3f 263d
000001c0: f0f4 4b3d 0dcb 943d 522e 5dbc 2754 3c3d
000001d0: ab2b 7b3c a532 9a3c bbf9 743d f9d1 523d
000001e0: ad37 123c e21f 683d a263 e43b 872b bc3b
000001f0: d4cc ffbb 0a8c 603d 93ac 62bc a2fc 57bc
00000200: d1b4 513d 7d9e 9739 f1b9 d93c d805 4e3c
00000210: 9b8b f13c 5ef6 a53d bb1f f73c 8ca2 883c
00000220: 7456 8d3c 75e9 81bd 3900 c4bc 8c93 febc
00000230: b8d8 3bbd a88c 3dbd 8b81 68bd d303 e2bc
00000240: 9fe8 20bd 1ae1 50bd 08cc 34bd 0d40 0ebd
00000250: 4bd1 62bd f2cb 56bd a7d0 21bd 6418 7cbc
00000260: 87ff a1bd b150 c4bc 4914 c3bb 2feb a4bc
00000270: 2763 2dbd 5f1b a4bd fdc3 973c 870b 393c
00000280: dde1 85bd 7522 85bd d6d3 9bbd f65b a33b
00000290: 6667 a53c 5889 cf3c 1cd4 003d c31b 64bc
000002a0: 479f b03c 7503 86bd 2a75 5cbc a6d4 98bd
000002b0: 01af 593b 545b fbbc 522b d1bc d299 e23b
000002c0: fc36 f0bc 81fb c6bc c66f 2139 d99e da3b
000002d0: d05a c73c 02a7 eb3c 5e75 ae3c c2a3 5ebc
000002e0: bb0b f23c d0ad ce3c e0c3 3cbd 010e df3c
000002f0: 1afd dcbb a705 aebc a3d9 61bc 5808 bfbb
00000300: eeb0 1cbd cffb 28ba 11aa d83c 2862 423d
00000310: ca9b ed3c b80c 443d acd4 7cbc 4469 073d
00000320: 8ac1 ee3c 8ca3 8c3d d38c f939 55ac 133c
00000330: 9c5d 813d 7e7f 18bc 2a54 ee3c 9483 063c
00000340: 4412 093d 4658 a73c 4d12 9f3b 4661 19bc
00000350: 096e ccbc 17d0 a5bc f4e6 f7bc 9525 9e3c
00000360: 2e9b 90bc f07e ce3b f4f2 8e3d 0465 8f3b
00000370: 1eda 98ba 96d6 a63d e7be 3e3d a1cb 5b3d
00000380: c425 8c3d ac49 8f3d aeb4 ab3b 3cf8 873d
00000390: a0b5 ce3d 3729 b93d 1ff5 b93d 63b3 773c
000003a0: 9024 36bc 1666 a63d ea88 603c f061 3ebb
000003b0: f63c 243c 003c 4f3d 7d28 9a3d 0684 273d
000003c0: dbbb eabb af79 b93d 8255 ea3c 6012 4b3d
000003d0: 749b 0e3b 0fb7 28bd 9e21 243b e53f 84bc
000003e0: 4730 363d 0000 403d 3b7c 723d c4df 863c
000003f0: 4733 29bd 5df0 0dbd bddd 01bc b176 46bc
-0.09130174 -0.4112993 -0.43016416 -0.2860281 -0.27681318 -0.3599856 -0.2716216 -0.45855984
-0.47747242 -0.27362433 -0.30851096 -0.37060118 -0.107481435 -0.23337774 -0.10577823 -0.14871821
0.1054206 -0.20705333 -0.36980844 -0.28981298 -0.29515952 -0.16527937 -0.13636215 -0.06438277
-0.051945128 0.109922245 0.16915962 -0.04725871 0.13790888 -0.05727453 -0.05610479 0.04538041
-0.1861291 -0.0751593 -0.005964801 -0.10320033 -0.11684682 0.0638344 0.10015154 0.002638509
0.06446919 0.23307672 0.17541812 0.18039809 0.18665658 0.09280973 0.12889963 0.14402433
0.13322693 0.11665608 0.18365847 0.170158 0.16189083 0.10906542 0.18390583 0.10695393
0.10479475 0.15972123 0.098032594 0.15576346 -0.020390956 0.057914533 -0.036551468 -0.11486646
-0.10950651 -0.04380089 -0.13995631 -0.25898543 -0.19048621 -0.18448997 -0.087647974 -0.19503404
-0.13221665 -0.088805795 -0.059887454 -0.13237758 -0.071800575 -0.1375304 -0.033956427 -0.037215315
0.028633911 -0.025814239 0.031259872 0.040887706 0.08318506 -0.025116118 -0.084477 -0.12854798
-0.21875076 -0.2811524 -0.20025541 -0.15527472 -0.17009543 -0.12172398 -0.12910827 -0.18135476
-0.08512222 -0.18283594 -0.119606525 -0.20807853 -0.16879903 -0.089078486 0.057506986 0.17942654
0.10106945 0.0755795 0.11166568 0.13652903 0.06380311 0.065968245 0.081182346 0.040588193
0.049794137 0.07265291 -0.013499813 0.04597869 0.0153302355 0.018822977 0.059808474 0.051469777
0.008924407 0.05667103 0.006969885 0.0057424936 -0.0078064 0.05482105 -0.01383509 -0.013182791
0.05119783 0.00028919047 0.026577922 0.012574635 0.029485514 0.081036314 0.030166497 0.01667907
0.017253138 -0.063433565 -0.023925887 -0.031076215 -0.045860976 -0.04627672 -0.056764167 -0.027589714
-0.039284345 -0.050995924 -0.044139892 -0.034729052 -0.05537538 -0.05244059 -0.039505627 -0.015386675
-0.07910066 -0.023964258 -0.005953346 -0.020131676 -0.042330887 -0.08013033 0.018526072 0.011294252
-0.065372206 -0.06500713 -0.07608764 0.004985328 0.020190906 0.025334045 0.031452283 -0.013922635
0.021560324 -0.06543628 -0.013455668 -0.074624345 0.0033215883 -0.030683197 -0.025533352 0.0069153095
-0.029323094 -0.024289848 0.00015395795 0.006671768 0.024335295 0.028766159 0.0212962 -0.013588848
0.02954661 0.025229365 -0.04608524 0.027228357 -0.0067440392 -0.02124293 -0.013784799 -0.005829852
-0.03825467 -0.0006446214 0.026448281 0.04745689 0.02900495 0.047863692 -0.015431564 0.033059373
0.029145021 0.068671316 0.00047597903 0.009013255 0.06316683 -0.00930774 0.029092867 0.008210082
0.033464685 0.020427834 0.0048544765 -0.009361571 -0.024954813 -0.020240827 -0.030261494 0.01930503
-0.01765212 0.006301753 0.069799334 0.0043760557 -0.0011661684 0.08146398 0.046568777 0.053660993
0.06843141 0.06996474 0.0052400446 0.06639144 0.10093236 0.09041064 0.09079956 0.015118453
-0.011117116 0.0812494 0.013704518 -0.0029050075 0.0100243 0.05059433 0.07527254 0.04089739
-0.0071635074 0.090564124 0.028605226 0.04957807 0.0021760138 -0.041190203 0.0025044451 -0.016143749
0.044479635 0.046875 0.059200507 0.016464122 -0.041308668 -0.034653056 -0.007926402 -0.012113259

linear1.bias f4 [256]
00000000: 5e0a 2b3c 1f72 2ebd 47b5 a4bc da52 56bd
00000010: 8954 4a3d 4dba d83d a649 d73d 0add df3a
00000020: 5b70 e83c 0653 92bb 2419 7fbd 7210 56bd
00000030: c621 153c 90d9 35bd 163f 803c 328e 593b
00000040: 4da1 033c fe10 033d c879 30bd f7ac a23c
00000050: baa0 89bc 0530 833c d52f 153e f87a 843d
00000060: aff3 2d3d 468e 1ebd e3b5 e83c e974 c2bc
00000070: 386c 32bd 6763 2e3d 3794 23bd b0de f23b
00000080: dbda 693d a105 ca3a 7757 aabc 2e92 1e3d
00000090: e83f b63b fa06 5fbd 5891 3dbd e1a9 513d
000000a0: a5de 0e3d ea04 94bc 912d 913d dccc 7c3c
000000b0: d34a f1bc 779c abbc 5191 c0bc 3ebb 263e
000000c0: 1924 ca3c 4217 52bd a479 f1bc f504 e23d
000000d0: bd7b 093c e7f8 1dbd c4e6 513e 86fb a3bc
000000e0: 3cbe 003d 713e 46bd b947 cf3c c1a4 49bc
000000f0: df60 273d 53d9 ce3d 12e2 57bd 9a91 57bd
00000100: 0c9d 5ebc 55e3 0e3c 9ab5 543d 809f a7bc
00000110: dfa0 083e 2e31 383d 33fc e8bc b47b f33c
00000120: 5b58 6c3c d295 52bd 9729 2e3a aeac 1ebd
00000130: 102d bfbc 6722 24bb 8b03 ca3d e221 0fbd
00000140: 2935 6b3d 3879 343d b886 07be 99c7 4fbd
00000150: 9e23 373d b039 333c d3a7 923c 748f a1bc
00000160: 267d 18bd 9a70 0d3e 4060 c43c 14dd 8e3b
00000170: 5fc3 cc3c 23ae e2bc 5013 67bb 5811 a03d
00000180: dcca 74bc ecfb da3d 2a1d 5abd 26ed 163d
00000190: 4c45 f13b bd1c 043d ca1b 8d3d d5f3 05bd
000001a0: 1835 c73c 341d 70bd 5c60 73bd 969b 1b3d
000001b0: a75e b43b 2842 bf3c d8f1 313d 764d 9bbc
000001c0: fd73 833d a1ed 4dbd 3789 293c b8fe bd3b
000001d0: 8009 32bd aeca 1fbd 95ff 823c e42f 763c
000001e0: 50e6 b63c a96b 4fbd 4fc8 22bc f89e 353d
000001f0: d4f3 aa3c af74 a53b 37da 28bc ad69 42bd
00000200: 37bf 203c bec8 91bc 1a6e b63d a86e 383c
00000210: acfa 313d f788 a83b c99e c73c ba41 693d
00000220: e957 4b3c b132 c9bc 3a2f d1bc 0f97 a53d
00000230: 1298 db3b 29c3 4fbd 3dd1 013d 6285 50bd
00000240: 4c8d 443c 21ff 483d 6529 0e3d 88b4 093e
00000250: 696b cebc 62b1 6f3d 7da9 f33d 562a 98b9
00000260: 4ed3 9c3d 8d4c 0e3d 04e3 7abd f31c ef3c
00000270: 27b7 783e 002b bd3b 69ba c5bb 4aff 523d
00000280: b51e 0f3c 5f72 a2bc 0bbb 373d 1093 3d3d
00000290: 6675 493d 4750 20bd 0225 d73c 1ba1 e33c
000002a0: 8425 f23b 6ce4 f0bc 91af 553d fe6b 953b
000002b0: 98ea c43d 8747 2f3c 9d58 0cbd 8c86 fc3c
000002c0: bd62 093b a188 493d a245 d03a a343 61bc
000002d0: 32a8 5d3c f354 6ebb 36a9 133d f052 a33d
000002e0: 4fdc a7bc 3d9f 01bd 6ecf 193d 83d2 ea3c
000002f0: e2e4 dc3b fc43 72bd eaaa 5239 6a02 cc3d
00000300: ee18 ad3c ef82 2c3d 85e7 8c3c 8a14 dd3b
00000310: 3457 203d c274 51bd a0c8 213d 5675 18bd
00000320: 22f7 dabc 9082 b73b b2d0 503c 6e31 123c
00000330: e06f b13c dc12 823d c4df 803c 3fd4 26bd
00000340: 9d97 083d 3664 923b e990 4ebc 4af2 50bd
00000350: a689 18bd 7d3e 0ebc 0fe3 29bd f840 2bbd
00000360: c037 be3b fe54 9d3d e0c4 423c 40c4 693b
00000370: a8e7 cc3d 698f 04bc 993d 4c3d b135 1d3d
00000380: c850 bbbc 3ee4 9bbc c4e9 fc3b c765 abbc
00000390: d68f 803e 5a60 dabc b347 6b3b eca0 f5bc
000003a0: 8869 3abd e27c 073d 0077 083d 4319 41bd
000003b0: 68d5 e53c 893e 09be febd a73c d48a f1bb
000003c0: 08ba 373d 7d62 883c 691d c23c 64c5 8d3d
000003d0: 8cd7 7b3d 0e05 1c3d 8aed 5639 8d8e 0dbc
000003e0: bf6c babd 6782 adba 4d69 843a b1ee cb3a
000003f0: 784c 30bd 528c 253d 5369 4239 ddc2 603d
0.010439483 -0.042589303 -0.020105971 -0.052325107 0.049397025 0.10582409 0.10512094 0.0017079425
0.028373888 -0.0044654636 -0.062279835 -0.052261777 0.0091022905 -0.044396937 0.015655082 0.0033196327
0.008034063 0.031998627 -0.04308489 0.019857867 -0.016800273 0.016014108 0.14569028 0.06468767
0.042468723 -0.0387099 0.028407043 -0.023737388 -0.043560237 0.042575266 -0.03993627 0.0074118003
0.057093482 0.0015413054 -0.02079366 0.038713627 0.0055618174 -0.054450013 -0.04628119 0.0511874
0.0348803 -0.01806875 0.07088769 0.015429702 -0.029454624 -0.020948632 -0.023506792 0.16282365
0.024675416 -0.05129171 -0.029476948 0.11036102 0.008391318 -0.03856745 0.20498186 -0.020017397
0.03143142 -0.048399393 0.025302755 -0.012307347 0.040863868 0.10100045 -0.05270583 -0.05262909
-0.013587248 0.008721192 0.051931 -0.020461798 0.13342617 0.044968776 -0.02844057 0.029722072
0.014425362 -0.05141241 0.00066437706 -0.0387389 -0.023336917 -0.002504492 0.09863957 -0.034944423
0.057423744 0.044060916 -0.13234985 -0.05072746 0.0447117 0.010939047 0.01790229 -0.019721724
-0.037228726 0.13812485 0.023971677 0.0043598507 0.024995504 -0.027670925 -0.0035259314 0.07815808
-0.014940944 0.106925815 -0.05325047 0.036847256 0.007362997 0.03225397 0.06890066 -0.03270324
0.02431731 -0.0586216 -0.059418067 0.037990175 0.0055044475 0.023346975 0.04344353 -0.018957835
0.064186074 -0.05027545 0.010347656 0.005798187 -0.04346609 -0.03901165 0.015991012 0.015026066
0.022326618 -0.050639782 -0.009935453 0.044341058 0.02086822 0.00504931 -0.010305933 -0.04746406
0.009811214 -0.017795917 0.08907719 0.011256851 0.04345195 0.0051432806 0.024367707 0.056947447
0.012411096 -0.024560304 -0.025535215 0.08085453 0.006701478 -0.05072323 0.031693686 -0.050908454
0.011996578 0.049071435 0.034707446 0.13447773 -0.025197702 0.058518775 0.11897562 -0.00029023242
0.07657491 0.034740973 -0.061251655 0.029188609 0.24288617 0.0057729483 -0.0060341847 0.051512994
0.0087353485 -0.019829927 0.044856112 0.046282828 0.049184225 -0.03913906 0.026262764 0.027786782
0.007389726 -0.029405795 0.052169386 0.004559993 0.09615058 0.010698206 -0.034264196 0.030825876
0.0020963394 0.049202565 0.0015889893 -0.013749036 0.01352887 -0.0036366552 0.036050044 0.079748034
-0.020490794 -0.031646002 0.037551336 0.028664833 0.006741152 -0.059146866 0.00020090831 0.09961398
0.021130051 0.042117056 0.01720024 0.006746833 0.039145663 -0.05113674 0.03949797 -0.037221275
-0.02672917 0.005600281 0.012745069 0.008922918 0.021659791 0.063512534 0.0157317 -0.040729757
0.033347715 0.0044675125 -0.012607791 -0.051012315 -0.037240647 -0.008681891 -0.041476306 -0.041810006
0.0058049858 0.076822266 0.011887759 0.0035669953 0.100051224 -0.008090832 0.04986343 0.038381282
-0.022865668 -0.019029733 0.0077182967 -0.020922555 0.25109738 -0.026657272 0.003590089 -0.02998396
-0.0455108 0.033078082 0.033316612 -0.047143232 0.028055862 -0.13402762 0.020476338 -0.007371286
0.044855148 0.016648525 0.023695664 0.06922415 0.06148486 0.038090758 0.0002049712 -0.008639944
-0.09102773 -0.0013237715 0.0010102183 0.0015558806 -0.043041676 0.040417023 0.00018540518 0.054873336

linear2.weight f4 [256, 256]
00000000: 401a c53e 5ecd 6a3d 91b3 4c3e 5534 0ebd
00000010: 931d 653e 9bd4 9c3e b46d 5abd 6c61 a1bc
00000020: f860 993c 9c6e 7a3e c12b c03c 2468 76bd
00000030: b236 68bd 31da c43c d88b 603c e444 49bd
00000040: 9a9c 29bd 0041 3e3b 86ef 133d 8915 483d
00000050: a0ce 873b 3582 0d3e 720c dfbd 96a3 a03e
00000060: cf90 253e d4bf 7dbd 8d7d 0a3e c0a3 c33b
00000070: d420 be3c b308 693e ee7e 68bd e4f1 443d
00000080: c02f b7ba 8cf4 723e 98b4 6bbd 065c 293d
00000090: ce0c 73bd 722f 55bd 5f46 a13e 7480 863e
000000a0: bc31 dbbc cc45 82bc 13f1 7c3e d8bb 383e
000000b0: 3055 453c e1f1 c5bb cc67 ce3c 7505 8e3e
000000c0: f077 173c c14b 433d 30d8 a5bc a6e1 153e
000000d0: 906b 0d3c 1eba 803d 9eb4 b63d a088 083d
000000e0: 0db8 133f 54db c3bc 4ef2 9b3c f84d 3cbc
000000f0: c0f7 5bbb 9e0a 973e 070e 2a3d 1b5e ea3c
00000100: 36fa 103d c73d 21bd e6a2 d03d 2c15 02bd
00000110: a48f 39bd 0038 a9b9 1a78 553d 706a 293d
00000120: c864 06bd 20bb 563b acb5 83bc 14b1 e83e
00000130: 4c22 2fbd 5f5b 2a3c 168e 0c3e a8c7 a73c
00000140: 5690 51bd 9c0e 713e 4c2c 8e3e 543a a5bc
00000150: 6816 f3bc b6af 143c 8d6d 253e c1a8 40bd
00000160: 187e bb3c ccc8 0b3e dc8d 71bd 2afb 673a
00000170: cbac 493e 4a18 25bd 601b 403b 91ac 59bd
00000180: 9b17 e3bc 943f 143e 6a03 05bd cc53 653d
00000190: cc05 71bd 8acf 29bd 4c6d 883e 0009 263d
000001a0: 8a1f 4f3d 1896 b73e 9668 17bb 9e4e 31bd
000001b0: af35 a3bd 9e78 0ebd 3cd4 aabc 55a9 07bd
000001c0: 9e89 1b3e a8c9 37bc f0c7 b63b e962 45bd
000001d0: b8db 10bc 9a3f 543e 4027 d03a e62c 9c3c
000001e0: e996 cd3e dd4e 913c 0538 0abd 72d7 21bd
000001f0: a009 80bb 044e ff3c df29 2cbd 488c 443c
00000200: 9043 28bd 8012 373b 90f6 633d 6a38 6e3d
00000210: 78b4 293c 4a31 7e3d 337f 683e e0ed 4e3e
00000220: ec14 d6bc f197 4ebd 004e f83b 3f2d ad3d
00000230: c459 853c e546 07bd 942f 7b3e abb6 2e3e
00000240: e115 333e 3d7a 833e be71 133d 8f6e 023e
00000250: 39dd cd3d b6fe 243f 498f d5bd 7371 633e
00000260: c274 513e 55bb 843d 7d1c 833d e58c 8cbc
00000270: fa1d 2a3e 4029 c33a 0a00 7fbd 7ddd 803e
00000280: 0ddb 893e 21e5 c43d 5f59 be3d 401e 563b
00000290: 3aa2 29bd 72b9 2bbd 78db 47bc 8873 263c
000002a0: 503f 3dbc bddd 813e 5c45 843e 2aeb 593e
000002b0: a8e3 bbbd 4a01 5b3e 2444 c1bc 9356 683e
000002c0: 6858 503d 7a32 213d 04e9 793d 1076 b73c
000002d0: 9d8b 8a3e e201 543e b8a6 4d3d b7a2 aa3e
000002e0: d2f5 5bbd 16e2 42bd 2e0c 933e 98d8 7abd
000002f0: 6af2 3a3d 9bbf 603c da64 42bd 74dd 52be
00000300: 1005 4ebd 1c5d ff3c 609d 383d 6712 2f3e
00000310: fe76 443d 4ccd fd3c 600c 333c e1f7 c43d
00000320: c84a 6a3c cc41 fc3d b00a 3f3e 6f30 a73c
00000330: c47c fdbc ef32 313f 8c97 87bc c0b3 91ba
00000340: 52c8 543e 2ce1 7c3e 3be2 e1bc 5c04 b43c
00000350: 7f62 213e 79dc 4abd 5a3b 5c3e 9877 42bd
00000360: 27cb 243e f654 803e 60e8 3dbc 3862 3c3d
00000370: a54a 8b3e 7c9d 0fbe 6236 5e3e 6621 c33d
00000380: 5c1e fe3d 23a2 e43d f887 bd3e 7d86 82bc
00000390: eb96 513e 4a6a 0b3d 009b 6bbd e44b a1bc
000003a0: fe61 1f3e 41b4 df3d f61b 113d 50f3 62bd
000003b0: 3cf6 ac3d e49d 153e a962 c63c 0813 9dbc
000003c0: c666 7d3d 4d4a 853c 5ca7 7c3e caa7 6b3e
000003d0: 3548 863d 5e62 943e 67cb 25bd 6897 3c3d
000003e0: e170 ff3d 839a 6b3d 409e 7c3b 964b 59bd
000003f0: 2edf 5f3d e8eb 253c 1072 3a3e 6dc0 a73d
0.3849659 0.05732476 0.19990374 -0.034717876 0.22374563 0.30630955 -0.053327277 -0.019699775
0.018722996 0.24456257 0.023458363 -0.06015791 -0.056692787 0.024029823 0.013705216 -0.049137965
-0.041409113 0.0029030442 0.0361171 0.048848663 0.0041445047 0.13819201 -0.10891046 0.31374806
0.16168521 -0.06195052 0.13524456 0.0059704483 0.023209013 0.22757225 -0.056761675 0.048082247
-0.0013976023 0.237261 -0.057545274 0.041347526 -0.059338383 -0.0520472 0.31499 0.26269877
-0.026757114 -0.015902422 0.24701338 0.18040407 0.012044236 -0.006040797 0.025195979 0.27738538
0.009244904 0.047679666 -0.020244688 0.1463686 0.008631602 0.06285499 0.08921169 0.03333342
0.57702714 -0.023908295 0.019036438 -0.011493199 -0.0033564419 0.29500288 0.041517284 0.028609326
0.03539487 -0.039365556 0.101873204 -0.031758472 -0.045303002 -0.00032275915 0.05211649 0.041361272
-0.032810956 0.0032765344 -0.016077839 0.454476 -0.042757317 0.010397761 0.13726076 0.020480946
-0.05116304 0.2354073 0.2776817 -0.020169415 -0.02967377 0.009075096 0.16155072 -0.047035936
0.022887275 0.13650817 -0.05897318 0.0008849377 0.19694822 -0.040306367 0.0029313192 -0.053143088
-0.027721217 0.14477378 -0.03247396 0.055988118 -0.05884342 -0.04145769 0.26645887 0.040535927
0.050567187 0.358567 -0.002310311 -0.043287866 -0.07969224 -0.034783 -0.020853154 -0.033120472
0.15189216 -0.011217512 0.0055780336 -0.04819003 -0.0088414475 0.20727387 0.0015880838 0.019064378
0.40154198 0.0177378 -0.03374483 -0.039512105 -0.0039073974 0.03116513 -0.04203212 0.011996336
-0.041080058 0.002793461 0.055655062 0.05815927 0.0103579685 0.062058724 0.22704773 0.2020793
-0.026133023 -0.05043787 0.0075776577 0.08455896 0.016278155 -0.033026595 0.24529868 0.1706187
0.17488815 0.25679198 0.035997145 0.12737487 0.100519605 0.6445116 -0.1042772 0.22211246
0.20454696 0.06481043 0.06401918 -0.017157027 0.16612998 0.0014889613 -0.062255897 0.25168982
0.26924935 0.09614015 0.0929439 0.003267184 -0.041414477 -0.0419249 -0.0121983215 0.010159381
-0.011550739 0.25364485 0.25834167 0.21281114 -0.09174281 0.2138721 -0.023592062 0.22689275
0.05086556 0.03935478 0.061013237 0.022395164 0.2705964 0.20703843 0.050207824 0.33327267
-0.05370123 -0.047578894 0.2872023 -0.061241716 0.04564134 0.013717557 -0.04745946 -0.2059229
-0.050297797 0.031172328 0.04507196 0.17096864 0.047965042 0.030981682 0.010928243 0.09617592
0.014300056 0.12317237 0.1865642 0.020408837 -0.030943282 0.69218343 -0.016551755 -0.0011116192
0.20779541 0.24695271 -0.027573695 0.021974735 0.1576023 -0.049526665 0.21507016 -0.047477335
0.16093121 0.2506482 -0.011591047 0.045992106 0.27205387 -0.1402492 0.21700433 0.095278546
0.12408134 0.111637376 0.37017798 -0.01593327 0.20467727 0.034036912 -0.057520866 -0.019689508
0.15564725 0.109230526 0.035427056 -0.055407822 0.08445403 0.14611012 0.024216967 -0.019174114
0.06186559 0.016270781 0.24673218 0.23013225 0.06556741 0.28981298 -0.040477183 0.04604283
0.12472702 0.0575204 0.0038546473 -0.0530506 0.0546562 0.010127045 0.18207574 0.08190999

linear2.bias f4 [256]
00000000: 16e5 b13e 054a 87bc 7418 2a3e da6a f6bc
00000010: 5bd9 a63e b04a 4f3d 0dc6 80bd eca8 e9bc
00000020: f012 f5bc d698 103c 8ae4 243e a93d 46bb
00000030: 703d 5f3d 7d3c db3d 965e 2c3e be9b 05bd
00000040: ef53 1dbe a364 c43e 70db 603d 8970 09be
00000050: 602e be3c 4678 56be c83b ffbd 79bf a63e
00000060: cfb1 cb3e fc23 f23d 91dc 30be 42b0 9c3e
00000070: 7a1d 193d e946 60be f04b dd3c 24b2 a13e
00000080: 6423 68bd fd80 ad3d dfae a43e 5699 92bd
00000090: 2d9e 03bd e3f8 613d 68c1 563e a785 a1bd
000000a0: e4c2 863e a87b 203e 7dc2 c33e 3a89 0bbe
000000b0: 3093 bbbc 1f80 a73d 1f40 723d 003c 363d
000000c0: bc95 b63e 2caa 603d 580d f9bd 3098 fabd
000000d0: 3119 0ebe c8af 33be ba35 b63e 452e b73e
000000e0: 4667 d83d 98bf c43e 60d2 9c3e c257 ca3d
000000f0: 2edb 16bd aff5 dd3d 7035 0abd 9c22 76bd
00000100: 411f 9b3e e982 083d 2c06 08be 23e0 e2bc
00000110: d12b ab3e bc00 6cbd 3fcd 41be c034 b23a
00000120: 5a14 57be 4638 eebd a18d 7c3c c089 c43e
00000130: 1ceb f83c 3915 613e d89a 313d 1073 753e
00000140: b563 2fbe c876 43be 1bbd 6f3b a271 b53e
00000150: 146f 06be cd3f 0d3c 4f07 1d3e 26d1 3e3e
00000160: 2d65 553e 6679 09bb 3309 6bbd 484c 293e
00000170: 8946 76be b694 5f3e e259 18be d47d 50be
00000180: 27fe a83c e5b7 093c 6796 16be dd60 0e3d
00000190: 66cc 10bd 166f 18bd 95de 82bd 87ac 69be
000001a0: 275b a73e 7095 833b af66 b03e b379 eb3c
000001b0: 94f1 fcbc c0d9 3cbc 6aae 46bd 7bbb efbd
000001c0: ac36 5b3d 8c4d 79bc 83e6 6fbd a9bb ae3e
000001d0: f353 883e 37c0 24bd eb71 e83a d69a 98bd
000001e0: c471 f7bc 4092 e93d 4173 043e 0970 a93e
000001f0: c2f9 ec3d 84d5 3d3e 4b33 9d3e 96ac 94bd
00000200: d2b7 283e a899 bf3b 6cc8 7dbd 6bfc bc3e
00000210: fc20 53be a15c 243e 1e90 9c3c a0da 33bd
00000220: a723 a9bc 4ee7 9c3e d266 5fbe b678 af3e
00000230: 5f58 71be f425 7abd 3fd0 9ebd 5a2b 3fbb
00000240: 4bed 3ebd d857 fbbc 097c dc3d 8aa5 903e
00000250: 913b 61be 8986 4abd 7d60 69be 09f1 f23c
00000260: d514 8dbd 4d0b a23e 9dc9 08bc f8af 0c3e
00000270: 7ed1 1bbc 4c92 f9bc 2f50 293d 1023 f13d
00000280: 9fd7 953d 1729 e9bd 36c0 9e3e 4551 873d
00000290: 20bf ac3d 132f 603d 0438 02be 84e3 fc3c
000002a0: 9175 b13e 9d64 84bc 21e4 1c3e db21 c53e
000002b0: 1e57 47bd 56f7 2c3b fe25 833e 0ae2 083e
000002c0: f458 74be dac5 3bbe 091a 483e 99e7 d13b
000002d0: 3f1e c93e e306 e83c 544c 4f3e 3370 c53e
000002e0: cc28 ff3d d2b4 033e a6e7 c93e 4629 fa3d
000002f0: 4464 0c3d f437 40be 68bc 9c3e a104 463d
00000300: b801 31bc 3496 9d3e 52d5 be3e 38cc 9b3e
00000310: 6747 22bc 39df 113e 7845 3dbe 4797 8fbc
00000320: b802 353d 2a17 dbbc 75b8 30be 2f2b 2b3d
00000330: 35e9 9c3e 2c82 e23d 2621 c33e e697 9fbd
00000340: 4df9 243e 1f54 8e3e a989 a13e 1d18 af3e
00000350: 4d30 51be ccb0 76bd 817b 9d3d c43a a43e
00000360: d763 0c3e 69d7 b33e 3895 68be 17aa be3e
00000370: 16f9 48be d147 09be af9f 22bd 5718 8f3e
00000380: cc13 c03d 0746 c13e 9f5a 273d 8fb1 2b3d
00000390: 9f92 803e 9916 0a3e a69c d43d b96c c73d
000003a0: 6820 35bd 8e7f 5c3e dce9 68be 862e 973c
000003b0: 7d4a 493e 825d 143e fa7c a23e 3ddf 873c
000003c0: 88b8 31bd f437 39be d8d2 cd3e b941 a73e
000003d0: d13b 32be fad3 7fbd e612 98bc a74e 8f3e
000003e0: e4ed ee3d 7306 80bc 33c1 3fbc c9fa a33e
000003f0: c29c 76be f31a 5dbe 3e15 c23e 18fb bbbc
0.3474509 -0.016514787 0.1661089 -0.030080248 0.32587704 0.050608337 -0.06287775 -0.028522931
-0.029916257 0.008825501 0.16102806 -0.0030249155 0.05450195 0.107048966 0.16832957 -0.03261923
-0.1536405 0.3835803 0.054896772 -0.13421835 0.023215473 -0.20944318 -0.12462574 0.32567957
0.39784095 0.1182327 -0.1727164 0.30603224 0.037381627 -0.2190205 0.027013749 0.31581223
-0.056674376 0.08471868 0.32164666 -0.07158153 -0.03213327 0.055168997 0.20972216 -0.0788682
0.26320565 0.15672171 0.3823432 -0.13626567 -0.022897333 0.08178734 0.059143182 0.044490814
0.35661113 0.05484979 -0.12160748 -0.12236059 -0.13876797 -0.17547524 0.35587865 0.35777488
0.10566573 0.38427424 0.30629253 0.0988002 -0.03683012 0.10837876 -0.03374237 -0.0600916
0.30297282 0.03332797 -0.13283604 -0.027694767 0.33431867 -0.057617888 -0.18925951 0.0013596043
-0.21003857 -0.11631827 0.015414626 0.38386345 0.030385546 0.21980752 0.04336056 0.23969674
-0.17127879 -0.1908828 0.0036581222 0.35438257 -0.1312831 0.008621168 0.1533482 0.18634471
0.20839377 -0.00209769 -0.05738182 0.16533005 -0.24050345 0.21834072 -0.14878038 -0.203605
0.020629002 0.00840566 -0.14705811 0.034760345 -0.03535118 -0.037215315 -0.063901104 -0.2281972
0.3268673 0.004015617 0.3445334 0.028744554 -0.030876912 -0.011526525 -0.048506178 -0.11705681
0.053518936 -0.0152162425 -0.058569442 0.34127548 0.26626548 -0.040222373 0.0017734146 -0.074514076
-0.030205615 0.11404848 0.12934591 0.3309329 0.11571075 0.18538481 0.30703196 -0.07259481
0.16476372 0.0058471747 -0.061958715 0.3691133 -0.20618051 0.1605096 0.01911169 -0.04390967
-0.020646883 0.3064522 -0.21816567 0.34271783 -0.23568867 -0.06107135 -0.077545635 -0.0029170127
-0.04661302 -0.030681536 0.10765845 0.28251296 -0.21995379 -0.04944471 -0.22790714 0.02965595
-0.06888739 0.31649247 -0.00834885 0.13739002 -0.009510396 -0.030465268 0.041336235 0.11774266
0.07316517 -0.113847904 0.3100602 0.06607298 0.08434892 0.054732393 -0.12716681 0.030870207
0.3466001 -0.016161257 0.153214 0.38502392 -0.048667066 0.002639254 0.25614923 0.13367477
-0.23862058 -0.18337193 0.19541182 0.0064057824 0.39280888 0.028323596 0.2024396 0.38562164
0.12458953 0.12861946 0.39434546 0.122149035 0.03427531 -0.18771344 0.30612493 0.04834426
-0.010803632 0.30778658 0.37272125 0.30429244 -0.009904719 0.14245309 -0.18483531 -0.01752819
0.044192046 -0.026744444 -0.17257865 0.04178923 0.30646673 0.110599846 0.38111228 -0.07792644
0.16110726 0.27798554 0.3155034 0.34198084 -0.20428582 -0.0602272 0.07689572 0.32076085
0.13709961 0.35125282 -0.22713172 0.37239143 -0.19626269 -0.13406302 -0.039703067 0.27948257
0.09378776 0.3774874 0.040857907 0.04191738 0.25111863 0.13485183 0.10381441 0.09737534
-0.044220358 0.21533033 -0.2274546 0.018454801 0.19657321 0.14488795 0.31735975 0.01658594
-0.043388873 -0.1808775 0.40199924 0.3266733 -0.1740563 -0.062458016 -0.018563699 0.27989694
0.11666468 -0.015628075 -0.011703777 0.3202727 -0.24083236 -0.21592312 0.37906832 -0.02294688

linear3.weight f4 [1, 256]
00000000: 9b88 b4be 4127 c73c 6f92 bcbf c7ab 3140
00000010: bc2e 97be e013 173c ee24 123d 25dc 2840
00000020: c2f5 3e3d eb44 e33a 427e bebf 3919 c4bb
00000030: 405d 7e3b bbfe 9cbf 090f 91bf 001f 063b
00000040: d7be 383f e9f1 a6be 2982 503f b204 2b3f
00000050: 211d 443d 21c9 2c3f cfe6 3d3f d83a 1dbf
00000060: 7874 a8be b589 8ebf 3d94 343f b75f 99be
00000070: e0cb 9c3c bf96 443f 81a9 1740 873f a5be
00000080: 403a 4abb fe95 abbf affe 4bbf d1c0 cf3a
00000090: c3d1 673b d8a1 343c 9e75 98bf af83 2fbb
000000a0: 3865 b2be 105f 85bf c4ec a1be ee38 313f
000000b0: a8a4 393c 4e84 9cbf f847 e6bf f78e a73b
000000c0: 9337 aabe 547e adbf 3190 363f 0f4a 273f
000000d0: a697 273f 5142 293f cc00 a1be eb96 b4be
000000e0: 3628 9fbf bd13 96be 6891 98be d253 a7bf
000000f0: 6da6 0bbd aa9a abbf 3c17 cc3f 15fb 093c
00000100: 870a 25bf 6f51 2e3d ebd8 313f 3e94 203c
00000110: 8b75 abbe ea13 5bbd 7cb7 3b3f a15a 403d
00000120: 1844 393f 74d4 493f 1d95 fa3f 8552 8fbe
00000130: f451 fbbc d6c3 38bf 7f37 a43b 19b7 c0bf
00000140: 4bb4 393f 2d22 353f 6605 143a 2da4 4bbf
00000150: 0787 253f 16d4 9c3c 5b72 bcbf deee ffbf
00000160: cb8d 7cbf 90ac 303d 3e2c 103d 21a5 9cbf
00000170: 181f 293f 627e 9dbf 968b 313f 7844 343f
00000180: 6ecf 993b dede 12bc 35af 403f d61c 143d
00000190: f60b 283d 025e 5abb 3385 3abd f354 253f
000001a0: c797 a3be c418 4bbd f1c2 a9be 1f80 27bd
000001b0: 241c 963c 5449 fe3b 20ba 1c3c a6f1 3b3f
000001c0: ea8a 3440 842c 75bb ae88 113d d64d 9ebe
000001d0: f57d e0be f28b d03b 2d35 083d dde9 0c3d
000001e0: dae3 5b3d 6713 abbf aa9b e1bf 9b84 a2be
000001f0: 680d c0bf e262 a3bf c5c9 a4be fd1b 013d
00000200: 581b 9ebf 13d3 e63b 90db 3dbc 7862 98be
00000210: 5385 473f 7749 acbf 89ac 4c3d 700a 3e3c
00000220: d5df 803c 146e 98be 6373 313f 293c adbe
00000230: 465f 273f 8ac8 58bd d283 d53c f998 b7bc
00000240: 4792 4b3b 30d2 04bd 1563 e9bf 4859 93be
00000250: b6d9 273f 1c20 053d a8c8 2d3f 6656 9dbf
00000260: a567 0d3b 92a8 9fbe f3a5 6dbc 66a7 a6bf
00000270: 5114 c03c bd63 8dbc 1565 893c d333 a8bf
00000280: 551b a5bf e41e 2e3f 1742 adbe bfca 98bf
00000290: 39dc 9ebf f1bc 4c3d 11ce 273f de0b 183d
000002a0: 9996 96be 6eb4 f43f 7a89 6dbf 2f37 b7be
000002b0: 0809 75bc 1d3c 99ba 0928 09bf e777 f2bf
000002c0: 5a19 373f a40b 293f 4506 e2bf 1241 ddbb
000002d0: 94a2 9abe 37a8 283d d36b 8ebf dfa6 a4be
000002e0: 10ef 65bf 2823 94bf ebc2 a3be 39f0 a0bf
000002f0: c580 1a3d 3f64 353f 1e05 b7be f65e 163d
00000300: 725b d6ba 1c1b cbbe eb6e 95be bd60 a9be
00000310: 8f70 21bc cc14 aebf dd14 273f 6985 de3f
00000320: 3678 173c b33e 603c d4aa 3c3f 7121 4f3d
00000330: 593c aabe ee19 99bf ecd3 adbe 6e19 16bc
00000340: 0be3 e3bf 0298 a4be cd91 96be c193 a6be
00000350: a2ef 3b3f 6f99 bb3c 80fe b3bf 8a15 99be
00000360: f4c9 abbf 0cca ccbe 3961 333f febf c0be
00000370: 046b 323f 3912 273f 0ddc 0d3c 612c acbe
00000380: d90b 2840 edfa 94be 56bb 1d3d d02a 36bc
00000390: b3d7 f3be 2d48 b8bf 1c3a 9ebf 3643 bfbf
000003a0: ddf4 863c 33a3 e8bf f7fc 333f 48cf 2040
000003b0: 577a debf 0546 a0bf 38d2 a2be a7ad 2b3d
000003c0: 2a3c d93c 43f9 3e3f 6e28 a3be 23c8 94be
000003d0: d107 313f b88a c9bc 03d9 eb3c 6f6e a4be
000003e0: c3b1 a5bf f85a b83b 491a c2bc 171c 9fbe
000003f0: f4c6 423f 19ad 3a3f df2b 97be 4115 cabb
-0.35260472 0.02431071 -1.4732188 2.7761095 -0.29527843 0.009221047 0.03567975 2.6384366
0.04662109 0.0017339265 -1.4882281 -0.005984452 0.0038812906 -1.2265238 -1.1332713 0.0020465255
0.721662 -0.32606438 0.8144861 0.6680404 0.047879342 0.674944 0.7418031 -0.61417913
-0.3290136 -1.1135775 0.70538694 -0.29955837 0.019140184 0.7679252 2.3697207 -0.3227503
-0.0030857474 -1.3405149 -0.7968549 0.001585031 0.003537283 0.011024915 -1.1910894 -0.002678137
-0.3484285 -1.0419636 -0.3162595 0.6922749 0.011330761 -1.2227876 -1.7990713 0.0051134783
-0.33245525 -1.3554177 0.7131377 0.6534738 0.6546577 0.66116816 -0.3144592 -0.3527139
-1.2434146 -0.29311934 -0.29798436 -1.3072455 -0.034094263 -1.3406575 1.594459 0.008421679
-0.6446919 0.04255813 0.69471616 0.009800969 -0.33488116 -0.05348579 0.7332685 0.04696143
0.7236953 0.788398 1.9576756 -0.27992645 -0.030678727 -0.7217382 0.0050114985 -1.5055877
0.7254073 0.70755273 0.00056465564 -0.7954739 0.6465916 0.0191441 -1.4722399 -1.9994771
-0.9865386 0.04313332 0.035198443 -1.2237893 0.6606307 -1.2304194 0.69353616 0.70416975
0.004693917 -0.0089642685 0.75267345 0.036160313 0.04102703 -0.0033320193 -0.045537185 0.6458275
-0.31951734 -0.049584165 -0.3315654 -0.04089367 0.018323965 0.0077602062 0.00956586 0.734156
2.8209786 -0.0037410567 0.03553074 -0.3091876 -0.43846098 0.006364339 0.033253837 0.034402717
0.053684093 -1.3365296 -1.762563 -0.31741795 -1.5004091 -1.2764552 -0.32185188 0.031520832
-1.2352095 0.007044205 -0.011587992 -0.29762626 0.7793781 -1.345992 0.04996923 0.011599168
0.015731731 -0.29771483 0.6931669 -0.3383496 0.6537975 -0.052925624 0.026063833 -0.02241181
0.003106253 -0.032427013 -1.8233362 -0.28779054 0.65566576 0.032501325 0.678843 -1.2291992
0.002157667 -0.31183296 -0.014504897 -1.3019836 0.023447188 -0.017259473 0.016771832 -1.3140815
-1.2898966 0.68015885 -0.33839485 -1.1936873 -1.2410957 0.049984876 0.6554881 0.037120692
-0.29411772 1.9117563 -0.927879 -0.3578429 -0.0149557665 -0.0011690889 -0.53576714 -1.8942841
0.7152306 0.6603339 -1.7658163 -0.0067521418 -0.30202162 0.041176047 -1.1126655 -0.32158563
-0.89817905 -1.1573229 -0.31984648 -1.257331 0.03772046 0.7085609 -0.35746092 0.036711656
-0.0016354157 -0.3966912 -0.29186186 -0.33081618 -0.009853496 -1.3600097 0.6526621 1.7384464
0.009244969 0.013686824 0.73698163 0.050569 -0.33249167 -1.1961038 -0.33950746 -0.009161336
-1.7803663 -0.32147223 -0.29408112 -0.32534602 0.73412526 0.022900311 -1.4062042 -0.29899246
-1.3421006 -0.399979 0.70070225 -0.37646478 0.6969454 0.6526218 0.008658421 -0.33627608
2.6257231 -0.2909769 0.038508736 -0.011118606 -0.47625503 -1.4397026 -1.2361484 -1.4942386
0.016474182 -1.8174804 0.7030787 2.5126514 -1.7381085 -1.2521368 -0.3180101 0.041913655
0.026517946 0.74599093 -0.31866783 -0.29058942 0.6915255 -0.024602279 0.028790003 -0.32115504
-1.2944874 0.0056260787 -0.023694174 -0.31076118 0.7608483 0.72920376 -0.29525658 -0.0061670844
