turtlebot3_rl_sim/src/models/td3/revamped/new_tracking_cp_gcp_nobonus_corrected_3_no_cp/td3_critic1_model_ep900.pt (torch_old, 647202 bytes, 5 tensors)

linear1.weight f4 [256, 372]
-0.061993733 -0.018439274 0.025731165 -0.05924745 -0.0031995852 -0.08284532 -0.08256965 -0.013512852
-0.0025852376 -0.08819485 -0.06374202 -0.026770893 0.011999824 0.0075049307 0.004693079 -0.008839844
-0.037944727 -0.09026909 -0.02224727 -0.04158434 -0.047248278 -0.019461494 -0.08721882 -0.095637985
-0.088948846 -0.11842188 -0.12447026 -0.0733652 -0.09657825 -0.08909637 -0.06570003 -0.13277395
-0.074630305 -0.05430398 -0.048520837 -0.10187413 -0.12917979 -0.06670884 -0.09920383 -0.087643504
-0.10290827 -0.09052837 -0.08177393 -0.046694696 -0.04544598 -0.12676282 -0.048654947 -0.11753526
-0.13037486 -0.07935398 -0.06065114 -0.054760706 -0.09325379 -0.062904574 -0.08602077 -0.1021647
-0.07601164 -0.06332479 -0.04396853 -0.10482605 -0.09036893 -0.09359652 -0.036292188 -0.036149137
-0.06486855 -0.02176261 -0.06951473 -0.03333207 -0.08294367 -0.07811867 -0.02907685 -0.018572267
-0.04893807 -0.05299715 -0.082238846 -0.028352281 0.0150268115 -0.07535152 0.0016834254 -0.0394192
-0.03073237 -0.0073689576 -0.05558921 -0.0022806483 0.0019569318 0.022562802 0.02399853 0.026890848
0.013983543 -0.048617695 0.05202187 0.0048966664 0.036634915 -0.04455191 -0.0654482 -0.039340224
0.0042297454 0.0138993515 0.0023942697 -0.0004876264 0.001274784 -0.04160073 0.007645281 0.022651091
-0.040053245 -0.0074246507 -0.03002531 -0.042021688 0.025451768 0.032824684 0.010717205 -0.036482923
-0.03291856 0.05907832 0.08342349 0.029961236 0.06351701 0.038414113 -0.012551912 0.018624049
0.068550624 0.04634452 0.06730042 0.026311193 -0.019208174 -0.020208417 0.01879653 0.044282943
0.07186763 0.035506897 0.06410859 -0.026845027 0.04855511 0.0316989 0.023325741 0.0059825894
0.046071827 0.052526273 -0.0035581912 0.010209634 -0.027503287 -0.007672662 -0.015827844 -0.018609893
0.06116225 -0.003663757 0.04653153 0.016888807 0.050696407 0.032888014 -0.021252988 0.033836473
0.046330363 0.02936966 0.033774633 -0.009050509 -0.045360297 -0.03277551 0.01499049 -0.004476174
-0.026024345 -0.03012254 -0.0043676742 0.036614053 -0.03156479 -0.044695705 -0.02583063 0.048314456
-0.024143444 0.011509202 -0.0216095 0.020953475 -0.021459742 0.019761754 0.008416464 -0.016088614
0.04940969 0.01499347 -0.030273788 0.013527008 -0.012226322 0.0073696095 -0.039047413 0.04323241
0.045686632 0.0009011777 0.054451503 -0.026948217 0.048786078 0.04327041 -0.018779393 -0.038604103
-0.0047356403 -0.048442606 0.033421475 0.042868074 0.036936663 -0.009558266 -0.025174232 -0.009331023
-0.0043170103 0.023571985 0.03273304 0.038808994 -0.047847304 -0.039780553 -0.020847304 -0.039249327
0.020816756 0.0061171656 0.05682675 -0.029831223 0.041197654 0.055097472 0.03724139 0.032351572
0.004002596 -0.0023410446 0.024504425 0.0047553843 -0.0057709925 0.0051163654 0.025093393 0.038343333
0.057456326 0.039444532 0.04963172 0.01686422 0.029213196 -0.0017389556 0.011965179 -0.015576478
0.019350853 -0.0032929038 0.04722369 0.014698241 0.0047090976 0.055738967 -0.023114145 0.037330054
-0.0015491984 0.00086604356 -0.049752418 -0.004182155 0.0075082835 -0.0084675 0.006216724 -0.025306853
-0.026935179 -0.04837704 0.003458726 0.021127446 -0.06835244 0.010146677 -0.0012572518 -0.0069416664
00000000: 24ed 7dbd f60d 97bc 2aca d23c 74ad 72bd
00000010: 22b0 51bb cfaa a9bd 471a a9bd 0265 5dbc
00000020: 176d 29bb 809f b4bd 2d8b 82bd a24e dbbc
00000030: e99a 443c eceb f53b 66c8 993b fed4 10bc
00000040: ee6b 1bbd 00df b8bd e83f b6bc 5754 2abd
00000050: 6987 41bd b66d 9fbc c89f b2bd d9dd c3bd
00000060: d02a b6bd 2c87 f2bd 44ea febd 7e40 96bd
00000070: d1ca c5bd 2878 b6bd bd8d 86bd e5f5 07be
00000080: c6d7 98bd da6d 5ebd c9bd 46bd 62a3 d0bd
00000090: b547 04be a59e 88bd 612b cbbd 707e b3bd
000000a0: 92c1 d2bd f066 b9bd 1779 a7bd f042 3fbd
000000b0: 9025 3abd 1dce 01be 694a 47bd 54b6 f0bd
000000c0: fd80 05be 5784 a2bd 546d 78bd c34c 60bd
000000d0: d8fb bebd 1dd4 80bd a82b b0bd ba3b d1bd
000000e0: feab 9bbd 6db0 81bd 5818 34bd 0aaf d6bd
000000f0: 5813 b9bd 88af bfbd 1ea7 14bd 1e11 14bd
00000100: cdd9 84bd 8047 b2bc bd5d 8ebd 3587 08bd
00000110: 5fde a9bd aefc 9fbd 9332 eebc de24 98bc
00000120: 4973 48bd 8a13 59bd d76c a8bd 0b43 e8bc
00000130: 0433 763c e651 9abd 62a6 dc3a 0776 21bd
00000140: 74c2 fbbc 4c77 f1bb 83b1 63bd ee76 15bb
00000150: de3f 003b a0d5 b83c 9198 c43c 324a dc3c
00000160: 3b1b 653c 5923 47bd e214 553d 3774 a03b
00000170: 7e0e 163d 107c 36bd b509 86bd 3723 21bd
00000180: ad99 8a3b 1bba 633c 2ee9 1c3b 1ca8 ffb9
00000190: a716 a73a 8765 2abd 4485 fa3b c88e b93c
000001a0: df0e 24bd 7c4a f3bb a4f7 f5bc ef1e 2cbd
000001b0: 3a80 d03c 2d73 063d 3797 2f3c 1e6f 15bd
000001c0: 9dd5 06bd 1cfc 713d efd9 aa3d 4471 f53c
000001d0: 3515 823d 1e58 1d3d 89a6 4dbc 7691 983c
000001e0: 4564 8c3d c0d3 3d3d cdd4 893d 928a d73c
000001f0: 765a 9dbc 1f8c a5bc 2efb 993c 0862 353d
00000200: 562f 933d ae6f 113d 5d4b 833d 1aea dbbc
00000210: b9e1 463d b5d6 013d a015 bf3c 9909 c43b
00000220: d0b5 3c3d ca25 573d 8b30 69bb 4f46 273c
00000230: 934e e1bc f46a fbbb 65a9 81bc c673 98bc
00000240: 4485 7a3d a41b 70bb d897 3e3d 655a 8a3c
00000250: 09a7 4f3d 95b5 063d bf1a aebc 1d98 0a3d
00000260: e8c4 3d3d a498 f03c 4557 0a3d 9648 14bc
00000270: b8cb 39bd 9d3f 06bd ac9a 753c deac 92bb
00000280: 0231 d5bc 8cc3 f6bc b51e 8fbb 9ef8 153d
00000290: 154a 01bd d812 37bd c29a d3bc 61e5 453d
000002a0: 79c8 c5bc 1891 3c3c 6806 b1bc 9fa6 ab3c
000002b0: 57cc afbc 67e3 a13c 35e5 093c 45cc 83bc
000002c0: d161 4a3d 2ca7 753c bc00 f8bc 62a0 5d3c
000002d0: e950 48bc c47c f13b 2ef0 1fbd 7814 313d
000002e0: e821 3b3d 033d 6c3a 8a08 5f3d 82c2 dcbc
000002f0: e9d3 473d 503c 313d 3ed7 99bc 561f 1ebd
00000300: 6e2d 9bbb c16b 46bd f5e4 083d 6f96 2f3d
00000310: e64a 173d 469a 1cbc 313a cebc 26e1 18bc
00000320: b575 8dbb 091a c13c 1513 063d 2ef6 1e3d
00000330: 89fb 43bd eff0 22bd f7c7 aabc e7c3 20bd
00000340: e787 aa3c 8172 c83b 2bc3 683d 9c60 f4bc
00000350: dfbe 283d e3ad 613d 6e8a 183d 1583 043d
00000360: 3528 833b 366c 19bb 81bd c83c 0ed3 9b3b
00000370: 981a bdbb 2fa7 a73b a990 cd3c e60d 1d3d
00000380: 5357 6b3d 9790 213d a14a 4b3d d526 8a3c
00000390: 8350 ef3c abed e3ba 9909 443c 7c34 7fbc
000003a0: ae85 9e3c c2cd 57bb a16d 413d e4d0 703c
000003b0: c64e 9a3b 8b4e 643d e059 bdbc 66e7 183d
000003c0: 790e cbba 3307 633a 31c9 4bbd 750a 89bb
000003d0: 0c08 f63b 45bb 0abc a9b5 cb3b 5150 cfbc
000003e0: 2aa7 dcbc 0127 46bd cbab 623b 7713 ad3c
000003f0: 5dfc 8bbd 3f3e 263c 5fca a4ba eb76 e3bb

linear1.bias f4 [256]
-0.03438856 -0.050180826 -0.049663696 0.046382517 0.009175865 -0.03683459 0.06673268 -0.032521445
-0.0051997188 -0.045028 0.09562959 0.0011408597 0.003720521 0.032284517 0.057825126 0.09596134
-0.051109917 -0.07462126 -0.018722396 -0.032922287 0.012908985 0.010952644 0.07720337 0.025572095
0.000542555 0.015661042 0.034264877 -0.0070269755 -0.013207564 -0.008579548 -0.05571289 -0.045691848
0.058199 -0.019723384 -0.0022387854 -0.048610244 -0.024982752 0.06555102 -0.049379144 -0.024466427
0.09636835 -0.014848199 0.057312816 0.06288669 0.010768792 0.03784027 -0.029185629 0.034284253
0.035056878 -0.029057106 0.018997695 0.026625607 -0.025396634 -0.054407544 -0.037813596 -0.017367134
-0.046236485 0.033197213 0.029172217 -0.03550317 -0.04013073 -0.021026118 0.13010016 0.014473419
0.05441425 0.13833673 0.0794717 0.124409795 -0.04573953 -0.012507954 -0.025690932 0.04553762
0.027594557 0.0557429 0.07008395 -0.047165576 -0.027077112 0.008293529 -0.013510644 0.0011575769
0.0018733689 0.056585353 -0.031145133 0.0008946817 -0.05338458 0.019407257 -0.043365777 -0.035948716
0.019265916 -0.010502387 -0.046787232 0.030179165 -0.020569397 0.024512248 -0.010570242 0.060105532
0.018886682 -0.0135007445 0.010927685 -0.023863675 0.03104306 0.032605197 -0.026086185 0.07893526
-0.02021028 0.0057012364 0.22298351 0.069604136 -0.045095056 0.044253886 0.078772046 -0.017020682
-0.04091304 -0.033016164 0.015419804 -0.17831017 -0.0011441193 0.015577968 0.005784031 -0.039370026
-0.0123937735 0.010065279 0.027451878 0.0051404866 0.038841583 -0.20088375 0.04735929 -0.03271477
0.007372776 0.07872515 -0.03963005 0.024107682 -0.0022479123 -0.0322515 -0.04173335 -0.0088100415
-0.02752834 0.0511278 0.050215844 -0.017504225 -0.040966686 0.008448874 0.038323954 0.04188084
-0.027641723 0.043128103 0.08238232 0.0013392082 0.05763961 0.00064243004 -0.0006623747 -0.050542925
0.14159302 0.15711948 0.11888257 0.027560184 0.0006753667 0.010856532 -0.1125034 0.004768636
0.06985547 0.007021015 0.02744431 0.033065338 -0.029610313 0.09654397 -0.023292959 0.045460135
0.038773976 0.17565952 0.006658823 0.0098982 0.03848564 -0.035404824 0.0050143856 0.003447038
-0.041324314 0.057024937 0.037580393 -0.026302299 0.019292366 -0.02588055 0.021233616 0.008799797
0.005916745 -0.0060678055 0.006652822 -0.0007944248 0.039949525 -0.020080639 0.030369898 0.068708576
0.038476862 -0.022296816 0.010603956 0.009698522 0.019069752 0.017179752 -0.015772337 0.11285318
0.004206024 -0.048982773 -0.03922923 0.1001282 0.008943966 -0.032970987 -0.0044597825 0.09773755
-0.04208248 -0.011262838 -0.008185496 0.025880177 -0.025714029 0.023432657 0.048869107 -0.050218824
-0.028058264 0.046851397 -0.008928506 -0.0085043805 0.03244992 0.13240243 0.03524445 0.049756907
-0.05066884 0.022490418 -0.039254863 0.012811193 0.001306286 -0.019121002 -0.02083501 0.024079742
-0.024308102 -0.026145179 0.016169826 0.01700727 0.049852714 0.019767715 0.045805648 -0.048666123
0.15880744 -0.05437029 0.023393674 0.01501843 0.05743989 -0.055897664 0.23959163 -0.0027859379
0.03977832 -0.11451933 0.036132 0.06755344 0.008386878 0.16754219 -0.0063473885 0.09522476
00000000: 05db 0cbd 698a 4dbd 296c 4bbd 98fb 3d3d
00000010: 5e56 163c dedf 16bd 25ab 883d 3535 05bd
00000020: 6762 aabb 486f 38bd 72d9 c33d e688 953a
00000030: fcd3 733b c53c 043d 0ada 6c3d 6187 c43d
00000040: a258 51bd 08d3 98bd b65f 99bc 85d9 06bd
00000050: 3580 533c b872 333c cd1c 9e3d 927c d13c
00000060: 403a 0e3a 964b 803c 5459 0c3d 8b42 e6bb
00000070: 8a64 58bc 3c91 0cbc 3333 64bd 6027 3bbd
00000080: 1362 6e3d ef92 a1bc 96b8 12bb 891b 47bd
00000090: a1a8 ccbc 9d3f 863d c941 4abd d16d c8bc
000000a0: c55c c53d dc45 73bc d8c0 6a3d bdca 803d
000000b0: 966f 303c 66fe 1a3d b316 efbc a56d 0c3d
000000c0: cd97 0f3d 2b09 eebc 0ea1 9b3c f21d da3c
000000d0: 9a0c d0bc 72da 5ebd 6ee2 1abd 8545 8ebc
000000e0: 7862 3dbd cdf9 073d 93fa ee3c c66b 11bd
000000f0: 1f60 24bd f73e acbc fa38 053e eb21 6d3c
00000100: 7ae1 5e3d 25a8 0d3e 0fc2 a23d 90ca fe3d
00000110: 6059 3bbd 29ee 4cbc ca75 d2bc a885 3a3d
00000120: fb0d e23c ab52 643d 2d88 8f3d b130 41bd
00000130: d2d0 ddbc 95e1 073c c05b 5dbc d6b9 973a
00000140: d48b f53a 0bc6 673d 1424 ffbc 1389 6a3a
00000150: caa9 5abd f8fb 9e3c 50a0 31bd f63e 13bd
00000160: 8ed3 9d3c 3412 2cbc f8a3 3fbd 4c3a f73c
00000170: 2781 a8bc e9cd c83c cf2e 2dbc 3831 763d
00000180: 3eb8 9a3c 3a32 5dbc 080a 333c c17d c3bc
00000190: 044e fe3c 078d 053d b2b2 d5bc cfa8 a13d
000001a0: 0790 a5bc 70d1 ba3b ca55 643e 9d8c 8e3d
000001b0: 98b5 38bd 9043 353d 3d53 a13d f56e 8bbc
000001c0: 6f94 27bd f53b 07bd 58a3 7c3c f196 36be
000001d0: 46f6 95ba bc3a 7f3c f887 bd3b 7742 21bd
000001e0: 410f 4bbc d7e8 243c c3e2 e03c 8771 a83b
000001f0: 5a18 1f3d 78b4 4dbe d1fb 413d ecff 05bd
00000200: 5497 f13b a73a a13d 1f53 22bd 797d c53c
00000210: b651 13bb 261a 04bd 97f0 2abd fe57 10bc
00000220: 1d83 e1bc 626b 513d 21af 4d3d 0565 8fbc
00000230: afcc 27bd 256d 0a3c 94f9 1c3d 3e8b 2b3d
00000240: e570 e2bc 18a7 303d 10b8 a83d 5f88 af3a
00000250: 8317 6c3d c068 283a 37a3 2dba 1906 4fbd
00000260: c3fd 103e eee3 203e b478 f33d e5c5 e13c
00000270: 180b 313a 98df 313c 2f68 e6bd 3842 9c3b
00000280: 6210 8f3d 8b10 e63b e4d2 e03c 856f 073d
00000290: 5491 f2bc d8b8 c53d e0d0 bebc 6834 3a3d
000002a0: 76d1 1e3d 17e0 333e 4232 da3b 0f2c 223c
000002b0: 1ea3 1d3d a604 11bd b74f a43b b3e7 613b
000002c0: af43 29bd fb92 693d e6ed 193d eb77 d7bc
000002d0: 060b 9e3c 7203 d4bc 1ff2 ad3c 062d 103c
000002e0: 41e1 c13b 71d4 c6bb eaff d93b f240 50ba
000002f0: 1da2 233d 2780 a4bc 4bca f83c 15b7 8c3d
00000300: ea99 1d3d d0a7 b6bc 37bc 2d3c 8de6 1e3c
00000310: 2b38 9c3c 8dbc 8c3c fd34 81bc 911f e73d
00000320: b0d2 893b 29a2 48bd d4ae 20bd 0410 cd3d
00000330: b689 123c 960c 07bd 5e23 92bb a02a c83d
00000340: ae5e 2cbd c487 38bc 751c 06bc aa02 d43c
00000350: 3aa6 d2bc d8f5 bf3c f92a 483d 41b2 4dbd
00000360: 72da e5bc 40e7 3f3d de48 12bc f555 0bbc
00000370: 35ea 043d 8194 073e 7c5c 103d e6cd 4b3d
00000380: 218a 4fbd d33d b83c b5c9 20bd 0ae6 513c
00000390: af37 ab3a a6a3 9cbc 2fae aabc e142 c53c
000003a0: c921 c7bc 6a2e d6bc 9576 843c d552 8b3c
000003b0: 5c32 4c3d e7ef a13c b49e 3b3d 2156 47bd
000003c0: 6b9e 223e 62b3 5ebd 17a4 bf3c dc0f 763c
000003d0: 1746 6b3d f3f4 64bd 8257 753e 4894 36bb
000003e0: 97ee 223d 1c89 eabd 26ff 133d 7559 8a3d
000003f0: 1e69 093c 2e90 2b3e c1fd cfbb 3305 c33d

linear2.weight f4 [256, 256]
-0.052453257 0.04377258 0.012172252 -0.011317909 0.016217137 -0.013327146 0.04256707 -0.050657663
0.041527715 -0.055931192 -0.022275954 0.028422453 0.050335053 -0.052527763 -0.00823765 0.036811493
-0.054463424 0.038801543 -0.029160038 -0.028185388 -0.07160686 0.05183588 -0.08533382 -0.058582857
-0.056516707 0.033589378 -0.03598448 0.014275606 -0.032192804 -0.043251306 0.03988039 -0.019343775
-0.0036116492 -0.04223501 0.056995135 -0.009719141 0.00631116 0.0501622 0.022666365 -0.04222509
0.012775617 0.038539343 -0.051840074 -0.040277507 -0.05839957 0.020016663 0.03708493 -0.032747943
-0.01923304 0.017418124 -0.05349295 0.04733992 0.054083444 -0.0404295 0.027188584 0.013252268
-0.05238024 0.020748846 0.037588865 -0.035332553 0.05095718 0.008029033 -0.022964016 -0.06494901
0.050678525 -0.0940674 0.02823717 0.05990459 0.03488626 0.027542775 0.025640268 -0.049544547
-0.049540155 0.0032019136 -0.028934171 0.04965854 -0.006970258 0.053926237 -0.0016586988 -0.037885122
-0.03918293 -0.056836437 0.037946105 0.05566446 -0.013361046 0.05457381 0.024285005 -0.048732433
0.060456246 0.035513967 0.054375753 -0.0009441972 0.048911247 0.057024937 -0.0405122 0.015341226
-0.02100302 0.023907261 -0.03586378 0.017914753 -0.002774436 0.022151157 0.013017574 0.05288539
-0.04360196 -0.061914757 -0.041978475 -0.023909496 0.031404413 0.04763869 -0.0535172 -0.03179129
-0.033816356 0.05422575 -0.0077200085 -0.03508966 -0.05352167 0.0069381595 0.039775338 0.031407584
-0.04366827 -0.014964886 -0.028818687 -0.030708529 -0.005889457 -0.019029733 0.04039746 -0.0029948803
-0.0035035226 0.05048332 -0.050681032 -0.03283586 -0.06168379 0.010922357 -0.0043250197 -0.038166143
-0.020570515 -0.052149273 0.04541576 0.040304005 -0.033422798 -0.025122078 -0.055850726 -0.034451146
0.048050705 0.027835956 -0.042476173 -0.054969322 0.026707564 0.04664436 0.035446547 -0.05603103
-0.016449222 -0.07287495 -0.042290654 -0.06456456 0.03075435 0.01973605 0.008695302 0.034746796
-0.009204363 -0.044106573 -0.024334945 -0.030165754 -0.019225683 -0.038259886 0.024790943 -0.048433665
0.03526997 0.0056091286 -0.01060675 -0.03987592 -0.047994826 0.022460729 0.033649463 0.051934145
-0.061542973 0.0459854 0.020579828 0.023349278 0.014879104 -0.041741148 -0.002290897 0.03273304
0.017821621 0.06060452 0.028110882 0.028740829 0.027635908 -0.04921374 -0.058319848 -0.05295915
-0.017360501 -0.04046526 -0.033287365 -0.027563265 -0.041772094 0.017439777 0.02354479 -0.09472752
-0.051964596 0.0018832874 0.015160762 0.01840761 0.04256656 0.031647492 -0.04802612 0.025355654
0.018684536 -0.025924914 -0.065364756 0.0032722284 -0.04726914 -0.03287982 -0.06913922 -0.043556422
-0.0349776 -0.0045666983 0.03122028 -0.057138186 -0.04719389 -0.07975482 0.016524846 -0.050360143
-0.016082654 0.022777379 0.024719067 -0.028820923 0.016115809 -0.041951653 0.03765192 -0.03645014
0.025832929 -0.041708536 -0.033157725 0.021656439 -0.0053682923 0.0039982186 0.012796851 0.0014270097
0.01696592 0.04502055 -0.03695529 -0.005626451 -0.07068597 0.0041037374 0.02914316 -0.037394635
0.014827322 -0.011370063 0.0018793526 -0.0065387757 0.01747256 -0.04455489 0.02213253 -0.02437553
00000000: 3ad9 56bd e04a 333d 206e 473c c06e 39bc
00000010: cdd9 843c 1a5a 5abc cf5a 2e3d 697e 4fbd
00000020: f718 2a3d 1b18 65bd 107c b6bc 34d6 e83c
00000030: 212c 4e3d 5a27 57bd 35f7 06bc a6c7 163d
00000040: 0a15 5fbd 5eee 1e3d 08e1 eebc 0be5 e6bc
00000050: 9ea6 92bd dc51 543d 7fc3 aebd 94f4 6fbd
00000060: 107e 67bd 0495 093d 7664 13bd 3be4 693c
00000070: 9adc 03bd 4828 31bd 9f59 233d d676 9ebc
00000080: 6bb1 6cbb 9efe 2cbd bb73 693d 083d 1fbc
00000090: d9cd ce3b e176 4d3d d0ae b93c 37f4 2cbd
000000a0: d250 513c 6edb 1d3d 4256 54bd 07fa 24bd
000000b0: 6334 6fbd fcf9 a33c 5ee6 173d b522 06bd
000000c0: 9c8e 9dbc 74b0 8e3c 6c1b 5bbd 81e7 413d
000000d0: 9a86 5d3d 6799 25bd 98ba de3c 0a20 593c
000000e0: aa8c 56bd 7cf9 a93c c8f6 193d deb8 10bd
000000f0: 7ab8 503d 358c 033c 081f bcbc fd03 85bd
00000100: 4994 4f3d 69a6 c0bd a351 e73c 845e 753d
00000110: e5e4 0e3d 63a1 e13c 8a0b d23c 39ef 4abd
00000120: 9eea 4abd 32d7 513b 5b07 edbc c166 4b3d
00000130: c366 e4bb c2e1 5c3d b268 d9ba 6e2d 1bbd
00000140: 487e 20bd 53cd 68bd 606d 1b3d 6b00 643d
00000150: 4ae8 5abc ca88 5f3d 59f1 c63c a99b 47bd
00000160: f8a0 773d 1877 113d 1cb9 5e3d 0084 77ba
00000170: 2957 483d fb92 693d 1ff0 25bd c459 7b3c
00000180: 870e acbc 29d9 c33c e6e5 12bd f6c1 923c
00000190: 50d3 35bb 5876 b53c aa47 553c 5a9e 583d
000001a0: f897 32bd 549a 7dbd 9ff1 2bbd d9dd c3bc
000001b0: eaa1 003d c920 433d da34 5bbd 9537 02bd
000001c0: 0583 0abd d21b 5e3d 20f8 fcbb 2dba 0fbd
000001d0: 8a39 5bbd 8059 e33b 77eb 223d 3da5 003d
000001e0: 80dd 32bd 482f 75bc 2b15 ecbc 7490 fbbc
000001f0: 59fc c0bb 3ee4 9bbc cf77 253d c145 44bb
00000200: 5b9b 65bb 99c7 4e3d ea96 4fbd e57e 06bd
00000210: 24a8 7cbd b0f3 323c e5b8 8dbb 1a54 1cbd
00000220: 7f83 a8bc 7a9a 55bd e005 3a3d d015 253d
00000230: 58e6 08bd d1cc cdbc bbc3 64bd a51c 0dbd
00000240: d1d0 443d 3b08 e43c 7ffb 2dbd 8327 61bd
00000250: d2c9 da3c 280e 3f3d 6630 113d cb80 65bd
00000260: 85c0 86bc 763f 95bd f738 2dbd 6d3a 84bd
00000270: 8cf0 fb3c 7fad a13c bd76 0e3c a852 0e3d
00000280: e6cd 16bc 18a9 34bd 145a c7bc 2c1e f7bc
00000290: 2e7f 9dbc 66b6 1cbd 6016 cb3c 6162 46bd
000002a0: 3e77 103d c8cc b73b efc7 2dbc ef54 23bd
000002b0: 3996 44bd 90ff b73c 05d4 093d e6b8 543d
000002c0: 7c14 7cbd 305b 3c3d 0797 a83c fc46 bf3c
000002d0: 7cc7 733c c4f8 2abd e022 16bb 1513 063d
000002e0: a6fe 913c 723c 783d cb48 e63c e371 eb3c
000002f0: b364 e23c 5994 49bd cbe0 6ebd b2eb 58bd
00000300: 9c37 8ebc e7be 25bd 5558 08bd 5bcc e1bc
00000310: 3719 2bbd dddd 8e3c 01e1 c03c 8100 c2bd
00000320: d4d8 54bd a4d8 f63a d864 783c 8ecb 963c
00000330: 465a 2e3d cda0 013d 09b7 44bd a9b6 cf3c
00000340: 5010 993c 7c60 d4bc f5dd 85bd e272 563b
00000350: 499d 41bd fdac 06bd dd98 8dbd 3868 32bd
00000360: ac44 0fbd 3ea4 95bb acc1 ff3c bb09 6abd
00000370: 614e 41bd 7f56 a3bd 1d5f 873c 7046 4ebd
00000380: c5bf 83bc a097 ba3c a47f ca3c db19 ecbc
00000390: 4d05 843c 7fd5 2bbd e638 1a3d be4c 15bd
000003a0: 949f d33c 92d6 2abd 65d0 07bd d868 b13c
000003b0: 80e8 afbb 7d03 833b e2a9 513c 800a bb3a
000003c0: 1dfc 8a3c 7867 383d 6e5e 17bd 185e b8bb
000003d0: cec3 90bd a578 863b a3bd ee3c 1e2b 19bd
000003e0: 4cee 723c 8049 3abc 9c54 f63a 3a43 d6bb
000003f0: 9d22 8f3c 307f 36bd 484f b53c 31af c7bc

linear2.bias f4 [256]
-0.020667 0.13673076 -0.0025776008 -0.066604346 -0.12247613 0.14384286 0.046171665 -0.060348645
-0.15288892 0.3551161 0.04085514 -0.16602343 -0.16174704 -0.16154765 -0.06891719 0.39334804
0.13460518 0.29993442 0.038890455 0.12348015 -0.00013168187 0.3201515 -0.07100783 0.37703106
0.32805634 0.051385228 -0.02353734 0.3183799 -0.05469216 0.12876166 0.13996959 -0.113376826
-0.096129015 0.05047438 -0.07250987 -0.18972363 0.0679871 0.2557233 0.05840311 0.24208039
-0.03797006 0.2862305 0.027777841 -0.06311468 -0.063669 -0.034439225 0.34652516 0.001557557
0.01161202 0.008606826 -0.05951418 0.100378655 0.043548312 0.36891854 0.33682492 -0.03987443
-0.035264328 0.045750707 0.0006714538 -0.2306734 0.2291181 0.37150288 0.195167 -0.18380506
0.0044202944 0.05917078 0.10426314 0.27581745 0.054071758 -0.15339129 0.3736125 -0.0647702
0.08158311 -0.03688749 0.008895846 0.09800225 0.15534163 0.036330927 0.37572694 0.041862227
0.3318439 -0.05706964 0.014308988 0.3753768 0.07605865 0.0412282 0.11654909 0.026845632
0.0036593329 0.0122645125 0.36519942 0.09015494 0.36603758 0.3188347 -0.115329266 0.029936843
0.025958994 0.017942693 -0.06861619 -0.071176216 -0.041974004 0.087788574 0.3300678 -0.11949025
-0.043346405 0.052317657 -0.03151748 0.08974703 0.129668 -0.010605819 0.3631421 -0.17456031
0.14637122 -0.09792214 0.3461963 -0.15999223 0.23653786 0.28174615 -0.018175151 0.14304648
-0.055318817 0.08138056 0.17728317 -0.029964216 0.039394613 0.35755122 -0.03826361 0.02580301
0.30586237 -0.005586311 -0.07473835 0.11737181 -0.05730955 0.15343097 -0.039751496 0.09387216
-0.12424768 -0.19769365 0.06040673 0.35410058 0.095864214 0.14729024 -0.13148886 0.035629414
0.09107982 0.39556554 0.14312436 0.36091354 0.14978546 0.3634303 -0.20613164 -0.14727834
0.016160391 0.28161198 0.023792095 -0.11232143 0.30900085 0.28135228 0.04477417 0.35903078
0.029729469 -0.040353607 0.32041904 0.010379135 0.347415 -0.024429174 -0.058806375 -0.0063674124
-0.0028192792 -0.20623392 0.010166048 0.033830512 -0.016679818 0.0763253 0.05753632 0.1615434
-0.20376714 -0.12510346 0.026545651 0.037266724 -0.21297519 0.14299835 0.05223075 0.08351072
0.3307809 0.006162137 -0.013621816 -0.03651645 0.28174958 -0.046645522 -0.07302992 0.3868431
0.36218968 -0.21661201 0.3285979 -0.053177454 0.051478107 0.050155442 0.36791006 0.32363433
0.016325224 -0.038208477 0.29120407 -0.09018266 0.31889433 0.08731486 0.10661018 -0.18719773
-0.040603843 0.12369704 -0.014739219 0.010253779 0.33751974 0.27358696 0.046711087 -0.030911185
-0.26474404 -0.21698706 0.08838224 0.12492304 0.33176324 0.03189507 -0.12345577 0.13391794
-0.053567864 0.3309695 -0.049323265 -0.13241065 -0.107232794 0.059678838 -0.023304507 0.3538038
-0.019570274 -0.065615095 0.1577854 -0.068321146 -0.043714464 0.06503956 -0.024439977 -0.009606695
0.042337254 -0.10128343 0.12204551 0.35352296 -0.16567872 0.359737 0.32763717 -0.20274429
-0.14103349 0.031342477 0.11040241 -0.025044873 0.11127345 0.27117562 -0.19629715 -0.05008695
00000000: d74d a9bc 2603 0c3e f7ec 28bb dc67 88bd
00000010: c4d4 fabd 8b4b 133e 801e 3d3d 2430 77bd
00000020: ea8e 1cbe c7d1 b53e b857 273d 0c02 2abe
00000030: 04a1 25be bf6c 25be 7524 8dbd ea64 c93e
00000040: f1d5 093e 0191 993e 994b 1f3d 29e3 fc3d
00000050: 1514 0ab9 e6ea a33e 8e6c 91bd 370a c13e
00000060: 00f7 a73e 5179 523d 61d1 c0bc b102 a33e
00000070: e304 60bd 19da 033e 3054 0f3e 1c32 e8bd
00000080: 4adf c4bd 39be 4e3d 0e80 94bd e946 42be
00000090: d23c 8b3d 2aee 823e 1938 6f3d ece3 773e
000000a0: 7e86 1bbd ce8c 923e 5b8e e33c 4542 81bd
000000b0: e564 82bd 2510 0dbd bf6b b13e f126 cc3a
000000c0: 5840 3e3c a503 0d3c 24c5 73bd 5393 cd3d
000000d0: b75f 323d e4e2 bc3e 5174 ac3e 5f53 23bd
000000e0: 5471 10bd 1865 3b3d 8004 303a a635 6cbe
000000f0: ef9d 6a3e a035 be3e dcd9 473e 6537 3cbe
00000100: 1ed8 903b 0f5d 723d ea87 d53d f237 8d3e
00000110: 597a 5d3d 9b12 1dbe 234a bf3e 3da6 84bd
00000120: 0c15 a73d 5617 17bd e2bf 113c 67b5 c83d
00000130: e011 1f3e bdcf 143d 485f c03e ba77 2b3d
00000140: 72e7 a93e dbc1 69bd 3f70 6a3c 6331 c03e
00000150: a3c4 9b3d e7de 283d 4ab1 ee3d 5feb db3c
00000160: 6bd1 6f3b 18f1 483c 6bfb ba3e 27a3 b83d
00000170: 4769 bb3e 4d3e a33e c031 ecbd 1c3e f53c
00000180: f5a7 d43c 8efc 923c a586 8cbd d6c4 91bd
00000190: efec 2bbd 7fca b33d a6fe a83e 4eb7 f4bd
000001a0: 008c 31bd 0a4b 563d 7918 01bd 4acd b73d
000001b0: b0c7 043e 07c4 2dbc c3ed b93e f0bf 32be
000001c0: 56e2 153e 678b c8bd a440 b13e 01d5 23be
000001d0: fb36 723e 0841 903e 0ee4 94bc c77a 123e
000001e0: fc95 62bd daaa a63d b889 353e 8477 f5bc
000001f0: 3f5c 213d f410 b73e 4eba 1cbd d660 d33c
00000200: fe99 9c3e 600d b7bb 6c10 99bd a260 f03d
00000210: 6bbd 6abd 021d 1d3e 77d2 22bd 0c40 c03d
00000220: 9175 febd 3470 4abe 0c6d 773d ac4c b53e
00000230: 7554 c43d 41d3 163e 04a5 06be 26f0 113d
00000240: 0f88 ba3d 9187 ca3e 318f 123e a9c9 b83e
00000250: 5c61 193e 8913 ba3e 2c14 53be 22d0 16be
00000260: cc62 843c 722f 903e a4e7 c23c c708 e6bd
00000270: 5c35 9e3e 680d 903e 1f65 373d e2d2 b73e
00000280: 378b f33c d349 25bd f70d a43e 3f0d 2a3c
00000290: 61e0 b13e b11f c8bc f4de 70bd baa5 d0bb
000002a0: a8c3 38bb fc2e 53be 7f8f 263c dd91 0a3d
000002b0: 1da4 88bc 7050 9c3d 34ab 6b3d a26b 253e
000002c0: 55a8 50be 1f1b 00be 4476 d93c fea4 183d
000002d0: 2b16 5abe 296e 123e e9ef 553d ab07 ab3d
000002e0: 1d5c a93e c0eb c93b 0a2e 5fbc 4692 15bd
000002f0: 7b41 903e 600f 3fbd b690 95bd 4c10 c63e
00000300: ed70 b93e 8acf 5dbe fc3d a83e 9ad0 59bd
00000310: b5da 523d cb6f 4d3d b55e bc3e 66b3 a53e
00000320: 7abc 853c 7e80 1cbd b318 953e b0b1 b8bd
00000330: 1e46 a33e 22d2 b23d 7056 da3d c3b0 3fbe
00000340: 3750 26bd e054 fd3d c47c 71bc 77ff 273c
00000350: 63cf ac3e 9713 8c3e 2054 3f3d 7439 fdbc
00000360: 888c 87be db31 5ebe bf01 b53d a7d7 ff3d
00000370: dfdc a93e 68a4 023d 61d6 fcbd c921 093e
00000380: fa69 5bbd d674 a93e 3107 4abd a896 07be
00000390: de9c dbbd cc71 743d 18e9 bebc c625 b53e
000003a0: d751 a0bc 3561 86bd 7f92 213e f5eb 8bbd
000003b0: f00d 33bd 7633 853d 5936 c8bc 6665 1dbc
000003c0: d469 2d3d b06d cfbd fff2 f93d f600 b53e
000003d0: afa7 29be 732f b83e 0fc0 a73e 339c 4fbe
000003e0: 156b 10be f860 003d a91a e23d e82a cdbc
000003f0: 56e3 e33d 88d7 8a3e 1f02 49be f927 4dbd

linear3.weight f4 [1, 256]
0.036716126 -1.2214297 0.00700956 0.013542699 0.6558141 -1.09753 0.012383156 0.022145942
0.5491501 -0.5353017 -1.2760558 0.6847181 0.66705585 0.8098843 0.03506284 -0.3110766
-1.3333379 -0.31982782 -1.1256301 -1.043151 0.0075468402 -0.31199452 0.018192288 -0.31875557
-0.31310597 -1.0235398 0.00886797 -0.34696677 0.021774158 -1.5057676 -1.0368668 3.1512475
0.666802 0.028003594 0.032874603 0.68573785 0.30361214 -0.33796594 -1.0974253 -0.49350342
0.04429859 -0.29469 -0.021230264 0.010521067 0.0022981104 0.012976969 -0.30312935 0.020475147
0.011496536 0.0035530224 0.018866938 -1.0495903 0.0025676354 -0.33324802 -0.3694348 0.007765328
0.058162004 0.01241389 0.042885877 0.67319167 -0.47075891 -0.29298928 -0.8536 0.6743579
-0.0005999411 -1.2462008 -1.128867 -0.3286744 -1.0979786 0.7131563 -0.30656356 0.0010231637
-1.0872643 0.04394096 -1.3292408 -2.7639363 -0.8209653 -0.005964522 -0.32792166 -1.1967217
-0.31581602 0.015081387 -2.0108705 -0.3029036 -1.8632095 0.045475036 -1.1768271 -1.6269816
-0.028503567 -1.8434074 -0.30601868 -1.034951 -0.31325525 -0.3241207 0.6243754 -2.1520238
4.079012 0.006154884 0.005722657 0.012103201 0.043299466 -1.2962867 -0.30797297 0.66787136
-0.0032525775 0.039178547 1.8954468 -1.0948884 -2.6545591 0.030536793 -0.28779748 0.7547883
-1.0851678 0.62925345 -0.31707397 0.69255984 -0.47284013 -0.31284112 -0.0074736383 -1.1258522
-0.0141855255 -1.7232075 -0.84851426 0.0053067277 0.022097886 -0.3169381 0.03329556 -1.2066464
-0.3841271 0.0013197203 1.2767998 -1.0107808 0.037268214 -1.2143213 -0.01586398 -1.205952
0.53745145 0.64207417 -1.3824669 -0.30166352 -1.1476877 -1.0259342 0.67226976 -1.2404255
-2.0154495 -0.3066656 -0.96850824 -0.3697958 -1.1764834 -0.38695005 0.6477513 0.63416064
-0.027784174 -0.34957215 -1.3018221 0.6933521 -0.3232241 -0.3424851 -0.95112705 -0.34180784
-1.2152859 1.9354483 -0.31122196 0.051499583 -0.35933593 -0.028429395 0.04211407 -0.010406888
0.039560016 0.70206237 0.034419853 0.013913694 0.006983762 -0.97329235 -1.1549473 -1.4857417
0.60914046 0.7067436 -2.0450802 0.040160533 0.6283589 -1.6513598 -1.0615828 -1.260938
-0.30843446 0.015795806 0.0048470264 -0.03528636 -0.3319112 0.0090339305 0.0045254407 -0.30240947
-0.29516807 0.6667724 -0.27239126 0.048251126 -1.9073844 1.7905982 -0.39024767 -0.30016887
1.9838556 -0.040062927 -0.6417076 0.021518975 -0.2910243 -1.5710903 -1.3926351 0.7185805
0.057596397 -1.2149221 0.029397972 0.004865001 -0.33945328 -0.32413268 0.020087345 0.0014519915
0.92942077 0.69830155 -0.9896249 -1.1423109 -0.3871205 3.2135575 0.6943116 -1.3152465
0.029912807 -0.32794976 -0.0013998607 0.6900676 0.6549735 -1.0558311 0.043760657 -0.32903698
0.027735 0.011607178 -1.5067204 0.039030276 -0.039583854 -1.9967482 -0.0045650974 0.008958121
2.6656716 0.7002243 -1.858128 -0.36524734 0.69416684 -0.3149157 -0.36883017 0.39723724
0.65873414 -1.3363477 -1.2426238 -0.04654727 -1.0394943 -0.35101536 0.62669706 0.04799706
00000000: a663 163d cf57 9cbf 73b0 e53b 32e2 5d3c
00000010: 6fe3 273f dd7b 8cbf b9e2 4a3c 686b b53c
00000020: 1a95 0c3f 8809 09bf cc55 a3bf af49 2f3f
00000030: 2cc4 2a3f 9454 4f3f 0d9e 0f3d 6f45 9fbe
00000040: d1aa aabf 79c0 a3be a614 90bf f985 85bf
00000050: 7c4b f73b bfbd 9fbe fe07 953c ee33 a3be
00000060: 6d4f a0be 5a03 83bf f64a 113c a1a5 b1be
00000070: b85f b23c febc c0bf 0db8 84bf 0aae 4940
00000080: 89b3 2a3f cb67 e53c 85a7 063d 848c 2f3f
00000090: 0d73 9b3e df09 adbe 6f78 8cbf 7bac fcbe
000000a0: 7072 353d 9ce1 96be 17eb adbc 8e60 2c3c
000000b0: e59b 163b 5a9d 543c c533 9bbe 7fbb a73c
000000c0: f85b 3c3c d3d9 683b d68e 9a3c fa58 86bf
000000d0: c645 283b 7c9f aabe 8f26 bdbe 4b74 fe3b
000000e0: 483b 6e3d a163 4b3c 1aa9 2f3d 4a56 2c3f
000000f0: 5007 f1be b102 96be 8885 5abf b8a2 2c3f
00000100: 5e45 1dba 8283 9fbf b77e 90bf 0348 a8be
00000110: 908a 8cbf 6991 363f e6f5 9cbe ad1b 863a
00000120: 7a2b 8bbf 70fb 333d 9024 aabf 55e4 30c0
00000130: c82a 52bf 0972 c3bb 59e5 a7be 2d2e 99bf
00000140: a3b2 a1be ec17 773c 1ab2 00c0 2e16 9bbe
00000150: a67d eebf 0844 3a3d 45a2 96bf ef40 d0bf
00000160: 5080 e9bc c6f4 ebbf 7bae 9cbe 4679 84bf
00000170: fe62 a0be 26f3 a5be 11d7 1f3f c2ba 09c0
00000180: 4487 8240 e9ae c93b 2085 bb3b 814c 463c
00000190: c85a 313d b9ec a5bf a2ae 9dbe 9ef9 2a3f
000001a0: 3229 55bb af79 203d 009e f23f 4e25 8cbf
000001b0: 4ce4 29c0 4c28 fa3c 315a 93be ce39 413f
000001c0: c7e6 8abf c116 213f 8557 a2be 9a4b 313f
000001d0: 1a18 f2be b62c a0be 6ce5 f4bb ed1b 90bf
000001e0: 686a 68bc 1092 dcbf 3b38 59bf 0fe4 ad3b
000001f0: a006 b53c b645 a2be ed60 083d 6473 9abf
00000200: 4fac c4be 77fa ac3a 2d6e a33f 4461 81bf
00000210: 8ea6 183d e16e 9bbf 2df5 81bc a35c 9abf
00000220: 6b96 093f f95e 243f adf4 b0bf a473 9abe
00000230: 6ee7 92bf d051 83bf df19 2c3f 43c6 9ebf
00000240: 20fd 00c0 4603 9dbe 28f0 77bf e055 bdbe
00000250: 0297 96bf 511e c6be 07d3 253f 5a58 223f
00000260: a39b e3bc 1ffb b2be 1ba2 a6bf 867f 313f
00000270: a17d a5be 355a afbe 107d 73bf 7001 afbe
00000280: 7d8e 9bbf c5bc f73f 7c58 9fbe 3af1 523d
00000290: e1fa b7be c3e4 e8bc ce7f 2c3d a781 2abc
000002a0: af09 223d 5cba 333f d5fb 0c3d 43f6 633c
000002b0: 0bd8 e43b b029 79bf 50d5 93bf c92c bebf
000002c0: a1f0 1b3f 26ed 343f 98e2 02c0 5f7f 243d
000002d0: 21dc 203f c25f d3bf f2e1 87bf 6b66 a1bf
000002e0: 1feb 9dbe 3566 813c ced3 9e3b 6e88 10bd
000002f0: 44f0 a9be 0d03 143c 264a 943b 6ad5 9abe
00000300: 4520 97be 99b1 2a3f de76 8bbe f9a2 453d
00000310: 2c25 f4bf 5232 e53f 8bce c7be bcaf 99be
00000320: fbee fd3f 0619 24bd f346 24bf 9048 b03c
00000330: 2301 95be 7d19 c9bf de41 b2bf e4f4 373f
00000340: 33ea 6b3d 9182 9bbf 04d4 f03c 966a 9f3b
00000350: d2cc adbe b8f4 a5be 378e a43c c050 be3a
00000360: 85ee 6d3f e4c3 323f 0f58 7dbf 3e37 92bf
00000370: a834 c6be edaa 4d40 68be 313f ff59 a8bf
00000380: b40b f53c 08e9 a7be 887b b7ba 45a8 303f
00000390: 58ac 273f 7925 87bf 603e 333d 8977 a8be
000003a0: 8334 e33c 082c 3e3c 37dc c0bf 36de 1f3d
000003b0: ae22 22bd 7295 ffbf d096 95bb 15c5 123c
000003c0: 5d9a 2a40 e641 333f 23d7 edbf b301 bbbe
000003d0: ebb4 313f a13c a1be 4fd7 bcbe ae62 cb3e
000003e0: cda2 283f 710d abbf 4c0e 9fbf 5aa8 3ebd
000003f0: 260e 85bf 49b8 b3be 386f 203f 9198 443d
