turtlebot3_rl_sim/src/models/td3/revamped/new_tracking_cp_gcp_nobonus_corrected_3_no_cp/td3_actor_model_ep900.pt (torch_old, 646182 bytes, 6 tensors)

linear1.weight f4 [256, 370]
00000000: 1159 c03c ee25 163d 3566 81bc f31b eb3c
00000010: 20d0 3b3d fdb1 01bd 31c7 c33c 6e27 1c3d
00000020: 1515 0e3d 7a6a ddbc c491 fa3a eb05 e13c
00000030: 3f7b a03c 4838 3d3d a311 61bd eb8f 63bd
00000040: 3dc7 0bbb 3567 05bc 5129 c93c fdc5 06bc
00000050: 461b 14bc d513 89bc 4ab5 d6ba 5010 303d
00000060: e89f 3fbd 8f44 203d d8f8 323d c7ef ad3b
00000070: 39f0 4ebd f279 d3bc 177f 263d 3d50 0a3d
00000080: 1a60 59bc e24e 5cbd bf88 243d beef 97bc
00000090: 9103 c83c a7e5 2abc afd1 a2bc 3979 4dbd
000000a0: f484 ff3c bfeb a0bb 74dc ffbc e6bf 103d
000000b0: 0132 40bd a4d7 723c e473 f33a ae56 11bd
000000c0: b6f9 103d 309a 3ebd e755 aabc 31b4 42bd
000000d0: 29e7 c9bb f645 96bc 618e c7bc 9bd4 693c
000000e0: 5d3a 0a3d e83b bf3c 7b0d 00bd 2852 343c
000000f0: 3a05 d8bb c47c f13b 067a 18bd 4b35 e33a
00000100: a5ac 0e3d 4f0e 283d ed86 8a3b d58f 053d
00000110: c346 61bd 6105 49bd b09d 333d 6819 b23b
00000120: 25d8 8dbc d6d2 97bc 1753 a53c 0530 03bd
00000130: 0934 45bc 8cab 7abc 2702 a03c 6097 b9bb
00000140: 63ce 66bd 63fb 6b3c 2058 363c bb5e e0bb
00000150: 8c45 723c 2b12 60bd 9539 0a3d 535e 6ebc
00000160: 8a1e 53bd 8012 3fbb 4b81 67bb f196 cabc
00000170: 7a43 d73c 9bcf ee3c 973f 22b8 b5c3 00bd
00000180: 86d0 943a 4812 3bbc 12d7 5dbd c82b bd3c
00000190: a21d dfbc 6468 773c ebe7 65bd cf22 2fbd
000001a0: baae db3c 501a bf3c 48e1 bebc f364 633c
000001b0: 8c27 f7bc 5820 3b3a b11a 4dbd f5fc 043d
000001c0: be91 163c 957c 83bc 7b02 66bd 2e0f 1f3d
000001d0: 17d1 293b b64d 1c3d c5e5 853c 1a02 58bd
000001e0: f878 33bc d68f 1ebd ec83 7ebc ae5f 1c3d
000001f0: a81b 3bbd e753 223d f517 8dbc 65eb 0fbc
00000200: c2df 54bd 3a1e 58bd c7f5 2cbd 9b49 e33b
00000210: 0022 b2bc 7622 1e3d e860 3d3d fdd2 88bc
00000220: 60ef 3b3d d695 1dbd dc88 ff3b 7cc0 703c
00000230: 58f2 31bb 0d59 0e3d 934a eabc 9045 3d3d
00000240: 211e 48bd 5a51 d0bc 9bf3 683c df54 293d
00000250: 6886 3dbd 975b 2e3d c5e4 01bd d721 283d
00000260: d702 293d f383 e23c 917a 49bd e0aa bc3c
00000270: 48a9 3f3c 4a7f 5fbb afe5 27bd 06d6 113c
00000280: 5271 56bd 1cf1 f7ba de38 1dbc ab3e 63bd
00000290: 7835 383d 8fbd 29bd ee32 183c 0952 c0bc
000002a0: 22f7 da3c 224f 5dbc f7e4 21bb 15a3 073d
000002b0: 2214 523c 2514 04bd ce7f 133d 4044 3e3c
000002c0: 00ac b4bc 9f5b 2bbd 5a66 d93c 8643 9f3c
000002d0: bda5 023b 5023 31bd 2df7 89bc f306 e2bb
000002e0: 47fb 29bc 5278 d9bb df6d 29bd 235e e73c
000002f0: 20f9 b0bc 7530 8bbc 1656 18bd 67ff adbc
00000300: 8545 0e3d 4392 63bc 37cf ae3c e98a cfbc
00000310: 5dc1 803b 186f 313b f462 743c 8ede 17bd
00000320: 138d e1bc 8f2c 24bd 70d2 3ebd c3bd 62bc
00000330: 46d0 133c ce9e 923b e08e b03c 4fd1 adbc
00000340: 5149 4cba 87d6 2c3c 49e8 c13c dfdf 2fbd
00000350: 03be e33c 2262 5ebb cd1f 8a3c 35c6 8abc
00000360: 2621 1f3b f7af aebc 6942 40bd 082f 313c
00000370: f3da 60bc fa3e 5e3b b793 21bd 3855 3abc
00000380: 334b 60bd e02c b8bc b72a 263d 58e2 3c3b
00000390: bda8 0ebd e919 cd3c 5c4d 72bc 1ea8 983c
000003a0: e095 b33b aea7 90bc 8d5c 033d c1ca 4bbd
000003b0: 863a 14bd ff97 afbc 9bd9 643c f59a 0cbd
000003c0: 3a2c 5ebd 1a66 58bd 7fdc 2ebd 49d2 4dbd
000003d0: 3a7c 593c 68bb 303d 0d1f 073d 3041 383c
000003e0: 72f7 55bd dcbd 72bc f22a dcbb 6242 5cbd
000003f0: 5147 443c 2fff 29bd 4eff 9dbc 9761 ad3c
0.02347997 0.036657266 -0.015795806 0.02869985 0.04585278 -0.031663883 0.023898693 0.03812354
0.034688074 -0.027028311 0.0019116928 0.027468642 0.019590018 0.046196252 -0.05494846 -0.055557173
-0.0021328472 -0.008142282 0.024555834 -0.008225915 -0.009039706 -0.01673309 -0.0016380933 0.042984307
-0.046783358 0.039127883 0.043694347 0.0053081247 -0.050522063 -0.025814984 0.040648546 0.033767927
-0.013267541 -0.053786166 0.040169474 -0.018546935 0.024415763 -0.01043073 -0.019875376 -0.050164435
0.031191327 -0.0049109156 -0.03123305 0.03533926 -0.046922687 0.014821921 0.0018573967 -0.035483055
0.035394393 -0.046533763 -0.020792915 -0.047535125 -0.0061615896 -0.018343907 -0.024359884 0.0142718805
0.033747066 0.023343995 -0.031262856 0.011005916 -0.00659242 0.0073696095 -0.037225746 0.0017334608
0.034832615 0.04102927 0.00422751 0.032607872 -0.054999124 -0.049077395 0.043851554 0.0054351576
-0.01731498 -0.018533152 0.020181222 -0.032028217 -0.012036332 -0.015299689 0.019532276 -0.0056637973
-0.05634917 0.014403197 0.011129409 -0.0068472303 0.014787089 -0.054704826 0.03374632 -0.014548856
-0.051542796 -0.0029155314 -0.0035324867 -0.024730178 0.026277293 0.029151728 -3.8683032e-05 -0.03143664
0.0011353649 -0.011417933 -0.054160185 0.023092166 -0.02723581 0.015100572 -0.056129377 -0.042757805
0.026816715 0.023327976 -0.023300782 0.013879049 -0.030170225 0.00071383035 -0.050074283 0.0324678
0.009190021 -0.016050616 -0.05615471 0.038832836 0.002591198 0.03816005 0.016344914 -0.05273638
-0.010954134 -0.03871139 -0.015534382 0.038177185 -0.045680672 0.039630797 -0.017223338 -0.00878415
-0.051971205 -0.0527632 -0.04222658 0.0069362647 -0.021744728 0.038607083 0.046234995 -0.01670217
0.045882583 -0.038472973 0.0077982973 0.014694329 -0.0027152505 0.034752894 -0.028600013 0.046208918
-0.04885686 -0.025429416 0.014218236 0.041340705 -0.046270758 0.042567816 -0.031712312 0.041047897
0.041262474 0.027650809 -0.049189154 0.023030698 0.011698075 -0.003410297 -0.040990528 0.008901125
-0.052354164 -0.0018916461 -0.009596078 -0.055479687 0.044972867 -0.041440543 0.009289486 -0.023476617
0.02672917 -0.013507636 -0.0024703124 0.03311451 0.012822183 -0.032245774 0.036010556 0.011612952
-0.022054672 -0.041835424 0.026538063 0.019441377 0.0019935213 -0.043246567 -0.016841495 -0.006897801
-0.010374851 -0.0066366578 -0.041364547 0.02824313 -0.021603167 -0.01699088 -0.037191473 -0.02123995
0.034734268 -0.013889852 0.021339042 -0.025334792 0.0039293007 0.0027074274 0.01491617 -0.03707748
-0.02753309 -0.040081557 -0.046587408 -0.013839188 0.009021824 0.0044744974 0.021552503 -0.02121797
-0.00077929074 0.010549194 0.023670333 -0.04293811 0.027800566 -0.0033933003 0.016860867 -0.016940216
0.0024281233 -0.021324141 -0.046938334 0.010814436 -0.013724077 0.0033912049 -0.039447512 -0.011372857
-0.054759216 -0.022482336 0.04056808 0.0028821435 -0.03482889 0.025036769 -0.014788952 0.018634852
0.005480513 -0.01765808 0.032070685 -0.049753908 -0.036188625 -0.021434782 0.013967897 -0.034327466
-0.054241396 -0.052831747 -0.04269075 -0.05024937 0.013274247 0.043147475 0.032988597 0.011246011
-0.052237935 -0.014815774 -0.0067189867 -0.053774245 0.011979894 -0.041503128 -0.019286778 0.021164699

linear1.bias f4 [256]
00000000: 339f ebbc de65 223c 0914 c2bb 7e54 1b3a
00000010: 4ef8 9a3c 8c01 f53c 7a3e d33d e424 7c3c
00000020: 83b1 e3ba d857 383d 5534 8ebb fbfd 2a3d
00000030: 3047 37bd c833 053e 9f2f aa3c 7dae 8c3b
00000040: 30cb 0abc 788e 3ebd d50c 863b 6eec 10bc
00000050: 2aa7 dd3c 7f76 263c 1378 febc 85cd 083d
00000060: 3ca4 7cbc 181e 32bc 12cd b33d d370 edbb
00000070: 6da5 87bb 7194 c03c 99e0 4e3c 844b 74bc
00000080: 6eec 103d b338 61bd a646 9fbc 28b2 bd3b
00000090: b789 2bbd 6186 403c 426e ff3b 702d 343b
000000a0: cf8f 213d 8ba5 62bb e04a b3bc 130b e6bc
000000b0: 9a28 5cbd 1c98 0e3c 8a0b d2bb a222 dabc
000000c0: 8289 593c 2162 22bd 4098 30bd f8fd 3abd
000000d0: 8644 233d 7117 c0bc 0943 4fbc 30a6 3c3d
000000e0: 9ddd 0d3d 091d 4d3d a452 a2bc 63d6 e23d
000000f0: d4e5 ff3c 11f0 c4bc d1cc 4dbd fd35 1e3c
00000100: b6f4 953c 74e2 513d ea0e 53bd 0d0d 0a3d
00000110: ef39 2d3d 7df0 013c ce87 1abd 76d3 a63d
00000120: b6e7 933c 6e3d 103d addc 833c a9e8 4fbb
00000130: 0713 253c de05 903c 8200 dbbc cd13 0cbb
00000140: 9dc4 0d3d d2fd 49bd 3e32 283d c907 43bd
00000150: fe44 d93c e83a 3bbc 858e 063d 4849 36bd
00000160: 7223 d7bc 0883 3c3d 5f67 a83c 07b0 283c
00000170: 18c1 343a adde 8b3b 0c1d ff3b 5695 1bbb
00000180: 267b 90bb 425d ad3c 9a1b dabc d096 3dbc
00000190: 56b8 16bd 8f1f 22bd 74d3 f43c 57a9 113d
000001a0: bc8f 753b e809 3fbd 3869 bf3c 6703 a53c
000001b0: ffa7 a4bc f07c adbb 0213 5abd 85cd 1c3d
000001c0: 269c 97bc ed85 863c c0a4 30bd b275 5b3c
000001d0: 508f 4d3b 35d8 87bb 22f7 5abd 5511 46bd
000001e0: 9d45 08be bf7e ae3c e49a f93c 6c49 5dbc
000001f0: 6209 59bc 41ca 49bc b079 393d 1fa3 423d
00000200: e16a cfbc 2a3a 51bd ffd9 24bd d272 5cbd
00000210: b97e 4abd fad2 563c a779 233d 42b6 5dbd
00000220: ae8d ae3c c553 043d b439 713c 2135 c0bc
00000230: e916 413d d5d0 8f3c ad67 0abd bef4 12bd
00000240: c102 cb3c 78ca 993b 1a69 e43c 88d4 9e3d
00000250: 2dd2 0bbd 3621 99bc ab37 e0bc 17cc ae3c
00000260: 9dc3 89bd f79a 253d aac0 5ebd 3a56 d73c
00000270: f7d3 a8bc 8ee7 c33c 624e 5abc 3f51 ccbc
00000280: f06b b43c 7112 c5bc 1dd4 003c dde2 09bd
00000290: 644f f73c 87a3 a8bc 418c 4bbd 8fc6 8c3d
000002a0: d75e 22bc c869 3b3d e2eb 5fbd 018c b83c
000002b0: d3b0 3fbd f345 e4bc 55d4 043c cac0 523c
000002c0: d373 053d b127 4f3c e6e5 12bd 86f1 1b3d
000002d0: 737a acbd 4a80 8a3d 98bd 3fbc 9bb6 eeba
000002e0: 1de7 9a3d 355c 8b3c 9a19 1cbd 60a3 37bd
000002f0: b615 f33c 6a6f de3c 7794 2439 6f96 2f3d
00000300: 8ac6 d03c 34c0 72bb e204 9e3c de32 1ebd
00000310: 07e1 a43c fd67 05bd 795e 46bc 7642 cb3c
00000320: bad7 503c e274 a13c 9338 6dbc 10b0 be3c
00000330: 90eb e73b f72b aa3d 2eec ef3d 7763 283d
00000340: 3450 0d3d 2520 02bd 7ebd 163d d2e7 55bd
00000350: 8242 50bd 6f57 adbc 4719 25bd 66ed fc3c
00000360: a45e 4f3c df71 20ba 8974 4d3d 162c 1f3c
00000370: ccea fd3c 56de 13bd a6f8 12bd 2799 a43b
00000380: fd2e 023d 346e efbc 8e22 153d 81ee 44bd
00000390: 0a0c d43c 0da1 02bd 39d4 423d a5ef 87b9
000003a0: bb4f efbb a584 043d a80e 393c cf53 2b3d
000003b0: 2907 cdbc b823 bcbc 3e36 9f3d 189b 32bc
000003c0: 056b 0e3d 98cd 343d 45ac 80bb 110e 403d
000003d0: e1dd 40bd f559 4bbd 75e9 013d 5dc8 033d
000003e0: 25f5 843a 387b 3c3d 4eca 91bc aa5d e23c
000003f0: cb99 7e3d 6417 f8bc 356f 0cbd 1955 463d
-0.028762436 0.009911982 -0.0059227985 0.0005925371 0.018917229 0.029907964 0.10314651 0.015389655
-0.0017371628 0.04500565 -0.0043397346 0.04174612 -0.044745624 0.13008034 0.02077466 0.0042932616
-0.008471295 -0.046522588 0.004090885 -0.008845432 0.02705725 0.010160088 -0.031063115 0.033399124
-0.015420016 -0.010871433 0.087793484 -0.0072461157 -0.0041395933 0.023508282 0.01262679 -0.014910582
0.035381727 -0.054985713 -0.019442867 0.00578906 -0.041879382 0.011750788 0.007795126 0.0027492903
0.039443787 -0.0034583535 -0.02188629 -0.028081452 -0.05374966 0.008703258 -0.006410067 -0.026627842
0.013277413 -0.039644364 -0.043113947 -0.04565236 0.03986027 -0.023448678 -0.01265026 0.046056926
0.034635175 0.05007652 -0.019814797 0.11076047 0.03123752 -0.024040254 -0.050244156 0.0096564265
0.018305164 0.051241353 -0.051527895 0.033703852 0.042291578 0.007930872 -0.03772717 0.08145802
0.018054824 0.035214834 0.016096437 -0.003172437 0.010075337 0.017580923 -0.02673364 -0.0021374107
0.034611333 -0.049314328 0.04106354 -0.047614846 0.026522156 -0.011427619 0.03285076 -0.04450348
-0.026262019 0.0460234 0.020557104 0.010295874 0.0006895228 0.0042684884 0.007785445 -0.0023740134
-0.0044092117 0.021162633 -0.02662449 -0.011571601 -0.03679689 -0.039580878 0.029885985 0.035561886
0.0037469706 -0.046640307 0.023365602 0.020143224 -0.020099638 -0.0052944347 -0.053240784 0.038281936
-0.018507075 0.016421283 -0.043125868 0.01339476 0.0031365938 -0.004145647 -0.05345834 -0.048356373
-0.13307805 0.021300672 0.030469365 -0.013506275 -0.013246866 -0.0123162875 0.045282066 0.047518846
-0.025319519 -0.05108086 -0.04024696 -0.05382044 -0.04943726 0.013111824 0.03991094 -0.054128893
0.021307793 0.03230645 0.01472323 -0.023462834 0.04714099 0.017555634 -0.03379028 -0.035877936
0.024781587 0.0046933256 0.027882148 0.07755381 -0.034135986 -0.018692594 -0.027370295 0.021337552
-0.067267634 0.04043099 -0.054382958 0.026286233 -0.020608885 0.023914125 -0.013324352 -0.024941085
0.022024125 -0.024056645 0.007863072 -0.03366362 0.030189224 -0.020585788 -0.049694303 0.068738095
-0.009910307 0.045755178 -0.054668315 0.022527697 -0.046799492 -0.027865386 0.0081072645 0.012863347
0.03258116 0.0126437405 -0.03586378 0.03807213 -0.08421793 0.067627504 -0.0117029175 -0.001821238
0.075636126 0.017011741 -0.038110353 -0.04483354 0.029673439 0.027152736 0.00015695566 0.042868074
0.025485296 -0.0037040832 0.019289438 -0.03862273 0.020126833 -0.032569874 -0.012107485 0.024811964
0.012746746 0.019709054 -0.01447882 0.023277313 0.007077642 0.08309167 0.117149696 0.041110482
0.034500316 -0.031768937 0.036801808 -0.052223034 -0.050844677 -0.021159856 -0.04030731 0.03087492
0.012656841 -0.0006120484 0.050159965 0.009715101 0.030995749 -0.036100708 -0.03588166 0.00502314
0.031783093 -0.029227354 0.036409907 -0.048079018 0.025884647 -0.03189187 0.047565673 -0.00025927756
-0.007303206 0.032353062 0.011294998 0.041827973 -0.025027828 -0.02296625 0.07774018 -0.010901235
0.03477003 0.044141382 -0.003926786 0.046888415 -0.0470866 -0.049646337 0.031716783 0.032173503
0.001014386 0.046015948 -0.017796662 0.027632553 0.062158387 -0.030284591 -0.034285743 0.048421

linear2.weight f4 [256, 256]
00000000: d675 1abd f01b 393d 00d6 ce3b f562 0dbd
00000010: 9a25 50bd 219c 4cbb 7abf d33b 3509 04bd
00000020: c3ea 67bd b6d4 12bd 63fc 6f3d dcc0 cabc
00000030: cc80 febc babf 5c3a d0d5 8f3b 208a 363d
00000040: 0b08 9abd 1704 2e3d cc15 fbbc 2a80 563b
00000050: 628f 603d 7067 bb3c 84d9 753d e7d8 29bd
00000060: 9c21 72ba 7820 32bd 2327 ecbb 8971 c1bc
00000070: d817 d63c aaf7 d93c 5aab 5abd c401 79bd
00000080: dfd1 293d c146 c83c a731 2fbd 3009 b93c
00000090: cf41 2e3c 38ab 343d ba93 d3bd d043 36bd
000000a0: 6227 54bd 9037 b7b9 165b 13bd fe78 173c
000000b0: b378 67bd e03e 133d eb77 67bd 7e19 103c
000000c0: 7e8b 963b 8a95 7d3d 13f3 e9bc 6763 ae3b
000000d0: e0d2 a9bc b602 9cbd 6430 78bd 70d8 3d3d
000000e0: 0c61 fcbc a09f 0b3b 1494 08bd aaa4 6b3d
000000f0: 3406 f8bc 6a7b 5cbd c09f a1bb 2dd0 83bd
00000100: 0103 cc3c e929 c2bc 601c b03b 4006 05bb
00000110: 780e 19bc 8444 f1bc 438b 80bd faff 533c
00000120: f261 573b f3a3 653c 4089 3f3d 36ff 03bd
00000130: 70f1 bdbb 344b a0bc 4c3b 7bbd a807 36bd
00000140: 5038 fdbc 1c9f 743c 5274 bdbc 1479 753d
00000150: b440 35bd 6c7c f9bb 7ca2 f5bc 7b80 6a3d
00000160: e14a 4c3d 784d 343d acea 263d e5bd 08bd
00000170: 9cb4 ff3c 12b6 56bd 0a00 563d 15ed 83bc
00000180: c2ec d6bc d2f1 1bbd 5625 1dbd 0ea5 923c
00000190: cc8d b3bc afa1 aa3b b0d9 fa3b bb45 e0bc
000001a0: df9e a53c 5a1b 283d b6dc 19bd 93f2 673d
000001b0: 9bb4 663c d011 fd3c 4d26 0bbd 78f2 bc3c
000001c0: 97e4 ac3a 9b6f e53b af3d aa3c 473e 23bd
000001d0: 1028 60bc 8874 343d 80be 9c3c c07e 813a
000001e0: 0fa5 abbc d423 fe3b df28 28bd be83 383d
000001f0: 828e 54bd 3049 bf3c 907c b8bc 14c0 b2bc
00000200: 2ab7 51bb 39b1 4cbc aac3 513d 3a03 d0bc
00000210: 8428 e5bc bdd1 83bc 6214 533c af2a 293c
00000220: 305d ea3b 68e6 fb3c 72ec 7dbd 942d b13c
00000230: 56a7 18bd 42ee 5cbd 5fa5 263d 90d9 35bd
00000240: d1aa c2bc 7ed6 58bd 345e 7ebd 9ccc 8bbd
00000250: e43d fcbb 66a1 933c 3745 2c3d 61c6 c63c
00000260: ee2a 913c b7fe a4bc 6405 fbbc 2640 1e3d
00000270: a029 973c f08f af3c 1dcf 85bc c4b5 6abd
00000280: d26b 593d a2cf 523d c5ff 89bd 57e5 2fbc
00000290: b5cb 873c 88f0 8abc f30d 653d e583 01bd
000002a0: 0b0c 6dbc 6fda acbc 6ad8 59bd 81fe 523c
000002b0: c229 3ebd 18c2 383d d062 aabc 29cd 45bd
000002c0: d2fa 4b3d 13a0 623c 1eae 17bd 5b5e ebbc
000002d0: 1f4d 23bd 1eca 233d a688 143d dd84 88bd
000002e0: 5f01 a03d 7f8f 26bd 70ed a43b 2a00 713d
000002f0: 60d6 12bb 73b7 e83c 1559 0b3d 063b 163a
00000300: 508a 3d3d 0621 123d 60e4 e1bc ec6e 743d
00000310: 2c1f 873c 90f1 4f3c cdb3 023d 1adf 28bd
00000320: c575 07bd b458 d43c 8e34 12bd 7bdd 67bd
00000330: 09c5 cabc 1f4d 23bc 3874 b9bc 7b1a e2bc
00000340: fef8 73bd b8ef 333d 8782 213d 93d4 ec3c
00000350: d7a6 2fbd d949 cbbc 4ada d43c d440 1fbd
00000360: 523b 323d 7a7a d2bc 6a7a 003d 6cd4 433d
00000370: 95e3 0fbd 00e7 ceb9 4d94 01bd f848 3b3d
00000380: 0bb2 62bd c0c3 143d b34d 6a3d d506 87bb
00000390: f2dd d3bc 70f4 303d af6f aa3c ea94 5ebc
000003a0: 5c5f e03c a63e 18bd 4d18 05bd ad68 0e3d
000003b0: c0e5 5abd 2896 313d c46f 98bd d1de ca3c
000003c0: 20dc a7bb 32ba 5a3c 922b d2ba 444b 733c
000003d0: d0f2 36bc 2f7c aabd 55e7 85bd f29b 5e3a
000003e0: 5252 573c 6a80 d7bc 7ce2 7bb9 e64b 1bbc
000003f0: 1e44 983c 9871 3bba 073f 263b d2f3 533b
-0.037710033 0.04519266 0.006312132 -0.0345182 -0.05081711 -0.003122099 0.006462035 -0.032235343
-0.05662037 -0.03584739 0.058590304 -0.024750166 -0.031067275 0.00084209035 0.004389502 0.04456532
-0.07521065 0.04248437 -0.030650042 0.00327302 0.05482424 0.022876471 0.060021892 -0.04146662
-0.00092365756 -0.043487996 -0.007206814 -0.023613708 0.026134416 0.026607353 -0.05338607 -0.0607927
0.041459914 0.0244478 -0.04277196 0.022587389 0.010635807 0.0441086 -0.10330911 -0.044498265
-0.05179537 -0.00034945877 -0.03597554 0.009245155 -0.056511592 0.035948634 -0.056510847 0.00879514
0.0045942655 0.06191019 -0.02855829 0.0053219083 -0.020730436 -0.076177046 -0.060593024 0.04634899
-0.030807994 0.002130486 -0.033344343 0.057530083 -0.030276395 -0.053828634 -0.0049323738 -0.06436191
0.024903776 -0.023701625 0.0053744763 -0.0020297915 -0.0093418285 -0.029451616 -0.06276562 0.012939448
0.0032864776 0.014016139 0.04676175 -0.03222581 -0.005796604 -0.01956711 -0.061335847 -0.044440895
-0.030910641 0.014930513 -0.023126755 0.059929922 -0.04425116 -0.007613709 -0.029984705 0.057251435
0.049876098 0.044019192 0.040751144 -0.033384223 0.031214051 -0.05241973 0.05224613 -0.01610426
-0.026235942 -0.038072415 -0.038365684 0.01790097 -0.0219182 0.0052072625 0.007655345 -0.027377
0.020217357 0.04104171 -0.037564002 0.05662782 0.014081146 0.030892283 -0.033972073 0.023064837
0.0013190684 0.00700183 0.020781366 -0.039854314 -0.013681427 0.044056445 0.019133806 0.0009879693
-0.02095273 0.007755736 -0.041054603 0.045047514 -0.05189372 0.023350328 -0.022520334 -0.021820106
-0.0032000043 -0.012493425 0.05121199 -0.025392164 -0.02797342 -0.016091222 0.012883278 0.010325118
0.007152222 0.030749515 -0.06199307 0.021628179 -0.03726896 -0.053938158 0.040685054 -0.044396937
-0.023763092 -0.05293893 -0.062101558 -0.068261355 -0.0076978076 0.018021297 0.042058196 0.024264516
0.017720666 -0.020140989 -0.030642219 0.038635395 0.018452466 0.02143094 -0.01633411 -0.05730225
0.05308134 0.051467545 -0.06738237 -0.010735831 0.016576627 -0.016960397 0.055921506 -0.031619925
-0.014468203 -0.021100251 -0.053184904 0.012878061 -0.046426542 0.045106977 -0.02079907 -0.04829136
0.049799748 0.01383211 -0.037031285 -0.028731516 -0.03986847 0.039987676 0.03626313 -0.06665967
0.078127615 -0.040664192 0.0050331876 0.058838047 -0.002240561 0.028407788 0.034020502 0.0005730841
0.046274483 0.035676025 -0.027574718 0.059676096 0.016494356 0.01269187 0.031909753 -0.04122839
-0.0330713 0.025921203 -0.03569465 -0.056607705 -0.024752157 -0.009967118 -0.022638425 -0.027600517
-0.05956363 0.043929785 0.03943112 0.028909957 -0.04288372 -0.024815487 0.025982995 -0.038880184
0.043513604 -0.025693167 0.031366743 0.047810003 -0.03512915 -0.0003946349 -0.03163557 0.045723885
-0.055345576 0.036319494 0.057203006 -0.0041206875 -0.025862668 0.043201864 0.020805208 -0.013585309
0.02738922 -0.03716912 -0.03249388 0.034767795 -0.053441763 0.04335609 -0.074431926 0.02476445
-0.0051226765 0.0133500565 -0.0016034713 0.014849488 -0.011166289 -0.083244674 -0.06538264 0.00084918656
0.013142185 -0.02630635 -0.00024021597 -0.009478545 0.018587168 -0.00071504107 0.0025367157 0.0032341373

linear2.bias f4 [256]
00000000: 8f02 abbd ae87 86bd 5dd7 903d cb67 863d
00000010: e6d3 203d cfb3 80bb 7304 fabc be5f eb3d
00000020: 0a00 56bd ad0c 92bd 6065 39bd 8b98 33bd
00000030: 3cac 833b 53c6 b83c fb8d d43c ee24 12bd
00000040: 9fc6 e53d 887e a9bd d5a7 81bc 79b3 a4bc
00000050: 1655 94bd 9ee5 acbd 0f42 2fbd 7e85 173d
00000060: 8e88 9dbd 7eb2 843d eaa4 d33b b296 613d
00000070: a83b 9a3d 0665 a83c 8326 a33c b298 c8bb
00000080: 205e 2a3e b14a 27bd 05a7 21bd 8ef0 0abd
00000090: b0de 52bd 3db0 ebbd d950 5bbc 232e 6fbd
000000a0: 56ef ccbd 2a71 e83c 2870 483d 6463 50bd
000000b0: d95b 083d 357e bf3d 1236 fd3a cea7 91bc
000000c0: a31d 963c 396c 6ebd 203c 68bc 6d94 a7bd
000000d0: 936f ee3d d6e4 14bc 8ada edbc 3219 a93c
000000e0: c5eb 0b3d 1ae9 6dbd ccc2 73bd 6e37 63bd
000000f0: dd2d 0abd b325 b4bd b808 18bd c886 183e
00000100: 75f9 ac3d 7fb7 b93d e541 ad3d 1104 80bc
00000110: cd0c 09bd 49da 8cbc 992d 1ebc 0c76 a2bd
00000120: e8b3 92bc 681b 8c3d 96ec bcbc 5e5e 1dbd
00000130: 51c6 4c3d 27c8 c53c df77 b5bb a856 ebbd
00000140: a61a 1ebd 4b52 b5bd 4707 a8bc f47f 0abd
00000150: 3de7 72bd 1d2b 74bd bd96 913c dfbf f03c
00000160: 87a2 2c3d ceab e63d ca7d d93c fc76 633d
00000170: 8765 2abd 55b1 8ebd a810 c1bd d473 f93b
00000180: 41ca 49bd f455 e1bb 3e49 24bd 316b ca3b
00000190: 2708 bd3c 9cf8 9e3d c9ac 58bd cdf4 8cbd
000001a0: c301 bdbc 41de 4d3d 559a a9bd 4c4d 10bc
000001b0: 49b3 1f3d 30f3 323d 603d 8ebd ae45 4ebd
000001c0: f00c 023e 5d93 2dbb f955 65bd b07f d7bd
000001d0: 6032 233b a345 e9bc c784 2abd 017f d1bd
000001e0: c7aa bebc 3772 243d 76ff 60bc 023f 5b3b
000001f0: 8a7d 583c 520b 88bd e8fd 87bd 8b0c efbc
00000200: 636d 84bd 7e60 5dbd dfc8 0cbd 30b1 0cbd
00000210: 6a6c 78bd 8a69 d3bc a702 40bd acc8 7ebd
00000220: 887b 68bd 4cb4 093d 9087 c93a 1125 61bd
00000230: 282f ac3d 639e 6ebd d8fd 043e 751a bc3d
00000240: bc9b 023d 2920 ed3c 8b97 e43c a26e 5ebd
00000250: b93b c6bd f8c3 4c3c 7e91 3cbd f188 74bd
00000260: 2a6d 55bc 7398 69bd 784c b0bd 5a17 58bc
00000270: 5013 02bc 2503 093c f74c fa3d feab 9bbd
00000280: 0a2d a93c 11e2 59bb ae24 c5bc 5851 e4bc
00000290: 3fac bb3d b9d6 18bd 8133 df3c 75c0 0c3d
000002a0: c2f8 b8bd 9150 d93d 2f22 c9bc c63d 653d
000002b0: bf18 c03d 7452 7dbd 592f 58bb b22b c1bc
000002c0: 2cea a8bd 0a76 973c e87a 1e3d 5a67 253e
000002d0: 486c 1ebd 23ee d0bd f0e5 83bc 5f0d efbc
000002e0: 62ac 5bbd bbf3 2f3c e153 cf3c 6e7c 4dbd
000002f0: 8199 e33c f30b 87ba d66d d9bd d4c6 003d
00000300: afbf a5bd 2dc3 59bd 4a9b f53d 63fd f13d
00000310: c994 98bd 9494 e83d 72f7 b93d f688 81bd
00000320: 4cf1 7ebc 1f8c c63a 6aee aebd 8958 10bd
00000330: 7dd9 89bb 70fa 703d b86f 233d a2ce f8bd
00000340: 277a 093b 77b4 da3c 365e dcbc 0c0e bb3b
00000350: 74cc 8abd b9c0 563d 05ff 86bd 848b 7abc
00000360: ebfa 323c b01a b4bc 3aff 95bd f0bd e83d
00000370: 16f0 77bd 6a48 0cbd 7cfd 353d 8ce1 71bd
00000380: c6a7 7ebc 46a2 a3bc 2bcf 66bd cd30 83bc
00000390: 25bf 8fbd 6279 8ebc 8648 00bd 4a36 09bc
000003a0: 3dbe 23bd e7d8 29bd 1773 793d 180d 3a3d
000003b0: b058 c43d 7d40 2ebd 4686 c2bc b087 3f3c
000003c0: 8ffa 23bd d96b 663c 3c78 d93c 8fb7 7ebb
000003d0: ed34 87bd 4b2b 6dbc 521b 5cbd 0cab f8bc
000003e0: 5ccd 47bd 7699 99bd 2ca7 a8bb faf8 51bd
000003f0: 4ef1 293d 4a64 ccbc 6ffa 2fbd 00fa ddbc
-0.083500974 -0.065688476 0.07072327 0.06562766 0.039264582 -0.003927685 -0.0305197 0.11492871
-0.05224613 -0.07131324 -0.045262694 -0.04384665 0.0040183347 0.022555506 0.025946608 -0.03567975
0.112195246 -0.08276087 -0.015827099 -0.02010511 -0.07242791 -0.084422335 -0.042787608 0.036992542
-0.07692061 0.06479357 0.0064588683 0.055075355 0.0753091 0.020555984 0.019915825 -0.0061217183
0.16637468 -0.040842716 -0.039465923 -0.033920817 -0.051481903 -0.11508224 -0.013385975 -0.05839361
-0.10006587 0.028374273 0.048935086 -0.050876036 0.033290718 0.09350244 0.0019318482 -0.01778021
0.018324679 -0.058208678 -0.014174491 -0.08182607 0.11642375 -0.009087762 -0.029034872 0.020641897
0.034160394 -0.05808363 -0.059511945 -0.055472784 -0.033735145 -0.08796253 -0.03711769 0.14895165
0.08446018 0.09068202 0.08459834 -0.015626939 -0.033459473 -0.01719393 -0.009654426 -0.07932672
-0.017908052 0.06841165 -0.023062032 -0.038420074 0.049993817 0.024143292 -0.0055379714 -0.11491138
-0.038599633 -0.08853587 -0.020511283 -0.03381343 -0.059302557 -0.05961143 0.017772073 0.029388366
0.042147186 0.11263238 0.026549239 0.055533394 -0.04160073 -0.06967417 -0.09427005 0.0076126847
-0.04926515 -0.0068767015 -0.04010891 0.006177329 0.023075176 0.07762262 -0.052899156 -0.068826295
-0.02307213 0.050260786 -0.082813896 -0.0088074915 0.03898934 0.043688953 -0.069453 -0.05035942
0.12700248 -0.002648554 -0.055990193 -0.10522401 0.0024901852 -0.028475588 -0.041630533 -0.10229302
-0.023274792 0.040147986 -0.013732782 0.0033454304 0.013213525 -0.06642784 -0.06640226 -0.029180786
-0.06466176 -0.0540471 -0.034371253 -0.034348667 -0.060650267 -0.02580716 -0.04687753 -0.062203094
-0.056758434 0.03361921 0.0015375484 -0.05496699 0.08407432 -0.058256518 0.12987459 0.09184734
0.0318868 0.028946 0.027904293 -0.054304726 -0.0967936 0.0124978945 -0.04603719 -0.05970091
-0.013026515 -0.057030153 -0.08608335 -0.013189161 -0.007939175 0.008362566 0.12221711 -0.07601164
0.02065136 -0.0033246318 -0.024065342 -0.027870819 0.09163713 -0.03731415 0.027246239 0.03436323
-0.09031822 0.1061107 -0.024552433 0.055967115 0.0937972 -0.06184621 -0.0032987206 -0.023580406
-0.0824779 0.018488903 0.03869143 0.16152707 -0.038677484 -0.10201671 -0.016100854 -0.02918118
-0.053631194 0.010739262 0.025308551 -0.050167494 0.027783157 -0.0010303244 -0.10616653 0.031439617
-0.08093201 -0.05316465 0.1199251 0.11815908 -0.074502535 0.11356464 0.090803996 -0.06324951
-0.015560459 0.001514796 -0.085415676 -0.035240684 -0.004206835 0.058832586 0.039901465 -0.12148787
0.002097735 0.02669738 -0.026900392 0.0057084616 -0.067772776 0.05242989 -0.0659161 -0.015292052
0.010924081 -0.021985382 -0.07324071 0.11364353 -0.0605317 -0.034248747 0.044431195 -0.05905299
-0.01554293 -0.019974839 -0.056349915 -0.016014481 -0.0701888 -0.017391864 -0.031319164 -0.00837476
-0.039976347 -0.04146662 0.060900774 0.045422643 0.09587228 -0.04254197 -0.023745667 0.011690065
-0.040033873 0.014063799 0.02654659 -0.0038866734 -0.06601892 -0.014475654 -0.053736992 -0.030354999
-0.04877983 -0.074999735 -0.0051468816 -0.051262833 0.04148989 -0.024950165 -0.04296344 -0.027096748

linear3.weight f4 [2, 256]
00000000: 79f4 c6bc 6b92 6fbf c7d0 2fbf fc92 11bf
00000010: 8d36 29bf 504e 5ebd a14b 64bc 3332 3bbf
00000020: 4ad0 5e3c acb6 a8bf 364b 92bd eaf0 64bf
00000030: 3348 6dbd a521 08bf ce42 19c0 ee12 95bc
00000040: f5bc 47bf 6222 56bf 2dbe 86bd 6176 bdbd
00000050: ef5a 22be ff1d a2be dd2d 8abc e742 29bb
00000060: 19ac c4bc a4f2 75c0 308d 3cbd b4c9 13bf
00000070: a784 b1be faa6 d5bd 68de bfbf 6926 47bf
00000080: 2e90 81bf 252f 8cbe bdee fbbe 7810 7b3d
00000090: d09c 2abf f4f1 64bf bb4c 9bbe 833a 62bb
000000a0: 6c3d 77bd fec4 7fbf d64c 133d 5af1 7fbe
000000b0: e641 83be 0e33 e0bf 18ae 10be fee4 63be
000000c0: be31 eabf 2c07 f9be 439d 7dbf bdc6 e0be
000000d0: d28c dfbf bab2 52bb caba d3bf 33cf 83bf
000000e0: 08e1 3dbd f1a7 06c0 366f 0cbd 6e9b adbe
000000f0: 7e23 1fbc 63f8 3dbd 088a ae3c 26f7 7cbf
00000100: b025 afbf 5ab1 fdbf 541d f5bf 46d7 96bf
00000110: 9f62 2ebd 3deb 85bf ba9b 5abf 815f e0be
00000120: 98bf 17be 12e9 44bf ba73 6fbf 73f6 ea3c
00000130: eb53 6dbd 9799 2abf 7d9f 82bf e72d 20bf
00000140: 9636 173c 41c8 c1bf e338 e83a af42 4dbf
00000150: b502 03bf c97d c0bc f39f 6ebc 6624 93be
00000160: b166 1abe 1987 acbf 4425 71bd ffff 26c0
00000170: 279a a8bd 036c 60bf 6e05 09bf 1753 25be
00000180: a123 453c fccf 54bf 032f e6bf 87dc 2b3d
00000190: 2acd 2fc0 7417 3abe 423c d0be e980 40bd
000001a0: f367 0abf 3733 a0be e6cd 96bd ea36 7fbf
000001b0: 50f7 e4bc 7f24 fabd 1d93 53bf 1317 7ebe
000001c0: 1534 5fbf de81 95bf 6052 38bf 1065 bebe
000001d0: 972f 54be 376f a5bd acd1 70bb f8fc b6be
000001e0: 36c1 81bf 5326 11bf ab46 eabe a06b b9bc
000001f0: 309d 31bc e690 9cbf 8c9e f8be e86a 33bc
00000200: 3f62 00c0 ec40 39bf 981e 65be 9687 2f3c
00000210: d5a0 98bf 6137 49bc 8b88 ea3b 5e1d 13bd
00000220: f251 b5bf 417d 41bf 37e1 ab3c 9349 dabf
00000230: a910 1fbf 5b2c ebbd 8a1c 97bf 1893 5ebf
00000240: 6c64 efbf 531a 89bf 5aa2 8fbf 2943 43bd
00000250: 55b5 85bf 1196 c3bc 26a2 cbbf 459c 8bbf
00000260: 60fb f3bc 68f7 bfba 1a94 603d d05b b2be
00000270: a15c 48bd 5af8 75bf 1878 d0bf 0666 93ba
00000280: f36d a0be 99f1 d4bf 4bac 20bf 1947 c0bf
00000290: 270c 2fc0 85fc e1be a299 5b3c ba83 5ebd
000002a0: ad20 81bf f6a9 4dc0 6e06 15bf 89ef adbb
000002b0: f950 f1bf 0021 cfbc 1ca4 e8bf 2afc d2bf
000002c0: 7a4e d1be 54b6 f0bf 93dd fcbe a38d 5dc0
000002d0: 0b10 86bf 2c5c f5be cf5c 723c 3deb 73be
000002e0: c855 b6bd 0041 86be c615 97bf cc52 8e3c
000002f0: f2b4 4a3d f7fa 9abd ad20 81be dd21 8cbd
00000300: 4623 9bbd f5fe 0cc0 801c efbe 438c 8abf
00000310: 71f7 c9be 3ca0 fbbf 9a66 acbf c115 4cbd
00000320: 82e7 dabd 0297 79bf 4093 b4bf f0b5 dabe
00000330: ba30 d7bb 2599 8bbf a413 2abf a7ca a2be
00000340: d643 9cbf e3b3 adbd 8986 88bf 8565 e8bf
00000350: f820 313d 93c2 efbf d081 b4bc c5f3 0bbc
00000360: 9b36 0ec0 c8ab b0be 4a4b 57bf a1f9 a6bd
00000370: 6521 07bf ffeb a1be 3ffe a6bf 1169 4e3c
00000380: 9e0b 7fbd 6921 d23c 717e 4cbb c6b2 9aba
00000390: b11e 38bf 5255 d5bf 00cd bbbf 523a 78bc
000003a0: 9ec0 6cbf 9f60 263d c6c4 12c0 62c6 5f3d
000003b0: fc31 cebf 5656 fdbf 3626 14bf 4d62 01bf
000003c0: 7a44 dbbc 8576 eb3b 2f35 d1bf 6624 45bd
000003d0: 07fb 28bd c5d1 80bc 18f9 b33c f68c 9f3b
000003e0: 3c41 a4bf 3a77 a7bf 0dba 2bbe d22b 0ec0
000003f0: f25a 3fbe bccf fbbf 87d4 a4bd 1775 debe
-0.024286496 -0.9358279 -0.68677944 -0.56864905 -0.6609886 -0.054273903 -0.013934047 -0.7312347
0.013599465 -1.3180747 -0.071432516 -0.89430106 -0.057930183 -0.5317634 -2.3947024 -0.018197503
-0.780227 -0.83646214 -0.06579242 -0.092510946 -0.15855001 -0.3166351 -0.016867572 -0.002582723
-0.024007844 -3.8429346 -0.046033084 -0.5772965 -0.34671518 -0.10432239 -1.4989748 -0.77792984
-1.0122125 -0.27379718 -0.4920558 0.061295003 -0.66645527 -0.8943169 -0.30331978 -0.003451974
-0.06036131 -0.9990996 0.03596195 -0.24994412 -0.25636214 -1.7515581 -0.14128911 -0.22255322
-1.829643 -0.48638284 -0.9906809 -0.43901625 -1.746485 -0.0032149986 -1.6541378 -1.0297607
-0.046357185 -2.1040003 -0.034285747 -0.33907646 -0.009713052 -0.04637946 0.021306053 -0.9881462
-1.3683376 -1.9819748 -1.9149575 -1.1784446 -0.04257452 -1.0462414 -0.8539387 -0.43822864
-0.14819181 -0.7691814 -0.9353596 0.02868197 -0.05794136 -0.6664061 -1.0204922 -0.6257004
0.009229323 -1.5139238 0.0017717149 -0.80179876 -0.51176006 -0.023497479 -0.014564502 -0.28738707
-0.15078236 -1.3478729 -0.05887343 -2.6093748 -0.08232527 -0.8766481 -0.5352391 -0.16144978
0.01203242 -0.8312986 -1.7983097 0.04195836 -2.7468972 -0.18173009 -0.40670973 -0.04699794
-0.54064864 -0.31289074 -0.07363491 -0.9969317 -0.027949959 -0.12213992 -0.8264635 -0.2481349
-0.87188846 -1.1680257 -0.72000694 -0.3718648 -0.20721279 -0.08077853 -0.0036746068 -0.35739875
-1.0137088 -0.56699103 -0.4575704 -0.022634327 -0.010840699 -1.223172 -0.48558462 -0.010950781
-2.0059965 -0.7236469 -0.22374952 0.010713479 -1.1924082 -0.01228127 0.0071573905 -0.03591668
-1.4165633 -0.7558175 0.020981414 -1.7053703 -0.62134796 -0.114830695 -1.1805584 -0.869432
-1.8702521 -1.0711159 -1.1221421 -0.04767147 -1.0445963 -0.023875268 -1.5908859 -1.0907065
-0.02978295 -0.0014645876 0.05482874 -0.34835672 -0.048916463 -0.9608208 -1.628665 -0.0011245615
-0.31333885 -1.663623 -0.627629 -1.5021697 -2.7351167 -0.4413797 0.013403328 -0.054324843
-1.0088097 -3.2134986 -0.58212936 -0.005308096 -1.8852836 -0.02528429 -1.8175082 -1.6483204
-0.40880185 -1.8805642 -0.49387798 -3.4617698 -1.0473646 -0.47921884 0.014792635 -0.23820205
-0.0890308 -0.26221466 -1.180352 0.017373465 0.04948897 -0.07567399 -0.25220242 -0.068423964
-0.07575087 -2.2030613 -0.4670143 -1.0824054 -0.39446595 -1.9658275 -1.3468812 -0.049825434
-0.10688688 -0.97496045 -1.4107437 -0.42716932 -0.006567088 -1.0906111 -0.6643622 -0.31795236
-1.2208202 -0.08481576 -1.0666057 -1.8155981 0.043244332 -1.8731254 -0.022034556 -0.008542006
-2.2220829 -0.3450606 -0.84099257 -0.08153082 -0.5278533 -0.31625363 -1.304634 0.012598292
-0.06226694 0.025650697 -0.0031203295 -0.0011802546 -0.7192183 -1.6666663 -1.4671936 -0.015150623
-0.9248141 0.04061949 -2.29326 0.054632552 -1.6109004 -1.9791973 -0.57870805 -0.5054062
-0.02676605 0.0071857595 -1.6344355 -0.048130415 -0.041255023 -0.015725026 0.021969363 0.004869099
-1.2832408 -1.308326 -0.16770191 -2.2214246 -0.18687037 -1.967277 -0.08048349 -0.43448707

linear3.bias f4 [2]
00000000: aded 4fc0 3667 133e
-3.2488816 0.1439484
