turtlebot3_rl_sim/src/models/td3/revamped/new_tracking_cp_gcp_nobonus_corrected_3_no_cpdto/td3_actor_model_ep1400.pt (torch_old, 646182 bytes, 6 tensors)

linear1.weight f4 [256, 370]
00000000: 22dc 52bc 87cf 29bd 854e 193d 2519 183c
00000010: 5c77 043c b21a 663b 25aa 1d3d d4da 053c
00000020: b186 d43c 77f4 2dbd 959b 02ba 401c cd3c
00000030: a5e1 1a3d d7c9 3e3d b775 a6bc 27c8 313d
00000040: 0634 13bd b71e 28bc 90c5 30bd 0035 cc3c
00000050: 3545 933b a644 17bd 2b7e 67b9 1897 3bbd
00000060: 0568 02bd 5f7c b13c 8eca 2b3d 3938 c3bc
00000070: eb05 61bd 28d5 33bd 0425 093d f6db af3c
00000080: 94ea f9bc 4f35 2ebd ab20 e8bb a604 2a3d
00000090: a6da 17bd 7099 3bbd 5658 a13c b7b6 303d
000000a0: b572 9a3c f58c 06bd d764 a1bc cb21 00bc
000000b0: db65 f03b 3333 64bd ee00 18bd 9f07 20ba
000000c0: 8196 db3c fc5d 8f3c fe0c 90bc bba4 fe3c
000000d0: e378 6ebd 63c1 e4bc e630 ac3c f4a4 023d
000000e0: a137 4abd fdc6 8abc c675 003d 58dd c13c
000000f0: c724 21bd 0244 56bd 53fd f93c 86a3 283d
00000100: 564d a73c 7d8f 0dbc e3e8 ecbc bf7c 26bd
00000110: c337 f03c dabe ddbc f469 77bd a29e 6f3c
00000120: 40bf 36bd fc1f 78bd 0523 9a3b 5e21 233c
00000130: 4993 cbbc 6c18 79bd b156 43bd 2187 dc3b
00000140: 900a b2bc 1535 913c 0d87 973c 5a14 6f3b
00000150: 2bd1 6ebd a8c8 33bd 89c3 c4bc 7515 1c3c
00000160: 4e8b 283d 7c8d 053d 1290 6d3c 2d34 04bd
00000170: 4941 c8bc ab69 60bc 77df 24bd 632c 68bd
00000180: 7f80 353c 718a cabc fcc6 0a3d 9e87 ac3c
00000190: 89b1 47bd 77c0 3e3d caee 5bbd 94a3 893c
000001a0: 42fe ea3c f45b f1bb 04c0 043d a09f 413d
000001b0: b837 413d 4e74 17bc 212a df3c f1e0 46bd
000001c0: 1081 31bd 0c97 f3bb 6634 213d cb24 ecbb
000001d0: 7a86 50bd 9678 253d 731a e5bb d706 80bb
000001e0: c77c a3bc 7f61 363d 7d2a 09bd 7750 27bd
000001f0: 7fbe 333d 4f83 3a3d 74fe 0a3c 53d8 e2bc
00000200: fd63 0ebd 419c c0bc da80 5fbd db48 60bd
00000210: 4888 b8bc d535 143c 42dc 5fbd 84bf 823c
00000220: f221 51bd 6f79 383c ae11 a93c 75ca 02bc
00000230: 10f2 4c3c 8530 05bd 4287 e93a e40f 0c3d
00000240: af42 25bb f8b4 c23b 4feb 313d 595c cabb
00000250: 425f 5fbd ed97 1c3c 2e64 ae3c fb7e 64bd
00000260: 3ea0 1ebd 4fa2 20bc 2ab1 52bd 0465 0f3d
00000270: c8fe b7bc b92a d83c 5e5c ae3c 1ee6 2f3c
00000280: b827 33bd dd25 03bd 4726 a7bb 7a5b ec3b
00000290: 7229 d6bc 5bca 723b d98c 44bd 5f24 afbc
000002a0: a521 08bd 4652 283b 0757 a2bc 256c 1f3c
000002b0: 2279 d6bb 2a1e debc 1090 bbbb b836 3dbd
000002c0: 6d5b 0bbd 74e5 8a3c 19b4 cbbc 9fc9 21bd
000002d0: b57f 1c3d 9f97 ba3c c017 3bbd 67dc b73c
000002e0: 50d1 463c 6bad f53c 6d3c 0cbb 5e90 1dbd
000002f0: b65c a63c f238 623a fc7a 863c a4ad f9bc
00000300: a481 f8b9 afe4 a3bc d88f 37bd e91c 40bd
00000310: 4b80 e3bc ead2 5cbd 936f e8bc 3e8b ae3c
00000320: 14f5 0a3d 95ce 1f3d 428a 5cbd 0d5d 05bd
00000330: 3f89 bf3b 9628 11bc a87a c03c 1c29 f7bb
00000340: d8af 3abd 5472 f3bc d476 053d 284f 413d
00000350: 4f93 2fbd cbf7 ff3c fd4d 01bd 0df8 80bb
00000360: bc60 813c e812 31bd fae0 5cbc 393c 533c
00000370: c0e8 c63c 5587 953b 0aca debc 60a4 bbbc
00000380: 684e bebc 3ad2 d3bc c23c 52bd a853 babc
00000390: 4a3c e63c 10ea 453c 7e65 14bd 84ee 0f3d
000003a0: df21 3e3d 6e0b 10ba 92c1 52bd 4c26 f2bc
000003b0: 6480 0c3b 48d1 c93b b394 f33c a821 babb
000003c0: a558 9c3c 2506 973c 0402 7abc 22f7 5abd
000003d0: 1e0b 2e3d 3da0 05bd 188f 34bc af5b 3e3d
000003e0: a199 db3c fc2b 0f3d 56a0 95bc 7e4f 203d
000003f0: e022 423d eb94 773c 4dbd 0fbd 070c 22bd
-0.012869867 -0.04145768 0.037428398 0.009283339 0.008085098 0.0035111126 0.03849234 0.0081698485
0.025943132 -0.042469468 -0.000498229 0.025037885 0.037812848 0.04657921 -0.020319803 0.04340377
-0.035938285 -0.010261229 -0.04315716 0.024927616 0.004494334 -0.036930703 -0.00022076878 -0.04579839
-0.031837482 0.02166575 0.041941218 -0.02383052 -0.054937284 -0.043904454 0.033482566 0.02146719
-0.030507363 -0.042531308 -0.0070839725 0.04150834 -0.037073754 -0.045800626 0.019695442 0.043143
0.018853525 -0.03284927 -0.019701404 -0.007820557 0.007336361 -0.05571289 -0.03711026 -0.0006104651
0.026805164 0.01750087 -0.01758432 0.031084409 -0.058220755 -0.027924245 0.02101941 0.031895593
-0.049369458 -0.016940588 0.031362318 0.023665115 -0.039341714 -0.05231095 0.030516302 0.041171573
0.020422619 -0.008640167 -0.028919643 -0.04064631 0.029323464 -0.027068544 -0.06040378 0.014625223
-0.044615984 -0.060577378 0.0047038817 0.009956686 -0.024850504 -0.060814306 -0.047690097 0.006729976
-0.021733552 0.017725507 0.018497014 0.0036480636 -0.058304947 -0.043892533 -0.02401902 0.0095266
0.041148476 0.032605633 0.014499681 -0.03227632 -0.024445193 -0.013697068 -0.040252175 -0.056682955
0.011077999 -0.024724217 0.033881173 0.021060761 -0.048753295 0.046570268 -0.053694524 0.016801633
0.028685693 -0.007365698 0.032409683 0.04727137 0.04717228 -0.009244038 0.027241768 -0.048554365
-0.043335974 -0.0074337777 0.03935661 -0.0072065345 -0.050909497 0.040398203 -0.0069916784 -0.0039070654
-0.01995696 0.044526573 -0.033487786 -0.04084822 0.043882843 0.045535382 0.008483518 -0.027691042
-0.034763325 -0.023512008 -0.05456624 -0.05475698 -0.022525921 0.009046038 -0.054653414 0.015960462
-0.051057763 0.011259421 0.020638313 -0.00798284 0.012508884 -0.032516975 0.0017816799 0.034194842
-0.0025216748 0.0059419833 0.0434373 -0.0061755595 -0.054534204 0.009557706 0.021288004 -0.05578516
-0.038727038 -0.009804322 -0.051438488 0.035008445 -0.022460356 0.02638756 0.021284278 0.010736017
-0.04373905 -0.03201853 -0.0051009986 0.0072130533 -0.02614281 0.0037046883 -0.047985885 -0.021379648
-0.03323521 0.0025683804 -0.019816888 0.0097303735 -0.006545202 -0.027113993 -0.0057239607 -0.046194762
-0.034022737 0.016955115 -0.02486615 -0.03949892 0.03820773 0.022777377 -0.045676947 0.022443963
0.012134865 0.029989919 -0.0021398321 -0.038467757 0.02030788 0.00086297013 0.016416065 -0.030478306
-0.00047398836 -0.020006506 -0.044814914 -0.04690257 -0.027771136 -0.05391208 -0.028373515 0.02130663
0.03392513 0.03901537 -0.05384279 -0.032559443 0.0058452184 -0.008859774 0.023495987 -0.0075427424
-0.045577854 -0.029717602 0.032584026 0.04719463 -0.042865094 0.031246087 -0.031568516 -0.00393582
0.015793197 -0.04323092 -0.013481373 0.012892776 0.024280906 0.004563252 -0.02719595 -0.022905529
-0.023230746 -0.02585708 -0.051327474 -0.022744969 0.02810492 0.012079731 -0.036229603 0.035139576
0.04641902 -0.0005494867 -0.051454134 -0.029559277 0.0021438831 0.0061589815 0.029733991 -0.0056802817
0.019085238 0.018435547 -0.01525927 -0.05345834 0.04249107 -0.03262352 -0.011020444 0.046474155
0.026806654 0.034954056 -0.01826493 0.03913831 0.04739654 0.015111188 -0.03509264 -0.03956225

linear1.bias f4 [256]
00000000: 5ac2 eb3b 5ffb 20bd 0d21 0fba b7de 21bd
00000010: a0c1 cc3c 99da 4fbd f4de 093d ece2 833c
00000020: a8a3 35bd 5e40 223d 34af 79bd 6918 c7bb
00000030: 1d75 943c ffff 26bd 442d f8bc 9b30 63bc
00000040: 3782 3f3d 0e9a 18bd 5a0f 5bbd 4f27 a8bb
00000050: e023 c63c d71c 2dbc 150a 943c 3879 cd3c
00000060: 313c d63c 7493 873c c4e7 f43c e9ba 47bd
00000070: ef7f b93c 42b5 59bb 789e 10bd 07ce a3bc
00000080: 8c6c 49bd bf1e be3a 49b3 cebb 9588 01bd
00000090: 4cfa 093d 6df1 1c3d 595a 42bd 5f46 ba3c
000000a0: 09f8 4ebb 4ef7 2f3c 9e6f 97bc 4dfe 80bc
000000b0: 81fa 42bc a770 313b 4f5d 383c cc2d 77bd
000000c0: 3e20 12bd 2ded 133c 615b dc3c b87d f3bc
000000d0: 9794 313d 34c6 71bc d407 0b3d fc75 72bd
000000e0: d12f cabc 9c17 fcbb 6a40 d1bb c685 2e3d
000000f0: ee5c 983c a934 d43c fa39 a93c 65ac 0dbb
00000100: 0ddf 003d 6a73 55bb 4482 873c b0ed 473d
00000110: dd6e 143c b27d e23c 770d 2ebd 6a32 643c
00000120: 171a 22bd 2ccb 083d 35d1 84bc 6456 293d
00000130: 4410 40bc 71d1 533c 0037 f43a 3380 ecbc
00000140: 6f91 b43c d191 483a 6325 e5bc 5f5c 2ebd
00000150: ae28 b6bc 4b44 6dbd 2399 663c 955a 913b
00000160: b2c5 ef3a 1dfb 06bd 94bd 0d3d 8f52 26bd
00000170: 9c26 063d 4eed 203d a5eb 903c d4d3 8239
00000180: 42a2 58bd 7712 a9bc dbc2 edbc 2ff5 b33b
00000190: 1082 b5bc 9c98 8c3c 5ec0 15bd bee3 19bd
000001a0: 6044 32bd 6f22 3a3d c597 923c 403b 79bc
000001b0: 7ddb 913c eeb2 a43c 6b26 66bd fc01 7dbc
000001c0: 3dc2 103d e078 3cbd 63d2 f63c 144f fcbb
000001d0: 6984 cebc e610 10bd 1b78 133d acb4 79bc
000001e0: b555 0aba ebae 7b3c ba93 53bc 21f7 da3c
000001f0: a946 d13b e750 2fbd 6190 4fbc f5fb 193d
00000200: 0eb1 10bc 5a7d d1bc ffd3 be3c 5b6e f93c
00000210: 7814 b1bc d374 a73d 3ee3 17bd 9d21 0bbd
00000220: b30a f13c c100 c3bb d28b dc3c 10d4 8fbb
00000230: fe84 ae3c e15f 553d 4fa2 b93c 2533 83bd
00000240: 71a9 c9bb 2943 dc3c 5f5d 323d 625c b53c
00000250: 79c8 45bd 68c3 37bd 5e3d 2f3d 7722 373d
00000260: 0c45 70bd 444d fbbb 7580 1f3d ae3d 2a3b
00000270: af9a 27bd bdb4 8cbc 3db8 01bd de2c 9fbc
00000280: 0fe8 3d3d 2a37 5eba b3bd 68bd b564 943a
00000290: c196 43bd 2b70 61bd ae20 9abc ae2d 9cbc
000002a0: caf6 e33c ea22 d8bc 4613 c63d 22c6 debc
000002b0: 3d16 9c3c 9fd6 883d 8718 22bd 223c 5cbd
000002c0: b469 0f3d f402 043a cc97 0f3c 4d75 023d
000002d0: 2a7b 5bbc 6f03 bb3c aef1 253d 9c90 853c
000002e0: 613b 40bd fad9 59ba 451d 1c3c ce6c 2b3d
000002f0: cc68 023d 0ed1 93bc e44e 8e3c 06fd 97bc
00000300: d2a9 d13c af08 b73c 8df2 1c3d 222f dabc
00000310: 7079 b8bb 11e4 46bd 7a9d e13c ea6c 54bc
00000320: 2614 1dbd 3c19 0f3c 4204 c1bc ca56 53bd
00000330: 6c3f 463c b69f 1fbd 2012 29bd f602 1dbd
00000340: dc22 f7bb 9f2e 3f3d 28f1 3fbd 1dee 04bd
00000350: e59b 163d 04fa 8b3c 46d3 9fbc 7ec6 bb3c
00000360: 7c38 76bd caff d4bc 5d13 9d3c 3ea3 91bc
00000370: 5b23 4ebd 8b73 fb3c d289 54bd 1c6a 013d
00000380: f782 29bd 19a5 da3c c7d4 3e3d 568e 18bd
00000390: c55d 8bbb 0449 9abc 211c d93c 9796 51bd
000003a0: 256b 9b3b dec1 1bbd 7a5c d7bc 726f 5bbb
000003b0: 5eb7 233d 7ca6 853c 4e8b 283d f7b7 353d
000003c0: 281e 453d 4b18 44bd 1187 c9bc 73fa e1bc
000003d0: 96b5 28bd 4891 c33c b787 50bd c125 c1bb
000003e0: 8758 28bd 1618 1abd 8729 343c 2799 24bd
000003f0: 2e34 1dbd e2af 50bb 06ab 813c 0a1e cbbc
0.0071947994 -0.039302226 -0.0005459942 -0.039519038 0.024994671 -0.05074558 0.03365989 0.016099416
-0.044345528 0.039612167 -0.060958102 -0.006075908 0.01812225 -0.04077148 -0.030295022 -0.013866569
0.046755042 -0.037256293 -0.053481437 -0.005131639 0.024187028 -0.010565958 0.018071214 0.025082216
0.026151748 0.016549803 0.02989567 -0.048762236 0.022644011 -0.003321961 -0.035307378 -0.019995702
-0.049175784 0.0014505013 -0.0063079935 -0.031624395 0.033685967 0.03831618 -0.047449443 0.022738634
-0.0031580946 0.010740114 -0.01848584 -0.01574626 -0.011900545 0.0027075203 0.011252715 -0.06034641
-0.03567528 0.009028715 0.026899042 -0.029723033 0.043354597 -0.014756728 0.033943012 -0.05919455
-0.024681004 -0.007693244 -0.0063858526 0.042608045 0.018599 0.025904017 0.020657528 -0.0021617648
0.031462718 -0.0032570013 0.016541608 0.04881066 0.009059635 0.027647827 -0.04249331 0.013928035
-0.039575662 0.033396885 -0.016213039 0.041342154 -0.011722628 0.012928353 0.0018632114 -0.028869724
0.022042004 0.0007651123 -0.027971929 -0.04256856 -0.022236194 -0.057926457 0.014074597 0.004435847
0.0018293171 -0.032954324 0.034604624 -0.040606078 0.032751665 0.03928881 0.017690489 0.00024953356
-0.052889116 -0.020638688 -0.029023578 0.0054918746 -0.022156745 0.017162614 -0.03656041 -0.037570707
-0.04352224 0.045442995 0.017894635 -0.01521188 0.017804855 0.020104852 -0.056188982 -0.015442368
0.03534149 -0.046013713 0.030129617 -0.0076998565 -0.025209622 -0.035172366 0.036003213 -0.015240829
-0.00052770536 0.015361528 -0.012913639 0.026729168 0.006386597 -0.042801764 -0.0126687 0.0375938
-0.008831276 -0.025572468 0.023294447 0.03044813 -0.021616206 0.08176579 -0.03708195 -0.033967603
0.029424047 -0.0059510176 0.02692214 -0.0043892935 0.02130365 0.05209339 0.022660403 -0.064062394
-0.006154232 0.026887493 0.043546077 0.022138778 -0.04828689 -0.04486409 0.042783134 0.044710603
-0.0586596 -0.007669123 0.038940866 0.0025976705 -0.040919002 -0.017176026 -0.031669844 -0.019430574
0.046363886 -0.0008476848 -0.056821536 0.0011321517 -0.047751192 -0.055038612 -0.018814411 -0.01906475
0.02782764 -0.026383836 0.09671645 -0.027194086 0.019053573 0.06681561 -0.039574172 -0.053768285
0.035012916 0.00050358404 0.008764219 0.031850148 -0.013396064 0.022828786 0.040513687 0.016304307
-0.04693163 -0.0008310374 0.009528463 0.04185181 0.031838223 -0.018044021 0.017371602 -0.018553268
0.025593672 0.022343008 0.038317252 -0.026633803 -0.005629711 -0.048557345 0.027540911 -0.01296542
-0.038349293 0.008734044 -0.0235616 -0.05159644 0.012100082 -0.03897067 -0.04127705 -0.038332902
-0.0075419974 0.04667532 -0.046860844 -0.032453645 0.036769766 0.01708699 -0.019509923 0.022921797
-0.06011246 -0.026000876 0.019174272 -0.017778035 -0.050326686 0.030694744 -0.05188925 0.031595334
-0.041384663 0.026690053 0.04658964 -0.037245117 -0.0042531216 -0.018833645 0.02650267 -0.051169004
0.004742997 -0.038026683 -0.026289213 -0.0033483175 0.039969794 0.016314737 0.041148476 0.044364896
0.048124462 -0.04787473 -0.024600537 -0.027585244 -0.0411888 0.023872986 -0.050910678 -0.005894393
-0.04110005 -0.037620626 0.010996229 -0.04018512 -0.03837984 -0.0031843116 0.01582862 -0.024794597

linear2.weight f4 [256, 256]
00000000: 40da 313b 2048 e7bc 600a b5bc 1723 2dbd
00000010: fe23 063d 4c50 b1bc 70ab 5d3d 9404 febc
00000020: 89d8 4dbc 9eda 9abc 0a12 7e3d 48b1 4c3c
00000030: e868 91bc b2a6 7c3d e877 d1bc 41f8 d2bd
00000040: 0e91 a6bd fd98 01be aec7 78bd 4643 35bd
00000050: 9256 21bd ee3b 23be 9ce0 803c 60d0 fbbc
00000060: ba8a 013d eff8 29bb c423 73bd 8c13 dbbc
00000070: bcce a03c 68e5 42be 30fe 813c f8d3 5e3c
00000080: 7022 bf3b b57d 143a a28c 06bd 7e91 15bd
00000090: ea2e 603d e02d cabc 3486 5abd 0cc4 d83c
000000a0: b2ac 36bd 688d c43c 7674 5e3d c821 83bc
000000b0: 5532 86bd e5b2 0ebd ac4b ad3c c846 40bd
000000c0: 3c8a b93c a846 343d bc14 063d 1e8c 133d
000000d0: f3c1 60bd 489a 10bd f27e 453d 10c8 263d
000000e0: 96d0 15bd 0060 473b d800 babc 2878 4f3d
000000f0: dc79 f53c b94f d6bd 3cb2 07bd 54be 65bd
00000100: 7059 92bc 1461 063d 907e 7c3d 46bd 78bd
00000110: 2930 42bd 6f8c 393d e3ec 633d 28b7 5ebc
00000120: 8275 773d 9c2a 23bd d168 cdba adc9 14be
00000130: c285 69bd a5e1 9abb 8496 5c3d be52 7cbd
00000140: 8078 e2bb 3783 173e a0dd 40bd fdd7 83bd
00000150: fa2f 6c3d cb55 e83b dfc1 9cbe 0bf0 79bc
00000160: 587f 213d 0a05 51bd 5f44 32bd c89d 6dbc
00000170: 08f3 06bd dd18 81bd ac15 6dbd 90bb 063d
00000180: 4885 2c3d aad5 263d fe34 18bd f830 aabc
00000190: 3c6a 0e3d c025 413d 793a 4cbd 3030 933c
000001a0: c0ec 253c 6e3f 1b3d a42b 093d 6002 03bd
000001b0: 20f3 ca3b b431 d4bc 5cc4 463d b895 353c
000001c0: 183c b6bc 204d 113d 003c 363c be88 a43c
000001d0: dac7 6f3d 5322 78bd a0f0 d8bb 7840 67bc
000001e0: 00c1 d03a 92ca 2dbd f08a 33bd 3136 d7bc
000001f0: 3e07 78bd 0204 143d 9eaa 223c 1596 1e3c
00000200: 64a1 92bc f0c6 473c 8255 513d 1c18 7ebc
00000210: ce81 043d 2b42 44be 32de 543c 10df 2dbd
00000220: 0854 f53c a54c 85bd 903d cdbc 5c38 30bd
00000230: a0c2 4cbd 1850 cbbd 7567 9f3c e404 46bd
00000240: a08e e93b a441 ae3c 4a91 4e3d 0035 91bc
00000250: 1e90 9c3c 4a0c 603d ee61 7f3d 667d 99bb
00000260: 80dc 5f3d cea5 48bd c2d0 23bd a673 2ebd
00000270: f899 993c 29d4 48bd f4e0 783d 8000 423c
00000280: a424 e6bc e299 51bd 8c91 333d 4255 693d
00000290: e04d 3f3d f800 633c fda0 883c 6825 493c
000002a0: e620 9e3c 48c8 40bc 8702 81be 48b7 68bc
000002b0: f898 b6bb e6f3 15bf d643 443d 7ce3 7f3d
000002c0: c075 c33b 8e65 543d 108d 46bc 4dfe 00bd
000002d0: 8423 87bc e03f 753b dd00 853c 480c b1bc
000002e0: aaa5 58bd 64ee b6bc d64e 2d3d 10fe cabb
000002f0: 1841 8b3c b243 5b3d 584f 07bd 3ab1 4cbd
00000300: 186e 423c 9559 0dbd 3089 cc3b 92c9 5cbd
00000310: bdd2 873c e643 17bd 0430 e2bc f65b 24bd
00000320: 4c77 08bd 750a 09bd 5810 b33c bc4b f83c
00000330: eea9 50bd d64e 3d3d 848e 08bd 34b2 05bd
00000340: 1071 4dbd 2066 bcbd e105 4b3c 80ec 583c
00000350: e816 fabc e0a9 173b 7e45 4bbd 0044 47bb
00000360: 9489 fdbc 868f 49bd 0cdf b3bc a34f f8bc
00000370: 8061 a6bc 6754 bdbc c192 ccbc a0a7 563d
00000380: 889d c23c 46bf 55bd 2653 1f3d 8432 393d
00000390: 92db ef3c 0451 13bd 66a7 19bd 0411 f03c
000003a0: 66c0 923d aedb 62bd 0c9f fa3c 98ca a73c
000003b0: 7a04 5f3d dc45 0ebd fe7d 92bc a834 bb3c
000003c0: 001d 70bb a463 0f3d 3899 3dbc e37d 693d
000003d0: bda8 0e3c 4420 a2bc cc3c ffbc 28d7 3e3d
000003e0: ae05 123d 4b72 f63b 6aea 4ebd c45f ca3c
000003f0: 1aaa 7fbd c6e0 1d3d b1e5 403d c05b 963a
0.0027138144 -0.028232634 -0.022099674 -0.042269792 0.03274917 -0.021644734 0.054118574 -0.031008042
-0.012563833 -0.018903073 0.062028922 0.012493439 -0.017750219 0.06168241 -0.025569871 -0.10301257
-0.08133136 -0.12656017 -0.060737304 -0.04425361 -0.0393892 -0.1594083 0.015732102 -0.03073901
0.03162644 -0.002593573 -0.05936028 -0.02674272 0.019629829 -0.19032824 0.015868276 0.013600342
0.0058329627 0.0005664484 -0.03284896 -0.036515705 0.05473224 -0.024680078 -0.053350642 0.02646067
-0.04459829 0.023993209 0.054310285 -0.01600732 -0.06552569 -0.034838576 0.021154247 -0.046942502
0.022648923 0.044012696 0.032734618 0.036022298 -0.054872464 -0.035303384 0.048216768 0.04071814
-0.036575876 0.003042221 -0.02270548 0.0506517 0.029965334 -0.10464425 -0.033128962 -0.056089714
-0.017864913 0.032807425 0.061644137 -0.06072738 -0.04740921 0.045299944 0.055645835 -0.013593473
0.0604148 -0.039835557 -0.0015671497 -0.14530058 -0.057012327 -0.004726606 0.05385448 -0.061602347
-0.0069113374 0.14796148 -0.047086358 -0.06437681 0.05766294 0.0070903054 -0.30616662 -0.015254985
0.039428085 -0.051030196 -0.043522235 -0.01450295 -0.032946616 -0.063035704 -0.057881996 0.032893717
0.042119294 0.04073111 -0.037159912 -0.020775303 0.03476928 0.04715514 -0.04986045 0.017967314
0.010127246 0.03790229 0.033488885 -0.031984687 0.0061935335 -0.025902607 0.048527107 0.011083059
-0.022245452 0.035473943 0.011122704 0.020084735 0.058540203 -0.06057961 -0.0066204816 -0.014114492
0.0015926659 -0.042429514 -0.043833673 -0.026270958 -0.06055378 0.036136635 0.009928374 0.009679337
-0.017899223 0.0121934265 0.051106937 -0.015508678 0.032350354 -0.19165866 0.012992429 -0.042449057
0.029947296 -0.065087594 -0.02505377 -0.0430225 -0.049990296 -0.09927386 0.019458512 -0.048344508
0.007127598 0.021271534 0.050431527 -0.017725468 0.01911169 0.05469922 0.062349252 -0.004684138
0.054653645 -0.04898625 -0.03999401 -0.04259076 0.018750176 -0.049030457 0.060761407 0.0118409395
-0.028093643 -0.051172145 0.043839976 0.056966074 0.046705127 0.013855211 0.016678328 0.012276985
0.019302797 -0.011766501 -0.2519724 -0.014203854 -0.0055724345 -0.58575284 0.047916256 0.062472805
0.0059649646 0.051854663 -0.012118593 -0.03149252 -0.016496427 0.0037422106 0.016235763 -0.021612301
-0.052892365 -0.02233047 0.042311512 -0.0061948374 0.016998813 0.053531356 -0.033034652 -0.049973704
0.011867069 -0.03450926 0.00624194 -0.05390317 0.01657998 -0.036929987 -0.027610786 -0.040126763
-0.033316895 -0.03345724 0.02185838 0.03030955 -0.050943308 0.046217762 -0.03333904 -0.03264065
-0.050156653 -0.09199166 0.012391538 0.01323998 -0.0305285 0.0023142025 -0.04962682 -0.0030405521
-0.030949391 -0.04920914 -0.021956943 -0.030311411 -0.020310163 -0.023111535 -0.024972321 0.052405953
0.023756757 -0.052184366 0.038897656 0.04521419 0.029279504 -0.035965934 -0.03751316 0.029304989
0.07165603 -0.055385284 0.030593418 0.020482346 0.05444763 -0.03473459 -0.017882343 0.022852257
-0.003663838 0.035007134 -0.011572175 0.05700482 0.0087072225 -0.019790776 -0.03115692 0.046591908
0.035649948 0.007520949 -0.050516523 0.024703868 -0.06241808 0.03854444 0.04709405 0.0011471435

linear2.bias f4 [256]
00000000: 2eb6 c73d 36f0 fb3d 9a83 6bbd cb9d a93c
00000010: a0fa 1ebd bdfc 00bd a092 be3d d1fe 2c3e
00000020: 3d87 85bd 1e99 7abc 7a2d 633c 178d c3bd
00000030: 32cb 88bd cb04 45be 19f3 653d 41a6 bdbd
00000040: a947 55bd c5f9 8abd 1a61 09bd 786d c53c
00000050: 528b c4bd e2fc 2a3e 8c71 ac3b c1d8 c7bd
00000060: 3c86 683d 6fcf bdbd d9d6 5937 3a4b 5dbd
00000070: 5aa9 b03c 753b 85bc 7272 2d3e 1209 debc
00000080: daed e03d a00b 0ebe 0786 afbd da5f 7dbd
00000090: b3b8 803c a425 573d 1cd2 5ebd 21fa cd39
000000a0: 43ab 7c3c b893 70bd edd6 a03d 64c0 e8bc
000000b0: 67a1 0b3d 0f88 34bd 076d b5bc 38e1 2b3e
000000c0: b668 a43b c0cd 703d 7930 ff3d c4c8 c4bd
000000d0: 1dbf 903d e7f2 ef3d 8528 38be 8d8b 0f3e
000000e0: 2a7b dbbb eb31 e2bc e086 c2bb 3d0a a93b
000000f0: 9e95 19bd f017 42bd d624 97bd 2529 8dbd
00000100: a354 733c c709 5dbd 1b13 6abd f89d 52bd
00000110: 2893 85be 76ad 77bd 15a1 a93d 87cc 10be
00000120: f25f 74bd 7931 413e 04c3 383e 3f57 a03c
00000130: 4009 633d a870 ddbd 904b e63d d8a9 56bd
00000140: 2f46 a23c ab6b b3bc e5ce 65bd b92b 43bc
00000150: bc76 75bd 88e2 a33d 610a b63d 21fd 343e
00000160: 4e4d abbd 84d4 d4bd 8fdf c3bc d0df aa3c
00000170: 17e5 93bd 9761 75bd 05e1 8bbd 3536 89bc
00000180: f5cc 8cbd a897 37bd e736 b53d bb28 c73d
00000190: 92ba 093e 1193 8dbd a942 7bbc edd8 0dbc
000001a0: 85d1 a7bd 6513 01bd b78b ca3d d65e f6bd
000001b0: 27f8 0abe b422 643c 175c 2e3e 5864 713d
000001c0: 6339 07be f6b7 1d3e 919c b9bd 93f8 66bd
000001d0: 609d 09be e496 cb3d a0dc f33c e4a1 fcba
000001e0: 1417 3abd 302c 4839 2918 bebd 9037 b7bd
000001f0: a399 5d3d 34fd a73d e7dc 353c b1cd b3bd
00000200: 3f42 b23d 1c4a 2dbb 1292 803d f4b5 b8bc
00000210: 09d8 63bd 4dec 83bd e75f 00bc b6da d33d
00000220: ed5f cebd c104 b9bb fc48 1c3d 1bcc 79bd
00000230: 2d3a 813d 2033 d4bd 60f2 bfbc 6c93 4f3c
00000240: d409 10be 08ed 443d fa28 51bd ade7 96bc
00000250: 59bc 353d 28c8 31bd e6ce 85bd 96df 18bd
00000260: d20f 003d f2bb 4a3d 21f1 df3d b67f 223e
00000270: 6ca2 a2bd 2af5 d5bd 6cfc 1fbc 053d 1e3d
00000280: aba5 cd3c ecde 0bbd e0be c13a 956e cabb
00000290: 513c c4bd c9fc 553d 1d57 52bd 7d59 ef3d
000002a0: f258 02be 4d92 b93d 3575 8bbd fa7c 3a3d
000002b0: a141 0d3e 9b4c 44bc 6bd0 28bd 6de6 34bd
000002c0: 1d20 85bd bb2d b43d 3fc6 ab3d c6f0 703e
000002d0: 479b 80bd 6efa 2f3c be96 9cbc aa16 59bd
000002e0: 488d 5a3b 0a97 643e a265 17be af20 323d
000002f0: e78d 4d3d c25f 343e 60e1 07bc aa50 de3d
00000300: b310 08be b55a 74bd 96bd 8abe fbea 9c3b
00000310: 835b 4f3d 6d9e 04bd 6fe4 413d 7b1d eebb
00000320: fab0 09bd d1ba ddbd 31fa 0dbe 1735 863c
00000330: c354 38bb 0770 bb3c 0519 8bbc 7276 073e
00000340: 6888 9bbd 2629 c03b 908f e7bd 264e 283d
00000350: 9a37 dabd bea7 673d 2ba0 bd3d 4dce 0d3e
00000360: aa33 edbc 1486 f7bc 555b 10bd 4b67 803a
00000370: 7452 fdbc 2dfd 88bd f61e 10bd fd39 0f3d
00000380: 6da0 0cbd 3256 2c3a e4e3 103e 9a73 5cbd
00000390: e46e a33d cfdf 44be 1e92 993d be2d 17be
000003a0: 088d 983d 07a9 a5bc 5c09 46be db96 ea3d
000003b0: 8bfc 1bbd 66c7 f63d c4c3 f53d 4fe4 c73d
000003c0: b98e b33e d371 533e 2baf 133e e79b afbd
000003d0: 5c99 76bd a4ce 803b 7f8e a2bb df33 dc3d
000003e0: fb21 19be 48ed ddbd 6082 09bb 9622 9b3d
000003f0: f1b6 34bd 7f78 2ebd 8d6d 95bd 35e1 f53d
0.09751545 0.12301676 -0.057498552 0.020705124 -0.038813233 -0.03149103 0.0930531 0.1689408
-0.06519935 -0.015295295 0.013865823 -0.09548395 -0.066793814 -0.1924011 0.05614004 -0.09260226
-0.052070294 -0.06785921 -0.03353987 0.02410005 -0.09596886 0.1669803 0.0052625593 -0.097581394
0.05676864 -0.092680804 1.2984231e-05 -0.05402682 0.021565128 -0.016263703 0.16938189 -0.027103934
0.109828666 -0.13871622 -0.085704856 -0.06185899 0.015713071 0.05252613 -0.054399595 0.00039287008
0.015421691 -0.058734626 0.07853494 -0.028412051 0.034089472 -0.044075068 -0.022146715 0.16785133
0.0050173653 0.05878997 0.12460417 -0.096086055 0.07067702 0.11716252 -0.17984207 0.14018078
-0.006698032 -0.027611693 -0.0059364885 0.005158691 -0.0374962 -0.04738611 -0.07380073 -0.06892613
0.014851722 -0.053964403 -0.057147127 -0.051420182 -0.26088834 -0.06046816 0.08282677 -0.14140521
-0.059661813 0.18866529 0.18043143 0.019572852 0.055428743 -0.10812503 0.11244881 -0.05240807
0.019808857 -0.021901926 -0.056105513 -0.01191228 -0.059927687 0.08002192 0.08888698 0.17674686
-0.08364354 -0.10392097 -0.023910312 0.020858675 -0.0722143 -0.059907522 -0.068300284 -0.01674948
-0.0687503 -0.044822365 0.088483624 0.097245656 0.13450077 -0.06912816 -0.015335717 -0.008657676
-0.081942596 -0.031512637 0.0988993 -0.12029807 -0.13571225 0.0139242895 0.17027317 0.058933586
-0.13205485 0.15402207 -0.09063066 -0.056389403 -0.1343894 0.099408895 0.029768288 -0.0019274321
-0.045432165 0.00019089947 -0.09281952 -0.089461446 0.054101598 0.082025915 0.0111000305 -0.08779467
0.08704042 -0.0026441878 0.06277861 -0.0225477 -0.05562595 -0.06441555 -0.007835365 0.1034445
-0.1007689 -0.0056463187 0.03815554 -0.060985666 0.06309924 -0.10361314 -0.023431003 0.012669425
-0.14066249 0.048077613 -0.05106447 -0.018421018 0.044369075 -0.043403774 -0.06533603 -0.037322603
0.031265087 0.049495645 0.109346636 0.1586903 -0.07941136 -0.10447152 -0.009764772 0.03863241
0.02510341 -0.03414814 0.0014781617 -0.006177733 -0.09581817 0.052243028 -0.05135261 0.116869904
-0.12729242 0.09061108 -0.06809465 0.045529343 0.13794567 -0.011981155 -0.041214388 -0.044165064
-0.06500266 0.08797785 0.08387422 0.23529348 -0.06279617 0.010740859 -0.019114848 -0.05300013
0.003334837 0.22323242 -0.14784864 0.0434882 0.050184157 0.17614654 -0.00829348 0.10855229
-0.1328762 -0.059656817 -0.27097768 0.004788754 0.05062438 -0.03237765 0.047336992 -0.007266698
-0.033616044 -0.10826648 -0.13864972 0.016382737 -0.0028126694 0.022880567 -0.016979704 0.13228777
-0.07594377 0.0058642803 -0.11306679 0.041090153 -0.106551364 0.056556456 0.09259065 0.13848229
-0.0289553 -0.0302153 -0.03524335 0.0009796409 -0.030923106 -0.066889144 -0.035185777 0.03496741
-0.03433268 0.00065741234 0.14149433 -0.053821184 0.07980135 -0.19226001 0.07498573 -0.14763543
0.074487746 -0.0202222 -0.19339508 0.11454555 -0.03808264 0.12049751 0.1200023 0.09760343
0.35069826 0.20648889 0.1442229 -0.08574658 -0.06020485 0.0039308835 -0.0049608345 0.10752081
-0.14954369 -0.108362734 -0.002098225 0.07574956 -0.04411978 -0.042595383 -0.07296286 0.120058455

linear3.weight f4 [2, 256]
00000000: 2c45 7dbf f58d 0abf 7225 5fbf 2e7e 99be
00000010: 1833 6c3d cacc d0bc 5f81 2cbf c9a3 42bf
00000020: d538 07be 5238 6cbf 1858 b9bd 90e1 3cbf
00000030: 6f99 a2bf 4236 51bf 336c e7be 8732 a6bf
00000040: eec2 99bd ef87 27bb 1f75 2dbf 6ae3 53be
00000050: 2f8d a3be 6d3a d3be 3d31 8bbf 10cd 94bf
00000060: 1897 03bf b81d 3dbf 8aa4 5ebc c18c cdbb
00000070: 9570 85bf b8ad bebc d71f a0bf 2896 4a3d
00000080: a900 ccbe 33ca e8bd 733a e8bc 24f7 f3be
00000090: 2a54 d5be 8dad 02bf 22c0 b1bd 3f0b a2bc
000000a0: ff63 27bc b19d f5bf 36bd 18bf 26c6 10c0
000000b0: fad9 d9be a1df 47be 4760 aebf f02e 3abf
000000c0: 4df8 01bd 6fe1 afbf c2ec 56bf 24a2 fdbe
000000d0: 6148 c2bf fff1 20bf 2e39 18be 6e65 17bf
000000e0: b001 4d3a af60 20bb d927 d93c a372 eebd
000000f0: 1479 0e3d b28f 5fbd 40d1 33bf 4eca 11be
00000100: 01d6 46bd e16f f2be 9555 1639 ea01 d1bf
00000110: fc43 f2be 8856 febe ed61 8cbe 850b 87bf
00000120: aa3d 6a3d 886f b9bf 406d b3bf 08ad ecbe
00000130: a325 66bf a5c3 86bf 4dfe 80bf c568 85bf
00000140: 7424 1dbf 206b b7bf 0b37 6abf a8ed 31bc
00000150: 27d4 afbd 7393 eebe e357 e7be c523 84bf
00000160: 26ef 9ebf 1ed8 c2bf 0ec6 99bf 5662 17bf
00000170: 1d96 82bf 30ef b4bf b3b7 69bd 9d05 183d
00000180: 6eec a93c daa3 d5b9 bd6f 0bbf cfc5 e2be
00000190: bb6d eabe 86c6 9ebf ee4b 98bf baca 673d
000001a0: 5254 5fbf b6ea 9fbc 1797 a2be 02c7 d5be
000001b0: c880 33bf 7608 1abf 772c 2dbf 6572 06bf
000001c0: 706e 3ebf 0c07 f2be 29e5 41bf 1270 51be
000001d0: 435b 68bf 2e57 13bf 8a95 54bf e378 eebc
000001e0: 17d2 adbf 160d 003d dcad 7dbf 8613 273d
000001f0: b3c9 e6be 9386 80be 3412 09bf 4539 8fbf
00000200: 3f85 afbf 7f72 06bd 8d3d 04bf 991b c1bf
00000210: 8c71 73bf daf3 693d f807 b1bd 65f0 0abf
00000220: 15da 82bf 2599 0bbf c4ef 99bf 893b 4abd
00000230: e0f4 b8be 3a00 5dbf a0f5 fbbc 8e85 91be
00000240: 46c9 90bf 7f37 a4bf 10f7 c73c b925 c4bb
00000250: 759a 0abf 8757 a4bd f5ac 89bf b6a2 92bd
00000260: 6e4b af3c 3222 bebe 3a25 dbbe 04f7 7fbf
00000270: 067b 9cbf d5ba 02bf db48 80bf 75ae 0fbd
00000280: 5efa 9cbe 9f46 a2bf 41e7 c0bd 3114 ccbf
00000290: 652e 89bf c72a 80bf 33cd 33be a7a4 a0bf
000002a0: 394c c8bf 182a 30bf 80f2 00bb 8806 3ebf
000002b0: 4b3b e2be aa75 cfbe a4c5 f1bf 45ff 87bf
000002c0: e6fd 273b d6ff 1cbf 2e6a 14bf c3ca 64bf
000002d0: e916 5a3d 3f1b b03c 8d56 84bf 5faa ba3c
000002e0: e4cb 75bf 7b3c 6dbf 685f 37bd f637 10bf
000002f0: cfd0 2bbf 36b1 81bf 7163 44bf 269e 9fbf
00000300: 0b78 b83c 133e 6abf a0f9 32bf 7d9a 1dbf
00000310: 9f48 13be 0751 a3be 6e47 1fbf fe7d 92bd
00000320: 1114 67bd 0a64 56bf bfa1 24bf aec7 13bf
00000330: c00e b0be e3a4 6fbd 4ee4 95ba c78f 24bf
00000340: 3638 11c0 8a59 debf c518 8abf 9849 b1be
00000350: 24b2 f2be 16e6 99bf dfef 24bf 2e44 25bf
00000360: 9069 b7bf f0f1 3fbd cd9b 86bf 462f 19bf
00000370: 5a30 e23c acea 093b 9b98 f33c 344a 75bf
00000380: 069e 12bc 1e71 1dbf d6e7 4fbf fe5a 9cbd
00000390: 5c5d 7bbe ad72 84bf 2d27 82be fde4 05bf
000003a0: 6c45 7ebf f41c 883c 505e 3cbf 6932 cbbf
000003b0: 6f75 a8bf 462e 15bf 2ee8 18bf 80f0 33bf
000003c0: df8a 21c0 6acb d7bf 3eb2 9bbe ef56 abbd
000003d0: 3b76 733d 402c fa3b 8adb 59bd d5af 08bf
000003e0: 3c45 f7be ac3e fcbe c0ff f1bc a46f fbbe
000003f0: ee01 b2be 4cc6 013b 814d cabb d061 b1bf
-0.9893367 -0.5412286 -0.8716651 -0.2997908 0.057665914 -0.025488276 -0.67384905 -0.76031166
-0.13205273 -0.9227344 -0.09050006 -0.7378168 -1.2703074 -0.81723416 -0.45199737 -1.298417
-0.07507883 -0.00255632 -0.6775684 -0.2069222 -0.31943652 -0.41255513 -1.0874401 -1.162508
-0.51402426 -0.7387347 -0.013589034 -0.0062728827 -1.0424982 -0.023276195 -1.2509717 0.049459606
-0.39844254 -0.113666914 -0.028348183 -0.4764949 -0.41665775 -0.5104607 -0.086792246 -0.019780753
-0.010216712 -1.9188749 -0.5966371 -2.262094 -0.42549115 -0.19518901 -1.3623132 -0.7272787
-0.03173094 -1.3740672 -0.83955014 -0.49537766 -1.5178338 -0.62869257 -0.14865562 -0.59139144
0.0007820381 -0.002447169 0.026508259 -0.11642959 0.034783438 -0.054580398 -0.70241165 -0.1423733
-0.048543934 -0.47350982 0.00014336997 -1.6328709 -0.47317493 -0.49675393 -0.2741846 -1.055039
0.057187714 -1.4487162 -1.4017715 -0.46225762 -0.8990118 -1.0528456 -1.0077606 -1.0422598
-0.6138375 -1.4329567 -0.9149024 -0.010859884 -0.08585387 -0.4659687 -0.4518424 -1.0323416
-1.2416732 -1.5222204 -1.2013566 -0.59134424 -1.0202061 -1.4135494 -0.057059955 0.03711473
0.020742621 -0.00040748605 -0.54467374 -0.4429154 -0.45786843 -1.2404335 -1.1898172 0.05658982
-0.8723804 -0.019521099 -0.31755897 -0.41753393 -0.7011838 -0.6016916 -0.6764597 -0.525183
-0.74387264 -0.47271 -0.75740296 -0.20452908 -0.90764254 -0.575549 -0.8304068 -0.029110378
-1.3579739 0.03126248 -0.99093413 0.040790103 -0.4507576 -0.25102672 -0.535434 -1.1189352
-1.3712538 -0.032824036 -0.5165642 -1.5086547 -0.95095134 0.05711732 -0.08644098 -0.5427306
-1.0222803 -0.54530555 -1.2026296 -0.049373183 -0.36124325 -0.8632847 -0.030756772 -0.28422207
-1.1311424 -1.2829436 0.0244098 -0.005985942 -0.5414193 -0.08024507 -1.0755907 -0.07159941
0.021398272 -0.37135464 -0.4280184 -0.9998629 -1.2225044 -0.51066333 -1.0022234 -0.035078485
-0.30659765 -1.2677802 -0.09419108 -1.5943662 -1.0717283 -1.0013055 -0.17558746 -1.2550248
-1.5648261 -0.6881423 -0.0019675791 -0.74228716 -0.44185862 -0.40519458 -1.888844 -1.0624777
0.0025633513 -0.61327875 -0.5797452 -0.8937189 0.053244505 0.021497367 -1.0338913 0.022786317
-0.9601424 -0.9267041 -0.04476872 -0.5633539 -0.6711549 -1.0132205 -0.76714236 -1.2470138
0.022518178 -0.9150097 -0.6991215 -0.61563855 -0.14383171 -0.31897756 -0.6221837 -0.07152937
-0.05641562 -0.837464 -0.64309305 -0.5772656 -0.34386253 -0.058506858 -0.0011435838 -0.64281887
-2.2690558 -1.7371075 -1.0788809 -0.3462646 -0.47401536 -1.2023342 -0.64428514 -0.6455716
-1.432909 -0.04686159 -1.0516297 -0.5983776 0.027610946 0.0021044416 0.029735854 -0.9581635
-0.008948809 -0.6150073 -0.8121313 -0.07634543 -0.24547333 -1.0347496 -0.25420514 -0.52302533
-0.9932468 0.016615368 -0.7358141 -1.5874759 -1.3160838 -0.5827373 -0.5972928 -0.7028885
-2.524101 -1.6858952 -0.30409425 -0.08366191 0.059438925 0.0076346695 -0.053187884 -0.533933
-0.4829501 -0.49266565 -0.029540896 -0.49108613 -0.34767097 0.0019802032 -0.00617379 -1.3857975

linear3.bias f4 [2]
00000000: 67aa d4bf cf9b 62bc
-1.6614503 -0.013831093
