turtlebot3_rl_sim/src/models/td3/revamped/new_tracking_cp_gcp_nobonus_corrected_3_no_cpdto/td3_critic2_model_ep1400.pt (torch_old, 647202 bytes, 5 tensors)

linear1.weight f4 [256, 372]
00000000: 9082 37bd ed20 82bc 890f c9bc e59a 123d
00000010: 97b1 28bd 0f1f a0bb c851 3fbd 9eea 283d
00000020: 7a74 53bc 5e7b 14bc a080 423d f719 aebc
00000030: d16b d93c bd9b 0cbc 215b db3c 9ed3 97bc
00000040: 9edf 95bc e45b 77bd 34e1 79bc 372d 303d
00000050: c9d8 cebc 03c5 66bc 3f18 bd3b f746 333c
00000060: a2dc 54bd 2e2d 1abd 5421 f4bc 5352 f039
00000070: 06fc ac3c 1ecd 2f3d 6ea8 13bc b1b3 c0bc
00000080: b6b1 1cbc 252b 953a 7160 513c 7d27 163c
00000090: bec0 233d 20fd 403d a48e 7abb b6f0 1ebd
000000a0: dfa1 b13c b632 2d3d dd90 1f3d d9d6 c0bc
000000b0: 894c 43bc 6d98 1e3d e7f2 2dbd a40f 8b3c
000000c0: 7522 1e3d 7b9f 69bc 5a2c 52bd b7cf 303c
000000d0: bd6b 143d 4ada 6d3b 5c75 7cbb cd15 143d
000000e0: b7d4 2bbd 4e4e 2e3c f10f d43c 854f 04bd
000000f0: b503 07bd e430 7abc f23e 613c b70f 373d
00000100: 4df5 0ebd 27e7 303d 5189 523c d553 0fbd
00000110: 757a 07bc ddc7 1a3d 6662 2a3d 00ab 30bd
00000120: 35b5 113c ad52 9a3b 54ad 7ebc b863 c23c
00000130: 700b c23a 27bf 26bc b68e 263d 57d3 323d
00000140: f31c 6fbd df40 24bd 88d2 35bd a363 e4bc
00000150: 8d68 1a3c c8c2 c13c 65df 113d c632 a738
00000160: 60bf c33c b899 39bd 48f8 36bd 0015 30bd
00000170: caed 57bd 153a 8cbc 79be 4fbd 1199 46bd
00000180: d5fc 103c 674d ba3b 117c 4f3c 912c 56bc
00000190: a09c 353d d6dc a6bc 9fa1 30bb ce60 adbc
000001a0: 5798 273c f262 db3c 47fa 3ebd b5f1 893b
000001b0: b0cf b33c 8f3f 3ebd 66af 19bd 8fa4 29bd
000001c0: 5aaa 56bd 8b28 e2bb 2703 243c d5a9 89bc
000001d0: cf4a 20bd 4ef1 17bc c2ce 5bbd bd67 04bd
000001e0: 7fed 27bd 7d40 963a a84e 3fbd 7a0e e43c
000001f0: 3732 2bbd 45b0 103d d6c7 1dbd 2a86 55bd
00000200: 0dac 153d 2eea 203d 1cbe 8c3c 5067 c73c
00000210: 5096 3bbd c00e 493d 3e76 253d c351 f43c
00000220: 0ed9 1abd 2dd6 1b3d 2594 903c 3884 c73c
00000230: 6ff7 23bd 73ce 793c db9a 63bd 9f39 20bd
00000240: a8a2 31bc e445 033d d68d 16bd 7c8a f9bc
00000250: c44e 013d 18f7 c43b 02fb 5dbd f709 00bd
00000260: 46ec 9fbc c126 5e3c 1746 23bd 72e4 54bd
00000270: dc91 0a3c fee5 a23c c4ae 0a3b 6f22 3a3d
00000280: dc53 0c3d 9559 8dbb 81d7 ccbc 80f8 3abd
00000290: dd6c 0cbb 2fae aabc d601 253c 4fb7 a9bc
000002a0: d86f cd3c 41ee dc39 a3b5 67ba 7fc4 b23c
000002b0: 90ae 38bd 949f f9bc d784 a4bc 3f2c a9bb
000002c0: 79cd 40bb debf 93bb 33b6 63bc 4117 d23c
000002d0: 2c84 ffbc d4d5 71bd 2de3 1d3c 61de 42bc
000002e0: 2478 843c d6e1 a13c 9082 37bd cbfc fa3c
000002f0: 085b 32bd dea6 13bd 9f2f 2abd cd24 85bb
00000300: b374 f03c 9506 86bc 7122 d33b fecd 0dbd
00000310: 88a7 38bd cb1d 69bd 6ec8 2f3d 53b3 e4bc
00000320: c9eb cfbc 9d57 02bd 72b3 d8bc cd85 923c
00000330: 481c ca3a dc18 013d c2f1 6a39 f675 273d
00000340: 1d02 0abd 27c1 2ebd 0700 24bd 97c7 353d
00000350: 62c3 53bc f9ae dc3c 3759 313c a3a2 e6bc
00000360: e0d4 ce3a ec0a 0e3d 1bdb 6abd aa27 d2bc
00000370: 6050 c93c c9f5 45bd a791 383d 6162 c6bb
00000380: 41ac 4ebd e9f4 4ebd cc20 0e3d ff6d 363d
00000390: 9252 58bd 55e6 9a3c 2c67 883c 6fd2 25bd
000003a0: f623 243d c7fb 2bbd 9f24 303d f7bb 2cbd
000003b0: 9505 82bc 18e2 3bbd 136a ebbc 3de7 0ebd
000003c0: 9efb 213d 9d25 82bc cf18 b93c b649 253c
000003d0: ad86 09ba 762e 1cbd bb90 60bd 2fd6 b43c
000003e0: 517f 43bc 5882 33bd 4a2c d8bb ede8 82bc
000003f0: 9e74 2b3d a747 23bd 6666 213d ba47 e83b
-0.04480225 -0.01588484 -0.02454354 0.03579225 -0.041184988 -0.004886515 -0.046708852 0.041239373
-0.012906188 -0.009062616 0.047485948 -0.021252615 0.026540669 -0.008582053 0.026776852 -0.018533524
-0.018295106 -0.060390368 -0.0152514465 0.04301187 -0.025249856 -0.014085057 0.0057707126 0.010942212
-0.051968224 -0.037640743 -0.029801048 0.00045837704 0.021116268 0.042920224 -0.009012325 -0.023523184
-0.009563854 0.0011380656 0.012779341 0.009164688 0.039978735 0.0471164 -0.0038231993 -0.03880378
0.021683631 0.04228469 0.03895651 -0.023539947 -0.011920103 0.038719583 -0.042467978 0.016975231
0.03860708 -0.0142592145 -0.05131183 0.010791711 0.03623556 0.003629344 -0.00385221 0.036153603
-0.041950908 0.0106387865 0.025886508 -0.0323024 -0.03296252 -0.0152704455 0.0137479175 0.04469272
-0.034901906 0.043189194 0.012850122 -0.034992058 -0.008268942 0.03778826 0.041597746 -0.04313183
0.008893301 0.0047095628 -0.015544254 0.02372919 0.0014804434 -0.01017741 0.040663444 0.04365858
-0.058377218 -0.04010093 -0.04439023 -0.027879542 0.009424341 0.02365245 0.035613436 7.972638e-05
0.023894966 -0.045312613 -0.044670373 -0.042988777 -0.052717008 -0.01711754 -0.05071876 -0.04848582
0.008849342 0.0056854966 0.012663857 -0.013072149 0.044338822 -0.020368975 -0.0026951802 -0.021164324
0.010229192 0.02678058 -0.0466254 0.004209722 0.021949619 -0.046447333 -0.03752079 -0.0414167
-0.052408554 -0.0069018058 0.010010517 -0.016804615 -0.039133843 -0.00927384 -0.053663976 -0.032325495
-0.04099798 0.0011463311 -0.04670587 0.027838934 -0.041795935 0.035324354 -0.038520657 -0.052129902
0.036541034 0.03928583 0.017180495 0.024341255 -0.045797646 0.049086332 0.040395968 0.029824143
-0.037804656 0.03804605 0.017648766 0.024355039 -0.040030893 0.015246975 -0.055567604 -0.03911745
-0.010842003 0.032049075 -0.03675636 -0.030461542 0.031569257 0.006010901 -0.054194458 -0.031259503
-0.019521844 0.013559044 -0.039861765 -0.051975675 0.008457627 0.01988506 0.0021161297 0.045442995
0.034259662 -0.0043136575 -0.025005104 -0.045647144 -0.0021427192 -0.02083501 0.0100712385 -0.020717291
0.025077745 0.00042139183 -0.00088390167 0.021822212 -0.04508835 -0.0304716 -0.020082874 -0.0051627452
-0.0029419346 -0.0045089563 -0.01389842 0.025645854 -0.031190954 -0.059041813 0.009636682 -0.01189384
0.016170569 0.019761007 -0.04480225 0.03063812 -0.043543845 -0.03604781 -0.04154932 -0.004063225
0.029352522 -0.01636056 0.0064433147 -0.034620278 -0.045081645 -0.05691318 0.042915754 -0.02791754
-0.025380986 -0.031821836 -0.026452754 0.017886067 0.0015419805 0.03151785 0.00022406041 0.04088398
-0.03369342 -0.042664673 -0.04003909 0.044379797 -0.012925001 0.026938902 0.010824493 -0.028153723
0.0015779994 0.034678385 -0.05733786 -0.025653679 0.024574459 -0.048330102 0.04506078 -0.006054208
-0.050457243 -0.050526533 0.034699246 0.044538494 -0.05281312 0.018908659 0.016650759 -0.04048389
0.040073358 -0.04198816 0.043003675 -0.042171445 -0.015871802 -0.045869917 -0.028737104 -0.034888495
0.0395466 -0.015887076 0.022594837 0.010088375 -0.00052462035 -0.038130246 -0.054825526 0.022074787
-0.01193221 -0.043825477 -0.0065970765 -0.015980208 0.04185926 -0.039863255 0.039404295 0.0070886286

linear1.bias f4 [256]
00000000: 8a01 5cbd 23be 193e 8c34 5bbe 0537 1f3e
00000010: 51a1 4ebd 4159 47bb 6324 203e f06d aebb
00000020: 07fb a8bc 5fa9 7f3e 5bcf 703d 5483 053d
00000030: 4959 023e bfac 163e f6f7 dd3d f6e3 1c3d
00000040: d2d0 463d ea06 90bd 6ad0 313e 9fab bf3d
00000050: bac7 dbbc 2338 7e3c f9c0 40be f537 8d3e
00000060: 7424 74be 2eb4 293c bc29 263c 7c8f 113e
00000070: 7218 5dbb 32e9 943e 5503 923c 2fc5 bb3c
00000080: 1fe3 313d cf79 1b3e d570 37bd a70c 313d
00000090: be30 22bc f8ae c33d 6372 b23d deb0 283e
000000a0: 3ecf 92bb 86f0 17be acd0 013e f826 1abe
000000b0: e0e4 433e 7cd3 f1bb 0a88 50be 662d fbbd
000000c0: 34e5 70bd 3db7 563e a148 43be 19d7 41bd
000000d0: 9179 45bd 926c 453e 0849 423c 2ae3 cb3d
000000e0: fc04 0d3e a012 4c3b 8231 6ebd fd7e 163d
000000f0: 6526 82bb f67c 3ebe 77b3 d23d dc07 19bd
00000100: bd2f 9e3c 4f9a 323e 61b6 d13d bcad 213d
00000110: 6845 cc3b 4c44 863d 6003 9a3c e2b9 38be
00000120: a8d4 ca3d d59a 013e 09c1 503e aaf5 ea3c
00000130: be0d 13bb 60a1 303e f04b 31bd 7c25 4d3d
00000140: 3bcc 6dbc b5d6 01bc 2057 2c3e 2c63 f8bb
00000150: 263e 2f3e 2cc1 f9bc a82c 34be e97a 41ba
00000160: d257 113e 0652 a73c b937 1dbe e618 163e
00000170: 34ad 4c3e 106e 02be 9f26 523e 8b7b 0c3e
00000180: 24fb b93c 8e6f 90bc 7a74 bcbc 67df 5d3e
00000190: 4d31 16bd a5f1 0fbc 9cda 013d 6070 3b3e
000001a0: 671a fabd 56f8 eebd 692e 323e a23b 5abd
000001b0: b318 1dbe 0e42 2f3e 0f61 3a3e 925d 9bbe
000001c0: b303 6ebd 4d0c 3d3e 0066 8d38 ca29 3cbd
000001d0: cf05 1dbd ee55 273d 84e7 06bd 4f7d bb3c
000001e0: 7186 2d3e 5e60 253d 1ea0 aa3c 94f1 213e
000001f0: e147 593b edda 153c e2cb 5cbc 3f13 29bd
00000200: 0495 073e 9f41 27bd 071c b03d e84f 7dbe
00000210: c2c0 ee3d a00e bcbb 44e9 fabc 10f1 483d
00000220: 130d d7bc d8a6 483e b4c4 053c 8df9 9f3d
00000230: ec5f 043d 86e3 2e3e 2a88 5dbb 5280 e03d
00000240: 38f0 6e3e 0a58 ecbd 572d 24bd 04f1 3a3d
00000250: 542d 0b3e 26d4 f3bc 4f52 be3c c4f0 ffb9
00000260: 025d ef3d 904b bcbc ddc3 8abc f3e8 e6bb
00000270: 5324 ed3d 993a 593c 6d2e 1f3d fca0 883c
00000280: 2c7d 8bbc 6d3e ef3d 5492 cb3c 294e e4bd
00000290: a766 bb3c fff2 e03d a44e f4bc 0b39 9a3d
000002a0: 04ea 99be ad13 183d 769e 1e3e 257c 143e
000002b0: ce3b d33d 27c4 21bd 6526 debd a526 03bd
000002c0: 1296 53bb b3fd 313e f957 c5bb 2353 20be
000002d0: 6712 843d 1806 36bd c06d b63b 6a2b 763d
000002e0: f631 11bc 0d30 053e 80b0 993b b9e2 62be
000002f0: 18a2 35bd 7494 0b3d 5f3d afbd 4ff4 23bd
00000300: 1398 36be 4e23 18bd 2e6b 0e3e c1c7 14be
00000310: ac7b a6bd 3ebc 91bc fa15 0abe 0dc7 9d3c
00000320: 7be0 29be bdb8 03bc e896 b4bc 6bab 7ebe
00000330: a106 cebb 7260 893e 65d9 123d cd4b 11bd
00000340: 5955 47bd fee1 92bc 9df4 05bd 735e 97bd
00000350: 681e 83be 55af 1f3e 9347 553e 1f3a 22bd
00000360: 713f babc ba60 4fbe 96fd 2c3c 0199 663e
00000370: 8a23 e73b 4591 553e ec5b 8d3b 1053 96bc
00000380: f601 213e 5a2d 6f3c b4f9 493e c70f 313d
00000390: 6250 88bc e803 cebc 58d5 11bc 30b4 213d
000003a0: 7170 46bc 699e ba3d 54e9 f4bc 583d cb3c
000003b0: 7ecc 10bd c069 463e d543 01bc 8b61 fe39
000003c0: 9c2d f0bc 5a8d 5fbc 88d8 4d3c db93 e0bc
000003d0: 96c2 213d 8f79 acbc 7071 31bd 2198 13bd
000003e0: 3308 76be 609c 133e a4de 8e3c 44ee b63d
000003f0: ac7b 0f3d 0cb2 fbbc 0e28 12bb 7046 b4bc
-0.053712405 0.15013938 -0.21406764 0.15548332 -0.050446812 -0.003041819 0.1563888 -0.005323164
-0.020627512 0.24966954 0.0587915 0.032595947 0.12729372 0.14714335 0.108383104 0.038303338
0.04853899 -0.07032569 0.1736466 0.09358906 -0.026828635 0.015516314 -0.18823613 0.27581754
-0.23842031 0.0103579 0.010141786 0.14214891 -0.0033736494 0.29084164 0.017823854 0.022921173
0.04342949 0.15183185 -0.04478534 0.043224957 -0.009899316 0.09554857 0.08713224 0.1647372
-0.0044802716 -0.14837846 0.12677258 -0.15053928 0.19130278 -0.007379947 -0.20364395 -0.122645184
-0.058812335 0.20968337 -0.19070674 -0.047324274 -0.048211638 0.19279698 0.011858232 0.099554375
0.13771433 0.003113903 -0.058152683 0.0367422 -0.003971862 -0.18602356 0.102881365 -0.03736101
0.019309873 0.17441677 0.10239864 0.039472327 0.00623386 0.06555995 0.018800437 -0.18039659
0.09903842 0.1265672 0.20386137 0.028681595 -0.002243861 0.1724906 -0.04328531 0.050084576
-0.014514024 -0.007924725 0.1683011 -0.0075801816 0.17113551 -0.03048762 -0.1759516 -0.0007380681
0.14193657 0.020424854 -0.15353288 0.14657936 0.19987947 -0.12737298 0.20522545 0.13719003
0.022702761 -0.017631318 -0.02300476 0.21667252 -0.03666811 -0.00878564 0.031702623 0.18304586
-0.12212067 -0.1166846 0.17400517 -0.053279527 -0.15341453 0.17115042 0.18201087 -0.30344826
-0.058108997 0.18461724 6.742403e-05 -0.04593829 -0.038335618 0.040853433 -0.032935634 0.0228869
0.16945817 0.040375106 0.020828303 0.15814811 0.0033154415 0.009146434 -0.013476344 -0.04127812
0.13240439 -0.040834066 0.08599096 -0.24737513 0.116578594 -0.005739048 -0.030628808 0.04905802
-0.026251351 0.19594896 0.008164573 0.0781127 0.03231804 0.17078981 -0.0033803084 0.10961975
0.23333824 -0.115402296 -0.040082302 0.045640007 0.1359151 -0.029764246 0.023232607 -0.00048816775
0.11687662 -0.02298525 -0.016939098 -0.0070468127 0.11579194 0.0132586 0.038862634 0.016678326
-0.01702746 0.11681829 0.024850048 -0.1114772 0.022876097 0.10983848 -0.029822655 0.07530411
-0.30061352 0.03712814 0.15490136 0.14500482 0.10314141 -0.039493706 -0.10847167 -0.032019276
-0.0032285494 0.17381935 -0.00602245 -0.15656714 0.064488225 -0.044439405 0.0055672824 0.060099997
-0.008862009 0.13006611 0.00469023 -0.221568 -0.044344038 0.034077123 -0.085566275 -0.040027913
-0.17831449 -0.037143044 0.13908073 -0.14529325 -0.08129057 -0.017789956 -0.13484946 0.019259954
-0.16589539 -0.0080396505 -0.022044614 -0.24870078 -0.0062874113 0.26831394 0.035851855 -0.03547268
-0.04866538 -0.017930027 -0.032703985 -0.07391062 -0.25609136 0.15594228 0.20828085 -0.03960621
-0.02273533 -0.20251742 0.0105585065 0.22519304 0.007053797 0.20856197 0.0043139365 -0.018350154
0.15723404 0.014598215 0.1972416 0.043227937 -0.016639892 -0.025148347 -0.008900963 0.03947848
-0.012111769 0.091122456 -0.029896416 0.024809524 -0.03535127 0.19376278 -0.007889708 0.0004851933
-0.029318623 -0.013644541 0.012563832 -0.027414253 0.039492212 -0.021054057 -0.043321073 -0.036033753
-0.24026565 0.14415121 0.017440148 0.08932164 0.035030052 -0.030724548 -0.0022301706 -0.022006243

linear2.weight f4 [256, 256]
00000000: 101f 8e3b 75bd 3fbd b707 8d3e 406a 03bc
00000010: ece9 5dbd 52e3 7cbd d28a 0f3f 189a ad3c
00000020: 0434 f33c f2ac fdbb ed07 06bf 844b d93c
00000030: 283a a53d 24f8 0f3e 7f71 823d 58a1 193d
00000040: 9c8a 01bd 41aa e0bd d44a b3be 4ee0 1ebc
00000050: 286e f53c c8c4 b23c a680 263d af1c 473e
00000060: db85 2dbe 80f6 033b 44e6 b03c be0f 103f
00000070: ee89 703d c0f0 263e a4f9 acbc 2af3 633d
00000080: 64c6 c1be 3e75 c9be b088 6abd fa83 39bd
00000090: 1227 46bd e7c3 203d 1544 743e 5011 9cbe
000000a0: 5811 0cbd c07f d8ba 924d 553c 4ba2 4a3e
000000b0: 5e25 9abb 88e4 05bd d4f3 053c 11bc babd
000000c0: eeab 31bd 96c1 b8bd 0671 263d 10fe 313c
000000d0: b018 4b3c 1073 233e 8097 543a bb31 223f
000000e0: a953 79be f019 3c3c 7e6b 08be f090 66bd
000000f0: 40af 933b 1c08 72be c409 343e 96e1 613d
00000100: 726a 3bbd 7eee 92bd be33 95bc e0b5 363b
00000110: 484d 36bd 7e5e 11bd 3a0d 1bbd e9ac 9abe
00000120: 7cd3 0a3c 21d4 1abd 43a6 f13b cada 563d
00000130: 7cbb 913c 7fbd f93c ac28 51bd de11 973c
00000140: 4456 d03c f0e3 bdbb c1fa 08bf 603f 63bd
00000150: 3bfd e9bc 260f 563d 80f5 fb3a 405d 4c3c
00000160: f1f3 c3bd b448 22bd 6dfd 01be 366a 3c3e
00000170: e534 33bf 0932 aabe 377b 89be 72eb cc3d
00000180: e66a 26bd 545f 3c3d 0aa5 25bd 37c1 e2be
00000190: 66d8 78bd f02b dcbb 64bb d03c fd07 79be
000001a0: 4ba5 86bd 18f6 a7be d6dc 81bd 7c5d 623d
000001b0: f86a 87bd 4a7e db3c e372 b2be 84f1 80bf
000001c0: 00b1 723d 53ae 45be 4ae7 323d 4c52 f33c
000001d0: 70de 0abd 989f 94bc 84a7 3ebe 8ee4 3dbd
000001e0: 2fe7 36be 8091 7e3b 38e8 223c 5b76 e0bd
000001f0: 104d 33bc 707e c03c 50fe 4cbc 70d2 cfbb
00000200: cd23 01bd 8c6e 0c3d 5002 5e3c 7ef7 86bd
00000210: 5828 42bd 88e6 01bc 48a0 543c baa0 1cbd
00000220: 9c8d c6bc 2b3c 723b c0f4 84bc baf2 58bd
00000230: dc98 2cbd d1e0 d2bd 1095 eb3c a02c 363b
00000240: acae 62be 2fb4 893e 0258 183d 0c41 6abd
00000250: aa8a 38bd 2458 24bd 8bd3 6bbc 422b 1ebd
00000260: 83b8 7f3c 28b8 fa3c 65ac 8dbd d018 9a3c
00000270: 7a97 3a3e a0bf 883c 044c 0fbd 0288 323d
00000280: 6001 3f3b cee2 893e 20b5 2e3d 40fb 7abc
00000290: 8813 6e3d 3cc1 00bd a8dd 45bd 82e6 383e
000002a0: dd84 63be 6324 613d b944 d5bc d030 d6bb
000002b0: a469 aa3d b0c7 873b f2d1 a4bd b45b 2d3d
000002c0: ea48 023d 70d9 15bf 488b cbbc dd35 b1be
000002d0: 4525 913e fef0 1fbd 0c76 84bc 6da4 5a3e
000002e0: 84a4 dbbc 48a7 a73e f042 ac3c cd1f 123d
000002f0: da00 67bd a0c6 87bc 68f6 3bbb 7026 8ebc
00000300: c32e 19be b01a 62bc 405c 023f 553e 20be
00000310: 32c1 0cbe 6de1 963d 3c76 e0bd fc71 f63c
00000320: fce0 82bd 907d e53b 0628 523d b578 2f3e
00000330: 0a2b 47bd 39b0 c63e ecf2 4bbd 9dd6 0a3d
00000340: bc4f 1d3d 8691 2b3d 205e 103c e962 083e
00000350: 2572 a63e 408e 3a3c 5047 e9bd 7ee5 093d
00000360: 9022 70bd 5b9c 83be 6eed 23bd 16d0 4d3e
00000370: fc65 d43c 771f 843e 9613 143d ee32 25bd
00000380: 2c8d 103e d497 373d 6de1 99bd 1803 6fbc
00000390: bc02 4dbd 10b6 2c3d f081 dcbc 4e2d 47bd
000003a0: 407f c4bc 0d36 66bd 68ba 1a3d 5e0b 163d
000003b0: 8482 023e 4517 2ebe eee8 6f3d 3c91 82bc
000003c0: 70f0 83bc d8d3 99bc 3c4d fe3b 06c8 2ebd
000003d0: 04bb 9a3c 2c82 b63c c42c f6bc 98ff 1b3d
000003e0: 7b72 86bd 4189 cdbd 609f 29bc a3c9 94be
000003f0: 3e99 71bd e026 4cbb f4c5 663d dc07 063d
0.004337199 -0.04681154 0.27544948 -0.008020937 -0.054178163 -0.061740227 0.560712 0.021191642
0.029687889 -0.007741564 -0.52355844 0.026525266 0.08067733 0.14059502 0.06369304 0.037507385
-0.03162633 -0.10969973 -0.35018027 -0.009697033 0.029959753 0.021822348 0.040650032 0.19444536
-0.16945593 0.002013594 0.021594174 0.5627402 0.05872529 0.16302776 -0.021115132 0.05565182
-0.37846673 -0.3934726 -0.05725926 -0.04529188 -0.048377104 0.039249327 0.23854096 -0.30481958
-0.034196228 -0.0016517565 0.0130189825 0.19788472 -0.0047041615 -0.032688648 0.008175809 -0.09117902
-0.043376856 -0.090212986 0.04063513 0.010863796 0.012396023 0.15961862 0.00081097335 0.6335713
-0.2434832 0.011480793 -0.13322255 -0.056290567 0.0045069754 -0.23635906 0.1758185 0.055146776
-0.04575581 -0.07174395 -0.01821315 0.0027879402 -0.044507295 -0.035490505 -0.03785441 -0.30210045
0.008473273 -0.03779996 0.0073745563 0.052454747 0.017789595 0.030485867 -0.05106418 0.018441137
0.02543176 -0.0057949945 -0.5350762 -0.05548036 -0.028563133 0.05226054 0.0019222945 0.012473404
-0.095680125 -0.039620116 -0.1269433 0.18399891 -0.70002586 -0.332413 -0.26851818 0.10005845
-0.04062929 0.04598935 -0.040440597 -0.44288036 -0.06075325 -0.006719105 0.02547998 -0.24319454
-0.06574496 -0.32804942 -0.06340949 0.055264935 -0.066121995 0.026793618 -0.34853277 -1.0073705
0.05925083 -0.1930478 0.043677606 0.029702328 -0.03390354 -0.018142506 -0.1861859 -0.046360545
-0.17861627 0.003884405 0.009943061 -0.109600745 -0.010943666 0.02349779 -0.012511805 -0.006342225
-0.031528283 0.034285113 0.013550356 -0.06590174 -0.047401756 -0.007928498 0.012977667 -0.03823922
-0.024237446 0.0036962132 -0.016229987 -0.052965857 -0.042137966 -0.102967866 0.028757602 0.0027797595
-0.22136945 0.26895282 0.037193306 -0.05719094 -0.045054115 -0.04012312 -0.0143936975 -0.038615473
0.015607956 0.03060539 -0.06917647 0.01881066 0.18221846 0.016692936 -0.034984604 0.04358674
0.0029145107 0.2693085 0.042653203 -0.015318692 0.058124095 -0.031434283 -0.04830709 0.18056682
-0.22218652 0.05496634 -0.026033746 -0.0065365806 0.083209306 0.0041436777 -0.080478564 0.042323783
0.031807818 -0.5853491 -0.024846688 -0.34611407 0.28348747 -0.039048187 -0.01616957 0.21351786
-0.026811846 0.32744813 0.021028012 0.03567486 -0.056397296 -0.016574204 -0.0028680805 -0.017352313
-0.14959244 -0.013800308 0.5092201 -0.15648778 -0.13745573 0.07367215 -0.109600514 0.030083649
-0.063905686 0.0070034936 0.0513077 0.1713589 -0.04862503 0.38806322 -0.049792215 0.033896077
0.03840612 0.04188683 0.008811504 0.13318981 0.3250896 0.011386454 -0.11390555 0.033666126
-0.05862671 -0.25705227 -0.040021352 0.2009891 0.025927536 0.25805256 0.03615149 -0.040331773
0.14116353 0.04482253 -0.075137 -0.01458814 -0.050051436 0.042165816 -0.026917428 -0.04862719
-0.023986459 -0.05620389 0.037775427 0.036631934 0.127451 -0.17001064 0.05857175 -0.015938394
-0.01610586 -0.018777773 0.007760672 -0.042671226 0.018888004 0.022278868 -0.030050643 0.03808555
-0.06564804 -0.10035945 -0.010352939 -0.29060087 -0.058984034 -0.00311511 0.056341127 0.03272234

linear2.bias f4 [256]
00000000: f7aa a73c 11fd 46bd 2514 84bd 2fe1 2ebd
00000010: 9509 ccbd 5ec1 c83d e955 8f3e cd43 893e
00000020: 072e 8a3e 5682 993e ae39 13be a8f9 843e
00000030: 0ff1 51be 32c1 3f3e 6584 03bd 0662 25be
00000040: ad69 123d 1923 923e 26ab 693e e994 603e
00000050: 7c58 e6bd ec3f 753d a1e1 9abd 6e7d 2f3d
00000060: f4f8 eb3d 39a1 573c 5b6a 7e3e 59d7 29bc
00000070: bda0 4b3d 4ef9 603e 81a3 44bd c706 8f3e
00000080: 49f2 d03b cf5e 713e 08dc 873c 649f f2bc
00000090: 3900 44bd c363 2cbe b6b8 6abd 8ce3 9d3e
000000a0: f3ff 8e3e f449 b8bd 461a 633e 3092 b7bd
000000b0: b06e 1bbc 9051 813e 34ac 10be f336 8f3e
000000c0: 2db8 803e 15e5 953b e945 4ebd 2d19 a13e
000000d0: d57b 9b3e 8ee4 16bd 0613 2cbe 3673 1cbd
000000e0: e540 08bc 5775 7c3e 2be7 7b3c 5a03 923e
000000f0: a1b8 85be 8bdd 61bc 90c8 6fbe 634a cdbd
00000100: c9cb b7bd 4a3e 9e3e 579e 3f3d b216 873e
00000110: 9b88 65bc 5041 833e 96dc 843e 1c60 a9bd
00000120: 1f6c 3b3b 7d87 493e db30 9e3e 189b 703e
00000130: 053f 35be 9539 6d3e 425e 5bbd b90d c8bb
00000140: e21f 943e 449f 6f3e 53aa 15be 8a7c 263d
00000150: 0673 2e3c 6b27 993e 49f0 3d3e 33ea e4bc
00000160: 661e 14bc c29f 38be 7e44 a13e 8f73 2dbd
00000170: bc73 dcbd af57 9a3e 653d a5bc 64be 71bc
00000180: 03de 35be 2b78 703e c5ca 06be 5763 813e
00000190: a910 56be 7cfc 693e c3b5 3abe 35de 973e
000001a0: cc0f 953b a60e 913e bb1f 86bc c3a7 d03c
000001b0: 4380 c8bd 39bc 7ebd 7a1d d5bc 8cb1 2fbe
000001c0: 4b4a 6fbd c641 543d 960f 96bd 44fc 9e3e
000001d0: 5454 bf3c 6e74 623e bfc6 14be 130b 66bd
000001e0: 3b02 fe3c 303a 66bd 882f 4c3c d110 ccbd
000001f0: f646 6dbd f45b 533e 391f 613e a2cb 5bbd
00000200: d24c a53e 2028 f8bb 6946 8f3e 3a3b 2cbe
00000210: bebb a83c f448 7d3e 0d5d 85bd 7e36 883e
00000220: c3f8 103c eef2 d0bd 33cf 2b3c 1579 9b3e
00000230: 6bbc eebc b3d1 97bc 4618 8c3e 5a20 ed3b
00000240: 5ca1 7dbd e71f b3bd 1e1a 963e 7e56 4bbe
00000250: 54e3 bbbd 85e0 f9bd cbfe 793e 03e5 863e
00000260: dd8a 11be eee7 a73e f578 81bd 386f b2bd
00000270: 8072 5abc 24f5 a13e 852d 523e e7bd 4c3e
00000280: f45b f1bc 6bb5 fc3b e5ab 8bbd ee8f 95bd
00000290: cfb5 853e bd54 83bd af85 22be 7559 193c
000002a0: 6d23 c6bd c1e4 2ebe efdc 363d d3e4 28be
000002b0: 3560 443e da80 323e d02b 3abd 28e2 35bd
000002c0: bd7a 85bd 57a4 963e ff0e 313c 00d4 59bc
000002d0: b8f5 113d 37ff 353d 0465 513e 8719 8a3e
000002e0: f512 9d3e 98c8 963e 0583 603e 7663 283d
000002f0: 1fb2 e5bd 8247 973d c0d0 e43b c749 103d
00000300: 6176 cbbc 66f8 803e 3cfa 76bd 135d 69bd
00000310: ca06 a13e 8f70 55be 662d 5c3e ae96 97ba
00000320: 48b9 8e3e 97f6 20be b772 9c3e f5ba c1bd
00000330: 3697 16bd 9abb 21be 23fc 9f3e 803a 493c
00000340: 13a3 1bbe 5d35 2fbe a4b0 af3d 0fb6 ff3d
00000350: a781 a43e 3ad5 30be 2dad 893e 9c09 f6bb
00000360: ffc1 5f3e 72db 963e 6f7b 27bd 29d6 873e
00000370: 7f72 2fbc d5a2 86bc 28b9 583e f81c cd3b
00000380: c4d0 913e ca18 653e 7eea 803d d470 063d
00000390: 101d 5bbd 83fd 8b3e 01ce 583c 0403 5e3e
000003a0: 6dca 1e3d aa32 e53c 3d5a 993c c6ae 0abe
000003b0: 3cb3 9e3d 025b b1bd ee6d a13c 68d5 18bd
000003c0: 1d2c 03bd 59dd 9b3e 21f2 46bd c5cb 9a3c
000003d0: ff98 20bd 27a8 353e e26b 9f3e 9cac f8bc
000003e0: 1e45 eabd d8ba 07be af08 923e 5ee2 9b3b
000003f0: 6cdb 9d3e 9edb 1ebd da8a 17be e96f eebd
0.020467265 -0.048581187 -0.06449155 -0.04269522 -0.09962765 0.09802507 0.27995232 0.2680954
0.2698824 0.2998225 -0.14377472 0.25971723 -0.20502113 0.18726042 -0.032108683 -0.16150674
0.03574531 0.28542402 0.22819194 0.21931805 -0.11247346 0.059875414 -0.075625665 0.04284423
0.115220934 0.013160997 0.24845259 -0.010366284 0.04971384 0.21970102 -0.048007492 0.27934858
0.006376539 0.23571323 0.016584411 -0.029617019 -0.047851775 -0.16834931 -0.05730506 0.30837667
0.2792965 -0.089984804 0.22177991 -0.0896343 -0.009486839 0.2525754 -0.1412819 0.2797161
0.25140515 0.004574428 -0.05035964 0.3146452 0.30367914 -0.03683906 -0.16804132 -0.03819581
-0.008316253 0.24654137 0.015374939 0.28518182 -0.26117423 -0.01378573 -0.23416352 -0.10023954
-0.08974416 0.30906898 0.046781864 0.26384503 -0.01400962 0.25635767 0.25949544 -0.082702845
0.002859838 0.19680591 0.3089665 0.23496664 -0.17699821 0.23166497 -0.053556688 -0.0061051515
0.28930575 0.23400599 -0.14615755 0.040646113 0.010647541 0.29912886 0.18548693 -0.027943706
-0.009040451 -0.18029693 0.31497568 -0.042346533 -0.10764262 0.30145022 -0.020170877 -0.014754865
-0.17760472 0.2348334 -0.13163288 0.25271103 -0.20904793 0.22850221 -0.18233399 0.29661718
0.0045490023 0.28331488 -0.016372552 0.02547062 -0.09790089 -0.062191222 -0.026015032 -0.17157573
-0.05842046 0.05182054 -0.073271915 0.31051838 0.02335564 0.22114727 -0.1452894 -0.056162905
0.031006923 -0.056207836 0.012462504 -0.09964145 -0.057929 0.20640546 0.21984567 -0.053660996
0.32285172 -0.0075731426 0.27983406 -0.16819468 0.020597335 0.2473486 -0.06511889 0.26604074
0.008848372 -0.10202585 0.010486412 0.30365816 -0.029142579 -0.01853261 0.2736227 0.0072365226
-0.061921462 -0.08746319 0.293168 -0.19857213 -0.09174219 -0.12201027 0.24413602 0.26346597
-0.14213128 0.32794136 -0.06321899 -0.087126195 -0.013332963 0.3163234 0.20525177 0.19994317
-0.029462792 0.0077120564 -0.06819896 -0.07302843 0.2611527 -0.06412647 -0.15871309 0.009359707
-0.09674726 -0.1707945 0.044644292 -0.1649354 0.19177325 0.17431965 -0.04545194 -0.044405133
-0.06517551 0.29422256 0.010806798 -0.013295174 0.035634726 0.044432845 0.2044869 0.269726
0.30678526 0.29449916 0.2192498 0.04111048 -0.112156145 0.07386686 0.0069828928 0.03522661
-0.02483672 0.25189513 -0.060297236 -0.056973528 0.31450492 -0.20843719 0.21501693 -0.0011565292
0.27875733 -0.15719067 0.3055627 -0.09459487 -0.0367653 -0.1579422 0.31247053 0.012282014
-0.15198927 -0.171102 0.085786134 0.12485897 0.32130167 -0.1726884 0.26889935 -0.0075084697
0.21851347 0.29464298 -0.0408892 0.2653058 -0.01070845 -0.016435066 0.21164382 0.006259557
0.28479588 0.22372738 0.06294726 0.032822445 -0.053494513 0.27341852 0.013232709 0.21680838
0.038767267 0.02797826 0.018719787 -0.13543233 0.0774903 -0.086599365 0.019705739 -0.037312895
-0.03202449 0.30442312 -0.048570756 0.018895993 -0.03920841 0.17739926 0.31136996 -0.030355744
-0.11438964 -0.13254869 0.2852225 0.0047572097 0.30831468 -0.038783662 -0.14799061 -0.11642439

linear3.weight f4 [1, 256]
00000000: 32d4 88bf 3d4e 1bbd f96a dfbc 5592 0fbc
00000010: 4c25 423f a235 983f 7fa5 bbbe 42ae b9be
00000020: 0422 aebe 4fe8 a7be b2f2 3d3f b4be b9be
00000030: 2461 793f bbb1 8cbe b33a 9ebf e6d9 483f
00000040: f3cf ff3b 4059 b5be 34b5 85be 7fcc e5be
00000050: 8fea 5d3f ae5f 503f cde4 313f 2888 c43c
00000060: be9b 283f 9d68 14bd 951d cfbe 713e 793a
00000070: e778 963f ff6b bebe 452e 953c 2d7f b6be
00000080: 674e be3b 72db bbbe c646 73bc 66ca a1bc
00000090: f91f c6ba 2432 433f bc21 5f3f 4874 c3be
000000a0: 3da1 e7be 3403 813f 12fc b9be 8223 ea3c
000000b0: 52a3 063d e3a8 b0be d5af 333f 22b7 b3be
000000c0: 5d99 bbbe 1139 563d 4832 3e3b 2105 cabe
000000d0: 9dec bfbe ac55 8d3b 9275 323f 2f9d b1bb
000000e0: 0756 373d 546b c2be 08db beba f020 abbe
000000f0: b37d 683f 3c6d 81bc cf92 7f3f 0464 373f
00000100: 0c77 333f a085 c8be c7bc 29bd 8d12 b8be
00000110: 1388 ff3b 3564 c3be 26d3 b3be 0e90 623f
00000120: ba4a 743c 7c5c aebe d1d6 c9be 7e5c abbe
00000130: 253a 3f3f 0294 9bbe ad70 953c 3f17 b93c
00000140: 82e0 98be d00e aebe 5428 853f 80cd c13c
00000150: 04e1 0b3d b093 b5be 1d3c aebe b3b0 87bf
00000160: 9d55 933c b5e4 413f d1d1 c0be 6c7f 053b
00000170: 7c7d 463f 8c0c b1be f890 023f 9027 423c
00000180: 3ee2 4c3f 444c 98c0 c0df 543f e72e a4be
00000190: 3c9e 5f3f a5fa b5be 98c2 653f 7014 babe
000001a0: dd77 7d3f e9a4 c2be 6d95 79bf 30dc 3e3f
000001b0: 3e95 3a3f e88c 513f 1cf0 f33a 7482 4b3f
000001c0: fdca d03f 013c e33f 3fc1 2b3f 9f73 a6be
000001d0: fced c6bc f59d a5be 082c 383f 26e8 9bbb
000001e0: 3e8f 253b 88a6 a4bc 067c a0bc 4433 353f
000001f0: 52b8 003d fa84 aabe 51e4 aabe beae 263c
00000200: 59dc adbe 4698 55bd b965 b8be 4fe8 333f
00000210: da0b e63b 89fe afbe cbc8 f2bb 84e8 b6be
00000220: 5c26 0440 3ce1 323f 8068 3bbf 8bd9 d3be
00000230: 69a3 20bf 2935 8e3f 5ae2 b1be 2bb0 e7bc
00000240: c834 c8bb 3c57 313f 383e b1be 22ff 573f
00000250: 9bc0 323f 955d 383f b81c bdbe 8a59 c5be
00000260: 7940 523f 19ee c1be 39f2 d63b 83de 393f
00000270: a5f1 f13e 4b33 c4be 58d4 97be e0bb a8be
00000280: 3ebf 1dbb ae56 aa3c fd24 8cbb f56a 943b
00000290: d471 c1be 8e35 16bc 3765 363f f3f4 64bb
000002a0: 11b2 3a3f 55f9 623f 569a 163d 0dfe 4a3f
000002b0: 6235 acbe 31b7 a1be 012e c9bb 8892 48bc
000002c0: 4602 14bc 56f5 aebe 3a4e d0ba 1cbf 3d3c
000002d0: 988e 983f 87c3 ad3c 7389 adbe 13b5 c2be
000002e0: 217f cfbe 2870 c4be 1f82 c9be 94c9 0b3d
000002f0: 8bb2 893f 530d 893f 6038 a13f 6367 a73f
00000300: 64e8 03bc b95c adbe 5532 9f3b 5d6e 923c
00000310: 5fbd d7be 6d0c 6b3f 4b31 afbe 3fa8 a5bb
00000320: fc67 b8be 776c 413f 3e0c afbe 5663 393f
00000330: babd 653b 4cec 383f 9a20 b4be dd1b 0d3c
00000340: ed71 633f bba7 7e3f 12e1 fa3e 27fc 13c0
00000350: e7f9 cabe 8db6 583f b7b8 aabe ff45 2cbd
00000360: 0d81 a4be 21a5 c0be 95a1 01bc 0409 b8be
00000370: 66dd a2bc 92a0 e4bc a8e8 9cbe f7b0 8a3f
00000380: 4dc9 bfbe 0072 dfbe 296d 6b3f 70a4 cebc
00000390: 1d2c 1a3d aa4c a2be 44ff 873c 62f1 9bbe
000003a0: c2b7 e33c 0657 223d 01d5 5b3c a7f0 4d3f
000003b0: d576 bfbf c1d8 563f 2433 e13f c287 973f
000003c0: f7bf a33b 52f0 bbbe 5aa1 643c ac41 083d
000003d0: ab9a 703f 55c3 96be ca6b a4be 737c 763b
000003e0: 386b 423f 93d5 413f e18b b0be a0e1 953f
000003f0: d30f 9ebe 389f 4fbc b57f 4a3f 818e 413f
-1.0689757 -0.03791641 -0.027272688 -0.008762916 0.7583816 1.1891367 -0.366497 -0.3626576
-0.34010327 -0.32794425 0.7419845 -0.36278307 0.9741385 -0.27479348 -1.2361664 0.78457487
0.007806772 -0.35419655 -0.2611481 -0.4488258 0.86686033 0.81395996 0.6948975 0.023990706
0.65862644 -0.03623258 -0.40452257 0.00095079007 1.1755646 -0.3719177 0.01821054 -0.35643902
0.005807686 -0.3669086 -0.014848417 -0.019749831 -0.001511573 0.76248384 0.8716085 -0.38174653
-0.45240203 1.0079103 -0.36325127 0.028581385 0.0328706 -0.3450385 0.70190173 -0.35100657
-0.36640444 0.052300517 0.002902167 -0.39457038 -0.3748521 0.0043131914 0.6971065 -0.005420349
0.044759776 -0.3797251 -0.0014561126 -0.33423567 0.908168 -0.015799157 0.9983339 0.71636987
0.70103526 -0.39164448 -0.041439798 -0.35951653 0.0077982037 -0.3816239 -0.3512203 0.8850106
0.014910394 -0.34054935 -0.39421704 -0.33469003 0.74698097 -0.30386358 0.018242205 0.022594092
-0.29858786 -0.33995676 1.0402932 0.02365756 0.03415014 -0.3546424 -0.34030238 -1.0600799
0.01798516 0.75739604 -0.37660077 0.0020370139 0.77535224 -0.34579885 0.51002455 0.011850253
0.8003272 -4.75931 0.83153915 -0.32067034 0.8735082 -0.3554279 0.8975005 -0.36343718
0.9901102 -0.3801644 -0.9749363 0.7455473 0.72883976 0.8185563 0.0018610987 0.7949593
1.6311947 1.7752687 0.67091745 -0.32510087 -0.024283402 -0.32347074 0.71942186 -0.004757899
0.002526238 -0.02009894 -0.019590389 0.7078135 0.03142578 -0.33304578 -0.33377317 0.010173498
-0.33957174 -0.052147172 -0.36015108 0.7027635 0.007020456 -0.34373882 -0.0074091903 -0.3572427
2.0648413 0.6987493 -0.7320633 -0.4137691 -0.62749344 1.1109973 -0.34743005 -0.028282246
-0.0061098076 0.69273734 -0.34617782 0.84373677 0.6982514 0.72017795 -0.36935973 -0.38544875
0.8212963 -0.37876967 0.006559637 0.7260515 0.47254673 -0.38320383 -0.29654193 -0.32955837
-0.0024070288 0.020793285 -0.0042768703 0.004529352 -0.37782156 -0.009168042 0.7124819 -0.003493604
0.7292796 0.886617 0.03676828 0.792939 -0.33634478 -0.31585076 -0.0061395173 -0.012241967
-0.009033745 -0.3417155 -0.0015892454 0.011581209 1.1918516 0.021211399 -0.33893928 -0.38028774
-0.4052668 -0.38366818 -0.39357087 0.034127787 1.0757612 1.0707191 1.2595329 1.3078426
-0.008051012 -0.33859804 0.004858295 0.017874891 -0.42136666 0.91815835 -0.34217295 -0.005055457
-0.36016834 0.7555613 -0.34189028 0.724172 0.0035055713 0.7223556 -0.35181123 0.0086126
0.8884571 0.99474686 0.4899984 -2.3122652 -0.39643785 0.8465355 -0.3334405 -0.04205894
-0.32129708 -0.37625983 -0.007912059 -0.35944378 -0.019880962 -0.027908597 -0.30646253 1.0835255
-0.37458268 -0.43641663 0.9196344 -0.025224894 0.037639726 -0.31699115 0.016601212 -0.30457598
0.027797583 0.039633773 0.013417483 0.8044533 -1.495814 0.8392449 1.7593732 1.1838305
0.004997249 -0.36706787 0.013954485 0.033265755 0.93986005 -0.29445902 -0.32113487 0.0037610799
0.7594485 0.75716513 -0.3448172 1.170948 -0.30871448 -0.012672238 0.79101115 0.7560807
