turtlebot3_rl_sim/src/models/td3/revamped/new_tracking_cp_gcp_nobonus_corrected_3_no_cpdto/td3_critic1_model_ep1400.pt (torch_old, 647202 bytes, 5 tensors)

linear1.weight f4 [256, 372]
0.006723829 0.019154528 -0.04330021 -0.038493834 -0.0008574172 -0.016460026 0.023261292 -0.04550633
0.03741722 0.02299158 -0.017216632 0.02686775 0.006667391 0.032742724 -0.046022654 0.045074936
0.022869764 0.015520039 0.014370227 -0.049958054 -0.016656348 0.045601692 -0.028711772 0.005765404
0.034845278 -0.050304506 0.014627831 0.04467931 0.00907286 0.026731031 -0.00034945877 -0.025533725
0.0027487313 -0.04281145 -0.023445698 0.0034366068 0.046948016 -0.011214159 -0.018555876 -0.02182892
0.00028433595 0.026666211 -0.018380042 -0.00019796881 -0.015486699 -0.0017518079 -0.030689158 0.03000035
-0.022249132 0.042000823 0.00014013362 -0.008890135 0.0028538776 -0.047632728 0.031619176 0.018137896
-0.042053726 0.009793704 0.02353622 -0.02489409 0.04169088 -0.01592731 0.012061104 -0.01757277
0.043609407 -0.02589992 -0.030896284 -0.01997037 -0.039958622 -0.026435617 -0.034312565 0.019270757
0.049980402 0.00592969 -0.008604218 -0.002204047 -0.037635528 0.036828626 -0.041886088 0.039419197
0.0058459635 -0.031346675 -0.03405031 -0.043899238 -0.004622019 0.0070476504 0.014265733 0.020941924
0.016461514 0.035249848 -0.02824462 0.009920923 -0.019829554 -0.00049106946 -0.040474948 0.04056286
-0.0030192344 0.03769811 -0.03017246 0.048190773 0.04760143 0.016973369 -0.030779682 -0.039073493
-0.031266954 0.041260235 -0.050703112 -0.025958035 0.02283102 -0.048852388 -0.007995878 0.043017086
-0.048906777 -0.05089385 -0.004532705 0.016444005 0.0023631167 0.0019553718 0.026032912 -0.0020853963
0.038008798 0.008098695 0.043336716 0.023774639 -0.037592314 0.045586046 -0.043148965 -0.0036472257
-0.035182796 0.042155795 -0.03973734 -0.020707605 0.021778254 0.020807069 -0.008192574 -0.019350853
-0.01292556 0.018990243 -0.0065352367 0.031034118 0.009089809 0.049975187 0.04068356 -0.0057401657
0.04621264 -0.015850196 -0.015702581 -0.042890426 0.034825906 0.018811429 0.0042099077 0.0013624913
-0.016878003 -0.0083987685 0.03197904 0.043248054 0.049755394 -0.016251782 -0.007791778 -0.017430836
0.012741716 -0.0144747235 0.025646599 -0.021776393 0.014708857 0.03307949 -0.02154468 -0.0464682
0.01015096 0.017236747 0.0052344566 -0.0054278 0.04615825 -0.01494411 0.03997948 -0.045045882
-0.03589358 0.04642498 -0.040217157 0.030794581 0.02557172 -0.021317808 -0.012560853 0.015437151
-0.024522306 0.041865222 -0.052287854 0.049657047 0.030403798 0.03264065 0.0042575914 0.047881573
0.014346572 -0.043568432 -0.042138662 -0.022604898 0.0103916135 -0.036161803 -0.03186654 0.032021508
-0.008408082 -0.032381374 0.005257833 -0.03503825 0.020273235 0.036575306 -0.030009665 0.0032613783
-0.00398518 0.014862898 0.0018433336 0.03379996 -0.0052228156 0.04688543 0.043581095 -0.017031113
-0.0030501543 -0.045424372 -0.0011148525 -0.022216722 -0.027180303 -0.026271332 -0.027033899 -0.039063808
0.044073578 -0.05177749 -0.018145721 0.016248427 0.0025952025 -0.018339064 -0.05330337 -0.024264889
-0.03134444 0.033566013 0.034238055 0.026562275 -0.03341924 0.049621284 0.04862514 -0.010805309
-0.02978652 -0.0004658451 -0.014293673 0.03690015 0.008599002 -0.043854535 -0.03868457 -0.032272596
0.048618436 0.027934302 -0.0008941346 0.008278254 0.03264959 -0.049227152 -0.030896656 -0.01192122
00000000: 9153 dc3b f5e9 9c3c 905b 31bd b6ab 1dbd
00000010: 4bc4 60ba 2dd7 86bc 778e be3c d864 3abd
00000020: cd42 193d d758 bc3c e509 8dbc c119 dc3c
00000030: 217a da3b 3c1d 063d 4082 3cbd 7fa0 383d
00000040: 5f59 bb3c c347 7e3c 1a71 6b3c d1a0 4cbd
00000050: e572 88bc d7c8 3a3d f334 ebbc b7eb bc3b
00000060: ecb9 0e3d 190c 4ebd 92a9 6f3c a701 373d
00000070: 55a6 143c 09fb da3c 9037 b7b9 1a2c d1bc
00000080: 0f24 343b 0f5b 2fbd 3111 c0bc b238 613b
00000090: 904c 403d 98bb 37bc 7e02 98bc 90d2 b2bc
000000a0: ed12 9539 1973 da3c be91 96bc d995 4fb9
000000b0: ecbb 7dbc eb9c e5ba d467 fbbc 4bc3 f53c
000000c0: d043 b6bc 0e09 2c3d d5f0 1239 eea7 11bc
000000d0: 1f08 3b3b 891a 43bd 1c83 013d ed95 943c
000000e0: 8740 2cbd c675 203c 08cf c03c b1ee cbbc
000000f0: 0ec4 2a3d fd79 82bc f09b 453c c5f4 8fbc
00000100: c79f 323d 122c d4bc 341a fdbc e798 a3bc
00000110: a7ab 23bd 828f d8bc 558b 0cbd b5dd 9d3c
00000120: 40b8 4c3d d84d c23b b5f8 0cbc c671 10bb
00000130: b627 1abd 9dd9 163d bf90 2bbd 0676 213d
00000140: 7f8f bf3b 5f65 00bd 5678 0bbd b0cf 33bd
00000150: 4e74 97bb faef e63b d2ba 693c 668e ab3c
00000160: 4cda 863c 2562 103d 4361 e7bc 5e8b 223c
00000170: 9771 a2bc 1dbb 00ba 0fc9 25bd 3e25 263d
00000180: 59de 45bb 5569 1a3d 3c2c f7bc b063 453d
00000190: b8f9 423d bc0b 8b3c ac25 fcbc 870b 20bd
000001a0: c711 00bd 7e00 293d 11ae 4fbd f2a5 d4bc
000001b0: 1f08 bb3c 7119 48bd 2501 03bc af32 303d
000001c0: 7952 48bd 1276 50bd 1687 94bb 94b5 863c
000001d0: 85de 1a3b b225 003b f942 d53c 25ab 08bb
000001e0: 1daf 1b3d 64b0 043c d781 313d 08c3 c23c
000001f0: 66fa 19bd 6fb8 3a3d f8bc 30bd 4b06 6fbb
00000200: d61b 10bd 8eab 2c3d 9fc3 22bd ffa2 a9bc
00000210: 4f68 b23c 9673 aa3c 253a 06bc ae85 9ebc
00000220: bac5 53bc 6d91 9b3c 8a25 d6bb 433b fe3c
00000230: 6ced 143c c8b2 4c3d cea3 263d 0018 bcbb
00000240: 7749 3d3d 45d8 81bc b3a2 80bc dfad 2fbd
00000250: 9ca5 0e3d 6d1a 9a3c 44f3 893b 9f95 b23a
00000260: bd43 8abc fd9a 09bc 74fc 023d df24 313d
00000270: 50cc 4b3d 7522 85bc 2c52 ffbb 1dcb 8ebc
00000280: a1c2 503c 6427 6dbc d118 d23c 6864 b2bc
00000290: 6bfd 703c 5c7e 073d 787e b0bc 7055 3ebd
000002a0: 3650 263c 1434 8d3c ce85 ab3b b0db b1bb
000002b0: 6f10 3d3d 24d8 74bc 86c1 233d 0882 38bd
000002c0: 2605 13bd 1f28 3e3d bfba 24bd eb44 fc3c
000002d0: c97b d13c afa2 aebc 09cc 4dbc 1bec 7c3c
000002e0: 01e3 c8bc de7a 2b3d ca2b 56bd 3065 4b3d
000002f0: 6311 f93c 34b2 053d 4483 8b3b 781f 443d
00000300: e20d 6b3c d074 32bd 9799 2cbd e82d b9bc
00000310: 9641 2a3c 661e 14bd 7d86 02bd fc28 033d
00000320: 0dc2 09bc 55a2 04bd e649 ac3b 4584 0fbd
00000330: 0e14 a63c fdcf 153d d4d6 f5bc d9bc 553b
00000340: 1d96 82bb 8383 733c 039c f13a d471 0a3d
00000350: 2724 abbb f00a 403d 1782 323d d584 8bbc
00000360: 19e5 47bb e80e 3abd 3e20 92ba d8ff b5bc
00000370: 3aa9 debc fa36 d7bc 3276 ddbc 5f01 20bd
00000380: 7f86 343d a214 54bd 56a6 94bc 6c1b 853c
00000390: 4614 2a3b ce3b 96bc a254 5abd 29c7 c6bc
000003a0: 0763 00bd 847c 093d 343d 0c3d 2199 d93c
000003b0: 9de2 08bd b03f 4b3d 282b 473d c008 31bc
000003c0: dc02 f4bc ac3c f4b9 0330 6abc 9d24 173d
000003d0: d4e2 0c3c d0a0 33bd b673 1ebd 4530 04bd
000003e0: 2024 473d 7ad6 e43c 5b64 6aba 84a1 073c
000003f0: 94bb 053d 69a2 49bd fc1a fdbc 3951 43bc

linear1.bias f4 [256]
-0.030872814 0.003434558 -0.13920674 -0.22614111 0.008599848 -0.015480068 0.035236437 -0.051360533
-0.056391638 0.0264494 -0.033976663 0.00010855502 0.11761515 -0.036932938 -0.04031136 0.07643239
0.03811385 -0.013445238 -0.028665205 0.107204184 0.07183826 -0.0007984993 0.0020315656 0.11922039
-0.05293531 0.02598709 -0.02083054 0.0023682155 0.032453284 0.021359036 0.06370796 -0.039615896
-0.00017530564 0.19212592 0.034665313 0.019319056 -0.001246076 -0.01938736 0.07259986 0.09037488
-0.05160687 0.006044429 -0.04775919 0.15516064 0.044721093 0.0042618755 0.026644062 -0.016231665
0.12455475 -0.034210492 0.13256365 -0.007157676 0.0124654025 0.026256803 0.0043251663 0.06603271
0.036126036 0.20100397 -0.045221716 0.18328315 0.010237573 -0.0024262606 -0.05067695 -0.03942576
-0.030207478 -0.04282188 -0.06270693 -0.039514568 -0.12181711 0.013058738 -0.018745866 -0.20501669
-0.036926977 -0.056066047 -0.026921768 0.15291229 0.17137662 -0.023142071 0.041011386 0.1667227
-0.0101488745 -0.024536463 0.0108291805 0.1245012 -0.051090546 0.003941212 -0.029729312 -0.03513511
-0.0044703064 0.22452576 -0.05155577 0.0017749511 -0.052289344 0.18371233 0.050171863 0.23799638
0.19808091 0.11923994 0.015181224 0.11396958 0.005929987 0.04190918 -0.040455576 0.019573651
-0.04346636 -0.041863736 -0.05714936 -0.02976454 0.12959617 0.011495418 0.004700436 0.14017385
0.023135005 -0.18625148 -0.026662488 0.046275225 0.09059095 -0.2661585 0.18388575 -0.05171267
0.13789263 -0.031862814 0.112134956 0.007063204 0.02532287 0.07587155 -0.13486621 -0.05489761
0.01651553 -0.14520028 -0.04169902 0.1219062 -0.023041502 0.0400972 -0.18510985 -0.003235348
-0.046352714 0.00046214307 0.056222763 0.17836398 -0.11228997 -0.016151944 -0.0018410054 0.031279325
0.03178011 -0.014732514 0.02266977 0.17446874 -0.01674427 -0.062880665 0.08439557 0.11564249
0.12238915 0.031750306 -0.041548576 0.020742249 -0.0067238295 -0.018765982 -0.18061244 -0.037726425
0.024015859 0.16225311 -0.19790022 0.19287574 -0.19213428 0.016945811 -0.010395076 -0.029676247
-0.013067484 0.029693533 0.030417077 -0.011062354 -0.08893432 -0.040992018 0.09848629 0.036759336
-0.20072465 -0.067807056 -0.028211702 0.015587777 -0.10801985 0.21104017 0.017158888 -0.038365684
-0.008492832 -0.014606412 0.01077178 -0.118070215 -0.02137406 0.012928725 -0.2694436 0.20165811
-0.028900271 0.09171866 -0.031103304 0.009454638 0.0870686 -0.048786823 -0.042967018 0.1711956
0.011550925 -0.022309482 0.17649034 -0.0806972 -0.043402284 0.021456014 0.010231756 -8.594588e-05
-0.11923437 -0.00076518185 0.03924858 -0.21128894 -0.03126621 0.015049777 0.0034899716 0.027441073
0.07658018 0.04852357 -0.014402266 0.04455609 0.030118069 -0.009061222 -0.037776344 0.028744925
0.044282194 -0.11389043 -0.016043296 -0.019459259 -0.036830865 0.00090557814 0.10826745 0.012678571
0.13457769 0.018355453 0.16173856 0.01645369 0.07815828 -0.0015849612 -0.24568427 0.20302026
-0.015849166 0.04702252 -0.032741982 0.026386663 0.049411923 -0.17102307 0.11409918 -0.039633777
0.044557866 -0.025008496 -0.037263244 0.17965078 -0.006484852 4.7869362e-05 -0.077621005 -0.045600206
00000000: fce8 fcbc 5216 613b 368c 0ebe 8991 67be
00000010: 60e6 0c3c 1ca0 7dbc 1554 103d 6c5f 52bd
00000020: ebfa 66bd 69ac d83c 1d2b 0bbd 08a8 e338
00000030: 36e0 f03d fe46 17bd 861d 25bd 9688 9c3d
00000040: 451d 1c3d 6a49 5cbc 4bd3 eabc de8d db3d
00000050: f01f 933d 6252 51ba 0424 053b d229 f43d
00000060: b2d2 58bd e1e2 d43c cfa4 aabc 1034 1b3b
00000070: bced 043d 25f9 ae3c 5279 823d 4744 22bd
00000080: 40d2 37b9 a8bc 443e 37fd 0d3d ff42 9e3c
00000090: 5f53 a3ba 3ed2 9ebc 3caf 943d 7716 b93d
000000a0: ba61 53bd 5810 c63b 249f 43bd 6ee2 1e3e
000000b0: 772d 373d 34a7 8b3b a644 da3c 45f8 84bc
000000c0: 9016 ff3d 4d20 0cbd c4be 073e f08a eabb
000000d0: b03b 4c3c 8218 d73c 20ba 8d3b 283c 873d
000000e0: e5f8 133d fcd3 4d3e 683a 39bd 94ae 3b3e
000000f0: 7ebb 273c e601 1fbb a292 4fbd e87c 21bd
00000100: ac75 f7bc ff65 2fbd 7e6c 80bd 07da 21bd
00000110: 407b f9bd 51f4 553c ee90 99bc e5ef 51be
00000120: be40 17bd 83a5 65bd 0a8b dcbc 0a95 1c3e
00000130: 5a7d 2f3e 7194 bdbc 8efb 273d 5bb9 2a3e
00000140: 7747 26bc b100 c9bc e06c 313c 7cfa fe3d
00000150: 5244 51bd 4825 813b e38a f3bc d5e9 0fbd
00000160: a67b 92bb 15ea 653e 252c 53bd 7aa5 e83a
00000170: 5a2d 56bd 161f 3c3e 0381 4d3d 53b5 733e
00000180: b9d5 4a3e 1234 f43d abba 783c e268 e93d
00000190: 5650 c23b f6a8 2b3d bfb4 25bd ec58 a03c
000001a0: c809 32bd 4f79 2bbd 7315 6abd c4d4 f3bc
000001b0: dcb4 043e 4757 3c3c 1d06 9a3b bc89 0f3e
000001c0: 9f85 bd3c b5b8 3ebe 4a6b dabc 178b 3d3d
000001d0: bf87 b93d ed45 88be 8c4c 3c3e aad0 53bd
000001e0: ba33 0d3e 9582 02bd 03a7 e53d 7372 e73b
000001f0: e871 cf3c 8b62 9b3d 5e1a 0abe 51dc 60bd
00000200: 944b 873c 62af 14be 97cc 2abd f5a9 f93d
00000210: 88c1 bcbc f63c 243d 708d 3dbe 2208 54bb
00000220: 58dc 3dbd cb4b f239 d749 663d 0ca5 363e
00000230: 49f8 e5bd 1551 84bc e44d f1ba c01e 003d
00000240: dc2b 023d a460 71bc f4b5 b93c efa7 323e
00000250: 482b 89bc 94c7 80bd 96d7 ac3d f8d5 ec3d
00000260: 2aa7 fa3d 9c0c 023d d72e 2abd a6eb a93c
00000270: 9253 dcbb 1ebb 99bc 78f2 38be 0687 1abd
00000280: e8bc c43c ae25 263e 5ba6 4abe 3881 453e
00000290: d9be 44be f1d1 8a3c 1c50 2abc 9a1b f3bc
000002a0: 0019 56bc da3f f33c 3c2d f93c e03e 35bc
000002b0: 3223 b6bd 3fe7 27bd 2eb3 c93d f590 163d
000002c0: c38a 4dbe 6dde 8abd 3a1c e7bc e063 7f3c
000002d0: 8339 ddbd ea1a 583e cc90 8c3c 5625 1dbd
000002e0: 8525 0bbc bb4f 6fbc 1f7c 303c ccce f1bd
000002f0: a718 afbc 01d3 533c 83f4 89be 777f 4e3e
00000300: 43c0 ecbc fed6 bb3d 5bcc febc a0e7 1a3c
00000310: 0651 b23d b1d4 47bd 2ffe 2fbd e64d 2f3e
00000320: 1740 3d3c 60c2 b6bc e2b9 343e 9344 a5bd
00000330: 98c6 31bd 86c4 af3c 18a3 273c d83d b4b8
00000340: 2631 f4bd 7c96 48ba 1ec3 203d 215c 58be
00000350: ff10 00bd 5793 763c 02b8 643b 1acc e03c
00000360: 12d6 9c3d a7c0 463d 7bf7 6bbc 7280 363d
00000370: 2bba f63c 8575 14bc 5ebb 1abd 7a7a eb3c
00000380: 3f61 353d 633f e9bd 3b6d 83bc 0669 9fbc
00000390: f6db 16bd 5264 6d3a 53bb dd3d c8b9 4f3c
000003a0: bcce 093e 2d5e 963c cb9e 253e e4c9 863c
000003b0: 7311 a03d 79be cfba a894 7bbe 8be4 4f3e
000003c0: 1cd6 81bc b09a 403d 751c 06bd d828 d83c
000003d0: 2864 4a3d ac20 2fbe d5ac e93d 0757 22bd
000003e0: 4f82 363d 9ede ccbc 58a1 18bd 60f6 373e
000003f0: e27e d4bb 56c7 4838 c3f7 9ebd 48c7 3abd

linear2.weight f4 [256, 256]
-0.038341716 0.0016152526 0.10050038 0.1512802 -0.028917538 -0.0072580203 0.03051295 -0.02344843
-0.0017403292 -0.058632776 0.016321072 0.02205383 0.17306769 0.19163954 -0.056753866 0.03277263
-0.008059953 -0.0048764558 0.011734583 -0.002684072 0.4082156 -0.00972255 -0.04347197 0.38833454
0.0052390206 0.04654345 -0.049283512 0.012777448 -0.056595095 -0.044799708 -0.62033886 0.055823825
0.025371186 -0.08990269 -0.55870146 0.1332269 -0.018562952 0.015127208 0.075689115 0.13503297
-0.016704403 -0.03722798 0.03408165 0.13270213 -0.15917519 0.11304255 -0.0003440344 0.03696721
-0.04229079 0.20296443 0.09267256 -0.019867636 0.031087078 -0.022728771 0.03984858 0.08036056
0.10127807 0.38499266 -0.03481234 -0.015774174 -0.04345816 -0.043751713 -0.05479464 0.04621736
0.025709186 -0.04415703 -0.0003914053 0.08676582 0.19032252 0.096895635 0.21014978 0.12080732
0.1374976 0.05215896 0.021723492 0.30043116 0.08860524 -0.16212219 0.4286442 -0.24163346
0.52533233 -0.046820607 0.027162835 0.018264977 -0.021977186 0.019391358 -0.6142688 -0.055241264
0.05855156 0.1130191 -0.29856387 -0.044929653 -0.059973136 0.2907626 -0.077121004 0.4851852
-0.06825894 0.15611787 0.0011356771 -0.2434048 0.42262694 -0.04205454 -0.053808518 0.026605785
-0.01985414 0.0021176666 -0.58391744 0.011011504 0.08775712 0.034030188 0.041240867 0.054425422
0.040044304 0.030998698 -0.00529015 -0.055871584 0.015666818 0.029996712 0.079662286 -0.0343826
0.51582485 0.03020375 0.527589 0.03647399 -0.06161218 -0.2944281 0.097022675 0.08987427
0.11359538 -0.16293994 -0.017230399 0.20846187 0.13067883 -0.024665728 0.106851116 0.037670545
-0.0069603324 -0.05727453 0.29947716 0.58580714 0.16553527 0.07577769 -0.014541404 -0.035920672
0.015249025 0.09442353 -0.0029923618 0.123033695 0.03320524 0.100749925 0.35806412 -0.074630365
0.4823294 -0.038639866 -0.022097884 0.039446022 0.03406033 0.05607722 0.00048823393 0.17010435
-0.027952097 0.047566485 0.0038635 0.09704281 0.04436043 0.36970675 -0.015937284 0.22886463
-0.0010118975 -0.0876262 0.029613294 -0.010916948 0.16686547 -0.028684577 -0.022923162 0.03369262
0.16677028 0.24302475 0.064092815 -0.043963857 0.09152556 0.12713468 0.017776173 0.007456129
-0.059317537 0.09170704 -0.0042501413 0.09535337 0.059500765 0.045243323 -0.07379549 0.23147565
-0.018086117 -0.088251725 0.12328807 0.1633558 0.32325095 0.02498275 -0.042687617 0.5724728
0.0037964238 0.020769445 0.27143142 0.111248955 0.04558771 0.041193925 0.02874332 -0.0008215681
-0.24547353 -0.5154684 0.023370815 0.15450165 0.027317569 -0.12129908 0.0029168203 0.10364885
0.28157032 0.3138996 -0.015442759 0.13589765 0.120990835 0.022450369 0.008391132 -0.628168
0.1820253 0.08854651 0.046476915 0.023592474 -0.03840964 0.174533 0.176527 0.098181605
0.087315574 0.04360568 0.00092693313 0.028748278 -0.05711173 0.04019257 0.065225326 -0.04601637
-0.039258644 0.1475559 0.15588565 -0.060393535 0.14644726 0.337797 0.284334 0.12460139
0.18158422 -0.054132514 0.062472858 0.10882614 -0.037381135 0.12218664 0.10837612 0.013044582
00000000: 340c 1dbd e2b6 d33a 25d3 cd3d 32e9 1a3e
00000010: 79e4 ecbc b0d4 edbb 4bf6 f93c ec16 c0bc
00000020: c21b e4ba ec28 70bd c5b3 853c 3caa b43c
00000030: a838 313e 283d 443e be76 68bd 983c 063d
00000040: e50d 04bc adca 9fbb 6942 403c 41e7 2fbb
00000050: a301 d13e 554b 1fbc aa0f 32bd c9d3 c63e
00000060: 17ac ab3b 58a4 3e3d 82dd 49bd 8058 513c
00000070: 42d0 67bd e67f 37bd 87ce 1ebf 86a7 643d
00000080: 3cd7 cf3c e71e b8bd 0f07 0fbf a26c 083e
00000090: 5511 98bc 1cd8 773c e502 9b3d 1546 0a3e
000000a0: acd7 88bc 5e7c 18bd 3399 0b3d 11e3 073e
000000b0: d2fe 22be da82 e73d 845f b4b9 ee6a 173d
000000c0: 1b39 2dbd e8d5 4f3e 1ccb bd3d 74c1 a2bc
000000d0: 54aa fe3c b031 babc 4438 233d 1494 a43d
000000e0: e06a cf3d c21d c53e 6297 0ebd d738 81bc
000000f0: 2f01 32bd ff34 33bd 5870 60bd 6a4e 3d3d
00000100: 129c d23c 00de 34bd 8835 cdb9 47b2 b13d
00000110: e8e3 423e 3871 c63d 8131 573e d469 f73d
00000120: 2ccc 0c3e a2a4 553d 77f5 b13c 1dd2 993e
00000130: aa76 b53d 5c03 26be 4177 db3e c36e 77be
00000140: 2e7c 063f f7c6 3fbd 9884 de3c 6fa0 953c
00000150: 8009 b4bc a0da 9e3c b840 1dbf aa44 62bd
00000160: c3d3 6f3d 8f76 e73d 5ddd 98be 2808 38bd
00000170: 64a6 75bd d6de 943e 9ef1 9dbd 326a f83e
00000180: 58cb 8bbd 5ddd 1f3e 00db 943a 1c3f 79be
00000190: 8f62 d83e 6241 2cbd 5266 5cbd 60f4 d93c
000001a0: 26a5 a2bc 8dc8 0a3b 9d7b 15bf 9869 343c
000001b0: 01ba b33d 3d63 0b3d 2fec 283d 31ed 5e3d
000001c0: 7f05 243d fbf0 fd3c ff58 adbb 9ad9 64bd
000001d0: b357 803c aabb f53c fb25 a33d c5d4 0cbd
000001e0: 190d 043f db6d f73c 1310 073f c065 153d
000001f0: 0e5d 7cbd 48bf 96be d3b3 c63d 0010 b83d
00000200: b2a4 e83d bad9 26be c426 8dbc 0777 553e
00000210: acd0 053e c80f cabc c2d4 da3d 6e4c 1a3d
00000220: 8013 e4bb b398 6abd 1255 993e 75f7 153f
00000230: 1482 293e 5531 9b3d 123f 6ebc 8e21 13bd
00000240: 0cd7 793c 2061 c13d 801b 44bb 17f9 fb3d
00000250: 3802 083d fa55 ce3d 2e54 b73e ced7 98bd
00000260: e1f3 f63e d644 1ebd 9f06 b5bc 2792 213d
00000270: d882 0b3d 3ab1 653d a6f9 ff39 d62f 2e3e
00000280: ccfb e4bc 13d5 423d c632 7d3b 61be c63d
00000290: 48b3 353d 344a bd3e e88e 82bc 7d5b 6a3e
000002a0: a5a1 84ba 5d75 b3bd 9497 f23c 00dd 32bc
000002b0: c8de 2a3e ebfb eabc 5bc9 bbbc 4601 0a3d
000002c0: d4c5 2a3e 7bdb 783e 1843 833d 7213 34bd
000002d0: c171 bb3d 982f 023e 569f 913c 8b52 f43b
000002e0: f2f6 72bd e7d0 bb3d c544 8bbb a148 c33d
000002f0: 13b7 733d 1051 393d 1722 97bd f407 6d3e
00000300: 5629 94bc 52bd b4bd 757e fc3d be46 273e
00000310: 2681 a53e a0a8 cc3c 36d9 2ebd 948d 123f
00000320: 6ccd 783b af24 aa3c 0ff9 8a3e 7ed6 e33d
00000330: 2eba 3a3d f6ba 283d 1c77 eb3c 805e 57ba
00000340: 6a5d 7bbe bdf5 03bf 2774 bf3c ae35 1e3e
00000350: 18c9 df3c a76b f8bd 2028 3f3b d945 d43d
00000360: fc29 903e 73b7 a03e a003 7dbc c128 0b3e
00000370: 0bca f73d d6e9 b73c f57a 093c 9ecf 20bf
00000380: d764 3a3e df57 b53d 945e 3e3d 0145 c13c
00000390: 6d53 1dbd c7b8 323e 7ec3 343e 7013 c93d
000003a0: 82d2 b23d df9b 323d 6efd 723a 8281 eb3c
000003b0: fded 69bd f7a0 243d db94 853d a97b 3cbd
000003c0: accd 20bd e518 173e 7da0 1f3e 365f 77bd
000003d0: 45f6 153e baf3 ac3e 3a94 913e 032f ff3d
000003e0: 37f1 393e 0eba 5dbd 8ae3 7f3d 3de0 de3d
000003f0: f61c 19bd fd3c fa3d 4df4 dd3d f1b8 553c

linear2.bias f4 [256]
0.28190002 0.068384856 0.34438348 0.23350418 0.280341 -0.1255944 -0.12217378 -0.02825155
0.19944888 0.342835 0.093713626 0.34065086 -0.021544911 0.019192526 -0.21524236 0.008095582
0.087699376 0.35646597 0.18594547 -0.15324104 0.079144575 0.30239466 0.28606167 0.13565032
0.36453182 0.22888449 -0.0155211575 -0.02449921 -0.05485155 -0.14031623 0.24457471 -0.08081026
0.22398576 -0.07953665 0.010209819 0.017259844 0.2028768 0.27096096 -0.095531754 0.2616947
-0.018507447 -0.13625425 0.0027954837 0.16109021 0.008308802 -0.040069636 0.020887908 -0.13732333
0.08661037 0.011899289 0.10206118 -0.16775122 -0.10892106 0.1429457 0.09992693 -0.14153098
0.0011196254 0.32929555 0.033784125 0.20099516 0.28532586 0.26466855 -0.032654066 0.1788304
0.0009909424 -0.19463694 -0.19786951 -0.22933467 0.17905337 -0.12587738 -0.1471513 0.20823902
0.19763769 0.0005807209 -0.001281117 0.13254191 -0.06865863 0.18080361 -0.06785325 0.34243888
0.165115 0.17067356 -0.071934685 0.2866309 -0.17580785 0.12389833 0.15333314 0.15304375
-0.11431957 0.033963874 -0.023502609 0.2782108 0.13137206 -0.07305525 -0.052262522 -0.048747335
-0.019332971 0.033253834 0.17853789 0.09518413 0.20236 -0.008442152 0.15800717 -0.19010472
-0.0092853885 -0.16605377 0.0064348397 0.25471982 -0.088459134 0.07090945 -0.19027546 0.34154245
0.26855785 -0.10912213 0.019452179 -0.16861737 0.0010864702 0.3357257 0.054382406 0.25877443
0.18544403 -0.10013234 -0.0736513 0.07126216 0.15387312 0.046663 0.004753534 0.07401708
0.23333113 0.150852 0.31814167 0.13671081 -0.050352935 -0.12886623 0.2411269 0.34201217
0.018736824 -0.029805891 0.03514628 0.13792086 0.25750005 0.117151156 0.1992674 0.22717188
0.33660197 0.29823893 0.29108676 0.07541887 0.019293109 -0.06265461 0.018454919 -0.07859104
0.16172239 -0.19855802 -0.080361545 0.19752237 -0.074360594 0.09691781 0.25205818 -0.03347065
-0.08014374 0.33288622 0.09675425 -0.14893146 -0.2480358 0.07043041 -0.07976295 0.11802804
0.10100005 0.09978512 0.24439551 0.06441949 -0.012942769 0.19372852 -0.06772659 -0.1556342
-0.10149375 0.02720973 -0.039583858 -0.038905106 0.29310083 -0.05712403 0.1715645 0.0040657963
-0.06647638 -0.07370047 0.00013404177 0.20100607 0.11501912 -0.07570319 -0.1001599 0.093865134
0.018383393 0.3444354 0.04919848 -0.2091044 0.24603923 0.3171779 -0.12889323 -0.15463649
0.31079918 0.07721563 -0.0647404 0.33730742 0.18004413 0.0050855675 0.1478216 -0.0666999
0.24080321 -0.13427722 -0.17538685 0.012726442 0.08879696 -0.18036631 0.23348145 -0.018274244
-0.06918392 0.18753874 0.10375172 -0.22483765 0.0077944784 0.013819257 0.27331424 0.28389838
-0.22402166 0.014615724 0.082536116 -0.1265808 -0.07883393 0.16904336 0.16569094 0.07442228
0.10073988 0.010907845 0.16515787 -0.054439582 -0.08285712 0.091984406 -0.025319519 -0.10352458
-0.040549453 0.1676672 0.11846537 0.12979494 0.137495 -0.1628688 0.2820813 -0.17354102
0.0038543053 0.28034914 -0.01318484 0.016215645 0.022727085 0.041139573 -0.043981057 -0.12196041
00000000: 3355 903e 5c0d 8c3d 0853 b03e b81b 6f3e
00000010: db88 8f3e d29b 00be 3f36 fabd cb6f e7bc
00000020: 543c 4c3e 1288 af3e eeec bf3d ca69 ae3e
00000030: f47e b0bc a539 9d3c 7e68 5cbe 55a3 043c
00000040: bb9b b33d b582 b63e 7d68 3e3e 38eb 1cbe
00000050: 8d16 a23d 79d3 9a3e ad76 923e ebe7 0a3e
00000060: eaa3 ba3e b260 6a3e 744c 7ebc 91b2 c8bc
00000070: 05ac 60bd 0faf 0fbe cb71 7a3e d97f a5bd
00000080: 865c 653e 1ce4 a2bd 1647 273c 8464 8d3c
00000090: f0be 4f3e 65bb 8a3e 27a6 c3bd d9fc 853e
000000a0: ee9c 97bc 3c86 0bbe 6f34 373b d5f4 243e
000000b0: a421 083c 0f20 24bd 1e1d ab3c 7d9e 0cbe
000000c0: c760 b13d 3cf5 423c 7405 d13d fac6 2bbe
000000d0: 0112 dfbd 5c60 123e 7ea6 cc3d 7fed 10be
000000e0: 65c0 923a 6d99 a83e 3961 0a3d add1 4d3e
000000f0: 3b16 923e a382 873e 45c0 05bd 511f 373e
00000100: 82e2 813a e84e 47be 4e9e 4abe b5d6 6abe
00000110: c459 373e 00e6 00be d5ae 16be 9c3c 553e
00000120: 8961 4a3e 853b 183a 27eb a7ba 11b9 073e
00000130: e59c 8cbd 9524 393e a5f6 8abd 2654 af3e
00000140: e813 293e 0dc5 2e3e 7e52 93bd 49c1 923e
00000150: f906 34be 68be fd3d 5d03 1d3e 80b7 1c3e
00000160: 6120 eabd b41d 0b3d 8b88 c0bc a571 8e3e
00000170: 6686 063e fe9d 95bd 3a11 56bd 49ab 47bd
00000180: 2e60 9ebc 2c35 083d a3d2 363e e6ef c23d
00000190: 7637 4f3e f450 0abc a2cc 213e d0aa 42be
000001a0: be21 18bc 000a 2abe 59db d23b a36a 823e
000001b0: 102a b5bd f938 913d 92d7 42be a7de ae3e
000001c0: 6a80 893e 6c7b dfbd 2d5a 9f3c 08aa 2cbe
000001d0: e467 8e3a 3de4 ab3e 16c0 5e3d 157e 843e
000001e0: 0ae5 3d3e 2f12 cdbd 7ed6 96bd e5f1 913d
000001f0: ea90 1d3e b421 3f3d 89c3 9b3b 4496 973d
00000200: 5bee 6e3e f278 1a3e 77e3 a23e ebfd 0b3e
00000210: e13e 4ebd 82f5 03be f8e9 763e 381c af3e
00000220: f87d 993c 7c2b f4bc 8cf5 0f3d 203b 0d3e
00000230: 0cd7 833e f2ec ef3d c10c 4c3e bf9f 683e
00000240: 1857 ac3e c6b2 983e 5309 953e 3575 9a3d
00000250: 950c 9e3c 0f51 80bd c52e 973c 57f4 a0bd
00000260: 8e9a 253e cb52 4bbe 9894 a4bd 4e43 4a3e
00000270: 5e4a 98bd d87c c63d c50d 813e 8518 09bd
00000280: 6722 a4bd 1070 aa3e 1827 c63d 7d81 18be
00000290: 19fd 7dbe d23d 903d c25a a3bd afb8 f13d
000002a0: 1dd9 ce3d 245c cc3d d142 7a3e 5eee 833d
000002b0: e80d 54bc c560 463e 3db4 8abd 925e 1fbe
000002c0: f5db cfbd f1e6 de3c af22 22bd f65a 1fbd
000002d0: 5011 963e e3fa 69bd 9bae 2f3e 5f3a 853b
000002e0: c524 88bd 46f0 96bd 908d 0c39 89d4 4d3e
000002f0: 258f eb3d 460a 9bbd a220 cdbd 5d3c c03d
00000300: c598 963c d659 b03e 5884 493d 771f 56be
00000310: b5f1 7b3e 2465 a23e 96fc 03be 0759 1ebe
00000320: 1221 9f3e 3a23 9e3d 9d96 84bd 8fb3 ac3e
00000330: 7d5d 383e d5a4 a63b 8c5e 173e f599 88bd
00000340: 1e95 763e f87f 09be 9c98 33be 9182 503c
00000350: 2edb b53d f2b1 38be c315 6f3e deb3 95bc
00000360: 4db0 8dbd 280a 403e c87b d43d d73b 66be
00000370: d368 ff3b 2a6a 623c d8ef 8b3e 215b 913e
00000380: ef65 65be ca76 6f3c b208 a93d 669e 01be
00000390: af73 a1bd b419 2d3e e3aa 293e b56a 983d
000003a0: b650 ce3d d1b6 323c 251f 293e 0afc 5ebd
000003b0: feb0 a9bd 5262 bc3d e16a cfbc b204 d4bd
000003c0: 2f17 26bd f3b0 2b3e f99d f23d f7e8 043e
000003d0: 7dcb 0c3e 14c7 26be f66c 903e bdb4 31be
000003e0: 8398 7c3b ec89 8f3e 3a05 58bc acd6 843c
000003f0: 272e ba3c f881 283d 7b25 34bd 61c6 f9bd

linear3.weight f4 [1, 256]
-0.2674842 -1.6939532 -0.22076868 -0.21313679 -0.29417908 0.7871439 0.7431282 1.7028255
-0.5900051 -0.24450275 -1.253743 -0.26435944 1.3994734 0.0063143265 1.4089018 0.75439006
1.9380419 -0.2948839 -0.828756 0.6218833 -0.854538 -0.296728 -1.0934864 -1.0298146
-0.24338432 -0.25394914 0.029391265 0.03174807 0.6199712 0.6994744 -0.20215644 0.58601534
-0.7754612 0.71992004 0.009876406 0.037084926 -1.0931377 -0.2869283 -0.65041643 -0.23188956
-0.006242801 -0.8441161 0.035302002 -0.7798196 0.032362 -0.0004464794 0.048850894 1.6203408
-0.8132019 -0.8966037 -1.2858616 0.6602901 0.6399916 -1.0346657 -0.94873416 0.64299744
0.01321371 -0.23272955 -1.1060232 -1.2314923 -0.2517526 -0.24245921 0.04961756 -0.8823319
0.7545207 0.6833771 0.76622146 0.78283924 -0.86855197 0.6688318 0.7346288 -0.9705198
-0.6774333 0.048752546 0.03177713 -0.83684564 0.597222 -0.67005 0.028038237 -0.23720217
2.4500475 -0.8357762 -0.004479992 -0.22498052 0.6977996 0.8107272 -1.2906332 -1.6811293
0.6993097 0.03197159 0.3730272 -0.26457068 -2.378084 0.02775437 -0.005653925 0.009927256
0.0048591336 0.03365989 -1.1171467 -0.992022 -1.7969593 -0.98999727 -1.0019073 0.7131909
0.044520613 0.79407585 0.02582206 -0.24160983 0.66506195 -0.8935172 0.8066135 -0.24746697
-0.93444926 0.74180055 0.0072160335 0.64912367 0.008596767 -0.2420944 2.2343624 -0.20131008
-1.8270975 0.7254874 0.0034017286 0.9153436 -0.954507 -0.8908959 0.8480131 0.9203137
-1.1757002 -0.9165817 -0.2518949 -1.0632079 0.0029611662 0.61944985 -1.3417177 -0.2404081
1.6386281 0.03204684 -0.0075026955 -1.5609589 -0.2725089 -1.1320691 -0.9944477 -0.24904473
-0.25367776 -0.23770678 -0.24586189 0.9392143 -0.006219425 0.0005593704 0.025486784 -0.0050377618
-1.0947843 0.7065735 0.89558315 -1.0167674 0.014763246 -1.0145088 -1.3170846 -0.0058000498
0.006498263 -0.25666526 -1.2544128 0.8300918 0.8003376 1.3656815 -1.4968454 -1.1633327
2.1870034 -1.6887097 -0.19956839 2.2454476 0.008667089 -1.1840671 0.003142914 0.6860414
0.6200111 0.008075785 -0.042448603 0.009053675 -0.2498343 0.04525375 -2.335377 0.9459626
0.039370768 0.041862242 1.2654824 -1.0533046 -0.93732345 0.022352321 0.66298115 1.1244476
-0.0009112359 -0.2655584 -2.8862884 0.72492945 -0.27237812 -0.21496873 0.762156 0.6154105
-0.24046472 -1.6569002 0.0054387893 -0.20778221 -1.543988 3.644427 -0.71086115 0.03644641
-0.19469142 0.625305 0.66101336 0.021529404 -1.0907122 0.6651769 -0.21860425 -0.020629
-0.042546205 -1.6330881 -0.7702403 0.7298851 -0.0063810092 -0.009388393 -0.17587005 -0.23881607
0.8000888 0.041684173 -1.2066692 0.6753209 0.035778094 -1.7456348 -0.93325746 -0.9664363
-1.1207658 -0.67312807 -0.87440115 -0.003962083 0.6974601 -1.1949999 0.0081121065 0.64195013
0.0053326185 -1.6412852 -0.9065753 -1.8065534 -1.3109062 0.7327749 -0.20196858 0.8119784
0.039507113 -1.2167523 -0.008435276 0.0055200937 0.05234969 -0.63484657 1.6240788 0.75503594
00000000: b0f3 88be 75d3 d8bf 2f11 62be 8840 5abe
00000010: a49e 96be 4382 493f a63d 3e3f 30f6 d93f
00000020: 930a 17bf ee5e 7abe a77a a0bf 1f5a 87be
00000030: f221 b33f 69e8 ce3b e556 b43f b51f 413f
00000040: c211 f83f 06fb 96be 5a29 54bf be33 1f3f
00000050: 01c3 5abf bbec 97be 5df7 8bbf f7d0 83bf
00000060: bd39 79be 9f05 82be f3c5 f03c 440a 023d
00000070: 6fb6 1e3f c110 333f 1902 4fbe 1a05 163f
00000080: a084 46bf ae4c 383f a6d0 213c 5de6 173d
00000090: f0eb 8bbf 44e8 92be b181 26bf 7574 6dbe
000000a0: 6990 ccbb fe17 58bf d598 103d 42a2 47bf
000000b0: 048e 043d 7315 eab9 e017 483d 5467 cf3f
000000c0: 002e 50bf d287 65bf 1d97 a4bf c608 293f
000000d0: 7dd6 233f ed6f 84bf 3ee0 72bf 7b9b 243f
000000e0: 517e 583c a850 6ebe 2b92 8dbf 8aa1 9dbf
000000f0: b7e5 80be 3a47 78be c83b 4b3d 81e0 61bf
00000100: 4528 413f cdf1 2e3f 1727 443f 2768 483f
00000110: 6c59 5ebf 9038 2b3f a210 3c3f fc73 78bf
00000120: 456c 2dbf c0b0 473d bc28 023d 843b 56bf
00000130: 8ae3 183f 6688 2bbf 72b0 e53c 20e5 72be
00000140: 94cd 1c40 6ef5 55bf e6cc 92bb 4b61 66be
00000150: ffa2 323f d18b 4f3f 7833 a5bf 3f2f d7bf
00000160: f605 333f a4f4 023d 6cfd be3e cf75 87be
00000170: 8732 18c0 225d e33c 8f44 b9bb eea5 223c
00000180: 5e39 9f3b f4de 093d aafe 8ebf 27f5 7dbf
00000190: c302 e6bf 7670 7dbf 803e 80bf ae93 363f
000001a0: 3f5b 363d 8e48 4b3f c988 d33c 9168 77be
000001b0: 8041 2a3f 8bbd 64bf 397e 4e3f fb67 7dbe
000001c0: 1138 6fbf a4e6 3d3f 7a74 ec3b f82c 263f
000001d0: 74d9 0c3c 98e7 77be cbff 0e40 3b24 4ebe
000001e0: 55de e9bf 8bb9 393f 89ef 5e3b f553 6a3f
000001f0: 925a 74bf c111 64bf 6317 593f ae99 6b3f
00000200: 587d 96bf 19a5 6abf 5ef8 80be 3217 88bf
00000210: 2010 423b 4494 1e3f 68bd abbf 8a2d 76be
00000220: 91be d13f 8c43 033d 2cd9 f5bb 80cd c7bf
00000230: 4986 8bbe a4e7 90bf 2094 7ebf 9505 7fbe
00000240: 0de2 81be 6869 73be 38c3 7bbe 5970 703f
00000250: 51cc cbbb b6a2 123a a9c9 d03c cf13 a5bb
00000260: e421 8cbf 00e2 343f f044 653f 6f25 82bf
00000270: 8be1 713c 6ddb 81bf 3a96 a8bf 580e bebb
00000280: 62ef d43b a169 83be 9990 a0bf e580 543f
00000290: ede2 4c3f a7ce ae3f a198 bfbf 16e8 94bf
000002a0: ddf7 0b40 a427 d8bf a85b 4cbe 6ab5 0f40
000002b0: 6800 0e3c 838f 97bf 59f9 4d3b 69a0 2f3f
000002c0: 0cb9 1e3f 4c50 043c 96de 2dbd de55 143c
000002d0: 90d4 7fbe ff5b 393d d176 15c0 9b2a 723f
000002e0: 3e43 213d be77 2b3d 54fb a13f afd2 86bf
000002f0: 6ef4 6fbf 371c b73c 22b9 293f e6ed 8f3f
00000300: 02e0 6eba 45f7 87be f3b8 38c0 fa94 393f
00000310: 2575 8bbe c320 5cbe a81c 433f 8b8b 1d3f
00000320: 623c 76be 4e15 d4bf df37 b23b dcc4 54be
00000330: 66a1 c5bf 4b3e 6940 fffa 35bf d548 153d
00000340: 305d 47be fd13 203f 2c38 293f 6f5e b03c
00000350: 759c 8bbf 0949 2a3f cbd9 5fbe 26fe a8bc
00000360: ee44 2ebd 0809 d1bf 782e 45bf c0d9 3a3f
00000370: c917 d1bb c6d1 19bc 4717 34be 338c 74be
00000380: 9fd2 4c3f 06bd 2a3d 2374 9abf d5e1 2c3f
00000390: 0d8c 123d f670 dfbf f6e9 6ebf 5f68 77bf
000003a0: 4175 8fbf 1f52 2cbf c1d8 5fbf 5cd4 81bb
000003b0: bf8c 323f c2f5 98bf a4e8 043c d856 243f
000003c0: 3fbd ae3b a215 d2bf 5215 68bf 243d e7bf
000003d0: c6cb a7bf 2397 3b3f dad0 4ebe d1dd 4f3f
000003e0: 36d2 213d 8abe 9bbf 1d34 0abc e7e1 b43b
000003f0: a16c 563d 4e85 22bf d0e1 cf3f 094a 413f
