turtlebot3_rl_sim/src/models/td3/turtlebot3_top_8_obstacle/td3_critic2_model_ep2500.pt (torch_old, 675874 bytes, 5 tensors)

linear1.weight f4 [256, 400]
-0.00394693 -0.008186627 0.022874776 -0.041963466 -0.044861384 -0.04375378 0.04839072 -0.042833872
0.016641613 -0.018693678 0.038252067 -0.04714779 -0.03417229 -0.011509515 -0.008063603 0.024785448
0.0071937963 -0.0362222 0.0063933805 0.045374636 -0.027884662 -0.019851191 -0.007594697 -0.00040453672
-0.042756386 -0.017233811 -0.014243685 -0.0063445345 0.017594483 -0.041299015 -0.046811085 -0.029847277
0.039839346 -0.0047691874 0.04162882 0.017340962 -0.03367757 0.041897777 -0.011474568 0.008853972
0.035153534 -0.00013269112 -0.030815482 0.0136838 0.034827802 0.024282042 -0.026764804 -0.0043613613
-0.03170805 -1.8130988e-05 0.0491593 0.00512702 -0.011256326 -0.0452146 0.010947056 -0.030779464
0.046075318 0.046154756 -0.0047743022 0.026315946 -0.009050846 0.045716826 -0.007120294 -0.016622413
0.0097542 0.0040240586 -0.043581355 0.043501664 -0.022006823 -0.042765487 0.04178145 0.022485849
-0.03938628 0.021355156 -0.03879953 -0.02838633 0.016261313 0.022548761 -0.028664315 -0.0024778917
-0.04625678 0.0016845663 0.043754715 -0.040536273 -0.00977993 -0.036393743 0.006575167 -0.030878836
0.0065976866 -0.046497095 0.037644062 0.039251897 0.03956351 -0.04757392 -0.012021303 0.026764516
0.01563659 0.019651826 0.026719328 -0.04731229 0.028814469 -0.037478127 0.02560823 0.025518406
0.0036857203 -0.04646166 0.04341832 -0.020845367 0.00013475493 0.0057590418 -0.04980286 0.0010772869
-0.049788326 -0.036931925 0.018555354 -0.00083418936 -0.0027307495 0.042053137 0.00082743913 0.025808398
0.0052491017 0.04043107 0.028100017 -0.023273215 -0.015478928 -0.0010509565 -0.027630735 0.033472333
0.027987752 0.045157287 0.012734082 0.041022148 -0.039685704 0.0055406876 -0.041327 0.005006455
0.039807532 -0.0030621514 0.020562235 -0.008127373 0.012968931 -0.026854342 -0.03754572 -0.02385366
0.010896999 0.012851054 0.014078926 0.005949326 -0.011006247 -0.04867312 -0.024382843 -0.030220563
0.016034197 0.039517853 0.023331214 -0.0056046844 -0.018057 0.01922908 -0.033542264 -0.013291955
0.0078120455 0.047401708 0.032768015 -0.022108203 -0.018548131 0.02310637 0.022630382 0.030765299
-0.01340989 -0.032455273 -0.036727976 -0.0150106065 -0.047412444 -0.02152583 0.014564607 0.027436268
-0.016173236 0.033640843 0.022488978 -0.009925842 0.0069735833 -0.043509454 -0.027851362 0.01944599
0.030477561 0.03683467 -0.04972586 0.03755081 0.01569141 -0.042135097 -0.0032224841 0.023387287
-0.03769549 0.008252829 -0.027071942 0.041117933 0.013375264 0.021307651 -0.0074903443 -0.026746785
0.03533863 0.046323415 -0.041185133 0.02281769 -0.045722395 0.016963188 -0.039222382 0.03541236
0.025945883 0.038920645 -0.0446842 -0.012338508 -0.041212555 0.048761282 -0.03395111 0.01113116
0.031346124 0.023849983 0.036213275 -0.01996988 0.015929934 -0.019131023 -0.0213296 0.021875542
0.0019553974 -0.044948466 -0.022309858 -0.044625796 -0.04287525 0.03205232 -0.046116747 -0.021800144
0.039830502 0.032232646 0.030736212 -0.022650981 -0.048043013 -0.03156311 -0.032194674 0.00787127
0.00083408505 -0.037202913 -0.0087917335 0.041984733 -0.0022380948 0.0133908875 -0.01177289 0.013044056
0.0029369108 0.040209968 -0.003338106 -0.048511334 0.024129245 -0.009898692 0.01479793 -0.04829881
00000000: 4055 81bb 3421 06bc e263 bb3c e2e1 2bbd
00000010: 92c0 37bd 2a37 33bd 5935 463d 9272 2fbd
00000020: fe53 883c 7c23 99bc 33ae 1c3d 0b1e 41bd
00000030: 3ef8 0bbd 6892 3cbc 341d 04bc da0a cb3c
00000040: f0b9 eb3b bb5d 14bd 907f d13b c1da 393d
00000050: 606e e4bc f79e a2bc f0dc f8bb 0018 d4b9
00000060: 5221 2fbd ec2d 8dbc 585e 69bc d0e5 cfbb
00000070: 4e22 903c 2829 29bd fbbc 3fbd 4782 f4bc
00000080: 952e 233d d846 9cbb fb82 2a3d a20e 8e3c
00000090: 7ef1 09bd 019d 2b3d d4ff 3bbc 4010 113c
000000a0: 27fd 0f3d 0023 0bb9 c070 fcbc 0432 603c
000000b0: 99a7 0e3d 22eb c63c dd41 dbbc c0e9 8ebb
000000c0: 4de0 01bd 0018 98b7 435b 493d 9000 a83b
000000d0: 746c 38bc f232 39bd 485b 333c 3725 fcbc
000000e0: 79b9 3c3d c50c 3d3d c071 9cbb 8a94 d73c
000000f0: 004a 14bc 9141 3b3d 5b51 e9bb ba2b 88bc
00000100: 14d0 1f3c 40dc 833b 5d82 32bd cd2e 323d
00000110: a747 b4bc dd2a 2fbd 0723 2b3d 3e34 b83c
00000120: 8253 21bd 02f1 ae3c 42ec 1ebd 738a e8bc
00000130: 7236 853c 2eb8 b83c 6dd1 eabc 2064 22bb
00000140: c077 3dbd aacc dc3a 2538 333d 5d09 26bd
00000150: 003c 20bc 9b11 15bd 8074 d73b 9df5 fcbc
00000160: 6831 d83b bd73 3ebd a930 1a3d 99c6 203d
00000170: 590d 223d dfdc 42bd 00f5 44bc 4241 db3c
00000180: 4e18 803c defc a03c 7ee2 da3c 88ca 41bd
00000190: 520c ec3c aa82 19bd 5ac8 d13c fa0b d13c
000001a0: 208c 713b 954e 3ebd 69d7 313d e7c3 aabc
000001b0: 004d 0d39 58b6 bc3b 15fe 4bbd c033 8d3a
000001c0: d8ee 4bbd ee45 17bd 6601 983c 80ad 5aba
000001d0: 60f6 32bb e93f 2c3d 80e8 583a 226c d33c
000001e0: a800 ac3b 0d9b 253d 0232 e63c 78a7 bebc
000001f0: 549b 7dbc 40c0 89ba da59 e2bc 491a 093d
00000200: 9246 e53c d9f6 383d 9ca2 503c d706 283d
00000210: 7a8d 22bd a88e b53b 8046 29bd 300d a43b
00000220: 390d 233d 60ae 48bb 2272 a83c ac28 05bc
00000230: a47b 543c a3fd dbbc 8ac9 19bd c068 c3bc
00000240: 5489 323c 3a8d 523c 4cab 663c 90f2 c23b
00000250: 8c53 34bc 775d 47bd 87be c7bc 1d91 f7bc
00000260: 265a 833c 79dd 213d 1a21 bf3c 80a7 b7bb
00000270: 46ec 93bc 4e86 9d3c 9d63 09bd 80c6 59bc
00000280: 30fc ff3b 4b28 423d c137 063d 431c b5bc
00000290: 40f2 97bc 9249 bd3c 5a63 b93c 8207 fc3c
000002a0: 28b5 5bbc d2ef 04bd 1370 16bd 0cef 75bc
000002b0: 8d33 42bd f056 b0bc 64a0 6e3c 06c2 e03c
000002c0: bc7d 84bc fbca 093d ce3a b83c 00a0 22bc
000002d0: a882 e43b f836 32bd 8a28 e4bc 324d 9f3c
000002e0: 14ac f93c f3df 163d 58ad 4bbd e1ce 193d
000002f0: 468b 803c da95 2cbd 5030 53bb b296 bf3c
00000300: 9666 1abd e036 073c fac5 ddbc 476b 283d
00000310: ec23 5b3c 628d ae3c 9071 f5bb 131c dbbc
00000320: 3dbf 103d 9fbd 3d3d beb1 28bd 2aec ba3c
00000330: 6847 3bbd 62f6 8a3c a6a7 20bd 8d0c 113d
00000340: 768c d43c 416b 1f3d c806 37bd 7427 4abc
00000350: 7fce 28bd e9b9 473d 5210 0bbd 785f 363c
00000360: cb64 003d 0a61 c33c 5f54 143d e097 a3bc
00000370: 7e7f 823c aab8 9cbc 6abb aebc 5634 b33c
00000380: 2026 003b e21b 38bd 2ac3 b6bc 8ac9 36bd
00000390: f59d 2fbd 4b49 033d eae4 3cbd 3796 b2bc
000003a0: 4f25 233d 6106 043d 82ca fb3c 8d8e b9bc
000003b0: c0c8 44bd 5248 01bd 90de 03bd 80f6 003c
000003c0: 80a6 5a3a 1562 18bd 340b 10bc 2ff8 2b3d
000003d0: 00ad 12bb 7465 5b3c 14e3 40bc bcb6 553c
000003e0: 3079 403b 35b3 243d 20c4 5abb d2b3 46bd
000003f0: b2aa c53c 202e 22bc 0473 723c f9d4 45bd

linear1.bias f4 [256]
-0.027868295 0.07744383 -0.04860205 -0.01278791 0.01769943 -0.018100273 -0.040784147 0.0010460974
0.006389391 -0.0340631 -0.10220626 -0.053085066 0.0066754934 0.027480882 0.03548156 0.019318813
-0.00082941726 -0.011827157 -0.036921017 -0.045812547 0.033686712 0.11962495 0.008798678 -0.0063878084
-0.027588597 -0.0070836 -0.051521935 -0.0049480754 0.03137573 -0.003682197 0.16852948 -0.03632348
-0.0130233485 0.15757145 0.06984405 0.15261844 0.02099445 -0.0065130712 -0.042984307 0.016178764
-0.030703686 0.05856467 -0.017172674 0.03431256 -0.008611483 -0.03113284 -0.043446988 -0.13073567
0.0134035135 0.02092963 0.18485305 0.054182045 0.0088452445 -0.044008017 0.03184707 0.063429825
-0.053305604 0.037043944 0.0408281 0.015826676 -0.045690782 -0.012012676 0.031488046 0.026687073
0.027939517 0.030793836 0.11642076 0.09987425 -0.031847913 -0.043035716 -0.042470526 0.0954837
-0.038392257 -0.058652148 -0.009555418 -0.060840547 -0.0038896957 0.14796978 0.014489623 -0.14838475
-0.1374669 -0.03150444 -0.011941337 -0.02093224 -0.06943513 -0.00094442605 0.03091677 0.027374681
0.040263426 -0.0063431044 0.011301517 0.028844018 0.018803606 0.15133049 0.009542433 0.033052668
0.06334494 0.016565822 -0.04310277 -0.064312994 0.028425355 -0.014016884 0.015877016 0.07927971
0.093791656 -0.010837346 -0.043640703 0.070284866 0.018622184 0.034841552 -0.029031402 0.17106888
-0.03829565 0.025947187 0.035206635 0.20694722 -0.051060744 -0.035199933 0.0121549815 0.042932145
-0.010282836 0.047216985 -0.047034446 -0.22685012 -0.1390183 -0.039820787 -0.010448425 -0.0016091757
0.0005661806 -0.25119904 -0.06046715 0.07640103 0.020604413 0.085266724 -0.017093997 -0.0056767426
0.0114549985 0.07974791 -0.06982028 0.037137825 0.04309606 0.15941322 0.033712044 0.034762774
0.023637176 -0.029063812 -0.0030810742 -2.694267e-06 0.040622465 -0.012155169 0.015811823 -0.048909012
-0.055897664 -0.053828634 -0.027870601 0.036430765 0.05912224 0.092433415 -0.09056598 -0.04496616
-0.14718014 -0.16292179 -0.035755496 0.02894907 0.046970367 0.118225306 -0.028213179 -0.047764603
-0.025008084 0.006853004 -0.018150564 0.021911247 0.0019126938 0.15612456 0.13694239 0.03905039
0.11769993 0.005412526 0.021633713 0.0027289407 -0.05317585 -0.043389674 -0.031971592 0.029146884
0.12216587 -0.0032883403 -0.0009310616 0.020133164 -0.0433546 -0.03508617 -0.030118816 0.048563555
-0.00028855604 -0.005038041 0.03921058 0.12425923 -0.030909695 -0.15868227 -0.028984332 0.0047080726
-0.006202102 -0.0011673791 0.009357472 -0.021042008 0.041470256 0.05170298 -0.016410852 0.000903707
0.1283053 0.018980557 0.023956433 -0.031361204 0.021026488 0.14075369 -0.028878292 0.008002024
-0.043897748 -0.02872481 -0.009763716 0.14810026 -0.010660953 0.08096116 -0.092306554 0.011818588
0.023223666 -0.01674799 -0.01651963 -0.11928922 -0.02172119 -0.039279874 0.021470089 -0.037289076
-0.020462854 0.014893631 -0.03852438 -0.00038352192 -0.042492565 -0.027283866 -0.110672966 -0.025572095
0.020824347 -0.11385338 -0.00997743 0.02468659 -0.15676202 -0.04323688 -0.047887538 -0.047263924
0.080029085 -0.053483672 0.009082173 -0.0035149297 -0.0070010847 0.026309328 0.050132167 -0.01863746
00000000: 0d4c e4bc df9a 9e3d f112 47bd 6284 51bc
00000010: 65fe 903c 0647 94bc 470d 27bd 341d 893a
00000020: 195e d13b c085 0bbd 8451 d1bd ba6f 59bd
00000030: 19be da3b 961f e13c 1d55 113d 7d42 9e3c
00000040: 406d 59ba b1c6 41bc 7e3a 17bd f0a5 3bbd
00000050: 14fb 093d edfd f43d 5528 103c d250 d1bb
00000060: 7b01 e2bc 8b1d e8bb aa08 53bd 7723 a2bb
00000070: d683 003d 0451 71bb fe92 2c3e eec7 14bd
00000080: e25f 55bc 695a 213e 660a 8f3d 0248 1c3e
00000090: 8efc ab3c 9a6b d5bb 5010 30bd 5489 843c
000000a0: 4c86 fbbc 82e1 6f3d b5ad 8cbc 548b 0c3d
000000b0: 2d17 0dbc 4c0a ffbc 78f5 31bd 92df 05be
000000c0: 699a 5b3c 9e74 ab3c 1e4a 3d3e feed 5d3d
000000d0: a5eb 103c c041 34bd 1372 023d 7fe7 813d
000000e0: fa56 5abd 64bb 173d 5e3b 273d f2a6 813c
000000f0: 4226 3bbd d1d0 44bc 9cf9 003d d99e da3c
00000100: 6ae1 e43c 5b43 fc3c 026e ee3d df8a cc3d
00000110: f572 02bd 3846 30bd 93f5 2dbd f58c c33d
00000120: 3341 1dbd 3c3d 70bd 548e 1cbc f033 79bd
00000130: 44ea 7ebb 6485 173e e265 6d3c 2cf2 17be
00000140: 1fc4 0cbe cd0a 01bd 99a5 43bc 177a abbc
00000150: 0134 8ebd 5c93 77ba 2b45 fd3c de40 e03c
00000160: 43eb 243d d1d9 cfbb ff29 393c 4a4a ec3c
00000170: 050a 9a3c 61f6 1a3e dd57 1c3c 3c62 073d
00000180: feba 813d 0cb5 873c 888c 30bd 88b6 83bd
00000190: 4adc e83c 13a7 65bc 8410 823c 675d a23d
000001a0: d715 c03d 208f 31bc 98c0 32bd 83f1 8f3d
000001b0: 8d8d 983c 04b6 0e3d 43d3 edbc ae2c 2f3e
000001c0: e6db 1cbd 328f d43c d534 103d f9e9 533e
000001d0: 1225 51bd ce2d 10bd b025 473c 9ed9 2f3d
000001e0: 5779 28bc 9966 413d 31a7 40bd 664b 68be
000001f0: d05a 0ebe 1f1b 23bd df2f 2bbc faea d2ba
00000200: bd6b 143a 299d 80be 67ac 77bd 2578 9c3d
00000210: 96ca a83c 52a0 ae3d b608 8cbc f803 babb
00000220: bfad 3b3c df52 a33d effd 8ebd d51d 183d
00000230: 7f85 303d 383d 233e a415 0a3d 6963 0e3d
00000240: c0a2 c13c 3b17 eebc d9eb 49bb 28cf 34b6
00000250: be63 263d 7926 47bc cc87 813c d154 48bd
00000260: f3f4 64bd 6a7b 5cbd e350 e4bc 6d38 153d
00000270: 292a 723d bb4d bd3d a87a b9bd 702e 38bd
00000280: 64b6 16be f8d4 26be 5b74 12bd 9a26 ed3c
00000290: 0064 403d 1c20 f23d 531f e7bc d1a4 43bd
000002a0: c1dd ccbc 2a8f e03b 7eb0 94bc 377f b33c
000002b0: 5bb3 fa3a 1edf 1f3e a03a 0c3e 4df3 1f3d
000002c0: a90c f13d 8f5b b13b 2f39 b13c 07d8 323b
000002d0: ecce 59bd 5fb9 31bd a5f4 02bd 72c5 ee3c
000002e0: 1a32 fa3d 3281 57bb 7c12 74ba 4eee a43c
000002f0: 9894 31bd 84b6 0fbd bcbb f6bc 94ea 463d
00000300: 5649 97b9 2716 a5bb 469b 203d a07b fe3d
00000310: 5436 fdbc 9b7d 22be 8d70 edbc 2d46 9a3b
00000320: 013b cbbb be02 99ba 1550 193c 4a60 acbc
00000330: b7dc 293d 81c6 533d 0d70 86bc c0e6 6c3a
00000340: 7762 033e 1d7d 9b3c 4840 c43c 9b74 00bd
00000350: be3f ac3c bc21 103e 2b92 ecbc ec1a 033c
00000360: 20ce 33bd 4b50 ebbc fef7 1fbc 98a7 173e
00000370: 47ab 2ebc f7ce a53d 380b bdbd c0a2 413c
00000380: 8f3f be3c 1533 89bc 2d54 87bc e84d f4bd
00000390: a3f0 b1bc efe3 20bd 0ae2 af3c 6ebc 18bd
000003a0: b7a1 a7bc 6b04 743c becb 1dbd 7113 c9b9
000003b0: af0c 2ebd 6a82 dfbc 82a8 e2bd 927c d1bc
000003c0: d297 aa3c f62b e9bd 6078 23bc 883b ca3c
000003d0: 3986 20be 2819 31bd b925 44bd d197 41bd
000003e0: 4ae6 a33d b211 5bbd 65cd 143c bc5a 66bb
000003f0: 5b69 e5bb a986 d73c 6357 4d3d 96ad 98bc

linear2.weight f4 [256, 256]
0.027398234 -0.057281982 0.013204329 0.046213385 0.0029429123 -0.024399139 0.04688772 0.052376512
-0.045146465 0.0460942 0.04685786 0.040908262 0.007780788 -0.055113353 -0.001527749 0.018346513
0.027342394 0.041842125 0.013245359 0.014942992 0.019186193 -0.05160687 0.03656695 -0.065753676
-0.06417713 -0.011668086 -0.019141492 -0.0022935006 -0.01531459 0.045115914 -0.050508652 0.043902576
0.0085859075 -0.05274979 0.031910494 -0.019047614 0.0427578 0.013490289 -0.058864594 -0.05447013
-0.03862559 -0.0066681365 -0.0041727647 0.0026855408 -0.018080901 -0.016891414 0.058351137 -0.041134324
0.010053171 -0.055359732 0.02396445 -0.050541434 -0.0024619305 -0.03995055 -0.015017126 -0.008319047
-0.061532542 0.020062383 0.0012700807 0.057948753 -0.043795556 0.010642938 0.020907335 -0.04042652
0.0071666734 0.0476444 0.0092486935 0.019275973 0.0074228807 0.0044761733 0.018438155 0.022987483
0.0161613 -0.0511956 0.015765809 -0.033782084 -0.006407273 0.0028804203 -0.010006606 0.022226406
0.02468063 -0.030387782 0.025943132 -0.017235093 -0.06666414 -0.027610203 -0.042216893 0.056670792
0.01812821 -0.02744629 -0.02834036 0.03052338 0.0123934 -0.059420303 0.032477573 0.018063836
0.037739087 0.043246564 0.0011008127 -0.024334924 0.022217408 -0.012461946 -0.025705088 0.02679138
-0.0014848673 -0.033909135 0.010659648 -0.018939953 0.039928816 -0.0263328 0.03778975 -0.058714733
-0.042264953 0.036492743 -0.06097971 0.024558395 -0.05745542 -0.021665879 0.031101173 0.037935037
-0.024746493 -0.001599164 -0.034639366 -0.056051 -0.038591437 -0.02124144 -0.02610891 -0.020738095
-0.02079962 -0.016231293 0.0046725892 0.029217292 0.026821556 0.026618527 -0.06245327 -0.02683236
-0.028073257 0.007662417 -0.070094384 -0.038324118 -0.012904884 0.04551452 0.003101185 -0.002078116
-0.016583705 -0.03440673 -0.05065841 0.024108052 -0.03941363 -0.06132318 -0.02179949 0.05982461
-0.055164527 -0.03078527 0.050015733 -0.0483003 -0.035792254 0.054827303 0.009285388 0.03632571
-0.068550624 -0.06399236 -0.014799669 0.0547959 0.012064457 -0.03716614 0.032565698 0.032389566
0.041670017 -0.025346713 -0.0129444 0.053490374 0.05875028 0.044268038 -0.0059159067 0.055275537
-0.006406435 -0.0033869208 -0.05462957 -0.0579652 -0.05768357 -0.0282666 -0.03397133 0.050238937
-0.051817723 -0.023124948 -0.018949267 0.020551886 0.042225085 -0.057544243 -0.050866283 -0.05524574
0.026357012 -0.02843908 -0.0216581 -0.032046944 -0.06272837 -0.025651816 -0.015603319 -0.060021564
-0.037019365 0.0517827 -0.008282912 0.049920425 -0.0129882395 0.02586192 0.03432771 -0.030484721
-0.009945511 0.011734769 0.046507683 -0.008899532 0.04083108 0.01876002 -0.013980004 0.047809303
0.04965824 -0.03384765 0.06081838 0.022370575 0.04072219 -0.055190604 -0.06254285 -0.02121946
0.03845027 -0.03292601 -0.05678801 0.029971665 0.03283447 -0.031903792 -0.0076828226 -0.030227967
0.04341122 -0.03148032 0.042520873 0.013346889 -0.025560174 -0.033495236 -0.018179994 0.055712804
0.01311706 -0.00916115 0.04502625 0.053152863 0.036997754 -0.020803718 0.04660454 0.00016701977
-0.057348292 0.018830055 -0.044291615 0.040167235 0.01959933 -0.04152399 -0.0320081 -0.034331687
00000000: 4372 e03c 83a0 6abd f856 583c 3f4a 3d3d
00000010: e0dd 403b b4e0 c7bc 560d 403d c188 563d
00000020: 80eb 38bd 46cd 3c3d 07ee 3f3d 6c8f 273d
00000030: fbf5 fe3b 8abe 61bd c03e c8ba 6d4b 963c
00000040: 28fd df3c a662 2b3d 1003 593c 73d3 743c
00000050: 5d2c 9d3c ba61 53bd 3ac7 153d dda9 86bd
00000060: 4d6f 83bd 802b 3fbc 9ece 9cbc 8e4e 16bb
00000070: 0cea 7abc 77cb 383d 29e2 4ebd 30d3 333d
00000080: e8ab 0c3c 2a10 58bd 94b4 023d be09 9cbc
00000090: ce22 2f3d 6006 5d3c 001c 71bd 121c 5fbd
000000a0: de35 1ebd 6280 dabb b0bb 88bb e6ff 2f3b
000000b0: 661e 94bc dd5f 8abc 9a01 6f3d 777c 28bd
000000c0: 0eb6 243c e3c0 62bd 1851 c43c 8904 4fbd
000000d0: 5758 21bb 30a3 23bd 640a 76bc 9d4c 08bc
000000e0: 8c09 7cbd de59 a43c d678 a63a ac5b 6d3d
000000f0: f862 33bd b85f 2e3c dc45 ab3c 4796 25bd
00000100: 6ad6 ea3b c626 433d d587 173c a5e8 9d3c
00000110: a33b f33b ddac 923b 9d0b 973c 3f50 bc3c
00000120: b464 843c 7ab2 51bd 4c27 813c 155f 0abd
00000130: 1af4 d1bb 6fc5 3c3b bff2 23bc 2714 b63c
00000140: 082f ca3c ccef f8bc b186 d43c 9c30 8dbc
00000150: 3587 88bd cb2e e2bc 9feb 2cbd a21f 683d
00000160: 9d81 943c 0bd7 e0bc 0b2a e8bc 2b0c fa3c
00000170: b00d 4b3c b462 73bd 3407 053d 9cfa 933c
00000180: 4d94 1a3d 4f23 313d 2549 903a 095a c7bc
00000190: 4801 b63c 312d 4cbc 7a93 d2bc 9979 db3c
000001a0: e19f c2ba 4ee4 0abd cea5 2e3c f627 9bbc
000001b0: 668c 233d e2b7 d7bc 6dc9 1a3d dc7e 70bd
000001c0: 041e 2dbd 6a79 153d dcc5 79bd b02e c93c
000001d0: 6056 6bbd a47c b1bc e3c7 fe3c c561 1b3d
000001e0: 28b9 cabc 0a9b d1ba 02e2 0dbd bc95 65bd
000001f0: 0e12 1ebd 8702 aebc 5ae2 d5bc f0e2 a9bc
00000200: f763 aabc 7df7 84bc 851c 993b 1a59 ef3c
00000210: e1b8 db3c 190f da3c 00cf 7fbd 8acf dbbc
00000220: e3f9 e5bc 0315 fb3b a58d 8fbd c0f9 1cbd
00000230: 026f 53bc 6f6d 3a3d 403d 4b3b 0031 08bb
00000240: 8dda 87bc 12ee 0cbd 317f 4fbd 407e c53c
00000250: 3070 21bd 042e 7bbd d894 b2bc a60a 753d
00000260: 33f4 61bd 6431 fcbc 4cdd 4c3d 89d6 45bd
00000270: e69a 12bd 9892 603d bd21 183c 45ca 143d
00000280: 4564 8cbd 6d0e 83bd 507a 72bc aa71 603d
00000290: 00aa 453c 863b 18bd 9c63 053d ecaa 043d
000002a0: 2eae 2a3d e9a3 cfbc c014 54bc b918 5b3d
000002b0: 22a4 703d 6752 353d 39da c1bb 9a68 623d
000002c0: 12ed d1bb 1af7 5dbb 42c3 5fbd eb6c 6dbd
000002d0: 9b45 6cbd 5b8f e7bc 8525 0bbd 58c7 4d3d
000002e0: d23e 54bd 8870 bdbc 7e3b 9bbc 6e5c a83c
000002f0: 36f4 2c3d 83b3 6bbd 2a59 50bd 5b49 62bd
00000300: a9ea d73c 13f9 e8bc 546c b1bc a843 03bd
00000310: bb77 80bd c223 d2bc 10a5 7fbc 2cd9 75bd
00000320: 9ea1 17bd 191a 543d 0db5 07bc 5c79 4c3d
00000330: a0cc 54bc 61dc d33c 369b 0c3d 18bb f9bc
00000340: 7ff2 22bc 3043 403c d77e 3e3d 58cf 11bc
00000350: 7e3e 273d 9dae 993c 630c 65bc b0d3 433d
00000360: 7066 4b3d d5a3 0abd b21c 793d 7f42 b73c
00000370: 50cc 263d 8b0f 62bd 7716 80bd 6fd4 adbc
00000380: 087e 1d3d 6ddd 06bd 8b9a 68bd 2387 f53c
00000390: 707d 063d 8dad 02bd 30c0 fbbb a4a0 f7bc
000003a0: f7cf 313d 82f1 00bd 5e2a 2e3d e9ac 5a3c
000003b0: 9263 d1bc 4d32 09bd 36ee 94bc 1c33 643d
000003c0: f0e8 563c a618 16bc 726d 383d d1b6 593d
000003d0: f58a 173d 8f6c aabc 67e4 3e3d 0722 2f39
000003e0: 0be6 6abd 7d41 9a3c 206b 35bd 6686 243d
000003f0: c68e a03c 0f15 2abd ed1a 03bd 629f 0cbd

linear2.bias f4 [256]
-0.0059475717 0.23139295 -0.0073631834 -0.19511114 0.2320841 -0.0023717782 0.15464829 -0.14370611
-0.057851207 0.020748582 0.23862022 0.019902198 -0.048433628 0.13090181 -0.008187358 -0.05845843
0.23362744 -0.0079781385 0.18351267 0.029936647 0.011631764 0.15647006 0.12048778 0.12727855
-0.034573823 0.15414749 0.1749195 0.042903833 0.2713607 0.08341869 0.23127457 0.15170272
-0.11493665 -0.0026460995 -0.015560068 0.04068505 0.12929785 0.005166977 0.003974283 0.20466173
-0.1005628 -0.026796225 -0.016067753 -0.059349813 0.028629813 0.078463465 0.07465546 0.21197973
-0.030773722 0.13798553 -0.0062353504 0.15430352 -0.081093684 0.12128878 0.065132946 0.08256485
0.15554267 0.08608437 -0.07198386 -0.010288224 0.17477114 -0.03558074 0.010438552 -0.074535005
-0.0030016229 0.13925856 0.2818032 0.2551165 0.017196435 0.012656219 -0.15692626 -0.006367785
0.21275832 0.14563866 0.03181587 4.4241548e-05 0.11612873 0.03268908 0.15646647 0.16736123
0.31868374 0.009671886 0.025850745 0.24557118 0.0030685943 -0.06322708 -0.11488255 0.2534811
-0.0059726243 0.081381775 -0.11519912 0.15945281 0.00031306728 -0.0006769849 -0.031798247 0.20236662
0.22692892 0.2230168 0.0041605476 -0.066006996 0.2441554 0.048454255 0.19552334 0.0837942
0.105670646 0.059138242 0.24705735 -0.11302377 0.23556058 0.15658735 -0.24115717 -0.06278723
-0.10758759 -0.059373364 0.23135036 0.10582268 -0.09086058 -0.05267097 -0.04051891 0.046338554
-0.10935943 0.101567775 -0.1627203 -0.16303577 0.22683164 -0.011453696 0.08345457 -0.023162695
-0.092472084 -0.028245738 -0.07057072 -0.19734183 0.10693591 0.025902154 0.18234007 -0.1412647
0.22337393 0.08295857 -0.13304669 -0.0035665263 0.113350034 -0.05014608 -0.026544023 0.09976011
-0.01317385 0.20425814 -0.052977033 0.049958978 -0.06949238 -0.049421612 0.12551364 -0.006684087
0.21215716 -0.048186447 0.2632626 0.093411595 0.16641052 0.045220762 -0.01208909 -0.0106620705
-0.118292905 -0.12792481 -0.064597346 0.04391488 0.22060038 0.27399614 -0.10441193 0.0055171135
-0.03127735 -0.026676271 0.06750406 0.11279302 -0.027052525 0.29695293 0.057671808 0.21120574
-0.03541302 0.19306815 -0.0797005 0.012153305 -0.07997834 0.08327003 0.056711484 -0.04738388
0.24308571 0.19759656 -0.00948674 0.1568259 0.13921279 -0.022334721 0.08294971 0.15609197
-0.2473253 0.14978045 0.20221546 0.13198988 0.07758649 0.20879295 0.011887692 0.082704745
-0.1725091 0.18264437 -0.008862754 -0.0064900676 0.17758079 0.13283193 0.25323665 0.045999553
0.01616575 0.17316262 -0.069644645 0.24369453 -0.035252832 0.16828194 0.116699666 -0.06493411
0.21727268 0.21617769 0.09424472 0.26755375 -0.14827296 0.11519402 -0.05159048 0.081991136
0.07944006 -0.19310144 0.21305236 0.054340485 0.09123819 -0.045440763 -0.053156592 -0.057899635
-0.13195267 0.06992084 -0.11205674 -0.05983828 -0.03788986 -0.028932681 0.056034442 0.14560716
0.12531362 -0.17022233 -0.13451591 0.2323446 -0.14988871 0.19185819 0.22299165 -0.053520925
0.24817091 0.22558339 -0.028778022 0.10134181 0.166399 0.09296256 -0.08358222 -0.14851587
00000000: d9e3 c2bb 46f2 6c3e dc46 f1bb 37cb 47be
00000010: 74a7 6d3e d66f 1bbb 1f5c 1e3e b227 13be
00000020: 63f5 6cbd eef8 a93c dc58 743e ef09 a33c
00000030: 5762 46bd 200b 063e 4524 06bc 1b72 6fbd
00000040: 083c 6f3e bdb6 02bc bfea 3b3e b33d f53c
00000050: 2793 3e3c b039 203e 4cc2 f63d 4f55 023e
00000060: 489d 0dbd d7d8 1d3e 191e 333e eebb 2f3d
00000070: caef 8a3e 6bd7 aa3d 3ed3 6c3e f557 1b3e
00000080: e863 ebbd 2f6a 2dbb a8ef 7ebc 5ea5 263d
00000090: a866 043e bf4f a93b b43a 823b d892 513e
000000a0: dff3 cdbd c283 dbbc 85a0 83bc ca18 73bd
000000b0: 1289 ea3c 74b1 a03d f6e4 983d 3711 593e
000000c0: 2c19 fcbc 144c 0d3e e951 ccbb be01 1e3e
000000d0: 7214 a6bd 4066 f83d 6c64 853d c317 a93d
000000e0: 9446 1f3e 014d b03d 466c 93bd f08f 28bc
000000f0: 35f7 323e 1cbd 11bd 7606 2b3c cfa5 98bd
00000100: e0b6 44bb cc99 0e3e 8248 903e a19e 823e
00000110: 8adf 8c3c 085c 4f3c 47b1 20be daa8 d0bb
00000120: 51dd 593e 4d22 153e 5c51 023d 0090 3938
00000130: e6d4 ed3d fce4 053d bf38 203e be60 2b3e
00000140: 842a a33e d576 1e3c f1c4 d33c 0377 7b3e
00000150: 781a 493b 337d 81bd 8b47 ebbd 46c8 813e
00000160: 01b6 c3bb 7dab a63d 84ed ebbd 9947 233e
00000170: 2e23 a439 b077 31ba e13e 02bd 3239 4f3e
00000180: 0e60 683e 845e 643e 3455 883b ad2e 87bd
00000190: e003 7a3e f877 463d 4537 483e 4b9c ab3d
000001a0: da69 d83d f13a 723d 9afc 7c3e 0279 e7bd
000001b0: cb36 713e 6f58 203e e8f1 76be 9796 80bd
000001c0: e256 dcbd 7c31 73bd 1ce7 6c3e 90b9 d83d
000001d0: 1d15 babd 84bd 57bd 28f7 25bd 7fcd 3d3d
000001e0: d6f7 dfbd c402 d03d 26a0 26be d9f2 26be
000001f0: 8e46 683e 48a8 3bbc 3bea aa3d b1bf bdbc
00000200: 0162 bdbd 9b63 e7bc 6287 90bd fa13 4abe
00000210: 3701 db3d c130 d43c 5bb7 3a3e b2a7 10be
00000220: 23bc 643e 2fe6 a93d 643d 08be 62bc 69bb
00000230: 1024 e83d fa65 4dbd da72 d9bc 074f cc3d
00000240: 22d7 57bc 0c29 513e 72fe 58bd c9a1 4c3d
00000250: 0552 8ebd 516e 4abd a686 003e 3006 dbbb
00000260: ba3f 593e 275f 45bd 5bca 863e 944e bf3d
00000270: 8567 2a3e 6839 393d 5211 46bc f7af 2ebc
00000280: 8d43 f2bd b9fe 02be 9d4b 84bd 17e0 333d
00000290: 11e5 613e 3949 8c3e ecd5 d5bd e7c8 b43b
000002a0: ae1c 00bd 3288 dabc 923f 8a3d 0700 e73d
000002b0: 429d ddbc 370a 983e 4639 6c3d 5146 583e
000002c0: 3e0d 11bd a8b3 453e 043a a3bd a81e 473c
000002d0: afcb a3bd 7a89 aa3d 4d4a 683d 9915 42bd
000002e0: 76eb 783e c156 4a3e 466e 1bbc f896 203e
000002f0: cc8d 0e3e 4ef7 b6bc 8ae1 a93d 93d6 1f3e
00000300: d842 7dbe 0c60 193e 9211 4f3e 5b28 073e
00000310: aae5 9e3d d2cd 553e 98c4 423c 1b61 a93d
00000320: 3aa6 30be 2007 3b3e 1635 11bc a2aa d4bb
00000330: bdd7 353e 1805 083e 3ca8 813e 076a 3c3d
00000340: 096e 843c 8b51 313e daa1 8ebd 0f8b 793e
00000350: 4665 10bd 1a52 2c3e 3c00 ef3d 2dfc 84bd
00000360: bb7c 5e3e af5d 5d3e 6003 c13d cefc 883e
00000370: ded4 17be d8ea eb3d 8a50 53bd f8ea a73d
00000380: 78b1 a23d 62bc 45be 662a 5a3e 2194 5e3d
00000390: 17db ba3d 1820 3abd baba 59bd 2b28 6dbd
000003a0: 9a1e 07be a832 8f3d 017e e5bd fc18 75bd
000003b0: 6632 1bbd 3b04 edbc 5f84 653d 0b1a 153e
000003c0: 3752 003e c34e 2ebe 8abe 09be beeb 6d3e
000003d0: 6d7c 19be 7976 443e ec57 643e c238 5bbd
000003e0: 8420 7e3e 55ff 663e e3bf ebbc 4b8c cf3d
000003f0: 8064 2a3e 2863 be3d 282d abbd 8b14 18be

linear3.weight f4 [1, 256]
0.0025746669 -0.5455165 0.05452675 1.487839 -0.55205613 -0.0083156945 -0.99955285 1.2407216
0.018821487 0.030279001 -0.5988148 -0.027090497 -0.026771363 -0.8796275 0.025838079 0.018552521
-0.58841884 -0.08441566 -0.46106333 0.020949002 0.033127174 -0.4905981 3.018512 -0.95373094
-0.043736912 -0.8797986 -0.58224595 9.656587e-05 -0.55899173 -0.9226435 -0.5051996 -0.48170024
1.1324513 0.026050793 -0.055952054 0.026494103 0.559449 1.3366382 0.006652304 -1.3166655
2.0268867 0.011476419 0.054001484 -0.025635943 -0.019470433 -0.8745792 -0.90723956 -0.62550044
0.04508164 -0.8735427 0.033379003 -0.65027404 1.3004211 -0.973326 -0.98633873 -0.9626613
-0.8953163 -0.9051074 -0.039007176 0.06200876 -0.48796794 1.0619241 0.039591305 2.0683815
-0.04971256 -0.4691099 -0.66179687 -0.5094386 0.88193965 -0.021374058 1.0860256 0.04332107
0.7096283 -0.59914887 0.04119169 -0.024359472 0.35144338 -0.046693947 -0.6422631 -0.8744563
-1.3858001 0.043237623 0.029941862 -1.2813078 -0.0063132085 0.99022233 1.3997777 -0.69531584
0.021524189 -0.9410821 0.9149281 -0.5015676 0.042689256 0.04946184 0.24021107 -0.66165185
-0.6943548 -0.555054 -0.0027065426 -0.0039599407 -0.62491554 -0.99051386 -0.48633462 -0.91208404
-0.94296473 -0.90558 -0.55796736 1.1415408 -0.6686064 -0.59222686 1.5541368 -0.015406418
1.267831 -0.03596063 -0.50828534 -1.0482726 0.91527665 1.185987 1.1721152 0.005324702
1.1901609 -0.96154594 1.112857 1.2947831 -0.76590896 0.0076934304 -0.8854085 0.30694404
1.201459 0.042048506 2.356068 1.4005228 -0.8950569 0.042413585 -0.47303307 1.0386217
-0.54636955 0.5156204 1.3363866 -0.00278645 0.57605404 0.14142986 -0.008987364 -0.9262123
-0.038458813 -0.61016834 0.009092977 -0.8714126 0.0028303617 0.054331545 -0.9231326 -0.028312907
-0.5293499 1.1203022 -1.2501101 -0.92093575 -0.85592866 -0.9918087 1.0682305 -0.0094740745
1.0843774 1.0339664 -0.004618759 0.047059774 -1.2934625 -0.56719357 1.4695823 -0.00023305934
0.39364666 -0.041578375 0.12805276 0.4803345 0.044520613 -1.3567574 -1.288372 -0.6287465
0.033302262 -1.2756945 1.3435783 0.02691357 0.033941522 0.8748003 -1.732995 0.007404534
-1.5263911 -0.50732636 0.026706444 -1.0888476 -0.8984219 1.1624881 -0.97896266 -0.47927004
1.5919143 -0.602154 -0.63733846 -0.9543068 -1.4169533 -0.64084363 -0.0010603002 -0.8717015
1.2251575 -0.48970783 0.017812679 -0.04429039 -0.5396212 -0.9185986 -0.54928225 0.046907037
0.035614673 -0.707529 1.1117857 -0.48575443 0.029353267 -0.5024062 -0.8529952 -0.025157839
-0.5064508 -0.57605803 -0.8139628 -0.69202656 1.1156268 -1.1470993 0.047031462 -1.0702342
0.8795736 1.7422563 -0.486553 -0.03306459 -0.9939699 -0.032828405 -0.007075125 -0.024359882
1.3255253 0.6139468 1.304126 0.034337893 -0.02790907 0.03623556 1.7394395 -0.97946346
-0.9625882 1.3620209 1.3802779 -0.6536354 1.4905355 -0.9391198 -1.0485109 0.054210845
-1.4597324 -0.6339328 1.9857227 -0.9069931 -0.51943946 -1.2694781 1.9762737 1.5623659
00000000: bebb 283b f8a6 0bbf 7157 5f3d 8271 be3f
00000010: 8d53 0dbf 8d3e 08bc b2e2 7fbf f7cf 9e3f
00000020: 852f 9a3c ab0b f83c ed4b 19bf e4ec ddbc
00000030: 9e4f dbbc 452f 61bf 61aa d33c 75fb 973c
00000040: 9ea2 16bf 1ee2 acbd 7e10 ecbe 3e9d ab3c
00000050: 5cb0 073d ad2f fbbe 4d2f 4140 b627 74bf
00000060: 7a25 33bd 7b3a 61bf 120e 15bf 6883 ca38
00000070: 151a 0fbf 5d32 6cbf c354 01bf 6aa1 f6be
00000080: 2af4 903f 7968 d53c fb2d 65bd 290a d93c
00000090: 0d38 0f3f f616 ab3f 92fb d93b 7f88 a8bf
000000a0: 83b8 0140 9707 3c3c a930 5d3d 7802 d2bc
000000b0: 7580 9fbc 6ce4 5fbf da40 68bf cc20 20bf
000000c0: 87a7 383d 7fa0 5fbf 6cb8 083d 5c78 26bf
000000d0: 3374 a63f e52b 79bf b280 7cbf f970 76bf
000000e0: 7333 65bf 1eb5 67bf fdc5 1fbd e6fc 7d3d
000000f0: efd6 f9be 21ed 873f 7e2a 223d 5d60 0440
00000100: 669f 4bbd 2c2f f0be 856b 29bf 916a 02bf
00000110: ccc6 613f a618 afbc e302 8b3f 6f71 313d
00000120: 33aa 353f d261 19bf 9eb8 283d 848d c7bc
00000130: 63f0 b33e 2742 3fbd 5b6b 24bf 5edc 5fbf
00000140: e661 b1bf ef19 313d a348 f53c e501 a4bf
00000150: 08df cebb 367f 7d3f ea2b b33f 3800 32bf
00000160: 7f53 b03c c2ea 70bf ba38 6a3f bc66 00bf
00000170: eeda 2e3d 8098 4a3d e4f9 753e 0462 29bf
00000180: 3cc1 31bf 0518 0ebf 4060 31bb 64c2 81bb
00000190: 77fa 1fbf 5192 7dbf da00 f9be 577e 69bf
000001a0: 2366 71bf 17d4 67bf f3d6 0ebf 021e 923f
000001b0: ca29 2bbf 2e9c 17bf f4ed c63f 336b 7cbc
000001c0: 4948 a23f 744b 13bd fd1e 02bf cc2d 86bf
000001d0: 924f 6a3f 6cce 973f df07 963f d67a ae3b
000001e0: 3157 983f e027 76bf 1972 8e3f 74bb a53f
000001f0: 9c12 44bf 2c19 fc3b 22aa 62bf c527 9d3e
00000200: 69c9 993f 0e3b 2c3d d1c9 1640 5544 b33f
00000210: 7322 65bf deb9 2d3d 6431 f2be 8ef1 843f
00000220: e0de 0bbf b3ff 033f b70e ab3f e09c 36bb
00000230: 4778 133f fdd2 103e bd3f 13bc 401c 6dbf
00000240: fd86 1dbd fe33 1cbf b6fa 143c e514 5fbf
00000250: 977d 393b c18a 5e3d 6b52 6cbf 78f0 e7bc
00000260: 7a83 07bf 1066 8f3f 9c03 a0bf 72c2 6bbf
00000270: 241e 5bbf 2de7 7dbf c7bb 883f 2639 1bbc
00000280: e1cc 8a3f 0359 843f f558 97bb c0c1 403d
00000290: 2e90 a5bf 9933 11bf 461b bc3f 6461 74b9
000002a0: 0e8c c93e 164e 2abd 4320 033e 67ee f53e
000002b0: 3f5b 363d 3aaa adbf 60e9 a4bf 88f5 20bf
000002c0: f467 083d f549 a3bf 60fa ab3f d979 dc3c
000002d0: 4406 0b3d eaf2 5f3f c8d2 ddbf bca1 f23b
000002e0: c960 c3bf 24e0 01bf 79c7 da3c 5c5f 8bbf
000002f0: fafe 65bf 69cc 943f 4c9d 7abf e262 f5be
00000300: d9c3 cb3f c426 1abf 9d28 23bf 734d 74bf
00000310: ba5e b5bf 540e 24bf c5f9 8aba d427 5fbf
00000320: f6d1 9c3f fcba fabe e5eb 913c d769 35bd
00000330: 9d24 0abf 4729 6bbf c39d 0cbf 9821 403d
00000340: b1e0 113d 9f20 35bf fe4e 8e3f ceb4 f8be
00000350: 4376 f03c b19d 00bf e55d 5abf d017 cebc
00000360: c2a6 01bf 8a78 13bf de5f 50bf a728 31bf
00000370: dccc 8e3f 26d4 92bf 10a4 403d 6ffd 88bf
00000380: bc2b 613f 4102 df3f 7a1d f9be bc6e 07bd
00000390: d074 7ebf 1477 06bd 73d6 e7bb 608e c7bc
000003a0: d0aa a93f 9e2b 1d3f 9aed a63f e4a5 0c3d
000003b0: 90a1 e4bc bd6b 143d f4a5 de3f 1ebe 7abf
000003c0: 2e6c 76bf b356 ae3f f2ac b03f a654 27bf
000003d0: dec9 be3f 286a 70bf 9b35 86bf 310c 5e3d
000003e0: 83d8 babf 6c49 22bf 292c fe3f b330 68bf
000003f0: fcf9 04bf 427e a2bf 89f6 fc3f 9bfb c73f
