turtlebot3_rl_sim/src/models/td3/turtlebot3_top_8_obstacle/td3_actor_model_ep2500.pt (torch_old, 674854 bytes, 6 tensors)

linear1.weight f4 [256, 398]
0	0xbd519592	-0.051168032
1	0xbd63d253	-0.055620503
2	0xbd411941	-0.047143225
3	0x3d04e0d4	0.032440975
4	0x3d0a4f74	0.03376718
5	0x3c152f0d	0.009105456
6	0xbd0a06cd	-0.033697892
7	0xbd12b3e6	-0.035816096
8	0x3c1bf24d	0.009518218
9	0x3b20f136	0.0024557835
10	0xbd3939a0	-0.04522097
11	0xbd2abc3f	-0.04168343
12	0xbc9066d6	-0.017627161
13	0xbd200ddf	-0.03907573
14	0xbd518912	-0.05115611
15	0xbcbd9dd8	-0.023146555
16	0x3d051144	0.03248717
17	0x3c8bf2fc	0.017083637
18	0x3d13d10d	0.03608804
19	0x3d09dfbc	0.033660635
20	0xbd18bade	-0.037287585
21	0xba999026	-0.0011715933
22	0xbc488479	-0.012238615
23	0xbc1390fe	-0.009006737
24	0x3b66fc7a	0.0035245703
25	0x3c4675e8	0.012113072
26	0xbc959f8e	-0.018264558
27	0xbc9e7546	-0.01934303
28	0xbce54313	-0.027986085
29	0x3d1e96dd	0.038718093
30	0x3cace176	0.021103602
31	0xbd580ab2	-0.052744575
32	0xbcf7e0b4	-0.030258514
33	0x3d0c68f4	0.03427978
34	0xbb281d27	-0.0025652142
35	0xbb3ba528	-0.0028632376
36	0x3d1f5325	0.038897652
37	0xbc8c9325	-0.017160008
38	0x3cd09231	0.025460334
39	0xbae74b63	-0.0017646368
40	0x3c2c05ee	0.010499461
41	0x3d221566	0.03957119
42	0xbcce14b1	-0.02515635
43	0x3c956685	0.018237362
44	0x399969dd	0.00029261308
45	0xbbc07081	-0.0058727865
46	0xbc9e6d76	-0.019339304
47	0xbc485fc1	-0.012229861
48	0xbd28d7df	-0.041221496
49	0x3b442748	0.002993064
50	0xbccc2ad9	-0.024922775
51	0x3cb26467	0.021776391
52	0xbd403071	-0.046921197
53	0x3c399057	0.011325917
54	0x3c9d75cd	0.01922121
55	0x3c0ac88c	0.008470666
56	0xbc8cbbc5	-0.01717938
57	0xbd478371	-0.048709337
58	0x3c1b4735	0.009477426
59	0xbbe0b253	-0.0068571954
60	0xbc966856	-0.018360298
61	0x3d2a2706	0.041541122
62	0xbc5e5caa	-0.0135718975
63	0xbd479ba9	-0.048732433
64	0x3d1bfae5	0.03808107
65	0x3d1be2ad	0.03805797
66	0x3cb37c17	0.021909757
67	0x3cd4dbd9	0.025983738
68	0xbd0d1bdd	-0.0344504
69	0x3ceee7d2	0.029163275
70	0x3cbfba77	0.023404343
71	0x3d195335	0.037432868
72	0xbccd20f1	-0.025040122
73	0x3c9d46ed	0.01919886
74	0x3d4020d0	0.046906292
75	0x3c88ee54	0.016715206
76	0xbd195bce	-0.037441067
77	0xbd4fe3f9	-0.05075452
78	0x3d472fd8	0.04862961
79	0x3ccce0e0	0.025009573
80	0xbccc2c69	-0.02492352
81	0x3c7782f3	0.015106904
82	0x3c7c9883	0.015417221
83	0x3bcbbcb0	0.0062175617
84	0x3d2a7396	0.041614138
85	0x3d48ead0	0.04905206
86	0xbd278a47	-0.040903356
87	0xbd44a831	-0.048011962
88	0x3bdfc599	0.0068289754
89	0xbc434649	-0.011918613
90	0x3d01f07c	0.031723484
91	0xbd43e5a9	-0.047826443
92	0xbcdbad2a	-0.02681597
93	0x3d4b5018	0.04963693
94	0xbba84c07	-0.0051360163
95	0xbd3a4ca0	-0.04548323
96	0xbc350510	-0.01104857
97	0x3c479950	0.012182549
98	0x3bda86a1	0.006668881
99	0xbce004e3	-0.02734608
100	0xbd3fbd98	-0.04681167
101	0xbcfe3d9c	-0.031035237
102	0xbd1dfa9e	-0.038569085
103	0x3d045114	0.032303885
104	0x3c79f00b	0.015254985
105	0x3ba2211e	0.0049477955
106	0x3d097324	0.033557072
107	0x3c93013d	0.017944926
108	0xbd39c258	-0.045351356
109	0x3cdee0b1	0.02720675
110	0x3b7c90b3	0.0038538396
111	0x3cbc2ea7	0.022971464
112	0xbd3bae88	-0.045820743
113	0xbcc87be1	-0.024473133
114	0xbae73264	-0.0017638919
115	0xbd079b45	-0.03310706
116	0xbb606433	-0.003423941
117	0xbabd48b0	-0.0014441218
118	0x3cd78519	0.026308583
119	0xbd4a8369	-0.04944173
120	0xbcfbc8b4	-0.030735351
121	0x3cc0f938	0.023556337
122	0x3ce6fc7a	0.028196562
123	0x3d3d3077	0.046188798
124	0xbd1233c6	-0.035693906
125	0xbbcf83e1	-0.00633286
126	0xbcd1a14a	-0.025589604
127	0xbd17d786	-0.037070774
128	0x3be3cb4a	0.006951724
129	0x3d049124	0.03236498
130	0x3d05f884	0.032707706
131	0x3c7dbb23	0.015486511
132	0xbd126a76	-0.03574606
133	0xbcbb9d58	-0.022902176
134	0xbd2a60d7	-0.04159626
135	0x3b894ffc	0.004190443
136	0x3ce92022	0.028457705
137	0xbd3125a8	-0.043248802
138	0x3c9e32dd	0.019311363
139	0x3c81faa4	0.015866585
140	0x3ca73e7e	0.02041554
141	0x3bcd0408	0.006256584
142	0xbcec4023	-0.028839177
143	0x3d39736f	0.0452761
144	0x3cca2418	0.024675414
145	0x3c2efbbe	0.010680137
146	0xbd07b5d5	-0.033132393
147	0x3c5ca409	0.013466843
148	0xbd1deee6	-0.03855791
149	0xbc64902b	-0.013950388
150	0xbd34f250	-0.0441764
151	0xbd21d877	-0.039513078
152	0xbc90c306	-0.01767112
153	0x3d298ac6	0.04139211
154	0xbc73e914	-0.014887113
155	0x3d13e495	0.036106665
156	0x3d4ce978	0.05002734
157	0x3c5f6969	0.013635972
158	0xbc674393	-0.014115232
159	0x3d16f1d5	0.036851723
160	0xbc9180de	-0.017761644
161	0xbd4a5619	-0.049398515
162	0x3cd0c431	0.025484176
163	0xbc72e80c	-0.014825832
164	0x3c9b321d	0.018944794
165	0xbd012625	-0.031530518
166	0x3d0856c4	0.03328587
167	0x3bfe03cb	0.007751917
168	0x3c037334	0.008023072
169	0xbc8b52d5	-0.01700727
170	0x3cbb405f	0.022857843
171	0x3d473eb0	0.048643768
172	0xbcc90ba2	-0.02454168
173	0x3bb998ef	0.005663983
174	0xbcbbc788	-0.022922292
175	0xbcb1e9c0	-0.021717906
176	0xbc8021cb	-0.015641114
177	0x3d1b7935	0.03795739
178	0x3d44f330	0.048083484
179	0xbcc54c41	-0.024084212
180	0xbd0e784d	-0.034782697
181	0xbc433069	-0.011913397
182	0x3d35d0f7	0.044388738
183	0xbd332240	-0.043733835
184	0x3d4ba860	0.04972112
185	0x3c367057	0.011135182
186	0x3d3d296f	0.046182092
187	0x3cdf6c89	0.027273433
188	0xbce10cf3	-0.027471995
189	0xbcbbb338	-0.022912607
190	0xbc4ccd59	-0.012500131
191	0x3cc7dbb8	0.024396762
192	0xbb984fd6	-0.004648189
193	0xbc8735b5	-0.016505102
194	0xbd28b967	-0.04119244
195	0xbd09c465	-0.033634562
196	0x3d027de4	0.03185834
197	0xbc6bb8fb	-0.0143873645
198	0xbd35f4e8	-0.044423014
199	0xbd190a8e	-0.03736358
200	0x3d34fbaf	0.044185337
201	0xbd0f76fd	-0.035025585
202	0xbd208d37	-0.039197173
203	0xbbc8eeb9	-0.0061319736
204	0x3d342987	0.043984916
205	0x3c81ebcc	0.015859507
206	0xbd46e989	-0.04856256
207	0x3cf7c55b	0.030245474
208	0xbd11e7fe	-0.035621636
209	0x3b911b4d	0.0044283033
210	0x3ce8b452	0.028406296
211	0xbcbab3c0	-0.02279079
212	0x3d277c36	0.04088994
213	0xbc4410a1	-0.011966855
214	0x3c7cd7cb	0.015432308
215	0x3d283496	0.041065775
216	0xbd416829	-0.047218475
217	0x3cd7dc99	0.026350306
218	0xbd0c8835	-0.034309585
219	0x3baac59e	0.005211546
220	0x3d2f164e	0.04274588
221	0xbd110956	-0.035409294
222	0xbd0d5805	-0.03450777
223	0x3cec071a	0.02881198
224	0xbbbbf028	-0.005735416
225	0xbceaf73b	-0.028682342
226	0xbc225257	-0.009907327
227	0xbd2fe48f	-0.04294258
228	0x3d41f8b0	0.047356308
229	0xbc1d06de	-0.009584157
230	0xbd2c8ea7	-0.04212823
231	0x3cfa9993	0.030590808
232	0xbd47cb51	-0.048777882
233	0x3b75ecb3	0.0037525117
234	0x3d22cb6e	0.039744787
235	0xbce30283	-0.027711159
236	0x3c0d1d6c	0.008612972
237	0xbcadee37	-0.021231754
238	0x3d2173ae	0.03941696
239	0xbca574af	-0.02019724
240	0x3c49df58	0.012321316
241	0x3cf4622b	0.029831966
242	0xbd3aa358	-0.045565933
243	0x3d2c5b16	0.042079054
244	0x3cf7084b	0.030155322
245	0x3c8c53dc	0.017129831
246	0xbd2087bf	-0.039191958
247	0xbd1f9c96	-0.03896769
248	0xbc20a187	-0.009804136
249	0xbd016e05	-0.031599063
250	0xbd107a5e	-0.03527295
251	0xbd0949bd	-0.033517588
252	0x3c9d009d	0.019165331
253	0x3d1c26a5	0.03812279
254	0xbc527ff2	-0.012847887
255	0xbd2ed95f	-0.04268777

linear1.bias f4 [256]
0	0xbc4413c1	-0.0119676
1	0x3c921486	0.017832052
2	0x3c9a806f	0.01886007
3	0xbd152bee	-0.036418848
4	0xbc533d90	-0.012893096
5	0xbcb23e20	-0.02175814
6	0xbd2e5237	-0.042558875
7	0xbc9561d6	-0.018235128
8	0xbd13a9fe	-0.03605079
9	0x3d218b1e	0.039439313
10	0xbccde34c	-0.025132798
11	0x3d284ee0	0.041090846
12	0x3c282d8e	0.010264767
13	0xbd487411	-0.048938815
14	0xbd28f017	-0.041244593
15	0x3cde5a51	0.027142676
16	0x3c575a21	0.013144047
17	0x3c299d49	0.010352441
18	0x3d183225	0.037157197
19	0x39680d00	0.00022130087
20	0x3c9726f5	0.018451193
21	0xbc84db5d	-0.016217882
22	0x3d20655f	0.039159175
23	0xbd2b3f7f	-0.0418086
24	0x3cfbf923	0.030758446
25	0xbcff0664	-0.031130977
26	0x3bbef728	0.005827803
27	0x3d0c8c1c	0.034313306
28	0x3b3262d7	0.0027219558
29	0xbbfc5d24	-0.007701533
30	0xbc55f2c2	-0.013058366
31	0x3c9b001d	0.018920952
32	0xbd9cb89f	-0.07652401
33	0x3ce9466a	0.028475959
34	0xbc7a301c	-0.015270259
35	0xbd401ad5	-0.04690059
36	0xbcc94319	-0.024568127
37	0xbc370978	-0.011171691
38	0xbd1c852e	-0.038212948
39	0x3d2afa0c	0.04174237
40	0xbc1d87c6	-0.00961489
41	0xbd567e28	-0.052366406
42	0xbcc96641	-0.024584891
43	0x3d319df7	0.043363538
44	0x3c91a1ad	0.017777288
45	0xbd3e4120	-0.046448827
46	0x3d1c244d	0.038120557
47	0x3b28a6a6	0.0025734096
48	0xbd03eabd	-0.032206286
49	0xbcd0d676	-0.025492888
50	0xbb9ef49e	-0.004850938
51	0x3cd97469	0.026544767
52	0x3d12ba25	0.035822053
53	0x3c4b4f50	0.012409046
54	0x3d1b8a84	0.037973896
55	0x3d2aaef6	0.041670762
56	0x3df643ce	0.120246515
57	0xbbddf8aa	-0.006774028
58	0x3cad60ce	0.021164324
59	0xbcd61e82	-0.026137594
60	0xbc2f2e87	-0.010692245
61	0x3c41a068	0.011818029
62	0x3d0f30ac	0.034958526
63	0x3c309cef	0.010779603
64	0x3d318bee	0.043346338
65	0xbcef3f53	-0.029205
66	0x3d0aa17c	0.03384541
67	0xbd118c26	-0.035534047
68	0xbaee1f0b	-0.001816721
69	0x3cd94e44	0.026526578
70	0x3d23e576	0.040013753
71	0x3d0239ec	0.03179352
72	0xbcb9d8de	-0.022686418
73	0x3c29809e	0.010345606
74	0x3b0e36ac	0.0021700067
75	0xbcfff7cc	-0.031246088
76	0xbcee6623	-0.029101437
77	0xbcb020b8	-0.021499977
78	0xbd1e6a56	-0.03867563
79	0xbd3c9050	-0.046036065
80	0x3ba0bc16	0.004905234
81	0xbcdd869a	-0.027041722
82	0x3b48fa70	0.003066685
83	0x3c5d41da	0.01350447
84	0x3af65883	0.0018794689
85	0xbd0a0b7d	-0.033702362
86	0x3b66347a	0.0035126493
87	0x3d150735	0.036383826
88	0x3bf6b57b	0.0075289584
89	0xbca50d8f	-0.020148067
90	0xbd43cc9c	-0.047802553
91	0x3d012174	0.031526044
92	0x3c090fec	0.0083656125
93	0xbd18a436	-0.03726598
94	0xbb6b0163	-0.003585898
95	0x3c92ffad	0.017944181
96	0xbc2720cf	-0.010200693
97	0xbd0c4055	-0.03424104
98	0x3cf5e033	0.030014133
99	0xbc7fe1ec	-0.015617829
100	0x3d2b2b2e	0.041789226
101	0xbccde699	-0.025134372
102	0x3c0b4bcc	0.008501958
103	0xbd687a83	-0.05675746
104	0xbd58f2ba	-0.052965857
105	0xbd2f2096	-0.042755686
106	0x3dc53a00	0.09630203
107	0xbb01faa5	-0.0019833234
108	0x3d09c2d4	0.03363307
109	0xbd64ff1b	-0.05590735
110	0xbd0c13cd	-0.03419857
111	0xbc724a3c	-0.014788207
112	0xbca7257f	-0.020403622
113	0x3a517bc9	0.0007991163
114	0x3c15c010	0.00914003
115	0xbd280bf7	-0.041027036
116	0xbb696340	-0.0035612136
117	0x3bf908cb	0.007599925
118	0xbbd82f6a	-0.006597449
119	0xbc99630a	-0.018723983
120	0xbcfe8af4	-0.031072117
121	0xbc62a3fb	-0.013833041
122	0x3bc52aa8	0.006017048
123	0xbb8480bd	-0.004043667
124	0x3d0d2794	0.034461573
125	0xbd535152	-0.051591225
126	0x3cfb6af3	0.030690646
127	0x3cee222a	0.029069025
128	0xbd42f9b9	-0.047601435
129	0x3bc6e0d8	0.006069284
130	0xbd05da0d	-0.032678653
131	0xbd2efa2f	-0.042719062
132	0x3cb6ecc0	0.022329688
133	0x3d24cfd6	0.04023727
134	0xbd3f5e48	-0.046720773
135	0xbd0535fd	-0.03252219
136	0x3c02b7b4	0.007978369
137	0xbcecefeb	-0.028922996
138	0xbd4869e9	-0.04892913
139	0x3d0872e4	0.033312693
140	0x3d16213d	0.036652792
141	0xb9ac734f	-0.00032892308
142	0xbc48b5b1	-0.01225035
143	0xbd3cb760	-0.046073318
144	0xbd4a2801	-0.049354557
145	0xbd259c4d	-0.040432263
146	0x3bec4fc2	0.0072116563
147	0xbcb06258	-0.021531269
148	0xbd0447b5	-0.032294948
149	0xbd16cd1e	-0.03681671
150	0xbc96e236	-0.018418413
151	0xbc4db3d1	-0.012555079
152	0x3ceaba4a	0.028653283
153	0x3c8a58d4	0.01688806
154	0x3b76c5e3	0.003765457
155	0xbd3e0e58	-0.046400398
156	0x3c8a3fd4	0.016876139
157	0x3c7a8223	0.015289816
158	0xbcc7dbb9	-0.024396764
159	0xbcbccf98	-0.023048207
160	0x3d1df845	0.038566846
161	0xbd39ed50	-0.045392334
162	0xbd2dea0a	-0.042459525
163	0xbd11e286	-0.03561642
164	0x3c8378ac	0.016048752
165	0xbca3774f	-0.019954352
166	0xbcc234d9	-0.02370684
167	0xbc9ccabe	-0.019139644
168	0x3c855c44	0.016279347
169	0xbd1ca91e	-0.03824722
170	0xbd01f785	-0.031730194
171	0x3b34b0af	0.0027571132
172	0xbcef3c33	-0.02920351
173	0x3d94a853	0.07258668
174	0xbd166086	-0.036713146
175	0xbc46fd11	-0.012145297
176	0x3d008502	0.031376846
177	0x3c1becd5	0.009516914
178	0xbd43b089	-0.04777578
179	0xbd4712f1	-0.04860205
180	0x3d2fb5ae	0.042897873
181	0x3c7e991f	0.015539437
182	0xbca1fc67	-0.019773675
183	0x3d05ccc4	0.032665983
184	0x3cfb5382	0.030679468
185	0xbcfd45f4	-0.030917145
186	0xbd49c979	-0.049264405
187	0x3d029554	0.03188069
188	0x3c877fec	0.01654049
189	0x3d12e455	0.035862286
190	0x3d0c3c6c	0.03423731
191	0xbd1b033e	-0.03784489
192	0x3c8e2fa4	0.017356701
193	0x3b01d2cc	0.0019809483
194	0xbc7af1dc	-0.015316453
195	0xbbd8a17a	-0.0066110464
196	0x3da9c382	0.08289243
197	0xbd5655fa	-0.052328087
198	0xbd3d9ea0	-0.046293855
199	0xbd24d937	-0.040246215
200	0xbcfa3a44	-0.030545361
201	0xbc896c1d	-0.016775185
202	0xbd3790a0	-0.04481566
203	0xbcd91452	-0.026498947
204	0x3d0fd00c	0.03511052
205	0x3ae374c0	0.001735352
206	0xbd5b9a6a	-0.053614058
207	0xbc71b11c	-0.014751699
208	0xbd1b466e	-0.037908964
209	0xbcee9373	-0.029123044
210	0x3ce07ba2	0.027402703
211	0xbd038465	-0.032108683
212	0xbcf37574	-0.029719092
213	0xbd33ccdb	-0.043896537
214	0x3d322f7c	0.043502316
215	0xbcf71e2c	-0.030165754
216	0x3c2ff29e	0.010738997
217	0xbd079695	-0.03310259
218	0xbced0373	-0.028932309
219	0x3d263be6	0.040584467
220	0x3c9678bd	0.01836812
221	0x3c783513	0.015149373
222	0xbce70063	-0.028198427
223	0x3b9c86bd	0.0047768042
224	0xbd12e5ca	-0.035863675
225	0x3c968e9d	0.01837855
226	0xbd2ec9bf	-0.04267287
227	0xbd7cacd4	-0.06168826
228	0x3c185f75	0.0093001025
229	0xbc77b814	-0.015119571
230	0x3d400b16	0.046885572
231	0x3bed926a	0.00725012
232	0xbd187d26	-0.037228726
233	0xbb72db8c	-0.003705713
234	0x3c3421b7	0.010994366
235	0xbd05c5e7	-0.032659438
236	0x35ffb243	1.9050862e-06
237	0xbd4c4311	-0.049868647
238	0xbd88a89e	-0.06672786
239	0x3b8278ae	0.0039816713
240	0x3c2c3a46	0.01051194
241	0x39faeb9b	0.00047859256
242	0x3d3687c7	0.04456308
243	0x3cfd164b	0.03089442
244	0xbd146e16	-0.0362378
245	0xbd434bc1	-0.047679666
246	0x3c519bd1	0.012793497
247	0xbbc75eb9	-0.00608429
248	0x3ad58ba1	0.0016292223
249	0x3c93301d	0.017967278
250	0x3be8ad76	0.0071007563
251	0xbd4105b9	-0.0471246
252	0xbbbf55b0	-0.005839072
253	0xbd011091	-0.03150994
254	0xbd79d175	-0.06099077
255	0x3cbce95f	0.023060499

linear2.weight f4 [256, 256]
0	0x3d5fe281	0.05465937
1	0x3d276672	0.040869184
2	0x3d254d81	0.040357117
3	0xbc60fbc2	-0.013731899
4	0x3d5e0434	0.054203227
5	0xbcc3e1c1	-0.023911359
6	0x3d603873	0.054741334
7	0x3cc850a4	0.024452515
8	0xbd085214	-0.0332814
9	0x3cb7986f	0.022411553
10	0xbd4862c6	-0.048922323
11	0xbb692e20	-0.003558047
12	0x3d358dc7	0.044324663
13	0xbbf2859b	-0.007401181
14	0x3ca42716	0.020038169
15	0xbc9674d5	-0.018366257
16	0xb97321db	-0.00023186898
17	0x3e472682	0.19448283
18	0xba09e5fd	-0.0005260406
19	0x3d2d85d4	0.042363957
20	0x3ca63d77	0.02029298
21	0x3d70ab63	0.058757197
22	0x3d741984	0.059594646
23	0xbd10acbe	-0.03532099
24	0x3d5975fa	0.053091027
25	0x3d38d59f	0.0451256
26	0x3c71e7e8	0.014764763
27	0x3d718d2b	0.05897252
28	0xbc9c7eee	-0.019103494
29	0xbcd5dce2	-0.026106302
30	0x3d553039	0.05204794
31	0x3afa7d73	0.0019110873
32	0x3d5ac553	0.05341084
33	0x3ae78b73	0.001766546
34	0xbb1a8960	-0.0023580417
35	0xbe9d97d6	-0.30779904
36	0x3d03532c	0.03206174
37	0x3d6c4a4a	0.057688035
38	0x3cbba2cf	0.022904782
39	0x3a12bf80	0.0005597994
40	0x3d013882	0.03154803
41	0x3e61f7bc	0.2206716
42	0x3c68430b	0.014176141
43	0x3d65c972	0.056100316
44	0x3c04f845	0.008115833
45	0xbd357b08	-0.044306785
46	0xbc76c454	-0.015061457
47	0x3bb772ef	0.005598418
48	0xbd835265	-0.064122
49	0x3cfddc1c	0.030988745
50	0xbbf08b5b	-0.007340831
51	0x3d07c95c	0.033151016
52	0xbc111b4d	-0.008856607
53	0x3cfaaeac	0.030600868
54	0xbd71ab4a	-0.059001245
55	0xbb0f05b4	-0.0021823468
56	0xbc7f7e6d	-0.015594107
57	0xbd80b66d	-0.06284795
58	0xbd16f42e	-0.03685396
59	0x3d37f180	0.044908047
60	0xbd7b9394	-0.06142004
61	0x3cf561a3	0.029953783
62	0x3cc6bf58	0.024261162
63	0xb8a8b3ef	-8.0443795e-05
64	0xbce380e8	-0.027771428
65	0xbcf6a44c	-0.03010764
66	0x3d4acc11	0.04951102
67	0xbd08f662	-0.033438094
68	0x3d6a1bb3	0.057155322
69	0xbd28b68a	-0.041189708
70	0x3c2dd6c6	0.010610288
71	0x3c86e924	0.016468592
72	0x3d5e3bfb	0.05425642
73	0xbd23ec7f	-0.040020462
74	0xbd5af979	-0.053460572
75	0xbc1ac716	-0.00944688
76	0xbd2c9a5f	-0.042139407
77	0x3d409f60	0.04702699
78	0xbd224e6f	-0.03962558
79	0x3d26adf6	0.040693246
80	0x3bbf7e4f	0.0058439146
81	0x3d3acf18	0.045607656
82	0x3c13207e	0.008979915
83	0x3c8be8e0	0.017078817
84	0xbd63de0b	-0.05563168
85	0xbc865a2c	-0.01640042
86	0x3c5e25f9	0.013558858
87	0x3d160775	0.036628205
88	0xbd79267c	-0.060827717
89	0xbc70c07c	-0.014694329
90	0x3d29411c	0.04132186
91	0xbd5fb2da	-0.054613926
92	0xbd5c991a	-0.053856947
93	0xbd6900ce	-0.056885533
94	0x3c7411b4	0.014896799
95	0x3c8033c2	0.01564968
96	0x3d38e797	0.045142736
97	0xbd0ce785	-0.03440048
98	0xbd71f384	-0.059070125
99	0xbd3164ef	-0.04330915
100	0xbd2714ca	-0.04079131
101	0xbc17e01e	-0.009269742
102	0x3d35a6c8	0.044348508
103	0xbd34ca78	-0.0441384
104	0x3cc4ef49	0.024039881
105	0x3c0147c8	0.007890649
106	0xbe8c78ea	-0.27436
107	0xbc4202d9	-0.011841499
108	0xbd38ffd0	-0.045165837
109	0x3c9e3aae	0.01931509
110	0xbc64e93b	-0.013971622
111	0x3d474f19	0.048659418
112	0x3c8fa9c4	0.017537005
113	0xbb8c2435	-0.004276777
114	0xbd0c6210	-0.034273207
115	0xbd353d50	-0.044247925
116	0x3ced57d3	0.028972542
117	0xbd04aaed	-0.03238957
118	0x3d120d7d	0.035657395
119	0xbd45ece4	-0.04832162
120	0xbc3bc720	-0.011461049
121	0x3d271ce6	0.040799044
122	0xbcec7ddb	-0.028868606
123	0x3d5dcdb2	0.054151244
124	0xbd2d32e4	-0.04228486
125	0xbcb553f8	-0.022134766
126	0x3d431510	0.04762751
127	0x3b8b2265	0.0042460435
128	0x3d518d90	0.051160395
129	0x3d65e723	0.056128632
130	0xbc24f556	-0.010068258
131	0x3c1949d6	0.009355983
132	0xbd69d0de	-0.057083957
133	0xbd0f9948	-0.03505829
134	0x3d4f6630	0.050634563
135	0x3b371850	0.0027938075
136	0x3d7267ec	0.05918114
137	0x3cd4b1a9	0.025963621
138	0x3d12299e	0.03568422
139	0x3bd3ccc2	0.006463618
140	0x3d70ffc4	0.058837667
141	0xbd81ebcd	-0.063438036
142	0xbcc29f19	-0.023757504
143	0xbcabb200	-0.0209589
144	0xbbd01b72	-0.006350928
145	0xba19c280	-0.00058654696
146	0xbd6ae92a	-0.05735127
147	0x3ccaf3e8	0.024774507
148	0x3c15160d	0.009099496
149	0x3c528ae2	0.012850495
150	0x3ccdc438	0.025117978
151	0x3d46de98	0.048552126
152	0x3d0de314	0.034640387
153	0x3d58279a	0.052772142
154	0x3bbe4b48	0.005807314
155	0xbb2fa79f	-0.002680279
156	0xbca05bff	-0.019575117
157	0x3ce8a70a	0.028399963
158	0x3cf4735c	0.029840164
159	0x3bf429eb	0.007451286
160	0x3cc02581	0.023455383
161	0xbc415ec9	-0.011802384
162	0x3b28cc00	0.002575636
163	0x3b6477f2	0.0034861532
164	0x3c70356c	0.014661174
165	0x3bdac522	0.006676332
166	0xbd64245b	-0.055698734
167	0xbf3d2cd0	-0.73896503
168	0xbd7e20b4	-0.062042907
169	0x3bda4a79	0.00666171
170	0xbd2e8757	-0.04260954
171	0x3d0a9b3c	0.03383945
172	0x3bb360bf	0.0054741795
173	0x3cea243e	0.028581735
174	0x3b1eb0a5	0.0024214175
175	0xbb6d0373	-0.0036165386
176	0x3c0e5e85	0.008689527
177	0x3ce5a582	0.028033022
178	0x3d179ad2	0.037012883
179	0x3a8c7e0c	0.0010718717
180	0xbd4995e9	-0.04921523
181	0x3e912037	0.2834489
182	0xbd4060e2	-0.046967395
183	0x3d3b26ac	0.045691177
184	0xbc8b50c8	-0.017006293
185	0xbd111766	-0.035422705
186	0xbd314d80	-0.0432868
187	0x3c839bc4	0.016065486
188	0x3c40d6d8	0.011769973
189	0x3d473550	0.048634827
190	0xbc65c2f0	-0.0140235275
191	0xbcbaed90	-0.022818357
192	0x3c8ef09c	0.017448716
193	0xbb5a3ba1	-0.0033299702
194	0xbcc82c30	-0.024435133
195	0xbc343478	-0.010998838
196	0xbe24f3d0	-0.16108632
197	0x3c478c09	0.012179383
198	0xbb121b8e	-0.0022294256
199	0xbd2e96f7	-0.04262444
200	0xbd10e30e	-0.035372786
201	0xbadd0809	-0.0016863357
202	0x3d107e45	0.03527667
203	0x3d3a271f	0.045447465
204	0x3d6f6af8	0.058451623
205	0x3c5ba510	0.013406053
206	0xbd1f5c85	-0.038906593
207	0x3cd3a80a	0.025836963
208	0xbd42f688	-0.04759839
209	0x3d69308b	0.05693106
210	0x3c4fa190	0.012672797
211	0x3d00d804	0.03145601
212	0x3ca4a0f6	0.020096283
213	0xbd23b56e	-0.039967947
214	0xbd6ff042	-0.058578737
215	0xbd50515a	-0.050858833
216	0x3d4f8f98	0.05067405
217	0xbd431061	-0.047623042
218	0xbd357270	-0.04429859
219	0x3d5be631	0.053686325
220	0xbcac2f08	-0.02101852
221	0xbca8ae44	-0.020590909
222	0xbba83b9e	-0.00513406
223	0x3d1c7d5d	0.038205493
224	0xbd164e4a	-0.036695756
225	0xbc902b76	-0.017598849
226	0xbd064a66	-0.032785796
227	0x3b559ff1	0.0032596553
228	0xbd953486	-0.07285409
229	0xbd44af39	-0.048018668
230	0x3a5c978a	0.0008414915
231	0xbd125d2e	-0.035733394
232	0xbc9f4066	-0.019439887
233	0xbd2f3b07	-0.042780902
234	0x3cf77beb	0.030210456
235	0xbecfc47b	-0.4057959
236	0x3cbaaa5f	0.022786317
237	0x3bfa70f3	0.007642859
238	0xbde0f253	-0.1098372
239	0xbe34aa77	-0.17643152
240	0xbab24400	-0.0013600588
241	0x3d22eb76	0.039775334
242	0xbb25d7e6	-0.0025305687
243	0xbd6d8393	-0.057986807
244	0xbcb557df	-0.022136627
245	0xbd45b1d1	-0.048265282
246	0xbd73be1b	-0.05950747
247	0xbd7ce384	-0.061740413
248	0xbcae3bc0	-0.021268725
249	0xbd5c7911	-0.053826395
250	0x3e8b1a97	0.27168724
251	0xbcd2ddb2	-0.025740478
252	0x3afd6f5b	0.0019335555
253	0x3db1b7ee	0.0867766
254	0xbe2025dd	-0.15639444
255	0x3d340c9f	0.04395735

linear2.bias f4 [256]
0	0xbe32b6b6	-0.17452511
1	0xbc304e64	-0.010760877
2	0x3e2cec33	0.16886978
3	0xbce07e9b	-0.02740412
4	0x3db45d82	0.08806898
5	0xbe28e5c0	-0.16493893
6	0xbc77d85f	-0.0151272705
7	0xbd89e215	-0.06732575
8	0x3d5fa298	0.05459842
9	0xbd73d12e	-0.05952566
10	0xbd82d8c1	-0.06388999
11	0xbbd3303a	-0.006444958
12	0x3c666ffb	0.014064784
13	0x3c0af01c	0.008480098
14	0x3d956c58	0.072960556
15	0x3e0ba504	0.13637167
16	0x3df6194c	0.12016544
17	0xbd4f0551	-0.05054218
18	0xbdac3a5a	-0.08409567
19	0x3ce02405	0.027360925
20	0xbcba8256	-0.022767227
21	0xbd4ce7a8	-0.050025612
22	0xbe6a6430	-0.22889781
23	0xbd6c49c0	-0.05768752
24	0x3e11ab2e	0.14225456
25	0xbd8466b2	-0.064649
26	0xbd66b563	-0.056325328
27	0xbe841b1e	-0.2580194
28	0xbe11e19c	-0.1424622
29	0xbe275154	-0.16339618
30	0x3dbf7946	0.09349303
31	0x3cc86ff8	0.024467453
32	0xbc417290	-0.011807099
33	0xbd23de57	-0.04000696
34	0x3e6bd093	0.23028784
35	0x3df40090	0.1191417
36	0xbdcdb499	-0.10044212
37	0x3e3fe8b3	0.18741111
38	0xbdc625ae	-0.096751556
39	0x3e4935ac	0.1964938
40	0xbd3c83bb	-0.046024065
41	0x3e133c70	0.14378524
42	0x3de413ef	0.111366145
43	0x3e00d586	0.12581453
44	0x3e4b395d	0.19846101
45	0xbe3d9dd7	-0.18517242
46	0xbe147f6f	-0.14501737
47	0x3d91cdbf	0.07119321
48	0xbd3dfeb8	-0.046385497
49	0xbd18761e	-0.03722202
50	0x3d80cce0	0.06289077
51	0x3e07b2cf	0.13251804
52	0xbd4f7cc1	-0.050656084
53	0xbcfc0b62	-0.030767146
54	0xbd132903	-0.035927784
55	0xbbc1a9c9	-0.0059101325
56	0x3d85f65f	0.06541132
57	0x3dc5d870	0.09660423
58	0x3b5abe34	0.003337753
59	0x3d6934bf	0.05693507
60	0xbe24d06c	-0.16095132
61	0xbda61e66	-0.08111267
62	0x3e0d3f20	0.13793612
63	0x3d752c75	0.05985685
64	0xbe7aadd8	-0.24480379
65	0xbdb0f54d	-0.086405374
66	0xbd6cde36	-0.057829104
67	0xbe548e22	-0.20757344
68	0xbdd20498	-0.102547824
69	0xbdafd992	-0.0858642
70	0x3dea0066	0.11425857
71	0x3dd3aab2	0.10335292
72	0xbd35b7f8	-0.0443649
73	0x3a5d5f89	0.0008444717
74	0x3d1e781c	0.038688764
75	0xbcbf9693	-0.02338723
76	0x3d5d6752	0.054053612
77	0x3bd5c10d	0.0065232576
78	0xbd8603af	-0.06543671
79	0xbdac96d6	-0.08427207
80	0x39e5055a	0.0004368227
81	0x3e369f03	0.17834096
82	0x3db5056b	0.08838924
83	0x3da23b7b	0.07921501
84	0xbe21bf49	-0.15795626
85	0x3d023277	0.03178641
86	0xbe38b407	-0.18037425
87	0x3e2fc933	0.17166595
88	0x3c45306b	0.0120354695
89	0xbd9cb1f4	-0.07651129
90	0xbd7c7494	-0.061634615
91	0x3d108a02	0.035287865
92	0xbe04e988	-0.1297971
93	0x3e04deb1	0.12975575
94	0xbe3fd6c3	-0.18734269
95	0xbe853b75	-0.26021925
96	0x3dbea9f8	0.09309763
97	0x3c40bd57	0.011763892
98	0x3df1fd78	0.118159235
99	0x3daf432c	0.08557734
100	0x3db541cc	0.088504404
101	0x3d246252	0.040132828
102	0xbb98b0e3	-0.0046597584
103	0xbe0665c7	-0.13124762
104	0x3de0e508	0.10981184
105	0x3dadb794	0.084822804
106	0xbe221628	-0.15828764
107	0x3d3720c9	0.044709
108	0x3d2a50fb	0.041581135
109	0xbcc48f4f	-0.023994116
110	0xbe53e078	-0.20691097
111	0xbddaf911	-0.10692037
112	0x3e3c3720	0.18380404
113	0x3dd4e569	0.10395319
114	0x3d8fef1b	0.070280276
115	0x3e8c7dc6	0.27439708
116	0x3e2cc7b7	0.1687306
117	0xbd98f5bc	-0.07468745
118	0x3c19a3ef	0.009377464
119	0x3e22ad40	0.15886402
120	0xbe821a56	-0.25410718
121	0xbd85e755	-0.06538264
122	0x3e162552	0.14662674
123	0xbdbc0ed7	-0.09182518
124	0xbad19606	-0.0015990145
125	0xbe1f3585	-0.1554776
126	0x3bf9e414	0.007626066
127	0x3d3fee76	0.046858273
128	0xbcf2057c	-0.02954363
129	0x3e0dbfac	0.13842648
130	0xbd1ef980	-0.03881216
131	0x3d618837	0.055061545
132	0x3e74b369	0.23896565
133	0xbbb05f7a	-0.0053824754
134	0xbdcc6891	-0.09980882
135	0xbe7b4988	-0.24539769
136	0x3d882dfe	0.06649397
137	0xbd253397	-0.040332403
138	0xbd9cc476	-0.076546595
139	0xbc413ad9	-0.0117938155
140	0x3d8c6dd6	0.06856887
141	0xbdb5ba81	-0.088734634
142	0xbc40bfdf	-0.011764496
143	0xbe2ac669	-0.1667725
144	0xbd2d3afa	-0.042292573
145	0xbd27bb9d	-0.040950406
146	0xbd9776b5	-0.073956884
147	0x3e392c5f	0.18083332
148	0x3d74cc95	0.059765417
149	0xbdafe088	-0.08587748
150	0xbc3caf90	-0.011516467
151	0x3d23bf2e	0.039977245
152	0xbdc3f65c	-0.09568474
153	0xbe45652e	-0.19276878
154	0xbda3f0e4	-0.080049306
155	0x3e2c5c54	0.16832095
156	0xbcaf3bcf	-0.021390824
157	0x3c785483	0.015156868
158	0x3e47529f	0.19465111
159	0xbdf5f1c5	-0.120090045
160	0x3d569aea	0.05239383
161	0xbc9630dd	-0.018333847
162	0xbe265aae	-0.16245529
163	0xbd29fc0f	-0.041500147
164	0xbe0c4c78	-0.13701046
165	0xbe0c4c03	-0.13700871
166	0x3dbc2c4d	0.09188137
167	0x3c7fa65f	0.015603631
168	0x3dbcd8f5	0.09221069
169	0xbc85e6d8	-0.016345426
170	0x3db43657	0.08799427
171	0xbdb87ecf	-0.09008562
172	0xbe1df22c	-0.15424412
173	0xbdb0f538	-0.08640522
174	0x3db78ba4	0.08962181
175	0xbe0e1880	-0.13876534
176	0x3dc705ee	0.09717928
177	0x3da1003c	0.07861373
178	0x3c8ccb65	0.01718683
179	0xbe6c3a17	-0.23069035
180	0xbc95c109	-0.018280523
181	0x3e03c361	0.128675
182	0xbdbe4f30	-0.092924476
183	0x3e086ab1	0.1332195
184	0x3e4a5c5c	0.19761795
185	0xbda25f9f	-0.079283945
186	0x3b054cf2	0.0020340052
187	0xbdc38ef1	-0.09548748
188	0xbd916df3	-0.07101049
189	0x3de4a708	0.11164671
190	0xbc50b7f1	-0.012739168
191	0x3d02ec71	0.03196377
192	0xbe362194	-0.17786247
193	0xbdfc56c5	-0.123212375
194	0xbe9483b1	-0.29006723
195	0xbe2a4c98	-0.1663078
196	0xbc8d140d	-0.017221475
197	0x3bd083c9	0.0063633663
198	0x3e003cb5	0.12523158
199	0xbd91c7a5	-0.07118157
200	0x3d87c6fc	0.0662975
201	0xbe462e09	-0.19353499
202	0xbc1fd144	-0.009754483
203	0xbc5438dd	-0.01295301
204	0xbdc39211	-0.09549344
205	0xbda64ae4	-0.08119753
206	0xbe02d49d	-0.12776418
207	0xbd2d505d	-0.04231297
208	0xbc82afd3	-0.01595298
209	0xbe03fe7c	-0.12890047
210	0xbd9cfc40	-0.076653
211	0x3d842f78	0.064543664
212	0xbe0d2b61	-0.13786079
213	0xbb3a93e3	-0.0028469495
214	0x3e0c0169	0.13672413
215	0xbdceaa8a	-0.100911215
216	0x3e0689c8	0.13138497
217	0xbcdc6eea	-0.026908357
218	0x3d012ac4	0.031534925
219	0xbdfe573d	-0.12418983
220	0xbc867209	-0.016411798
221	0x3d7348cb	0.059395593
222	0x3df26c8a	0.118371084
223	0x3e612bc8	0.21989357
224	0xbe35df15	-0.1776088
225	0x3ca523d8	0.020158693
226	0x3dfb6280	0.12274647
227	0xbd2041af	-0.03912514
228	0x3e268a03	0.16263585
229	0x3b8c5e51	0.0042837043
230	0xbaf3abfa	-0.0018590682
231	0xbc811492	-0.015756879
232	0x3dfa573f	0.12223672
233	0x3e21e4c5	0.15809925
234	0x3dde7ba9	0.1086343
235	0x3d948a74	0.0725297
236	0xbd9b9ba0	-0.075980425
237	0xbe358a78	-0.17728603
238	0x3d074b6e	0.03303092
239	0x3d61ad7a	0.05509708
240	0xbdb90ca6	-0.090356156
241	0xbe1a7e01	-0.15087129
242	0x3d85aee8	0.06527501
243	0xbd2295dd	-0.039693702
244	0x3d24b21a	0.040208913
245	0xbd721f1d	-0.059111703
246	0x3e092fab	0.1339709
247	0xbbddd399	-0.006769609
248	0x3e1d853a	0.15382853
249	0x3d8bb2fa	0.068212464
250	0x3d40146b	0.046894472
251	0x3ce2ab02	0.027669434
252	0x3d2dcbff	0.042430874
253	0x3e074541	0.13210012
254	0xbd3e9fa8	-0.04653898
255	0x3da1f76a	0.079085186

linear3.weight f4 [2, 256]
0	0x3edaf1b7	0.4276254
1	0xbf612172	-0.8794166
2	0xbf276527	-0.6538872
3	0x3e961405	0.2931215
4	0xbe704a7b	-0.23465912
5	0xbd9e712e	-0.07736431
6	0x3efda352	0.49538666
7	0x3c9a8bb5	0.018865446
8	0xbe91021a	-0.28321916
9	0x3f95c86d	1.170179
10	0xbe0c4ee8	-0.13701975
11	0x3e7c62c8	0.24647057
12	0xbe924b8e	-0.2857327
13	0x3ddf7458	0.10910863
14	0xbef5a9c9	-0.47981098
15	0x3e3cfbd5	0.18455441
16	0xbe190859	-0.1494459
17	0x3cf0def3	0.029403185
18	0xbf05ec85	-0.52314025
19	0x3b8ad42a	0.0042367177
20	0x3e60dbc6	0.21958837
21	0x3e269b70	0.16270232
22	0xbf80ad42	-1.0052874
23	0xbebd5bff	-0.3698425
24	0xbf84c0d3	-1.0371345
25	0xbecbfad4	-0.39839804
26	0x3c540691	0.012941019
27	0x3d315636	0.043295108
28	0x3dda755c	0.10666916
29	0x3d9a8945	0.07545713
30	0x3fd980e9	1.6992465
31	0xbeb0bdf8	-0.34519935
32	0x3e04fcb9	0.12987031
33	0x3fb6e9ab	1.429006
34	0xbf1186f5	-0.56846553
35	0x3e893ff6	0.2680661
36	0xbcd716f1	-0.026256057
37	0xbee24765	-0.44195095
38	0xbe8b2826	-0.27179068
39	0xbfbb7984	-1.4646459
40	0xbf17bb89	-0.5927053
41	0x3f45f568	0.77327585
42	0x3fc652ee	1.5494058
43	0xbfa72fc1	-1.3061448
44	0x3e7f6764	0.24941784
45	0xbeb6e9a1	-0.3572512
46	0x3d3f4de0	0.046705127
47	0xbed22491	-0.41043523
48	0xbc851962	-0.016247455
49	0x3d1adc2e	0.037807636
50	0xbeb6afe5	-0.35681072
51	0xbf96ed46	-1.179116
52	0x3e6d7c96	0.23192057
53	0xbe882a65	-0.26594844
54	0xbe887d20	-0.26657963
55	0xbaef226b	-0.001824451
56	0x3f90f2d7	1.1324109
57	0xbe574ec6	-0.21026143
58	0xbfb63a70	-1.4236584
59	0xbe60e470	-0.21962142
60	0xbf02645f	-0.50934404
61	0xbf402e84	-0.7507098
62	0xbea6b468	-0.32559514
63	0xbf42695d	-0.7594202
64	0x3e758328	0.23975813
65	0xbda7bb97	-0.08190077
66	0x3fbab51f	1.4586524
67	0x3f82e991	1.0227529
68	0x3f1d67bf	0.6148643
69	0xbe97848c	-0.29593313
70	0xbf806763	-1.0031551
71	0x3f403ffa	0.7509762
72	0x3c4bcc50	0.012438849
73	0xbd7ac3c3	-0.06122185
74	0x3e84f4d3	0.25968036
75	0xbf3896ad	-0.72104913
76	0x3e1e4069	0.15454258
77	0x3dae7d32	0.08519973
78	0xbe17903e	-0.14801118
79	0x3c2a79c1	0.010405005
80	0x3be85cd2	0.007091143
81	0xbee38b8d	-0.44442406
82	0xbf9c560f	-1.2213763
83	0xbe1d595b	-0.15366118
84	0xbf93e942	-1.155556
85	0x3eb38c14	0.3506781
86	0xbd61fca0	-0.055172563
87	0xbeaafb40	-0.33394814
88	0xbce3f14c	-0.02782502
89	0x3ea1330a	0.31484252
90	0x3d2a9466	0.04164543
91	0x3f31fb00	0.6952362
92	0x3f692d38	0.91084623
93	0xbdaa85ba	-0.083262876
94	0xbe261fa5	-0.16223009
95	0x3f0ff972	0.5624
96	0x3d6d5c61	0.057949428
97	0xbe9d748b	-0.30752978
98	0x3f61dd33	0.8822815
99	0xbd662b21	-0.056193475
100	0xbea20279	-0.3164251
101	0xbea2cb40	-0.31795692
102	0x3ebef356	0.37295026
103	0x3ec1a31d	0.37819758
104	0xbf03508d	-0.51294786
105	0xbf16348e	-0.5867394
106	0x3f1aff52	0.6054584
107	0xbb46a62e	-0.0030311453
108	0xbe8c5276	-0.27406663
109	0x3de4a54b	0.1116434
110	0xbdc4d89f	-0.0961163
111	0xbf2b5bf2	-0.6693717
112	0xbee5c77c	-0.44878757
113	0xbecfbcca	-0.40573722
114	0x3e46371a	0.19356957
115	0x3fc12822	1.5090373
116	0x3fe779ad	1.8084008
117	0xbf166e80	-0.5876236
118	0xbe6f19b0	-0.23349643
119	0xbf4281ac	-0.75979114
120	0x3ea37290	0.31923342
121	0x3d2fe0a6	0.04293885
122	0xbf9557f6	-1.1667469
123	0xbe821630	-0.25407553
124	0x3fa0d744	1.2565694
125	0x3f1d5c1d	0.6146868
126	0xbccbed06	-0.024893295
127	0x3f1ccf7d	0.612541
128	0x383d9b7f	4.520593e-05
129	0x3e9b7557	0.3036296
130	0xbe8f2378	-0.27956748
131	0x3f7abdd6	0.97945917
132	0x3fdd8fc7	1.7309502
133	0x3cfd9420	0.03095442
134	0xb8a929e7	-8.066353e-05
135	0x3ece4ec8	0.4029448
136	0xbdec4f5d	-0.11538575
137	0x3f51a1b4	0.81887364
138	0xbc1a46f6	-0.0094163325
139	0x3c5f9849	0.013647147
140	0xbf3468f4	-0.70472646
141	0x3e82f3c5	0.25576606
142	0xbf5b411e	-0.85646236
143	0x3ef1c7c1	0.47222713
144	0xbdfcd16d	-0.12344632
145	0x3cbb51be	0.022866126
146	0x3fad7e7d	1.3554226
147	0xbd8ee358	-0.06976956
148	0x3e0b8a87	0.13627063
149	0xbd932c26	-0.07186155
150	0x3b4a81d9	0.003090015
151	0x3c3c0d0f	0.011477723
152	0xbd1fcc7e	-0.03901338
153	0xbe4de9c0	-0.201087
154	0xbdab1405	-0.08353428
155	0x3e220fd3	0.15826349
156	0xbd909cbe	-0.07061146
157	0xbfa2a1a9	-1.2705585
158	0xbf38ed6a	-0.72237265
159	0x3f11eaf9	0.56999165
160	0x3dc344b5	0.09534589
161	0x3d961e1e	0.07329963
162	0x3f35f4e6	0.7107681
163	0xb83744d7	-4.3694712e-05
164	0xbf6098f7	-0.87733406
165	0x3f509376	0.8147501
166	0x3fb5a318	1.4190397
167	0xbeb150b5	-0.34631887
168	0x4009282d	2.1430771
169	0x3ded8f33	0.11599579
170	0x3dac5586	0.0841475
171	0xbec7ffa1	-0.39062217
172	0xbf00c392	-0.50298417
173	0x3d0c9004	0.03431703
174	0x3df8f3fb	0.121559106
175	0x3d0da5a3	0.03458179
176	0xbf5667e1	-0.83752257
177	0x3db7476c	0.089491695
178	0xbd89a94e	-0.067217454
179	0x3ebda0f4	0.3703686
180	0xbf4d2c45	-0.80145675
181	0x3eea4bca	0.45760947
182	0xbcc883b0	-0.024476856
183	0x3e038168	0.12842333
184	0x3eed2d34	0.4632355
185	0x3ce0fa32	0.027463052
186	0x3e70da03	0.23520665
187	0xb9a1bac6	-0.0003084747
188	0xbf1cdae0	-0.61271477
189	0xbe8e897c	-0.27839267
190	0xbed66910	-0.4187703
191	0x3ec8644f	0.3913903
192	0x3da4f089	0.08053691
193	0xbe1af3aa	-0.15132013
194	0xbefea3ef	-0.49734446
195	0x3e8bcd38	0.27305007
196	0x3cc00000	0.0234375
197	0x3f068dc0	0.52560043
198	0xbed02b8a	-0.40658218
199	0x3e86d166	0.26331633
200	0xbf68ddca	-0.90963423
201	0xbe842acd	-0.25813904
202	0x3dc8085d	0.0976722
203	0xbe8d91b6	-0.2765023
204	0xbb2fcac7	-0.0026823746
205	0xbe80dfa8	-0.25170636
206	0x3e440fd8	0.19146669
207	0x3eaa4828	0.33258176
208	0xbdec3540	-0.11533594
209	0x3e59fa6b	0.21286933
210	0xbe55a131	-0.20862271
211	0xbf4f7351	-0.81035334
212	0xbf23de4d	-0.6401108
213	0xbee8bcd5	-0.45456567
214	0xbe8c4e74	-0.27403605
215	0x3e4d0775	0.20022376
216	0x3e77ca06	0.2419816
217	0xbc557b39	-0.013029867
218	0x3edb0ebb	0.42784676
219	0x3b5f1cf0	0.0034044348
220	0x3dd3f5b6	0.103496
221	0x3e8ecb1e	0.2788934
222	0x3ed5cd75	0.41758314
223	0x400805b0	2.1253471
224	0x3ee2877f	0.44244
225	0xbf4e3583	-0.805504
226	0xbf9598da	-1.1687272
227	0xbf5ed1c0	-0.87038803
228	0xbf8c6729	-1.0968982
229	0xbf8aafa7	-1.0834855
230	0x3cc0a53b	0.023516288
231	0x3d2be8b4	0.04196997
232	0xbe5bf630	-0.21480632
233	0x3e033915	0.12814744
234	0x3f1ad8ac	0.60486865
235	0x3e83d057	0.25744888
236	0x3e1dabf7	0.1539763
237	0x3f87ebee	1.0618875
238	0xbfb111bb	-1.3833536
239	0xbeebcc23	-0.4605418
240	0x3dd0cf34	0.10195771
241	0x3f4d26bb	0.80137223
242	0xbf283157	-0.65700287
243	0xbd4ef21d	-0.050523866
244	0xbe606aac	-0.21915692
245	0xbccb3fe8	-0.024810746
246	0xbee71b57	-0.45138046
247	0xbe9d111f	-0.30677125
248	0xbf2fef48	-0.6872449
249	0xbe0abfe7	-0.13549767
250	0xbeac7dc8	-0.33689713
251	0x3ce8b51a	0.028406668
252	0x3fa62b18	1.2981901
253	0x3fb94a97	1.4475888
254	0x3c8ff58d	0.017573142
255	0xbf679465	-0.9046081

linear3.bias f4 [2]
0	0x3ee827b8	0.45342803
1	0x3adebeaf	0.0016994084
