turtlebot3_rl_sim/src/models/td3/turtlebot3_top_8_obstacle/td3_critic1_model_ep2500.pt (torch_old, 675874 bytes, 5 tensors)

linear1.weight f4 [256, 400]
-0.10870536 -0.08935818 -0.07693562 -0.1216389 -0.1075139 -0.084399045 -0.07082119 -0.07435529
-0.08272033 -0.067878544 -0.10297039 -0.11371737 -0.16337936 -0.17011388 -0.12192351 -0.027844915
-0.03941801 -0.11351302 -0.0682798 -0.08831983 -0.056592654 -0.0790393 -0.08838297 -0.04158796
-0.017957307 0.0011311161 -0.004275566 0.016532268 0.13979733 0.106362335 0.11411062 0.16842502
0.23227309 0.21574762 0.24388908 0.17966099 0.22479329 0.20463902 0.1330237 0.2005694
0.19433138 0.26879632 0.24721567 0.21969943 0.22181667 0.11922995 0.11540903 0.11850572
0.08807051 0.14489117 0.039044395 0.12657283 0.049364652 0.07592945 0.04466807 0.017551668
0.045061164 0.008933685 -0.0018121499 0.11387875 0.09442955 0.085759565 0.08390514 0.12583095
0.13948795 0.14127263 0.117077194 0.15142311 0.10188365 0.17677474 0.16047284 0.12852053
0.18532623 0.117076255 0.14346504 0.04736376 0.042318348 0.09774064 0.045936484 0.13464239
0.075381234 0.13746244 0.13420196 0.09895197 0.054554913 0.057296775 0.0595078 0.03607975
0.077798545 0.098375276 0.02374274 0.0019398596 0.083026126 0.026346603 0.09777772 0.06270764
0.052891806 0.06582742 0.05576384 0.13787717 0.033501618 0.12700768 0.10495709 0.06357953
0.07309503 0.03243794 -0.004345898 0.051103503 0.017260132 0.013430303 0.011890617 0.0048270333
0.06424146 0.103327446 0.081701 0.07710992 0.051787753 -0.0074381633 0.047503784 0.012110219
0.026059154 0.05232748 0.13411753 0.06827699 0.021021204 0.0073060165 -0.035425175 0.026803574
0.06771034 0.037368998 -0.0011567298 0.06603198 0.007861303 0.086265795 0.04466967 0.038507722
-0.031333104 0.01496492 0.0047834977 0.015427185 -0.08787911 -0.014457202 -0.01000803 -0.028874042
-0.004858489 0.022481788 0.01221097 0.03409579 0.02357932 0.034697942 -0.00043096903 0.0825646
0.061479423 -0.037629608 0.024361791 -0.012183751 0.035796195 -0.003469086 0.072698705 0.098603666
0.03125944 -0.0044809864 0.083990455 0.0735056 0.057856135 0.043083414 0.09339838 0.0797679
0.03812153 0.013776595 0.057770226 0.10265259 0.09361384 0.08047657 0.12818742 0.07151132
0.04421729 0.07268412 0.067633115 0.04424005 0.06501591 0.020039696 0.03738197 0.024993196
-0.047755543 0.0434922 0.0977765 0.013849557 0.063739486 0.01689367 -0.008065627 0.06143231
0.0057109944 0.017985376 0.05038287 0.062384233 0.03997948 0.03151248 -0.0022886784 0.01150502
0.02108208 -0.023465691 0.020341927 -0.023173634 0.031209009 0.057385202 -0.040585898 0.047070827
0.032751586 -0.03658565 -0.00062292797 0.003242275 0.016501615 -0.058372457 0.024157012 0.031302713
0.06220903 0.035407115 -0.006995849 0.0298006 0.028503431 0.0852162 -0.011456099 -0.015836805
0.011589988 -0.03688357 -0.061153274 0.021804176 -0.024679251 -0.006891255 0.010656528 0.037778836
-0.0038415922 0.037468065 0.007114212 0.004871544 0.00678627 0.056436073 -0.02774163 0.022118643
0.022368765 -0.0035735627 0.02267407 -0.028829515 0.0040999292 -0.0352858 -0.01051033 -0.0046505756
-0.017682701 0.022360593 -0.0267677 -0.042757098 -0.006591782 0.027638601 -0.03779556 -0.03513231
00000000: eaa0 debd 6c01 b7bd 6c90 9dbd d11d f9bd
00000010: 3f30 dcbd 68d9 acbd b30a 91bd 9647 98bd
00000020: 4769 a9bd e803 8bbd 24e2 d2bd a7e4 e8bd
00000030: eb4c 27be 5532 2ebe 09b3 f9bd 051b e4bc
00000040: c774 21bd 8479 e8bd 48d6 8bbd 07e1 b4bd
00000050: b3cd 67bd 5bdf a1bd 2102 b5bd 2358 2abd
00000060: 341b 93bc f541 943a 0c1a 8cbb ae6e 873c
00000070: 0827 0f3e 7fd4 d93d d4b2 e93d 9c77 2c3e
00000080: ffd8 6d3e f2ec 5c3e 0fbe 793e 0df9 373e
00000090: 3630 663e e48c 513e 5d37 083e 1162 4d3e
000000a0: cefe 463e ac9f 893e 1b26 7d3e e3f8 603e
000000b0: e923 633e d52e f43d 925b ec3d 20b3 f23d
000000c0: 505e b43d 5a5e 143e 04ed 1f3d 4f9c 013e
000000d0: 9732 4a3d e680 9b3d def5 363d 84c8 8f3c
000000e0: 0e92 383d 975e 123c a985 edba 4339 e93d
000000f0: 4864 c13d b6a2 af3d 75d6 ab3d d4d9 003e
00000100: eed5 0e3e c6a9 103e 2bc6 ef3d a90e 1b3e
00000110: 60a8 d03d 7004 353e fe52 243e e39a 033e
00000120: 29c6 3d3e adc5 ef3d 80e8 123e 8100 423d
00000130: 0156 2d3d 3f2c c83d e527 3c3d b2df 093e
00000140: 7a61 9a3d f4c2 0c3e 3d6c 093e 55a7 ca3d
00000150: f974 5f3d 06b0 6a3d 73be 733d 5cc8 133d
00000160: d854 9f3d fa78 c93d 2280 c23c e342 fe3a
00000170: 9a09 aa3d d5d4 d73c af3f c83d dd6c 803d
00000180: 14a5 583d 87d0 863d a068 643d ac2f 0d3e
00000190: fe38 093d 4d0e 023e bef3 d63d fc35 823d
000001a0: d9b2 953d a5dd 043d 0968 8ebb e851 513d
000001b0: 1f65 8d3c c60a 5c3c ddd0 423c 172c 9e3b
000001c0: 0791 833d 579d d33d db52 a73d ceeb 9d3d
000001d0: 651f 543d d6bb f3bb 5493 423d f169 463c
000001e0: 027a d53c 5755 563d 1b56 093e ced4 8b3d
000001f0: a934 ac3c 4f67 ef3b fd19 11bd 2b93 db3c
00000200: b8ab 8a3d 3c10 193d 699d 97ba c63b 873d
00000210: b2cc 003c 1fac b03d 8bf7 363d 46ba 1d3d
00000220: 2457 00bd 6c2f 753c e3be 9c3b 4ec2 7c3c
00000230: f6f9 b3bd e6dd 6cbc b8f8 23bc 4189 ecbc
00000240: f633 9fbb ba2b b83c 8510 483c 07a8 0b3d
00000250: 6b29 c13c 6e1f 0e3d aff3 e1b9 a117 a93d
00000260: d9d1 7b3d 8121 1abd 6192 c73c 5b9e 47bc
00000270: 089f 123d 9b59 63bb 0fe3 943d b8f0 c93d
00000280: e609 003d 3dd5 92bb 3003 ac3d 1b8a 963d
00000290: 8efa 6c3d 3c78 303d a647 bf3d 5a5d a33d
000002a0: 5225 1c3d 3ab7 613c 79a0 6c3d 853b d23d
000002b0: 9db8 bf3d e6d0 a43d 9043 033e 8774 923d
000002c0: 301d 353d 69db 943d 3b83 8a3d 0e35 353d
000002d0: 1027 853d 4a2a a43c d61d 193d 88be cc3c
000002e0: 519b 43bd e124 323d 0c3f c83d 41e9 623c
000002f0: d989 823d 9864 8a3c b125 04bc 72a0 7b3d
00000300: 4b23 bb3b 1156 933c 455e 4e3d 9c86 7f3d
00000310: 86c1 233d 3b13 013d a7fd 15bb 8d7f 3c3c
00000320: 54b4 ac3c 1f3b c0bc 1da4 a63c a2d6 bdbc
00000330: 09aa ff3c bf0c 6b3d 663d 26bd 57cd 403d
00000340: 8726 063d d6da 15bd fd4b 23ba 597c 543b
00000350: 652e 873c f517 6fbd ede4 c53c 4637 003d
00000360: e5ce 7e3d 0d07 113d 6f3d e5bb 6320 f43c
00000370: 0780 e93c d585 ae3d 5db2 3bbc 30bc 81bc
00000380: efe3 3d3c 3a13 17bd db7b 7abd ac9e b23c
00000390: 242c cabc 09d0 e1bb b898 2e3c fbbd 1a3d
000003a0: 39c3 7bbb 1d78 193d 561e e93b 79a1 9f3b
000003b0: 5c5f de3b 8329 673d 6a42 e3bc 2832 b53c
000003c0: b33e b73c 6f32 6abb f9be b93c e02b ecbc
000003d0: b358 863b d887 10bd 8533 2cbc db63 98bb
000003e0: 50db 90bc 902d b73c f047 dbbc 1122 2fbd
000003f0: e0ff d7bb 596a e23c 84cf 1abd e6e6 0fbd

linear1.bias f4 [256]
-0.090046786 -0.05205465 0.107713364 -0.1341758 -0.031139726 -0.045597225 0.023973942 0.04239645
-0.008823597 -0.11108205 -0.12556458 -0.02334027 0.08857477 0.013833227 0.0147176115 0.035339255
0.026735129 -0.0006994298 -0.026927728 0.13944429 0.017480966 0.038110126 -0.037797205 -0.028832844
0.15241869 -0.0031296893 -0.028725183 -0.027656397 0.022222681 0.06849143 0.02378805 0.12558714
0.03897812 0.018513033 -0.1503572 0.031019589 0.03626238 -0.24631958 0.041793697 -0.10126765
-0.0565482 -0.033189017 -0.03467734 -0.092962295 0.020861458 -0.012372311 0.092033066 0.15149742
0.030547222 0.009092604 -0.04839312 -0.0106846085 -0.015532516 -0.09856496 -0.014677938 -0.032820974
0.17988533 -0.06542208 0.028256912 0.05316702 -0.042399593 -0.038212948 0.10869472 -0.052916683
0.19177651 0.03479536 0.05049686 0.125928 -0.033920664 -0.019237604 -0.020029603 -0.20981055
0.17531353 -0.038097464 -0.030265965 -0.009701503 0.021184813 0.00016308491 -0.020028112 0.13802892
0.014866251 0.120443724 -0.078783736 -0.00093811634 -0.0016699678 -0.095517285 0.19617113 -0.16598834
0.09269737 -0.05121944 0.010386957 0.024938792 -0.013517695 -0.005398836 -0.12079944 0.12942098
-0.055204015 -0.051808037 0.03236051 -0.02433865 0.11423918 -0.12175152 -0.16333497 -0.0102677485
-0.012334181 -0.0042700716 0.024786428 -0.16634469 0.0039310697 0.021521209 0.0062406585 -0.00094701047
0.005054525 -0.003237071 0.029184882 -0.004399619 0.061883606 0.02936556 -0.05292935 0.033049688
-0.10978024 0.17046912 -0.02719595 0.034324482 0.01772886 0.034168765 -0.028309813 -0.023268744
-0.042377826 -0.03291102 -0.16834871 -0.04714546 -0.049535606 -0.029200166 0.016539 0.0037779368
0.22290306 0.0029243024 0.10570212 0.02681038 0.027306588 0.09716224 -0.03399368 -0.019029733
0.009541184 -0.049687598 0.013971994 -0.050043736 -0.0117029175 0.050896082 0.17035046 -0.0095290225
0.17479095 -0.005660817 -0.03633242 0.004779505 0.003917123 0.0072207833 -0.0022929418 -0.006343603
-0.016863475 0.053682268 -0.17714779 -0.019614233 -0.0033013322 0.0279194 -0.008889763 -0.037872206
-0.022439187 0.013524027 -0.06577504 0.033555582 0.014977264 0.035404075 -0.04977924 -0.00909061
0.14782672 -0.049481962 -0.021453409 0.0004071484 0.09334097 0.11361561 -0.013160998 -0.042522367
-0.009372747 0.098889984 0.020760875 0.032581046 0.04338291 0.0467163 0.035508294 -0.028649932
0.004342342 -0.15196331 -0.028886115 -0.016980821 -0.1177448 -0.013971436 -0.0143394945 -0.0048960145
-0.046532758 -0.0345182 -0.020428581 0.04144501 0.039838664 0.019217486 0.14661251 0.013524958
0.024993554 0.003663291 -0.043837667 0.010199957 0.0045232982 -0.01459002 0.026716875 -0.04440813
-0.016325915 0.0807872 -0.009971038 -0.022903666 -0.00394206 0.041754954 0.059701763 0.003890813
-0.005023047 0.03765117 0.03929633 -0.017306784 -0.050560806 -0.033617426 -0.049211532 0.03438334
-0.03651724 0.03527816 -0.029153218 0.16710216 -0.04752097 0.018933991 -0.046254367 0.023094026
0.20523688 0.00061455125 0.03227036 0.04520979 -0.026513103 -0.18245542 -0.15728694 0.13956125
3.1657517e-05 -0.027464544 0.19709182 -0.03861826 0.023472518 0.052469205 0.16981326 0.17040834
00000000: 736a b8bd 4237 55bd d398 dc3d 6265 09be
00000010: bd18 ffbc 28c4 3abd 0065 c43c e6a7 2d3d
00000020: d990 10bc fc7e e3bd 0094 00be 1834 bfbc
00000030: b066 b53d c2a4 623c 2322 713c e5bf 103d
00000040: a103 db3c f059 37ba 8a97 dcbc 7cca 0e3e
00000050: 3e34 8f3c 5d19 1c3d 3ed1 1abd db32 ecbc
00000060: a513 1c3e 791b 4dbb 1351 ebbc ab8f e2bc
00000070: 570c b63c 3c45 8c3d 28df c23c ea99 003e
00000080: 85a7 1f3d a5a8 973c 3df7 19be cb1c fe3c
00000090: dd87 143d 333b 7cbe de2f 2b3d 6a65 cfbd
000000a0: 169f 67bd 35f1 07bd d409 0ebd 0463 bebd
000000b0: a6e5 aa3c 3cb5 4abc d57b bc3d 2422 1b3e
000000c0: 2b3e fa3c 25f9 143c dd37 46bd 7f0e 2fbc
000000d0: 187c 7ebc 6ddc c9bd bc7b 70bc 496f 06bd
000000e0: dc33 383e 03fc 85bd 0a7b e73c a9c5 593d
000000f0: 32ab 2dbd 2e85 1cbd 569b de3d 2abf 58bd
00000100: 1061 443e 9485 0e3d ccd5 4e3d 45f3 003e
00000110: 65f0 0abd 2e98 9dbc 1f15 a4bc 94d8 56be
00000120: 6485 333e 160c 1cbd 54f0 f7bc 0ef3 1ebc
00000130: c68b ad3c c601 2b39 ff11 a4bc 7457 0d3e
00000140: 9391 733c 33ab f63d 5e59 a1bd eceb 75ba
00000150: d2e2 daba 919e c3bd 16e1 483e d9f8 29be
00000160: 1ed8 bd3d 7acb 51bd 0e2e 2a3c 704c cc3c
00000170: 5279 5dbc b8e8 b0bb b265 f7bd ef86 043e
00000180: 9b1d 62bd aa34 54bd 748c 043d d961 c7bc
00000190: 3bf6 e93d dc58 f9bd 4841 27be 0f3a 28bc
000001a0: 4e15 4abc f5eb 8bbb e80c cb3c 4356 2abe
000001b0: 34d0 803b 3f4d b03c 707e cc3b cc40 78ba
000001c0: 6ea0 a53b 0a25 54bb 2215 ef3c ae2a 90bb
000001d0: aa79 7d3d 0b90 f03c 72cc 58bd 1c5f 073d
000001e0: 76d4 e0bd 758f 2e3e 0aca debc d497 0c3d
000001f0: 1d3c 913c 8cf4 0b3d fbe9 e7bc 189e bebc
00000200: 5f94 2dbd b5cd 06bd 9b63 2cbe 991b 41bd
00000210: d9e5 4abd 3035 efbc cc7c 873c 4397 773b
00000220: b340 643e a7a5 3f3b 5a7a d83d 71a1 db3c
00000230: 11b2 df3c fffc c63d f53c 0bbd 3ee4 9bbc
00000240: a052 1c3c 3985 4bbd caea 643c a9fa 4cbd
00000250: 98bd 3fbc 6978 503d 5a70 2e3e 9e1f 1cbc
00000260: 66fc 323e 607e b9bb 4ed1 14bd 659d 9c3b
00000270: 365b 803b 529c ec3b 2e45 16bb 00de cfbb
00000280: 4525 8abc f0e1 5b3d 3b66 35be 07ae a0bc
00000290: 2a5b 58bb 3ab7 e43c 5ea6 11bc e31f 1bbd
000002a0: 63d2 b7bc e193 5d3c 10b5 86bd 9471 093d
000002b0: 3363 753c dd03 113d 51e5 4bbd c8f0 14bc
000002c0: e35f 173e 99ad 4abd 0fbf afbc 8976 d539
000002d0: 8d29 bf3d 4daf e83d 3aa1 57bc ef2b 2ebd
000002e0: 2690 19bc d586 ca3d b612 aa3c b473 053d
000002f0: 47b2 313d 9759 3f3d 2571 113d 43b3 eabc
00000300: 344a 8e3b 459c 1bbe 93a2 ecbc 5d1b 8bbc
00000310: 3024 f1bd 73e8 64bc 33f0 6abc bf6e a0bb
00000320: 2299 3ebd f562 0dbd d759 a7bc 3ec2 293d
00000330: de2d 233d fd6d 9d3c 9721 163e c997 5d3c
00000340: 48bf cc3c d313 703b 208f 33bd b81d 273c
00000350: 2d38 943b fb0a 6fbc 59dd da3c 4de5 35bd
00000360: edbd 85bc c273 a53d 915d 23bc 78a0 bbbc
00000370: 652c 81bb 3e07 2b3d d689 743d 03fd 7e3b
00000380: 5f98 a4bb 1d38 1a3d 30f5 203d f5c6 8dbc
00000390: d918 4fbd 6db2 09bd 0892 49bd 8cd5 0c3d
000003a0: 1a93 15bd d57f 103d bbd2 eebc d41c 2b3e
000003b0: 59a5 42bd 751b 9b3c 3875 3dbd af2f bd3c
000003c0: 9e29 523e d619 213a ed2d 043d e72d 393d
000003d0: 0232 d9bc 98d5 3abe d40f 21be 25e9 0e3e
000003e0: 00c8 0438 53fd e0bc 70d2 493e 2e2e 1ebd
000003f0: 7049 c03c f3e9 563d 87e3 2d3e 867f 2e3e

linear2.weight f4 [256, 256]
0.07888178 -0.040686756 0.07946686 -0.11808829 -0.057974886 -0.07444552 -0.17263162 -0.03215775
0.42647678 -0.028275566 0.031589452 -0.1944976 -2.5266654 0.015066111 -0.045828935 -0.006387622
0.05938241 -0.036458332 -0.005347799 -0.9350396 0.007992953 0.03897982 -0.03974777 -0.04389883
-1.1326871 -0.027561419 0.022806061 0.03288801 -0.05330933 -2.3244152 -0.0032510406 -0.6863017
-0.12391146 0.033031426 0.36719915 0.0188688 0.04006271 0.70665175 -0.019261073 -0.03118261
-0.8479211 -0.26443326 -0.5929484 0.009805913 0.006992042 -0.79516417 -0.9587397 -0.6757889
-0.054935794 -0.010665795 -0.024912067 -0.062250033 -0.20790556 -0.048603505 -0.038981304 -1.0687376
-1.650921 -0.07629188 0.016741551 -0.21218231 -0.054712743 0.0022345334 -2.202535 0.014865879
-1.0011852 -0.019070337 -1.5539358 -0.0202178 0.00851239 0.0012081244 0.01570677 0.50157285
0.017191036 0.04647192 -0.059513107 -0.05752934 0.010412492 -0.04759622 0.026675524 -1.3686675
-0.48271167 0.06332097 -0.032791656 -0.05014178 0.070402846 0.042303544 -0.0068394 0.023996614
-1.9270465 -0.22423139 -0.050975062 -0.032701746 -0.0376568 -0.04155975 -0.079542756 -0.38939416
-0.019528177 0.053534336 0.0366975 -0.00308289 -1.699361 0.76040566 0.44152054 -0.040276017
-1.295104 -0.042099915 -0.003949955 0.6594463 -0.103981145 0.042169966 -0.11993881 -0.021475015
-0.039016116 -0.040392242 0.05762173 0.0083078705 -3.0441737 -0.3848646 -0.0054873116 -0.025180563
-0.009322513 -0.36365744 -0.068562545 -0.04579094 -0.0009585006 0.000104655286 0.025922962 0.05826862
0.04446995 -0.04511191 -0.053204477 -0.021533325 -0.15111431 0.044600293 -0.12096103 -0.09373658
0.042847086 -1.5869414 0.2715149 -0.03308843 -0.008325938 -0.918081 0.047638685 0.0027645638
-0.04793212 0.022442473 0.020775683 -0.32157034 0.030313648 -0.11001613 0.06194329 -0.02061559
0.07381685 -0.08716369 0.00037044263 -0.20964016 -0.29108852 -0.16799733 0.038060952 -0.03065651
0.01952445 -1.1075698 0.10595497 -0.33026668 0.012790704 -0.21881333 0.018895622 0.020341836
0.04914043 -0.20593871 0.06801977 -0.056633037 -0.06365857 -0.0063363053 0.0586455 -0.027573235
-1.5888561 0.008339722 -0.04628044 0.0027274506 -1.5437312 -2.3309803 -0.016015932 -0.011798874
0.028818313 -2.870693 0.02432558 -0.31659335 -0.17852056 0.053276546 0.052963734 0.051569007
0.031122915 0.10263981 0.004048288 0.052337024 0.1957803 -0.06001039 0.040555414 -0.18940736
0.038092993 -0.052950323 -0.062426075 0.044822067 -0.053037584 0.03369782 -1.639192 0.05004746
-0.04545864 -0.0055711307 0.038361013 0.019798525 -0.006748416 -0.015497874 0.0013420719 0.18467619
-0.022063611 -0.9870515 -1.4119743 -0.0850805 -0.002755344 -0.041904714 -2.1046362 -0.0010872185
0.00133376 -0.061758146 -1.5767705 -0.0149402395 -0.0058414 0.03600864 -0.015507869 0.054242313
-0.05955635 0.0014302917 0.0641369 -0.42062998 0.071292445 -0.058623314 0.004163621 -0.09204382
-1.758232 -0.21831265 0.02179572 -0.020276159 -0.35892463 0.046541467 0.05863754 -1.2999601
0.017082267 -0.02314916 0.060419183 -0.014378796 -0.25458658 0.05110804 -1.1314267 -0.48357484
00000000: c58c a13d 28a7 26bd 85bf a23d 46d8 f1bd
00000010: 1377 6dbd e576 98bd 58c6 30be d8b7 03bd
00000020: 2a5b da3e 29a2 e7bc f163 013d 612a 47be
00000030: e3b4 21c0 dad7 763c 1fb7 3bbd 424f d1bb
00000040: f83a 733d 5555 15bd 973c afbb c15e 6fbf
00000050: e0f4 023c 4ea9 1f3d 8fce 22bd 42cf 33bd
00000060: e4fb 90bf 7cc8 e1bc c7d3 ba3c 94b5 063d
00000070: e25a 5abd 38c3 14c0 690f 55bb 78b1 2fbf
00000080: 4bc5 fdbd f64b 073d 8701 bc3e be92 9a3c
00000090: cc18 243d 21e7 343f 66c9 9dbc ac72 ffbc
000000a0: 5b11 59bf cc63 87be 77cb 17bf fba8 203c
000000b0: 801d e53b e18f 4bbf f76f 75bf 8000 2dbf
000000c0: 5b04 61bd 96bf 2ebc 6414 ccbc e4f9 7ebd
000000d0: 32e5 54be 7814 47bd dcaa 1fbd 65cc 88bf
000000e0: 6151 d3bf eb3e 9cbd 9425 893c 5246 59be
000000f0: 781a 60bd 4071 123b 55f6 0cc0 0490 733c
00000100: d626 80bf 6539 9cbc 5ee7 c6bf cd9f a5bc
00000110: 8d77 0b3c ee59 9e3a 7cab 803c 1467 003f
00000120: 37d4 8c3c 5759 3e3d 04c4 73bd e3a3 6bbd
00000130: 2899 2a3c 41f4 42bd a186 da3c 7f30 afbf
00000140: fc25 f7be 6dae 813d 8b50 06bd 7861 4dbd
00000150: 5e2f 903d 7b46 2d3d 0c1d e0bb 8c94 c43c
00000160: 76a9 f6bf ea9c 65be 3acb 50bd 44f2 05bd
00000170: 043e 1abd 8e3a 2abd 50e7 a2bd ac5e c7be
00000180: 8ef9 9fbc d246 5b3d 1e50 163d 500a 4abb
00000190: a984 d9bf f2a9 423f fb0e e23e 77f8 24bd
000001a0: f8c5 a5bf f670 2cbd a06e 81bb 79d1 283f
000001b0: 11f4 d4bd 6aba 2c3d 7ba2 f5bd 5fec afbc
000001c0: 5dcf 1fbd 5672 25bd c304 6c3d bc1d 083c
000001d0: bed3 42c0 f90c c5be e8ce b3bb 7847 cebc
000001e0: 74bd 18bc 4f31 babe 856a 8cbd 488f 3bbd
000001f0: e343 7bba 617a db38 645c d43c 14ab 6e3d
00000200: 1f26 363d 44c7 38bd f0ec 59bd a866 b0bc
00000210: b6bd 1abe ccae 363d 6bba f7bd f7f8 bfbd
00000220: 6d80 2f3d e520 cbbf 0004 8b3e bc87 07bd
00000230: 8469 08bc 5b07 6bbf c820 433d af2d 353b
00000240: 7854 44bd 47d9 b73c c431 aa3c dea4 a4be
00000250: 5454 f83c 2350 e1bd 3fb8 7d3d 07e2 a8bc
00000260: 4a2d 973d e082 b2bd f837 c239 e9ab 56be
00000270: 8e09 95be 7e07 2cbe cde5 1b3d 5c23 fbbc
00000280: bdf1 9f3c d9c4 8dbf ebfe d83d b718 a9be
00000290: 1a90 513c 9a10 60be feca 9a3c eca3 a63c
000002a0: 7a47 493d 99e1 52be f34d 8b3d 0bf8 67bd
000002b0: 6d5f 82bd c8a0 cfbb 4436 703d 44e1 e1bc
000002c0: a35f cbbf 54a3 083c 8f90 3dbd 07bf 323b
000002d0: fc98 c5bf c82e 15c0 d833 83bc 1050 41bc
000002e0: 6214 ec3c 6fb9 37c0 7046 c73c 8618 a2be
000002f0: 18ce 36be 8238 5a3d 80f0 583d 063a 533d
00000300: 7cf5 fe3c d234 d23d 80a7 843b 595f 563d
00000310: a27a 483e 74cd 75bd 6f1d 263d 01f4 41be
00000320: 6607 1c3d 70e2 58bd 7cb2 7fbd 5897 373d
00000330: f03d 59bd ba06 0a3d 0bd1 d1bf 91fe 4c3d
00000340: d732 3abd 088e b6bb 7020 1d3d 8430 a23c
00000350: d121 ddbb cbea 7dbc 76e8 af3a c11b 3d3e
00000360: bfbe b4bc 68af 7cbf 93bb b4bf af3e aebd
00000370: 0093 34bb 47a4 2bbd 5cb2 06c0 0081 8eba
00000380: 8fd1 ae3a 1cf6 7cbd 9ed3 c9bf e8c7 74bc
00000390: 3769 bfbb cc7d 133d b814 7ebc 302d 5e3d
000003a0: 5cf1 73bd a078 bb3a 355a 833d d05c d7be
000003b0: c601 923d 001f 70bd fc6e 883b 7881 bcbd
000003c0: bf0d e1bf 5a8d 5fbe f08c b23c 301a a6bc
000003d0: f8c4 b7be 44a2 3e3d eb2d 703d 1865 a6bf
000003e0: 1cf0 8b3c 4fa3 bdbc 1b7a 773d 0b95 6bbc
000003f0: 2c59 82be aa56 513d 97d2 90bf 1f97 f7be

linear2.bias f4 [256]
-0.19912064 0.26383677 0.09084104 -0.17428236 -0.13401327 -0.20475264 -0.014732242 0.28531283
0.18651825 0.22460012 0.22507071 0.16721535 0.005828641 0.12777284 -0.054442562 -0.038619004
-0.16698283 -0.1784921 0.03146048 0.04455265 -0.20935765 -0.14346963 0.187833 0.1892916
0.11021551 -0.12399214 0.1596503 -0.05333832 -0.064829804 -0.010094895 0.009737265 0.2514529
-0.114555165 0.19331595 0.28627923 0.3140405 -0.052008457 0.24817021 -0.005958282 -0.0020402737
0.0071827853 0.28464895 0.0336501 -0.068517886 0.15756965 0.18863553 0.24986766 0.26245597
0.23947485 -0.14405765 0.19247498 0.029646052 0.22598937 0.15375158 0.2117363 0.2722842
-0.059980586 -0.05222974 0.19338955 0.25065956 0.034271583 -0.20757508 -0.027150363 0.032720372
0.19892503 0.27834436 0.023180777 0.15071046 -0.025823988 0.07069709 0.009397146 0.004329404
0.2207831 -0.05820511 0.22884862 -0.13961078 -0.06931342 -0.19171219 0.30742335 0.01776425
0.2576139 -0.051921286 0.1750828 -0.112480454 -0.0712809 0.24816315 0.31872994 -0.039911684
-0.0019226824 -0.048376296 0.09202297 -0.062698565 0.1118208 0.15948622 0.20943122 0.14605819
0.20769453 0.3044086 -0.046016693 -0.059746638 0.24587713 0.0006692315 -0.14778528 -0.15659839
0.21398123 0.006485131 0.29271764 -0.19073373 0.110699244 0.18351156 0.21337889 -0.1749358
-0.16274987 -0.022081867 -0.23205258 0.27288866 0.08095209 0.21713327 0.14021127 0.2324031
0.09737323 0.20255096 0.1162133 0.16332419 0.2277898 -0.01038333 0.20242952 0.2667025
0.070771776 0.05074483 0.1291171 -0.06692992 0.11661217 0.27879846 0.20205742 0.13078667
0.26200145 -0.044750094 0.02340397 0.26640004 0.12789547 -0.051745117 0.016546868 0.2729297
0.18657325 -0.03189934 -0.0019217744 -0.14319292 0.1647739 0.021979792 0.08988088 0.04978917
0.09643319 -0.1431337 -0.05524276 0.030612787 0.09187937 0.20894992 0.028136468 0.12621152
0.24628001 0.23571923 -0.099826425 0.1985417 -0.10935475 0.0040377993 0.22941494 0.047284782
-0.052522298 0.08810912 0.25581527 0.25489035 -0.016758794 0.011186405 -0.024505543 -0.10160829
0.016925685 0.2996194 -0.110931434 0.016551666 -0.05166126 -0.039980974 0.29948425 0.03577288
0.31222513 -0.022515863 0.21885684 0.2992181 -0.05927874 0.118746035 0.112725444 0.059010617
0.009708394 0.038428266 0.25432628 0.12117215 0.32288 0.21161559 -0.23109145 -0.06294183
0.2532699 -0.04087895 0.24877688 -0.03614094 -0.011745643 0.004298197 0.2245321 0.24017783
0.25444725 -0.037929196 0.025688322 -0.05959506 0.21771336 -0.056024544 0.34219876 0.042961948
0.21696484 0.15958834 0.20825917 -0.16115287 0.033716515 0.027166517 0.25505883 -0.004637572
-0.18137917 0.065584585 0.00792044 -0.0012884046 -0.12831141 0.0301963 -0.030412368 -0.047114912
-0.0047484413 0.11024045 0.103144296 0.21112241 0.002543747 -0.16457899 0.22816138 0.25045553
0.20537038 0.23555994 0.030481657 0.20334972 -0.040909316 0.23796126 -0.1328172 -0.21573566
-0.02286604 -0.17664494 0.17307253 -0.021839032 0.23282118 0.000800264 -0.04477821 0.18494092
00000000: 48e6 4bbe 9d15 873e de0a ba3d 1377 32be
00000010: c63a 09be adaa 51be 805f 71bc 8614 923e
00000020: a4fe 3e3e 93fd 653e f078 663e 803a 2b3e
00000030: 2ffe be3b e2d6 023e 2aff 5ebd f62e 1ebd
00000040: 8cfd 2abe a2c6 36be b4dc 003d d77c 363d
00000050: da61 56be b4e9 12be 4b57 403e a8d5 413e
00000060: abb8 e13d 97ef fdbd 5e7b 233e 4879 5abd
00000070: 7dc5 84bd 0f65 25bc 0d89 1f3c 6fbe 803e
00000080: e69b eabd 9ef4 453e 3193 923e ebc9 a03e
00000090: d206 55bd 5520 7e3e b13d c3bb 1db6 05bb
000000a0: 925d eb3b 82bd 913e b0d4 093d 1b53 8cbd
000000b0: f059 213e ac29 413e 4fdd 7f3e a160 863e
000000c0: e538 753e d983 13be 2918 453e 47dc f23c
000000d0: c269 673e 0e71 1d3e 67d1 583e d668 8b3e
000000e0: 34ae 75bd daee 55bd e907 463e 7356 803e
000000f0: 5c60 0c3d 908e 54be 706a debc cc05 063d
00000100: 01b3 4b3e 2783 8e3e 9de5 bd3c d853 1a3e
00000110: d48c d3bc a3c9 903d 7df6 193c acdd 8d3b
00000120: f714 623e 7b68 6ebd 4b57 6a3e 21f6 0ebe
00000130: 32f4 8dbd 3350 44be 9866 9d3e 5586 913c
00000140: f8e5 833e 6aab 54bd e848 333e 275c e6bd
00000150: b8fb 91bd 7b1e 7e3e 9230 a33e 6f7a 23bd
00000160: 8402 fcba 3926 46bd 8a76 bc3d 1b68 80bd
00000170: 4e02 e53d 5b50 233e 2375 563e 4790 153e
00000180: e0ad 543e 72db 9b3e 007c 3cbd e4b8 74bd
00000190: 37c7 7b3e 5e6f 2f3a 0655 17be 545b 20be
000001a0: e51d 5b3e 3981 d43b 16df 953e b44f 43be
000001b0: 49b6 e23d 74ea 3b3e ff7f 5a3e 5f22 33be
000001c0: e7a7 26be 08e5 b4bc 319f 6dbe 10b8 8b3e
000001d0: 36ca a53d 2f58 5e3e 8b93 0f3e 14fb 6d3e
000001e0: 9e6b c73d 8569 4f3e 3d01 ee3d 753e 273e
000001f0: bb41 693e d81e 2abc af49 4f3e 3b8d 883e
00000200: cbf0 903d d0d9 4f3d 4637 043e 8e12 89bd
00000210: 5dd2 ee3d acbe 8e3e 24e8 4e3e f1ec 053e
00000220: 0e25 863e e04b 37bd afb9 bf3c 9665 883e
00000230: 08f7 023e b0f2 53bd 4c8d 873c 71bd 8b3e
00000240: 0f0d 3f3e e2a8 02bd 0ce4 fbba 2aa1 12be
00000250: 7dba 283e f70e b43c 7813 b83d bbef 4b3d
00000260: c47e c53d a491 12be 3b46 62bd abc7 fa3c
00000270: 402b bc3d f8f6 553e 737e e63c 983d 013e
00000280: d430 7c3e 6260 713e cc71 ccbd 844e 4b3e
00000290: 62f5 dfbd 844f 843b c0eb 6a3e b0ad 413d
000002a0: 9f21 57bd 8e72 b43d 38fa 823e fd80 823e
000002b0: bd49 89bc 2f47 373c d9bf c8bc 0218 d0bd
000002c0: bca7 8a3c b767 993e 0530 e3bd 5c97 873c
000002d0: c29a 53bd 17c3 23bd 0056 993e 9586 123d
000002e0: f9db 9f3e 3073 b8bc 021c 603e 1d33 993e
000002f0: 44ce 72bd 1f31 f33d 99dc e63d 1eb5 713d
00000300: f50f 1f3c f566 1d3d 0e37 823e 1b29 f83d
00000310: 8750 a53e c2b1 583e 3da3 6cbe a5e7 80bd
00000320: 98ac 813e b070 27bd 5ebf 7e3e 8608 14bd
00000330: cc70 40bc e4d7 8c3b beeb 653e 2df1 753e
00000340: e946 823e a55b 1bbd 5170 d23c f319 74bd
00000350: 40f0 5e3e fe79 65bd ad34 af3e def8 2f3d
00000360: 082c 5e3e 206b 233e e441 553e 4205 25be
00000370: 541a 0a3d 518c de3c 1297 823e c6f6 97bb
00000380: 76bb 39be 3651 863d bcc4 013c afdf a8ba
00000390: 1164 03be 3b5e f73c 5c23 f9bc 91fb 40bd
000003a0: d098 9bbb bfc5 e13d 513d d33d 7930 583e
000003b0: feb4 263b 6587 28be 23a3 693e b53b 803e
000003c0: 9d4c 523e a036 713e abb4 f93c e93a 503e
000003d0: 8790 27bd 1eac 733e 3b01 08be cfe9 5cbe
000003e0: 9051 bbbc 69e2 34be ed39 313e c5e7 b2bc
000003f0: ad68 6e3e cfc8 513a 5b69 37bd 2761 3d3e

linear3.weight f4 [1, 256]
1.4068425 -1.1428859 -0.71954274 1.2005886 1.0005883 1.3452009 -1.3989627 -1.1663972
-0.76404446 -0.45435643 -0.5562997 -0.80388445 0.02375862 -1.095022 0.0023486812 0.013977396
1.1953613 1.299395 -0.008208219 0.013672853 1.8503231 1.5245612 -0.718063 -0.8756754
-0.7924049 1.1265101 -0.708013 1.4915619 -0.010585701 -0.00036427262 0.0038576117 -1.2750316
1.2371067 -0.42204162 -0.47757155 -1.4529266 0.047479242 -1.1959549 0.03099612 0.036662478
0.008621354 -0.932509 0.0146978535 1.3032266 0.92297876 -0.77119964 -0.5065706 -0.474013
-0.47148126 1.1673849 -0.42803165 0.028943459 -0.5765726 -0.918929 -0.8059727 -0.4310747
0.047363758 0.04386347 -0.74683386 -0.52781016 0.052187268 1.2983476 -0.019598216 0.025238678
-0.3975185 -0.466414 0.10690911 -0.83879274 -0.0069828406 -0.80131245 0.014227176 0.04809659
-0.74606985 -0.0029218644 -0.7440487 1.5574211 1.1380564 1.3397034 -0.5026195 -0.032665983
-0.46148098 0.019379536 -0.87581027 1.077265 0.98344153 -1.0889721 -1.0944418 0.04997295
0.013004721 0.0033887834 -0.7642837 -0.0031407254 -0.98501277 -0.79209185 -0.52453345 -1.173202
-0.43874097 -1.4672877 -0.038946826 0.035367567 -1.5100207 0.017421894 1.0795668 1.3433148
-0.8969396 0.0059433803 -0.37996992 1.1044182 -0.7751656 -0.9691096 -0.84869856 1.5553383
1.3031493 0.047429323 1.5164095 -0.8425331 -0.59926575 -0.5349249 -0.76735836 -0.5059037
-0.78620124 -1.008285 0.5524021 -0.8096463 -0.8575793 -0.017336793 -0.84795415 -0.45377696
-0.8207972 0.042511933 -0.7306262 1.1559191 -0.813323 -0.4391363 -0.766871 -1.0440794
-1.565416 0.011097371 0.011569551 -0.38458133 -0.80971473 0.9508088 0.11125032 -1.3983217
-0.43715212 0.060543776 0.023154749 1.082405 -0.90672517 0.008454089 -0.7933149 -0.91086614
-0.73359287 1.0087389 -0.006513909 0.04308861 -0.803185 -0.47245094 0.9581509 -0.7889725
-1.1160449 -0.4974872 1.172074 -0.77842194 1.1668344 0.0033353253 -0.50363576 0.023790658
0.985873 0.3020392 -0.5388875 -0.46686077 -0.00081557746 0.0052295206 0.05204496 0.9658634
0.04043918 -0.5010783 1.2100313 0.0068102563 0.012240849 0.008357231 -0.46653107 -0.008769249
-1.018541 0.050314933 -0.47614777 -0.5381986 0.03612231 -1.039229 -0.74033123 0.8689729
-0.0014212811 0.0069972663 -0.41593426 -0.7789764 -1.0256375 -0.7368317 1.5704765 0.016415693
-0.38052246 2.8197947 -0.8065481 0.0023179476 1.1495816 0.04797545 -0.47853848 -0.5008531
-0.4679522 0.95698434 0.0337262 1.1994287 -0.45513028 0.036194243 -1.134862 0.050224036
-0.8732461 -0.8281137 -0.4139919 1.2096348 0.05519954 -0.0070496993 -0.37196645 -0.015973873
1.5264645 -1.2170115 0.024832621 -0.0011382985 1.0079684 0.044264313 0.034299895 0.034516707
-0.05697734 -1.0521796 -0.8280359 -0.78831774 0.019909646 1.277024 -0.5058394 -0.5477182
-0.7873499 -0.8784551 0.008631039 -0.7628749 0.03651719 -0.43941858 1.2370431 1.3692354
0.0018255452 1.2085459 -1.0629098 0.011326502 -0.38704488 0.37115568 1.0118978 -0.8234383
00000000: 6a13 b43f 164a 92bf f433 38bf e3ac 993f
00000010: 4713 803f 8b2f ac3f 3611 b3bf 814c 95bf
00000020: 6b98 43bf 68a1 e8be a869 0ebf 5fcb 4dbf
00000030: 70a1 c23c ae29 8cbf 55ec 193b 7301 653c
00000040: 9901 993f 9352 a63f c47b 06bc 1a04 603c
00000050: 63d7 ec3f d224 c33f fad2 37bf 432c 60bf
00000060: 0cdb 4abf 7c31 903f 5740 35bf 80eb be3f
00000070: a66f 2dbc d8fb beb9 fccf 7c3b 3c34 a3bf
00000080: 8359 9e3f d715 d8be 4284 f4be 80f9 b9bf
00000090: 9879 423d 0d15 99bf 93eb fd3c 652b 163d
000000a0: 9440 0d3c e9b8 6ebf 44cf 703c 21d0 a63f
000000b0: 5648 6c3f 576d 45bf 9cae 01bf d5b1 f2be
000000c0: fe65 f1be de6c 953f f726 dbbe d51a ed3c
000000d0: 439a 13bf ee3e 6bbf 3a54 4ebf d3b5 dcbe
000000e0: 8000 423d 2faa 333d 8130 3fbf 911e 07bf
000000f0: 51c2 553d 4130 a63f 708c a0bc 58c1 ce3c
00000100: 8b87 cbbe d1cd eebe 2af3 da3d 1fbb 56bf
00000110: 50d0 e4bb d022 4dbf 1a19 693c ee00 453d
00000120: 6ffe 3ebf c07c 3fbb fa79 3ebf 9359 c73f
00000130: d5ab 913f 677b ab3f acab 00bf c4cc 05bd
00000140: 3c47 ecbe d5c1 9e3c 1a35 60bf d2e3 893f
00000150: d3c2 7b3f 7063 8bbf ab16 8cbf 70b0 4c3d
00000160: c111 553c 5a16 5e3b 19a8 43bf a1d4 4dbb
00000170: cc29 7cbf 88c6 4abf d347 06bf 7c2b 96bf
00000180: a8a2 e0be 15d0 bbbf b586 1fbd 95dd 103d
00000190: 5c48 c1bf 5cb8 8e3c 3f2f 8a3f bdf1 ab3f
000001a0: d59d 65bf b0c0 c23b 6b8b c2be 935d 8d3f
000001b0: 4171 46bf 9117 78bf 4f44 59bf 5315 c73f
000001c0: 99cd a63f 4045 423d b519 c23f 40b0 57bf
000001d0: 7b69 19bf d7f0 08bf 9971 44bf e882 01bf
000001e0: 7c44 49bf 7c0f 81bf 396a 0d3f fb44 4fbf
000001f0: 518a 5bbf e405 8ebc 8613 59bf 7455 e8be
00000200: c41f 52bf fe20 2e3d 520a 3bbf 28f5 933f
00000210: f035 50bf 79d6 e0be a851 44bf 65a4 85bf
00000220: 8d5f c8bf bfd1 353c 378e 3d3c d8e7 c4be
00000230: 7749 4fbf 3568 733f 35d7 e33d 35fc b2bf
00000240: 67d2 dfbe c0fc 773d 07af bd3c 3f8c 8a3f
00000250: 241f 68bf 0583 0a3c af16 4bbf 862e 69bf
00000260: becc 3bbf 5b1e 813f a172 d5bb af7d 303d
00000270: 889d 4dbf 17e5 f1be 6149 753f 1afa 49bf
00000280: 8fda 8ebf a4b6 febe 8506 963f a946 47bf
00000290: d45a 953f 7995 5a3b 46ee 00bf a0e4 c23c
000002a0: 2c62 7c3f e2a4 9a3e 88f4 09bf 6008 efbe
000002b0: 7acc 55ba 665c ab3b 192d 553d d342 773f
000002c0: 8ea3 253d ab46 00bf 4ee2 9a3f 9228 df3b
000002d0: d88d 483c c4ec 083c 29dd eebe e5ac 0fbc
000002e0: 8d5f 82bf 0817 4e3d a4c9 f3be 62c7 09bf
000002f0: fdf4 133d 7505 85bf 5986 3dbf 0275 5e3f
00000300: 484a baba 5349 e53b 56f5 d4be ff6a 47bf
00000310: 1748 83bf 01a1 3cbf 6005 c93f 347a 863c
00000320: d7d3 c2be 8477 3440 f079 4ebf b5e8 173b
00000330: 7d25 933f e881 443d ff02 f5be e937 00bf
00000340: 6e97 efbe edfc 743f 7c24 0a3d e186 993f
00000350: d606 e9be 6a40 143d 2843 91bf b8b7 4d3d
00000360: 0e8d 5fbf 42ff 53bf bff6 d3be 50d5 9a3f
00000370: ea18 623d 2a01 e7bb 6372 bebe a4db 82bc
00000380: 3063 c33f 08c7 9bbf c86d cb3c f632 95ba
00000390: 1c05 813f 7f4e 353d 0c7e 0c3d 6461 0d3d
000003a0: 1261 69bd d2ad 86bf 29fa 53bf 31cf 49bf
000003b0: 8e19 a33c 8675 a33f b17e 01bf 4337 0cbf
000003c0: c38f 49bf 6fe2 60bf 3469 0d3c c54b 43bf
000003d0: 0d93 153d 79fb e0be 6e57 9e3f 1b43 af3f
000003e0: 2247 ef3a a2b1 9a3f 6e0d 88bf cb92 393c
000003f0: bf2a c6be 1e08 be3e de85 813f dacc 52bf
