turtlebot3_rl_sim/src/models/td3/turtlebot3_top_16_obstacle/td3_critic2_model_ep2500.pt (torch_old, 708642 bytes, 5 tensors)

linear1.weight f4 [256, 432]
000000 54 ed 84 3a 36 92 1b bd 1c 20 85 3c 8d 3d 1d 3d
       0.001014153 -0.037981234 0.016250663 0.038388778
000010 3d 18 8b b8 3e 38 27 3d 37 c5 b8 3c cc 84 8e 3c
       -6.632551e-05 0.04082512 0.022554977 0.017397307
000020 9a 98 da bc 85 71 0f bd 80 26 44 3c b9 44 43 bd
       -0.026684094 -0.03502037 0.01197207 -0.04767296
000030 d6 80 14 bd 45 a1 06 bd 2e e0 91 b9 6c c0 8f 3c
       -0.03625568 -0.032868642 -0.00027823582 0.017547809
000040 8b 06 f0 3c af 97 34 3d 6f bf a4 bc df ca 3f 3c
       0.029299995 0.04408997 -0.020110814 0.011706083
000050 a6 89 18 bd a4 f6 0a 3d 16 ea 29 3c 34 0a 88 3c
       -0.037240647 0.03392662 0.010370752 0.016606428
000060 b5 f0 05 bd 84 94 05 3d 3b 52 e0 bb c5 89 0c bb
       -0.03270026 0.03261234 -0.00684574 -0.0021444422
000070 b1 61 56 3c 93 76 eb bc f1 e0 46 bd c5 c9 12 3d
       0.013084815 -0.028743064 -0.048554365 0.035836954
000080 90 11 35 bd a6 c5 27 3d 78 7e 49 3a d9 50 4e bd
       -0.044206202 0.040959977 0.0007686387 -0.05037007
000090 4d 88 03 bd 1d 8d 10 3d ef 61 25 bd 72 be eb 3c
       -0.03211241 0.035290826 -0.0403766 0.028777335
0000a0 34 6f f3 bc ed c6 10 3d bd 2d 96 39 de 59 24 3d
       -0.029716112 0.03534596 0.00028644307 0.040124767
0000b0 9f cc 2d bc 32 19 e0 3c 29 c0 43 bc 14 33 09 3d
       -0.0106078675 0.027355764 -0.01194767 0.033495978
0000c0 3f 78 ad bc 56 29 14 bd 6a 56 de bb b6 a2 2b 3d
       -0.021175502 -0.036172234 -0.0067852037 0.04190322
0000d0 6c e9 04 3d 12 bc 55 bc 7b b4 72 3a 8c c0 03 3d
       0.03244917 -0.013045328 0.0009258461 0.03216605
0000e0 f9 07 4a bd e6 54 a6 3c 4d f0 93 3c c0 95 bf bc
       -0.04932401 0.020304155 0.01805892 -0.023386836
0000f0 9f 8c a7 bc 0d 65 0c bd 26 25 2f 3d 0d 1a 0c bd
       -0.020452796 -0.034276057 0.042760037 -0.03420453
000100 34 47 02 3d d9 a7 4c bc 9b a7 e4 bc b5 08 1b 3d
       0.031806186 -0.01249119 -0.027911952 0.0378501
000110 80 24 3c bd 4d f4 0a bd 94 13 88 3b 56 bf ad 3c
       -0.045933247 -0.03392439 0.0041527245 0.0212094
000120 cf 78 29 bd c9 d6 46 bd 59 4e dd 3c 5c 32 03 3d
       -0.041374978 -0.04854468 0.027014898 0.03203045
000130 f3 e3 6b bc de b9 14 bc 7d a7 09 bd e8 c2 b5 bb
       -0.014397609 -0.009077517 -0.033606995 -0.0055469163
000140 10 18 36 bb 51 bf 49 bd 4f 01 3f 3c 97 4e 2c bd
       -0.0027785338 -0.04925472 0.011658027 -0.042067137
000150 06 7f 2c 3d 2d 12 12 3d 7f 28 33 3c ec 5f 84 3c
       0.042113326 0.035661865 0.010934948 0.01615902
000160 db 21 f3 3b ee af 18 bd 3b 43 ef bc ab 15 ee bc
       0.0074198074 -0.037277155 -0.029206863 -0.029063066
000170 2f 7a bb 3c 59 90 52 3c df e9 3e 3c 54 4d 0e 3d
       0.02288541 0.012851798 0.011652439 0.034741715
000180 dd 6f 98 3c 48 2b 3b bd 77 a5 36 3c 41 84 dd 3c
       0.018608028 -0.045695573 0.011147848 0.027040603
000190 42 64 5a bc f7 83 2d bd cd 88 1e 3d 5f 6c 23 bd
       -0.013329567 -0.04236218 0.038704682 -0.039898273
0001a0 31 d6 cd bb 3f 2a ba 3b 09 ad ce bc cc 88 05 3c
       -0.006281637 0.0056813057 -0.025228994 0.008150291
0001b0 c8 90 c1 3c 78 3a 4c 3b 4d be 13 3d 0f dd 2a bd
       0.023628607 0.003116278 0.036070157 -0.041714724
0001c0 0f d5 3c 3c 10 11 cc 3a f6 8b 9b bc b6 46 19 bd
       0.0115254065 0.001556905 -0.018987637 -0.03742095
0001d0 41 42 4f bd ce 0a 1a bd 0f 70 38 3b 8b d6 77 3c
       -0.050600294 -0.03760796 0.0028142964 0.015126835
0001e0 48 83 3d bd 4e 62 1a bd c6 05 22 3d 4d e3 11 3d
       -0.046267778 -0.037691407 0.039556287 0.03561716
0001f0 9d 53 0b bc 69 df c3 bc a8 71 35 bc 68 18 c7 3b
       -0.008503822 -0.023910241 -0.011074461 0.0060759075
000200 8e 4a 9f ba 1a 25 67 3c 07 0c 22 bd 02 fa d9 bc
       -0.0012152956 0.014107967 -0.03956225 -0.02660847
000210 be 87 a0 3c d8 6f b4 bc 2a b5 e2 3c a6 62 2b 3d
       0.019595977 -0.022025988 0.027674276 0.041842125
000220 89 f9 d4 3c c3 be ff 3c c1 96 43 bc 5d af 1c 3d
       0.025997894 0.031218892 -0.011937798 0.038253177
000230 f3 6e f2 3b bd 41 1b 3d 54 52 70 bc 5f fa 35 3d
       0.00739848 0.03790449 -0.014668066 0.044428226
000240 c7 1f a6 bb de 3b 29 3c 66 53 00 3c e8 21 3b bd
       -0.005069706 0.010329215 0.007832384 -0.045686632
000250 7b e9 65 bb 40 7a 4e 3c be d9 a3 3c 12 5d 50 bb
       -0.0035081792 0.012602389 0.020001289 -0.0031793755
000260 49 44 d4 3c b0 42 3e bd 1c 35 0e 3d d4 69 83 3c
       0.025911467 -0.046450317 0.034718618 0.016041674
000270 e3 b3 79 3c 9f 07 80 bc 69 f9 c7 bc d0 12 3a bd
       0.015240642 -0.015628634 -0.02441092 -0.045428097
000280 40 c8 c1 3c 27 3a b8 3c 61 c2 4f bd 4b 82 eb bc
       0.023655057 0.022488667 -0.050722484 -0.028748652
000290 1b ce 68 bc 5f 85 a3 bc 4d 90 8a ba 99 20 d5 3c
       -0.014209296 -0.019961057 -0.001057157 0.02601652
0002a0 29 37 45 bd 8c 8d ff bc af 5c 29 bd e8 a2 32 bc
       -0.048148308 -0.031195424 -0.041348156 -0.010903098
0002b0 d6 70 1f bd f7 82 29 bd a7 c0 2c bd ad 08 1e 3d
       -0.038925968 -0.041384663 -0.042175915 0.038582493
0002c0 10 eb 30 bc d0 d2 cc 3c 1e d5 1d bd 1e cc 12 bd
       -0.010798231 0.025002867 -0.038533323 -0.035839193
0002d0 d7 65 a5 bb 13 3e 6a bc d4 9b 03 3c f8 6d 39 bd
       -0.0050475406 -0.014297026 0.008032758 -0.04527089
0002e0 31 7d 47 bc c9 28 ca bb 55 12 83 bc 99 2b cf bc
       -0.012175844 -0.0061694128 -0.015999952 -0.025289344
0002f0 4d 19 89 bc ae 96 17 bc 38 c6 3c bd ed 69 13 3d
       -0.016735697 -0.009252233 -0.046087474 0.03598969
000300 e6 04 ab 3c 46 03 18 bd a8 58 b5 bc d8 1b 42 3b
       0.02087636 -0.037112497 -0.022137001 0.0029618647
000310 9f 9e 24 bd d7 1a 25 bd 10 95 b6 bb a1 d1 41 bd
       -0.040190335 -0.0403088 -0.005571969 -0.04731906
000320 a1 ff ca bc 6d 72 83 bb e6 bb 19 bd 09 c9 da 3b
       -0.024780096 -0.0040114434 -0.03753271 0.0066767973
000330 e8 14 b9 ba 14 ae 81 3c 46 a7 9e bc 63 63 7c 3c
       -0.001412061 0.015830077 -0.019366872 0.015404555
000340 51 b5 53 3b e3 bd 6f bc 6e b8 a1 3c 81 40 48 bd
       0.0032304118 -0.014632675 0.019741263 -0.04888964
000350 41 97 45 bd b7 17 25 bd 3e 8a 91 bc 0f d5 23 bc
       -0.04823995 -0.04030582 -0.017766114 -0.009999528
000360 d1 f0 47 bd 3e 20 ab 3c 2d dc 1a 3d 91 5d d2 3c
       -0.048813645 0.020889398 0.037807632 0.025679382
000370 55 ed 1d 3c a8 f6 3c bd 67 3d 2c bd 3a 9d 80 3a
       0.009639104 -0.046133667 -0.042050745 0.0009812482
000380 dd 9e 8c bb 27 33 b5 3c 4d 38 88 bc 99 c1 4f bd
       -0.004291399 0.022119118 -0.016628409 -0.05072174
000390 1d 57 19 3d 33 42 ee bc bc b1 00 3d ff ee 2d bd
       0.037436593 -0.0290843 0.0314195 -0.042464253
0003a0 c0 28 34 bc 68 76 c8 3c 18 27 24 bb 1e ff 2f 3d
       -0.010996044 0.024470523 -0.0025047716 0.042967908
0003b0 c5 16 1b 3c 6a 09 6f 3c 0e 1e 1c bd 0a ee d8 bb
       0.009465878 0.014589647 -0.0381146 -0.0066201733
0003c0 9b a1 fe 3c 56 2f 2c 3d 18 d3 b1 bc fe 42 80 3c
       0.031082919 0.04203733 -0.021707103 0.015656944
0003d0 09 f5 42 bd 32 c4 d0 bc 0a 1f d5 bc 35 9f 9d 3b
       -0.047596965 -0.025484178 -0.026015777 0.0048102387
0003e0 07 3b 2f bd 47 47 ae bc 8f d0 aa bc 24 cf 02 3c
       -0.042780902 -0.021274222 -0.020851402 0.0079839565
0003f0 55 f9 02 bd 82 32 db bc 11 40 40 bd 31 ca 4f bc
       -0.031976063 -0.026757482 -0.0469361 -0.0126824835

linear1.bias f4 [256]
000000 c4 0b 08 3c 4e 06 b2 bb 61 61 db 3c a2 e8 d2 bc
       0.008303586 -0.0054328805 0.026779832 -0.025745694
000010 4e ab fe 3d 41 b6 44 bd 20 9a 44 3c 14 9c 04 3c
       0.124350175 -0.048025373 0.011999637 0.008093853
000020 1e c0 fa 3c 68 20 02 3e 23 cc 51 3c e8 e8 65 bc
       0.030609187 0.12707675 0.012805018 -0.01403258
000030 71 75 da 3a 4b 6b aa bd b1 88 88 bb ea df cb bd
       0.001666708 -0.08321246 -0.0041666855 -0.099548176
000040 dd d4 03 bd 46 2f fa 3d 99 e7 51 3d d2 53 24 3c
       -0.032185424 0.12216048 0.05124626 0.01002975
000050 25 82 c2 3d 9a 16 df bc 33 24 8d 3d df 3e 08 bd
       0.09497479 -0.027232457 0.0689167 -0.033263084
000060 65 ff 14 3d fa b4 5b bd 37 94 ba 3d 87 10 37 3e
       0.036376376 -0.05363939 0.09110301 0.17877398
000070 9e bd a3 3b d3 27 9d 3d 1f ef 21 bd 7b b6 74 3d
       0.0049969694 0.076736115 -0.039534684 0.05974434
000080 b9 c4 cf bc e2 31 c6 bd 17 1e bf bd 3a 77 be 3d
       -0.02536236 -0.09677483 -0.09331911 0.093000844
000090 e0 4d a9 3d a7 bd 4e 3d 40 e6 93 bc 8b 54 ad bc
       0.082668066 0.050473835 -0.018054128 -0.021158477
0000a0 dd 54 02 bd 70 a8 84 3d 63 11 80 bd 6d 0e 03 bc
       -0.031819213 0.064774394 -0.06253316 -0.007999045
0000b0 aa d9 40 be 57 6c 26 bd e0 59 a9 3d 76 3a 41 3d
       -0.18833032 -0.040630665 0.082690954 0.047174893
0000c0 96 1f 30 bd be 22 e6 3d b8 f5 cb 3b a8 bf 41 3d
       -0.042998873 0.11237095 0.0062243603 0.04730192
0000d0 88 87 ac 3b 15 94 19 3e b1 33 02 3e 33 d7 ea b8
       0.00526518 0.14997895 0.12715031 -0.000111980735
0000e0 ee 97 0a 3e a2 68 87 3c 47 f9 f5 3d 10 04 f4 bb
       0.13534519 0.016529385 0.120104365 -0.0074467734
0000f0 b9 12 7d 3d 65 37 16 3e fd b3 39 3d c6 42 e1 bc
       0.061785433 0.14669569 0.045337666 -0.02749766
000100 90 3e c3 bd fe 8c c3 3c 80 9d c5 3c 36 ef 2b bd
       -0.09533417 0.023870941 0.024122953 -0.041976176
000110 02 80 bc 3d c6 6d 99 bc 44 59 fc bd c6 d7 18 bd
       0.09204103 -0.018729102 -0.123217136 -0.037315153
000120 62 0f d4 bd 56 95 66 3e 0c b0 73 bc b6 f0 48 3e
       -0.103544965 0.22517905 -0.014873516 0.19623074
000130 8b 7b 1f 3d 44 a3 75 bc 01 5b ce bc 56 93 93 bc
       0.03893618 -0.014992539 -0.025189878 -0.018014591
000140 2f 4f be 3c 94 21 75 bc a4 18 e1 3d 71 bf 1f 3e
       0.023231117 -0.014961619 0.10991028 0.15600373
000150 ec 78 01 be 56 ea aa 3c e0 ce d5 bd c1 33 3f bd
       -0.12643784 0.020863693 -0.10439849 -0.046680216
000160 a9 d4 48 3d 3f 27 ab bd 08 42 d2 3b 32 f8 d7 3c
       0.049030934 -0.08357095 0.006416563 0.026363466
000170 5b b5 04 3d 11 c2 34 bc f6 78 42 3e 7e f4 33 3b
       0.032399517 -0.011032597 0.18991455 0.002745896
000180 44 fa 8c 3c 00 95 56 bd a7 82 f5 bd 66 f3 2f 3d
       0.01720918 -0.05238819 -0.119878106 0.042956732
000190 34 c7 0e 3d 11 75 f1 bd 76 48 58 bd e7 66 c5 3d
       0.034857944 -0.11789907 -0.05280348 0.09638768
0001a0 ba ff df 3c f9 69 42 bd b1 72 de 3c 70 8e 80 3e
       0.02734362 -0.047464345 0.027154298 0.2510867
0001b0 dd 96 05 bd 8a 63 ed 3b db 69 0d 3e 93 c2 28 3e
       -0.032614578 0.007244532 0.13809912 0.16480474
0001c0 86 26 ca 3c 1e ba ae 3c a1 9d a3 bd 77 36 d5 bc
       0.024676573 0.021328982 -0.0798905 -0.026026947
0001d0 57 33 23 ba 9a ee 00 3e 49 36 cc 3d 32 99 6c 3c
       -0.0006225607 0.1259102 0.099712916 0.0144408215
0001e0 7b eb 6d bd 24 f9 0c 3e 05 b6 1e 3d da 5a ee 3c
       -0.0580859 0.13766915 0.038747806 0.029096056
0001f0 d1 2e b9 3d 12 49 64 3b 92 6a 06 bc 42 81 a8 3d
       0.09042133 0.0034833592 -0.008204119 0.08227779
000200 df b0 33 3c 22 9d 69 3b 8e 81 9a bc c8 1b 05 be
       0.010967462 0.0035646637 -0.018860605 -0.12998879
000210 2a c9 88 bd fc 31 c0 3d 7c 64 c4 3d af ed a4 3d
       -0.06678994 0.09384534 0.095894784 0.08053147
000220 a1 1f ce bc fd d3 01 3b 1d b6 1e 3c 5a 5d f6 bc
       -0.025161566 0.0019810193 0.009686974 -0.03007381
000230 c0 76 64 ba c6 d0 2e 3d ba 91 93 3d 6d 72 1c be
       -0.0008715205 0.04267957 0.072055295 -0.15278025
000240 87 e2 b3 bc 7e 02 b2 3c 58 e4 44 3c 79 d5 47 bd
       -0.021958603 0.021729704 0.012017332 -0.048787568
000250 e9 63 49 bc 74 83 79 ba c0 93 37 bc c0 f5 19 be
       -0.012291887 -0.0009518184 -0.01120466 -0.15035152
000260 9a 4a 08 bd 24 72 18 3e 3b 96 f6 3c d6 7f 29 3d
       -0.03327427 0.14887291 0.030100932 0.04138168
000270 27 59 b7 3c 2e 0e a4 3d 6e 88 a9 3c 2e fa 95 bc
       0.022381378 0.08010517 0.020694938 -0.018307772
000280 4e ee 8b bd 1c c7 4c 3c 84 87 03 3d 56 9d fc 3c
       -0.068325624 0.012498643 0.03211166 0.030836742
000290 02 92 62 3d ae 5d 94 bc 07 69 38 3d 7c e7 c5 3c
       0.055315025 -0.018111076 0.045022037 0.024158232
0002a0 86 62 b0 3d e3 2e 44 bd 02 99 8e 3c 29 81 d7 bc
       0.08612542 -0.047896277 0.017406944 -0.026306706
0002b0 81 eb 40 3c 05 ad 03 bd 7d b2 1c 3d 58 eb 0a 3d
       0.0117748985 -0.032147426 0.038256157 0.033915848
0002c0 33 1b 1d bd eb 69 72 3d 03 e7 71 3c 6c 9a f8 3d
       -0.038356017 0.059183042 0.01476455 0.12138829
0002d0 2d 39 98 3c 60 10 9f 3b 4d 09 14 3d a8 01 b7 bc
       0.018581951 0.004854247 0.036141682 -0.022339657
0002e0 ed c0 1e 3e ed b3 4a be fc 7d 9e 3d f3 c1 f9 3c
       0.15503283 -0.19795199 0.07738873 0.03048799
0002f0 d7 1e 1a bd 8b d5 7e 3a f7 41 b8 3c 5a 4c a5 bd
       -0.037627067 0.00097211514 0.022492392 -0.080712035
000300 7d 45 3a bd 84 b0 78 bc 94 a5 eb bd 9e 6d 9f bc
       -0.045476425 -0.015178803 -0.11506191 -0.01946145
000310 30 91 b3 bc cf 4f 9b bc 36 28 e5 3d 30 aa 33 bc
       -0.021919817 -0.018958954 0.1118931 -0.010965869
000320 f2 e9 ea 3c a7 96 0e 3e 2c 57 fa bc 88 d8 34 bd
       0.028676007 0.13924657 -0.030559145 -0.044151813
000330 26 95 94 bd 7e 58 12 bd 25 fd 0b bd 61 d9 c7 bc
       -0.0725501 -0.035728924 -0.034176964 -0.024395647
000340 08 e1 3d bb ce 1e ca 3a 28 f3 31 bd 5b 6d 45 bc
       -0.002897324 0.0015420557 -0.043444782 -0.012049998
000350 74 94 cc 3c c8 1f 3f bd d2 70 54 bc db ae 07 3d
       0.024973132 -0.04666117 -0.012966352 0.03312574
000360 11 94 4b bd ea 60 6f 3c d1 d1 32 bd ac 53 05 3d
       -0.049701754 0.014610508 -0.043657128 0.0325505
000370 d4 91 0d 3e 03 e5 c5 3d fb 19 0a 3e 6a 2a f5 bd
       0.1382516 0.09662821 0.13486473 -0.119709805
000380 f4 87 0b bd d1 54 48 bd f8 26 30 bc 26 6d b6 3d
       -0.034065202 -0.048909012 -0.010751478 0.08907537
000390 4f 52 53 bb ce 82 8f 3d 63 1e 7b 3d bb ba aa bc
       -0.0032245105 0.07007371 0.061308276 -0.020840993
0003a0 03 f7 b1 3c 4c 17 07 bd 47 ef fb 3d 2b 2c 64 bc
       0.02172423 -0.032981202 0.12301498 -0.013926546
0003b0 bd c3 16 3c 12 59 d9 bc 56 ed 42 3d 1b 43 62 bd
       0.009201941 -0.02653173 0.047589622 -0.055239778
0003c0 77 ef 32 3c a7 64 75 bd f7 56 28 bd a2 8b d5 bc
       0.010921351 -0.059910443 -0.04109856 -0.026067559
0003d0 04 bf 80 3c c9 51 0d 3d 2d af 15 3d 1d bf 10 3d
       0.015716083 0.034501825 0.036544014 0.03533851
0003e0 40 2c 33 3e 3e bd 23 3e c9 29 ce bc 01 13 41 bd
       0.17497349 0.15990159 -0.02516641 -0.047137264
0003f0 22 71 25 bd 42 e3 c0 3d ad 64 69 3e b8 b1 b5 bb
       -0.040391095 0.09418346 0.22792311 -0.0055448674

linear2.weight f4 [256, 256]
000000 76 3e 11 3d 61 71 d5 3e af 5b 25 3d 6a 85 52 bd
       0.035459958 0.41688064 0.04037064 -0.051396765
000010 f0 5c 3d 3f 60 5b c3 3c 2c 2e 05 bd 94 1e 8f bc
       0.73969936 0.023847282 -0.032514736 -0.017470635
000020 30 05 f8 3c a1 b7 62 3e 32 c8 6a 3d 5e ce 8a be
       0.030275911 0.22140361 0.057319827 -0.2711057
000030 fa 3c 56 bd c6 87 34 bf 13 68 5c 3f 90 0f ab be
       -0.052304246 -0.70519674 0.86096305 -0.3341031
000040 ab da e2 3c 16 07 d0 3d dc c9 89 3e e6 d8 ee bf
       0.02769216 0.101576015 0.2691182 -1.8659942
000050 f1 e8 f3 3e 12 d0 da 3c 06 86 c2 3d 39 e9 14 3d
       0.47638658 0.026710544 0.09498219 0.03635523
000060 23 2e 6f bd 6d 6c 84 bd 28 1a fa 3e 61 5c 93 3d
       -0.05839361 -0.06465993 0.4884808 0.07195354
000070 2e ae 2a 3d af 94 4e 3f 7f 95 a5 bc db c5 1c c0
       0.041670017 0.80695623 -0.020212887 -2.4495761
000080 80 e8 61 bb f1 04 ab bd 71 98 fd 3c a3 84 d7 3d
       -0.0034470856 -0.08350552 0.030956479 0.10523345
000090 75 bf 4f 3f 0d 11 7c 3e 70 46 0c 3f 8c b0 a7 bf
       0.81151515 0.2461588 0.5479498 -1.3100753
0000a0 93 65 f3 be e2 3a d1 3e af e8 33 3e e9 48 c1 bc
       -0.47538432 0.40865237 0.1756923 -0.023594337
0000b0 46 b3 9c be 5e a7 ae bc f2 b0 2c 3e 6d 52 2f 3f
       -0.30605525 -0.021320041 0.16864374 0.68485147
0000c0 de 03 39 bd 53 aa 6f 3f af 1e 2b 3d 9d 58 9f 3d
       -0.045169704 0.9361927 0.04177731 0.077805735
0000d0 f4 0f c4 bc 7c cc 0a 3f 54 81 c8 bd 7c 49 88 3d
       -0.023933388 0.5421827 -0.097902924 0.06654641
0000e0 6b ba 3a 3d bc 81 44 bd 9f 71 df 3d ea 8e 5f bd
       0.04558794 -0.047975287 0.109103434 -0.054579653
0000f0 dd 08 16 3e e9 ac 9c bc 30 b6 7a bd d8 de 15 be
       0.14651819 -0.019125419 -0.061208904 -0.1463579
000100 07 6b 0f 3d ca 39 14 bd ea f5 52 3d dc 6c 7f 3d
       0.03501418 -0.036187924 0.051504053 0.062359676
000110 94 b5 0c 3e c6 ac 71 3d de a4 a5 bc 38 e4 03 3d
       0.13741142 0.05900266 -0.020220216 0.03220007
000120 cf 0e 9e bd 66 6d af 3c d5 67 14 bc a1 6b 91 3d
       -0.07717668 0.02141447 -0.009057959 0.07100607
000130 7a e8 57 bd f9 9a 57 3e 44 0f 7d 3d c5 4b 8e bd
       -0.05271194 0.21055211 0.061782137 -0.06948046
000140 74 17 8b 3e 9e d9 16 3d 15 d3 d0 bf 5d e9 81 bf
       0.2716633 0.03682863 -1.6314417 -1.0149342
000150 04 f5 af bf 12 0d ee 3c 3b 3a 93 bf 8c 97 f4 bf
       -1.3746648 0.029058967 -1.1502146 -1.9108748
000160 2d cd 7d 3f b4 57 3e 3d 84 0c b4 bc 98 1b 7c 3d
       0.991412 0.04647036 -0.021978624 0.061549753
000170 7a 96 7e 3d 83 4d 71 3c 9c 8a 24 3e 53 ed 15 bd
       0.062155224 0.014727953 0.160685 -0.036603283
000180 0f 05 b5 bc f2 c1 30 bd 00 ab 21 bf 94 e8 0a 3e
       -0.022097139 -0.04315371 -0.6315155 0.13565284
000190 40 e6 3c bd 38 e8 5e bf 22 e6 74 bd 93 80 62 3e
       -0.04611802 -0.8707309 -0.059789784 0.2211936
0001a0 dd 36 95 3e a8 38 b2 3c fc e7 3d 3e 66 9d ca 3d
       0.2914342 0.021755531 0.18545526 0.098933026
0001b0 d4 28 f9 bc 8e 4e 2f 3d 5f a7 58 3d fd 26 52 3e
       -0.030414976 0.042799525 0.052893993 0.20522685
0001c0 08 53 11 3d ad d8 0c 3d 4c 8e db bf 56 05 01 3f
       0.035479575 0.034386326 -1.71528 0.50398767
0001d0 c0 b2 36 3d fd c7 30 bd 13 6f c9 3d d7 d6 27 3d
       0.044604063 -0.043159474 0.09835639 0.04097637
0001e0 f2 1e 5e bd 29 ef e7 3d 63 ef 44 bf 18 ba 0c 3c
       -0.05422873 0.11324913 -0.76927775 0.00858929
0001f0 32 ff 79 3f 57 40 3e 3d 10 55 bd bf 69 e7 fb 3e
       0.9765502 0.046448078 -1.4791584 0.4919999
000200 c0 be 7d bf a1 47 d8 3b fc c4 02 3e 70 4b 09 c0
       -0.99119186 0.0066003357 0.12770456 -2.1452293
000210 0c 8b c5 be 34 f0 7c 3e 9b 88 4c 3f 1a 56 4d 3f
       -0.38582647 0.24701005 0.79895943 0.80209506
000220 c2 8c e6 3d fe 44 a6 3f 48 0c 3c 3d d5 8c 46 bf
       0.11257316 1.2989805 0.04591015 -0.7755864
000230 ca 05 5c 3d 9b a9 6c 3d 0c 6a a8 3e 28 d0 00 bf
       0.05371646 0.057778936 0.32893407 -0.5031762
000240 80 6d ba ba 80 cf 89 ba 40 bb b3 3a e8 a8 4a bd
       -0.0014223307 -0.001051411 0.0013712421 -0.049477488
000250 ed 27 05 bc 15 5a 8f bd 44 96 39 bd e4 27 90 bf
       -0.008127195 -0.06999604 -0.04530932 -1.1262174
000260 ce 5f 0f 3d 07 a5 c3 3e 4d 79 12 bc 70 0c c6 bc
       0.035003476 0.38211843 -0.008940053 -0.024175853
000270 f0 a5 3b 3d f1 0f 93 3d 25 52 02 bd 8c bb 08 bd
       0.045812547 0.07180775 -0.03181662 -0.033381984
000280 e2 6c 85 bf 26 7c 19 3d 0a 96 ef bc 13 42 c6 bd
       -1.0423853 0.037471913 -0.029246349 -0.096805714
000290 e6 39 9e 3d e2 58 eb bc 2e 92 1e bd 91 f6 6e 3c
       0.07725887 -0.028728906 -0.038713627 0.014585153
0002a0 cd a9 98 3f 69 e5 e1 3c e8 9e 85 3c c9 4c ce bd
       1.1926819 0.027575212 0.016311124 -0.10073239
0002b0 46 47 c1 3e f3 0e e9 bc bb a4 e5 3b 40 91 7b 3f
       0.3774969 -0.028449511 0.007008163 0.9826851
0002c0 d9 c9 83 bf 98 94 48 3f a6 95 4e bd f6 3a f7 3e
       -1.0295974 0.78351736 -0.050435685 0.4828717
0002d0 17 ed b5 3b 3b 4f 6d 3d 31 3d 41 3d f7 9f b9 3c
       0.005551945 0.05793689 0.047177497 0.022659285
0002e0 fa 5f 18 3c fd b6 2f be bd 63 47 bf 38 c8 6d bd
       0.009300226 -0.17159648 -0.77886564 -0.05805227
0002f0 2b 1c a2 3d 65 ca 33 3f b9 1a 4a 3d ab 7d 2e 3f
       0.07915529 0.70230705 0.04934189 0.68160504
000300 fc 8c bc 3c 6f be 39 bd b2 05 20 bd c6 18 08 bd
       0.023016445 -0.045347627 -0.03906793 -0.03322675
000310 ef c3 36 3e 97 c2 80 bd 20 16 d3 3e 6c d9 0f 3e
       0.1784818 -0.06287115 0.41227818 0.14047784
000320 86 e7 25 3d cf e9 17 3f e8 52 0e 3c 59 c8 51 bc
       0.040504 0.5934114 0.008686759 -0.012804114
000330 6a a5 ee 3d c2 0a 6b bb 1a 42 5e 3b 7d 28 9a bb
       0.11652644 -0.0035864566 0.0033913911 -0.0047045336
000340 b6 c1 11 3d 4a a2 11 be 94 79 47 bd 97 8e de bf
       0.035585128 -0.14222065 -0.04869993 -1.7387265
000350 31 ef c8 3e 2c 46 01 bc 03 4e e5 bc 42 e6 22 3e
       0.3924499 -0.007890265 -0.0279913 0.15908149
000360 29 3d dd bc 88 b6 c2 bc 55 68 92 bd 57 0d a1 bc
       -0.027006702 -0.023768678 -0.07148806 -0.019659681
000370 75 1f 22 3f 2d 17 62 3f 08 eb 90 3e 5c d2 0a bf
       0.6332925 0.88316613 0.28304315 -0.5422723
000380 6f 67 bb bf ae 11 a9 3c 63 47 70 3c 30 07 b2 3e
       -1.464094 0.020638313 0.014665457 0.3477111
000390 62 15 3c 3f d8 03 c3 bb 4d 74 17 3e 4d 28 53 3f
       0.7347013 -0.005951386 0.14790459 0.8248337
0003a0 bb 34 86 bf 32 d9 21 bd 16 de 22 3d 7d 1f 8f 3d
       -1.0484842 -0.039513774 0.03976258 0.06988428
0003b0 b6 ea 1f 3e 44 ce 0b bd c8 46 fd 3e 20 82 48 3d
       0.15616879 -0.034132257 0.49468064 0.048952222
0003c0 46 b4 a0 bc 82 09 21 bc 47 5d a2 bd 2d 15 05 3d
       -0.019617211 -0.009828927 -0.079279475 0.032490898
0003d0 80 d0 49 bc aa 1f 45 3d 31 bd 4d 3d f4 24 0f 3d
       -0.012317777 0.0481259 0.050229255 0.03494735
0003e0 8a 26 9a 3d e3 4b ca 3d e5 e2 1f 3e f5 7d 15 3d
       0.07526882 0.098777555 0.15613897 0.036497075
0003f0 5f 10 9c 3f 54 cc d0 3d bc 1f 0b 3d 3b b0 61 3c
       1.2192496 0.101952225 0.03396581 0.013774927

linear2.bias f4 [256]
000000 15 a3 31 3e 62 07 f1 3d 36 a6 64 bd 95 b1 8f bd
       0.17347367 0.11768986 -0.055822574 -0.07016293
000010 ea ab d6 bc 7d 17 1b 3d d7 38 a7 3d 9b 2a f2 3c
       -0.026205022 0.037864197 0.08165138 0.029561331
000020 32 ba ca 3d 16 d1 90 bd c2 6c ea 3d 37 75 3d 3d
       0.09898795 -0.0707113 0.11446525 0.046254363
000030 e1 5a e0 3c e0 1e e0 3d 0f e1 3b 3d b1 20 d6 3d
       0.027387084 0.10943389 0.04586893 0.10455454
000040 c7 39 27 3d 55 eb 8c bb b9 d7 d0 3a 03 cf a7 3d
       0.040826585 -0.0043005147 0.0015933431 0.08193781
000050 8b b9 01 3e 90 3b e8 3b da d2 68 3d 60 1e 96 3d
       0.12668435 0.0070871785 0.05684171 0.07330012
000060 04 4e e8 3d 3a 9d 60 3d e4 da 33 3d 6c 16 22 3e
       0.11343005 0.054837443 0.043909922 0.15828866
000070 65 16 9e 3d 76 3d de 3d ab 22 fe 3c a4 2e c3 bc
       0.07719115 0.108515665 0.03102239 -0.02382595
000080 a2 46 a7 bb 02 81 50 bc 7c 65 5f 3d 24 cb 0a 3d
       -0.0051048556 -0.01272607 0.054540142 0.033885136
000090 09 36 4d bd 94 3b c4 3d a5 fc 89 bd 4a b2 3b 3d
       -0.05010036 0.09581676 -0.06737641 0.045824327
0000a0 17 50 b2 3b a3 56 8a bc 95 8c 91 3c e6 b2 a7 3c
       0.0054416764 -0.016887015 0.01776723 0.020471048
0000b0 70 56 c2 3c 28 c9 9d 3d 58 49 b0 bc b5 4c 18 3d
       0.023722857 0.07704383 -0.021519348 0.03718253
0000c0 2b 39 69 bd ea 51 00 3d 1c 50 16 3d 34 14 f4 ba
       -0.056939285 0.03132812 0.036697492 -0.0018621744
0000d0 8f ee 3e 3c 45 80 b7 3c f6 b2 83 bc 34 ba 8c 3c
       0.0116535565 0.02240003 -0.016076546 0.017178632
0000e0 c9 e4 04 bd 52 7b 0a 3e b7 16 62 3b fa 4f bc 3d
       -0.03244475 0.13523605 0.0034498402 0.09194942
0000f0 b4 bc 7d bd cc c9 76 bd 77 79 e6 3d aa 60 23 3e
       -0.06194754 -0.060251042 0.11253636 0.15954843
000100 e5 4b ad 3b 1a c3 f1 3d 90 2e 45 3d de 09 c4 3d
       0.0052885883 0.11804791 0.04814011 0.095721945
000110 d7 9f e1 bd 3a 24 16 3e 33 4a 40 3e 88 98 02 3e
       -0.11016815 0.14662257 0.18778305 0.12753499
000120 cf 13 c0 3d 2f 54 1e 3d 1d f1 b3 3d 27 26 35 3e
       0.09378778 0.038654502 0.08786223 0.17690335
000130 b3 79 15 3d b2 3e fa 3d 29 ab 9a 3d 97 5f 8e 3d
       0.036493015 0.122189894 0.075521775 0.06951826
000140 9b b0 8c 3d 98 44 2f 3d 92 fb ad bd b1 30 da 3c
       0.06869622 0.042790025 -0.08495249 0.026634546
000150 4c 3e c8 3c cf 92 2d bd da a7 1e 3e 8c 1a f5 bc
       0.024443768 -0.042376336 0.15493718 -0.029919885
000160 17 9c e0 3d dd 4d c6 bd 4b b3 40 3e 26 5d 2e 3d
       0.10967272 -0.0968282 0.18818395 0.042569302
000170 b4 aa ac 3d 8d 8a 8c bd ec 5b 04 3e c2 ee 5e bd
       0.084309965 -0.06862364 0.1292569 -0.054426916
000180 2f de 19 3e 80 bb 2c bc 01 2e ed 3d 2e b1 bb 3d
       0.15026163 -0.01054275 0.1158104 0.09164654
000190 45 d1 10 bd ef dd 06 3e 3f c5 c0 3d 77 a5 f6 3d
       -0.035355825 0.13170598 0.09412622 0.12043279
0001a0 d0 c6 e0 3c 7a a4 a8 3d e0 02 73 3d 74 4c 6e 3d
       0.027438551 0.082344964 0.059328914 0.05817838
0001b0 c8 57 ad 3d 32 90 2b bc a9 0e 69 3d 02 73 e3 3c
       0.084640086 -0.010471391 0.056898747 0.027764801
0001c0 cf bd dd 3d e7 a4 3a 3d 15 8f 82 bc 5d bb 02 3e
       0.10827219 0.04556742 -0.015937367 0.12766786
0001d0 fc f3 76 bd c3 fc 06 3e 1c 73 ba 3d fa 45 bc 3d
       -0.060291275 0.13182358 0.091039866 0.091930345
0001e0 4e dc 66 3d 06 98 c8 3d cd 0f 86 3d 34 f3 3a bd
       0.056362443 0.09794621 0.065459825 -0.045642093
0001f0 06 80 16 3e 7d ab 80 bd fc b6 f6 3d b0 b2 04 bd
       0.14697275 -0.06282709 0.1204662 -0.032396972
000200 18 63 e7 3d dd 18 81 ba 77 4f bc 3b bb 36 e2 3d
       0.112981975 -0.0009849329 0.0057467776 0.11045595
000210 a9 84 4f bd 2f 20 3f 3e 7f 50 08 3d 15 4e f4 3d
       -0.050663624 0.18664621 0.033279892 0.119289555
000220 ae d1 68 3d 5c 64 03 3e d4 71 f0 3d 4c 89 b1 3d
       0.05684059 0.12831253 0.11740461 0.086687654
000230 18 ca 11 3e 42 eb 69 3c 4e bd 04 3e 14 2d 71 bd
       0.14237249 0.014277281 0.12962839 -0.05888088
000240 e0 96 13 3e c8 c9 b8 3d 95 38 cd 3d 7a 54 2d 3e
       0.14413023 0.09022862 0.10020558 0.16926757
000250 f7 5b 10 bd 42 12 d3 3d c3 6f b3 3d 37 f4 66 3d
       -0.035243955 0.10306217 0.08761551 0.056385245
000260 09 ce 84 bd 9f 4b dc 3d d5 3c 48 3d 18 b1 2c 3e
       -0.064846106 0.10756611 0.04888614 0.16864431
000270 2b f1 ec 3d 56 38 5c 3d 71 7d 48 bd 2f e2 ca 3d
       0.11569437 0.053764664 -0.048947755 0.09906422
000280 81 68 82 3c 8b 47 7a 3b be cf 2d 3d 28 3b 20 3d
       0.015918972 0.0038189616 0.042434447 0.039118916
000290 ef ee 6a 3d 3b 39 71 bd bc 33 4a 3d 43 4e be 3d
       0.05735677 -0.05889247 0.049365744 0.09292271
0002a0 75 41 85 3d 53 24 f7 3c 89 f7 cc bc 57 bd a0 3d
       0.065066256 0.030168688 -0.025020378 0.07848614
0002b0 8b 1d bd bc e2 70 1d 3e 88 31 bb 3c 65 3b 8b bd
       -0.023085376 0.15375093 0.022850767 -0.06798438
0002c0 d7 7a ae bc f6 b7 dc 3d a7 b8 a9 bb f5 d0 03 bd
       -0.021298809 0.10777275 -0.005179483 -0.0321817
0002d0 3a 30 08 3d 88 83 06 3d aa 7e 50 bd 5f 35 46 bd
       0.033249117 0.03284028 -0.050902046 -0.048390742
0002e0 8e 00 18 3e ea f6 82 bd cd ea 71 3d 0f 3d 1a 3e
       0.14843962 -0.06394751 0.059061814 0.15062355
0002f0 69 57 d6 3d b3 00 bb 3d 55 bc 08 bc 7e 5e 1d 3e
       0.10465891 0.09130993 -0.008345683 0.15368077
000300 6e 38 95 bd 51 f1 b9 3c 79 c9 36 3d 8f a3 25 bd
       -0.07286154 0.022698076 0.044625733 -0.040439185
000310 56 4a 0f 3e 82 1d d2 bc 9c 23 7a bc d9 3d c1 bc
       0.139932 -0.025648836 -0.015267279 -0.023589062
000320 3d b9 0f 3e 8d 60 03 3e 0f 40 27 bd 9c 58 92 3d
       0.14035507 0.128298 -0.040832575 0.07145807
000330 75 61 87 bd 54 85 e8 3d 50 93 bf 3c 71 b0 2d 3d
       -0.06610385 0.11353555 0.023385674 0.042404596
000340 67 a1 9c 3d 91 0a 24 3e b2 0d e4 3b 5a 27 8b bd
       0.076479726 0.16019656 0.0069596404 -0.06794615
000350 c4 eb 3c 3d 70 ff c3 3b e9 e5 dd 3c ce 9a 95 bc
       0.04612328 0.0059813783 0.027087169 -0.018262293
000360 fb 79 8a bd 1a 5e ab 3c a1 1a 3c 3d e4 b9 86 3d
       -0.06761547 0.020918895 0.045923833 0.065784246
000370 f2 d4 bb 3d 2f df ce bc 10 75 b3 bc 44 c0 83 3d
       0.091714755 -0.025252907 -0.021906406 0.06433156
000380 c4 ee 55 3d 61 c4 fc 3d 28 15 3a bc e3 23 13 3e
       0.052229658 0.12342144 -0.011357583 0.14369158
000390 4d d3 83 bd e5 e1 b0 3d ca cc d7 3d 1a 16 5d bb
       -0.06436787 0.08636836 0.10537107 -0.0033735097
0003a0 e0 82 f3 3d 8c 03 06 3e 9e a6 75 3d b5 e4 25 3e
       0.11890197 0.1308729 0.05997335 0.16200526
0003b0 71 13 49 bd 41 c5 a5 3c 5d 53 8a bc 79 be b1 3d
       -0.049090806 0.02023566 -0.016885454 0.08678908
0003c0 7c 07 cb 3d 19 51 23 3d 0c 08 8f 3b 65 fd 8c bb
       0.09913537 0.039872263 0.004364973 -0.004302668
0003d0 1a 9f ee 3d 99 6e 34 3e a2 a4 8f 3d 00 c3 33 3e
       0.1165144 0.17620315 0.07013823 0.17554855
0003e0 e7 95 f7 bd 76 a2 2a 3d ba e4 52 bd e6 79 21 3d
       -0.120891385 0.04165884 -0.051487662 0.039422892
0003f0 90 a3 be bc 48 77 bf bc 07 d4 bb 3c ec 3c 06 bd
       -0.023271352 -0.023372307 0.022928251 -0.032772943

linear3.weight f4 [1, 256]
000000 8e 0e 96 bf f7 6a bb bf 39 44 1c 3f 2f 80 ba 3b
       -1.1723192 -1.4642018 0.610416 0.00569155
000010 37 59 31 bd c7 13 e1 3f 6c e4 74 bf 3a eb 19 3f
       -0.043297973 1.758416 -0.95661044 0.6012455
000020 74 59 36 3f 65 9c 18 3c 22 16 31 3f bd 97 15 3c
       0.71230245 0.009314631 0.69174397 0.0091304155
000030 e4 a1 c9 bf 5e e4 b5 bf 6c cf bc bf 70 30 8f bf
       -1.575253 -1.4210317 -1.47508 -1.1186657
000040 5e ad 11 3f b7 da 1d 3f ad e6 92 3b 2b eb 2c 3f
       0.5690516 0.6166186 0.004483065 0.6754634
000050 ea 6e 97 bf 26 24 33 3d d7 08 bf bf 55 be 8c 3f
       -1.1830723 0.043735646 -1.4924573 1.0995585
000060 5d 90 be bf bc f9 0d 3b 48 d6 c3 bf c5 f5 a1 bf
       -1.4887806 0.0021663746 -1.5299768 -1.2653128
000070 78 24 18 3f c5 35 b0 bf 8f 44 42 bf 25 32 e1 bf
       0.59430647 -1.3766409 -0.7588586 -1.7593428
000080 e6 46 99 bf a9 9f 57 bc 1a b2 29 3f 0d e1 9d bf
       -1.1974761 -0.013160625 0.66287386 -1.2334305
000090 ac 36 9f 3c a4 81 49 3f dc f9 01 3c 65 15 b7 bf
       0.01943525 0.7871344 0.007933106 -1.4303404
0000a0 94 f6 f7 ba 56 b8 1e 3f 49 5e d8 3a 30 4d 4f 3c
       -0.001891809 0.62000024 0.0016507591 0.01265268
0000b0 b1 bf 57 3d 0e 8d 98 bf e0 2f 44 bd b9 86 d1 3c
       0.052673046 -1.1918046 -0.04789722 0.025576936
0000c0 67 3e 24 3f 1f ad d6 bf 89 5c 9f bf 8e a2 16 3f
       0.6415772 -1.6771582 -1.2450114 0.5884179
0000d0 75 f4 14 3d a5 05 bd bf 28 70 22 3f 1f 8b 3a 3d
       0.036365945 -1.4767348 0.63452387 0.045542832
0000e0 c5 49 13 3f 8b 1a b9 bf b3 d3 13 3f 52 c7 a4 bf
       0.5753444 -1.4461225 0.577449 -1.2873328
0000f0 65 dd 89 ba 9e 15 a6 3c a7 85 8a bf 7d 31 b0 bf
       -0.0010518251 0.02027398 -1.0822037 -1.3765103
000100 5a 92 0d c0 2f 89 a6 bf 9e ab 26 3d 2d 3a a0 bf
       -2.2120576 -1.3010615 0.04069101 -1.2517754
000110 aa 9f 0c 3f fa 9f 8e bf da 52 9a bf 5c 1a 7f bf
       0.5493113 -1.1142571 -1.2056534 -0.99649596
000120 04 41 9e bf db 57 b7 bf 0b 82 d6 bf d5 d5 90 bf
       -1.2363591 -1.4323686 -1.6758436 -1.1315256
000130 7a 1c 1d 3f 04 40 91 bf e1 93 34 bf f1 09 a1 bf
       0.61371577 -1.1347661 -0.70538145 -1.2581159
000140 84 d0 92 bf 59 f1 c0 bf 39 d5 18 3f f6 b4 a9 3c
       -1.1469884 -1.5073653 0.5970035 0.020716172
000150 88 d1 31 bd 11 51 52 bd 7a 48 ab bf c5 7a 1b bb
       -0.043412715 -0.051346842 -1.3381493 -0.00237243
000160 a7 f7 c0 bf e0 59 ce 3f 21 c3 9a bf 46 70 23 3d
       -1.5075577 1.6121178 -1.2090799 0.039901994
000170 c5 91 a2 bf d1 f3 d3 3b 88 c8 97 bf 80 dc c7 3c
       -1.2700735 0.006468274 -1.1858072 0.024397135
000180 35 20 b9 bf 18 03 ce 3c de 78 8c bf e5 65 7b bf
       -1.4462954 0.02514796 -1.0974386 -0.98202354
000190 b5 97 2e 3f be cb cb bf f3 0b 32 3f dc 2d 8e bf
       0.68200237 -1.5921552 0.69549483 -1.1107745
0001a0 bf 6c aa bf 36 dc 8a bf a7 56 8a bf 05 76 20 3f
       -1.3314437 -1.0848453 -1.0807694 0.62680084
0001b0 31 4a bc bf ab 9e 47 40 70 9a b4 bf c8 6c 47 3d
       -1.4710141 3.1190593 -1.410963 0.048687726
0001c0 72 f6 b1 bf 60 de 42 3d a7 71 b5 3c 4b b0 b7 bf
       -1.3903334 0.047575355 0.02214892 -1.4350675
0001d0 30 02 cf 3c ad 29 90 bf a0 c3 b2 bf 6a ba 84 bf
       0.025269598 -1.1262718 -1.396595 -1.0369389
0001e0 0d c5 7f bf 9f f6 3b 3f 5a d4 87 bf 64 41 6a 3d
       -0.9991005 0.7342319 -1.061168 0.057191268
0001f0 c6 75 c3 bf 5c 99 76 3b 0c 86 9b bf 4e fd 22 3f
       -1.5270317 0.003762803 -1.2150283 0.6366776
000200 dd 89 ac bf 7a 1b e6 bc 79 3c 54 3c 7d ac bf bf
       -1.3479573 -0.028089274 0.012953871 -1.4974514
000210 64 5d fd 3b d7 02 9c bf 29 14 24 3f 16 a5 85 bf
       0.0077320803 -1.2188367 0.6409326 -1.0441005
000220 0f 75 8a bf ba 40 c5 bf 51 1f a5 bf 99 5b 87 bf
       -1.0816973 -1.5410378 -1.2900182 -1.0574828
000230 c1 3d 1d 3f f7 9a be 3c 90 d9 94 bf c6 92 97 b8
       0.61422354 0.023267252 -1.1628895 -7.22758e-05
000240 ce ea 75 bf 75 c8 a2 bf 2a dd ce bf f2 e8 a1 bf
       -0.9606141 -1.2717425 -1.6161244 -1.2649214
000250 65 a8 27 3f a0 c8 ab bf 2b ba 9c bf e8 47 84 bf
       0.65491325 -1.3420601 -1.2244314 -1.0334444
000260 28 e9 28 40 18 ee 97 bf 1e 8e 1c 3f 2e f2 a1 bf
       2.6392307 -1.1869535 0.61154354 -1.2652032
000270 01 75 ae bf d5 25 8c 3f cc 22 fd bb c5 24 8c bf
       -1.3629457 1.0949045 -0.0077250954 -1.0948721
000280 01 f9 1d 3f 7f 50 bd 3c b6 8e 26 bd b3 a4 80 3f
       0.61708075 0.023109673 -0.040663444 1.0050262
000290 f5 45 a2 bf f0 50 48 40 2f b2 33 3f 7c c7 d1 bf
       -1.2677599 3.12994 0.7019376 -1.6389003
0002a0 2f a3 8a bf a7 79 dc bf af a0 3f 3c 5c 02 c1 bf
       -1.083105 -1.7224625 0.011696025 -1.5078845
0002b0 fd ec 8c 3f e6 b5 9b bf bc 60 01 3d 27 19 b1 bc
       1.1009823 -1.2164886 0.031586394 -0.021618439
0002c0 d4 1e 03 3d 78 2f 98 bf cc f4 a4 3f 6c 55 0c 3c
       0.032011822 -1.1889486 1.2887206 0.008565288
0002d0 82 3c 38 bf 81 93 25 3f f8 b6 4a 3d 8a 86 0f 3f
       -0.7196733 0.646782 0.0494909 0.56064665
0002e0 20 88 b9 bf b9 8e 2c 3f 40 61 bd bf f2 e2 89 bf
       -1.4494667 0.6740528 -1.4795303 -1.0772383
0002f0 01 3f 33 3f a4 bb c0 bf c6 6a 26 3d 0a b1 22 3f
       0.7001801 -1.5057263 0.04062917 0.6355139
000300 50 ec ce 3c cb 05 a3 3f df f5 8b bf 2a 4e 6f 3d
       0.025259167 1.2736143 -1.0934409 0.058424152
000310 3f 13 b3 bf cf 31 00 bc 40 00 41 3d 06 bf 23 3f
       -1.3990248 -0.007824375 0.04711938 0.63963354
000320 a8 75 bf bf ac 22 a6 bf b2 75 db 3b 47 31 d3 bf
       -1.4957781 -1.2979331 0.00669738 -1.6499413
000330 cc cd 86 3c c7 62 96 bf 93 63 ce 3f 7f 16 b0 bf
       0.016455553 -1.1748894 1.6124138 -1.3756865
000340 05 4e c6 bf d3 d8 a9 bf 74 4d 02 bc 7f 37 1f 3f
       -1.549256 -1.3269295 -0.007953037 0.62194055
000350 99 8a c2 bf 1a 89 e7 3c e8 55 43 3b 2b 47 14 3f
       -1.5198547 0.028263617 0.0029805843 0.57921094
000360 4e a4 1d 3f d5 34 9c bf f6 9c 8d bf 1a 80 84 bf
       0.61578834 -1.2203623 -1.1063526 -1.0351593
000370 18 3c aa bf e3 ec 1c 3f a8 2f c0 3c f6 d5 1f 3f
       -1.3299589 0.6129896 0.023460224 0.62435853
000380 8e 29 28 3f 17 e7 ab bf 24 d6 05 3c 1d 74 88 bf
       0.6568841 -1.3429898 0.008168731 -1.0660435
000390 a0 bb cd ba 79 a5 92 bf 08 a1 9c bf e2 96 69 bc
       -0.0015696175 -1.1456748 -1.2236643 -0.014257165
0003a0 25 7b c1 bf be a5 8a bf e9 d8 31 3f 16 cc 9b bf
       -1.5115706 -1.083183 0.69471604 -1.2171657
0003b0 03 35 e5 3b 4f 4f 98 bf f3 79 ec ba 11 02 8c bf
       0.006994845 -1.1899203 -0.0018041715 -1.0938131
0003c0 36 69 b1 bf 40 e4 0b 3f d1 2e 46 bc 87 f8 37 bb
       -1.3860233 0.54645157 -0.012096123 -0.0028071718
0003d0 d6 46 81 bf f3 63 93 bf ec 5b 2d 3f 58 45 86 bf
       -1.0099742 -1.1514877 0.67718387 -1.0489912
0003e0 be a8 0f 3f 6a e2 68 3d 3c cd 0a bc 59 85 88 3f
       0.56116855 0.05685655 -0.008471783 1.0665694
0003f0 d7 87 b0 3c cb 5e f3 3b a5 1f 99 bc fb a5 21 3f
       0.021549148 0.0074270717 -0.018691847 0.6314389
