turtlebot3_rl_sim/src/models/td3/turtlebot3_top_16_obstacle/td3_actor_model_ep2500.pt (torch_old, 707622 bytes, 6 tensors)

linear1.weight f4 [256, 430]
00000000: 634d 7f3c 00bc 9dbc d973 0b3d f865 77bb
00000010: 2050 a23d ccde f33c e973 c9bc bd12 ad3c
00000020: 83d5 1e3d ce50 c9bc 2e85 09bd f410 61bb
00000030: d7fe 86bc a9db c4bd adb4 5cbd 8b64 08be
00000040: 06f9 f5bd 230b b0bd 8c70 2cbe 2bb7 09be
00000050: 2107 25be 0046 f7bd 2fdd 10be 7ceb 38be
00000060: 6a4f b3bd 0674 29be 65b7 22be 9f88 fcbd
00000070: 0d2d c0bd 2a0a 14be ce3c febd 3610 adbd
00000080: 05ef f6bd 249f b3bd 8c80 eabd 742d 47bd
00000090: b1aa 65bd 56d5 96bd 251c c6bd 95b5 e0bd
000000a0: bbb9 0cbd ce8e 45bd de19 a1bd c351 9abd
000000b0: 0cfa 0bbd d4dc 35b9 5865 46bc fb07 4a3c
000000c0: f939 0f3c 4b00 943c 01ee 703d 2ceb d63c
000000d0: a80c af3d 9a21 0f3c 1406 b13c 1077 803d
000000e0: 7aea c83d 4a8a 573d b7cb d63d db39 a23d
000000f0: c4b5 923d 566b 033e b541 0f3e 7e96 093e
00000100: f89c f43d 17c3 853d 5739 fa3d c502 683d
00000110: 8b94 853d d7c2 9a3c 377e 183d 7c41 cb3b
00000120: 06d0 e33c 6895 163d bc99 bc3c 4b86 2d3b
00000130: 3061 90bc f803 a1bc 2a86 f63c 2a96 3dbd
00000140: 0860 d1b8 8e48 cf3b 2394 4dbd c2a5 4ebd
00000150: fa92 d8bc 1390 b43c 9775 b73c 4a10 04ba
00000160: 3842 b5bb bad5 6ebc d961 16bd 8e46 53bd
00000170: 2e4c e73c 8f61 803b e026 94bc 2c52 123c
00000180: cb8e 18bd ed0b 39bd fe17 80bb a171 88bc
00000190: 5be4 83bd 4e52 d3bc 3218 1abd a6de b2bc
000001a0: 81ee 3cbd d6d4 9bbc 5ea3 d8bc 36df 27bc
000001b0: 4c5a 9d3c e3dd f33c 6647 70bb ae6d 183c
000001c0: 1c7f 2f3d b398 1a3c d8a8 f73b d0aa 62bc
000001d0: 1c6a 7abc 1575 cfbb 85fe 173d 2f73 823d
000001e0: a98d 403d a13f 883d 7f39 053d d7e7 873d
000001f0: eff3 5d3d 6e77 6a3d 87f5 f53c 0095 933d
00000200: a22a c13c 6495 903c dadf 9a3d 728f 0bbb
00000210: 7026 873d b4b3 ad3c d2c2 9a3d daf1 863c
00000220: e84f 893d bcdb e43c 7fcf 7e3d f065 02bc
00000230: 63f2 403b da3e 803d fde0 1f3d 3ee0 67bc
00000240: f906 9cbc ccd0 bd3b e79a 48bc 394d 1cbc
00000250: ac1b 123c 25c3 d9bc 964a 9b3c 4a11 0d3d
00000260: 8c35 a9ba 9b07 30bc a3a1 0abc e30a dfb9
00000270: 5df1 7ebc 9d20 15bd 0feb 943c 8ac6 d73c
00000280: 2100 cc3c a074 763c baf1 c4bc bfec 4dbd
00000290: df59 84bd 3300 8cbd 23a1 6abc 51a4 0cbd
000002a0: d226 a2ba 4ea3 babc 9531 b6bc ce9f ccbc
000002b0: adf1 14bd abd6 8ebc dded 523c 3ca8 02bd
000002c0: 26ab 83bc f10f fb3c f972 04bd 33b4 fbbc
000002d0: 7649 debc 25ac 07bd 225f 043d 0e11 95bc
000002e0: 67dd d2bc 9421 c63a 91c9 01bc 0d39 783c
000002f0: af51 c0bc 75de 21bd c0c7 23bc 00f6 92bc
00000300: b983 313d f799 33bc 0742 43bd a2ac 133d
00000310: b11b 11bd 6793 823c d879 52bd c64c debc
00000320: 8189 e23c 755c 3abd 1e47 82bd a74d a6ba
00000330: 8ae6 e23b eb54 3d3b e900 83bd d32c dbbb
00000340: 1e37 a1bd 76a5 36bd 1af3 a8bd 217a 90bd
00000350: 9a53 9bbd af06 393c bc3d 33bc a536 1ebd
00000360: 391a 1ebd 4aca 093d e909 d6bc d56a 5dbd
00000370: 5a0b 74bc 1e99 e63c 199b 5bbb 5b13 30bc
00000380: 9446 453b 7c4d 2ebc 329e f9bc 3007 0abd
00000390: aabf 20bd 29a3 d43b f400 a4bc 77a0 04bd
000003a0: 22bb dbbc 5c2f 39bd af79 363c e88e b63c
000003b0: 0c18 13bd 3cfe 90bd 988f a0bd 542f bcbd
000003c0: 3246 67bd a38e c0bc 8944 efbc a998 55bd
000003d0: 7314 0dbd c1dc 15bd dcda b7bd 75a5 62bd
000003e0: 2830 e5bc 7099 33bd 4717 c4bc 93cc d0bc
000003f0: 12d7 c7bb b38d 053b fdc0 24bd 9952 c5bc
0.015582415 -0.019254684 0.034046028 -0.0037749987 0.07925439 0.029769324 -0.024591403 0.0211271
0.03877784 -0.024574663 -0.033574276 -0.003434238 -0.016478939 -0.09612209 -0.053883243 -0.13319604
-0.12010388 -0.08595874 -0.16839808 -0.1344878 -0.16116 -0.12073898 -0.14146875 -0.1805858
-0.087553814 -0.16548166 -0.15890272 -0.12330746 -0.09383593 -0.14457002 -0.12413941 -0.084503576
-0.12057308 -0.08770588 -0.114502996 -0.04862733 -0.056070987 -0.07364909 -0.09673337 -0.10972134
-0.034356814 -0.048231892 -0.07866262 -0.07535126 -0.03417401 -0.0001734377 -0.012109123 0.012331004
0.008741849 0.018066546 0.05882073 0.026235186 0.08547336 0.008736039 0.021609344 0.06272709
0.09810348 0.052622117 0.10488074 0.07921191 0.07163575 0.12833914 0.13989909 0.13436314
0.11944002 0.06531351 0.12217968 0.056643266 0.06522473 0.018891735 0.037229743 0.0062028747
0.027809154 0.03676358 0.023022525 0.002647775 -0.017624468 -0.019655213 0.030093271 -0.046285786
-9.983784e-05 0.006325788 -0.050190102 -0.050451048 -0.026437271 0.022041356 0.022394938 -0.00050378277
-0.0055315755 -0.014577324 -0.03671441 -0.051580958 0.028234567 0.00391788 -0.018084943 0.008930724
-0.037245553 -0.04517739 -0.00390911 -0.016655745 -0.0644004 -0.025796082 -0.03762073 -0.021834683
-0.046125893 -0.019022387 -0.026445087 -0.010246089 0.019208096 0.02976889 -0.003666365 0.009303493
0.04284583 0.00943582 0.0075579695 -0.01383467 -0.0152840875 -0.006331096 0.037107963 0.06369626
0.047010098 0.06652761 0.032525536 0.06636017 0.05418771 0.057242803 0.030024303 0.07206154
0.0235799 0.01764936 0.075622275 -0.0021295217 0.06599128 0.021203853 0.0755669 0.016472746
0.06704694 0.027936809 0.062209602 -0.007958874 0.0029441349 0.06261988 0.039032925 -0.014152585
-0.019046294 0.005792713 -0.012243963 -0.009539896 0.00891773 -0.02658231 0.018956464 0.034440316
-0.0012909635 -0.010744001 -0.008461389 -0.00042541986 -0.015560475 -0.036408056 0.01817849 0.026339788
0.024902405 0.015042454 -0.024041045 -0.050274607 -0.06462454 -0.068359755 -0.014320645 -0.03433639
-0.0012371188 -0.022782948 -0.02224044 -0.024978545 -0.036363292 -0.017436346 0.012874094 -0.031898722
-0.01607282 0.03064725 -0.03233621 -0.030725574 -0.027134638 -0.033123154 0.03231729 -0.018196609
-0.025740338 0.0015116208 -0.007921592 0.015150321 -0.02347645 -0.039518792 -0.009996355 -0.017939568
0.04333851 -0.010962001 -0.04767039 0.036053307 -0.0354268 0.015939428 -0.05138573 -0.027136218
0.027653458 -0.04549833 -0.06361221 -0.0012687937 0.006924455 0.0028889726 -0.06396658 -0.006688693
-0.07871841 -0.04459139 -0.08249493 -0.07054544 -0.07584305 0.011293097 -0.010940012 -0.03862633
-0.038599227 0.033640184 -0.026127772 -0.05405696 -0.014895285 0.028149184 -0.0033509193 -0.010746802
0.0030101882 -0.010638591 -0.030470941 -0.03369826 -0.039245285 0.006489177 -0.020019986 -0.032379594
-0.02682263 -0.04521118 0.01113741 0.02228494 -0.035911605 -0.07079741 -0.07839888 -0.091887146
-0.056463428 -0.023505514 -0.029207485 -0.05214754 -0.03444333 -0.03658748 -0.08977291 -0.055333573
-0.027977064 -0.0438475 -0.02393688 -0.025488174 -0.0060986364 0.0020378649 -0.04022311 -0.024087237

linear1.bias f4 [256]
00000000: 43d7 e13b 0211 52bd 0825 bbbc 9a79 42bd
00000010: d170 d43c fca6 41bd adee 00bd 8da3 6fba
00000020: 5623 ae3c df66 26bd 1f24 aebc c98f d63c
00000030: 2519 983b 2428 093d eb3e 64bc 1864 b7bc
00000040: d0fc 213c 6cc2 7eba 4d49 f0bc 7276 753b
00000050: 0c5b 1dbc 71a4 cebc 4e58 243c 8219 dbbc
00000060: de9f 293b be7e 2e3d 16e7 9dbb 51df ccbc
00000070: ada0 803c 9998 c1bc 8a39 dbbc 4b0a e6bb
00000080: f867 883c 181d d5bb cfb7 2bbd bcf2 0a3d
00000090: f449 8d3a 66ae ae3c 6644 af3b ff51 2abc
000000a0: f443 cabc 8c37 853c 372a a4bc a47a f5bb
000000b0: 165d 1bbd e55f 87bc 43b2 e6bc 17bd a4bc
000000c0: 4475 19bc 4e27 283c 38aa 30ba 25c7 943c
000000d0: 043e 093c c0e4 a33b 9b72 f13c c8e2 c43c
000000e0: 42e1 5abc 8511 9f3a b768 24bd 65c3 85bc
000000f0: ee8b 1ebd 0acc e63b b0cf 4c3c 9c5e 053d
00000100: 5995 4dbd bcd2 073c b963 db3c cfed 3b3b
00000110: 1eff 16bd ffd4 29bd 77b4 c2bc 9a20 b0bb
00000120: c6d5 a93a 6de4 89bb 7829 aebc 4815 c73c
00000130: 5eec af3c 8ad9 51bd ffe5 3b3c 2e38 94bb
00000140: e187 46bb 0357 703c a7d0 ba3c eaf9 e23c
00000150: cd18 07bd 9616 c13c 81f5 c7bc bddf 89bc
00000160: 5a00 51bd 240b 793c 3ccb 023d f392 ecbc
00000170: aea4 1dbc f814 4c3c de82 19bd 4042 1fbc
00000180: e044 34bc a920 4fbd a341 723b 1b7f 713c
00000190: e3db 9d3c a333 6cbc 881d b6bb 37b7 323c
000001a0: c32e e5bb 9375 e7bc 3e52 2b3d 3f65 2cbc
000001b0: 05bc 0dbd d175 a53d 9e50 18bd ea21 ccbb
000001c0: b197 cdbc fccf b2bd 9fd6 23bd 8db8 153d
000001d0: e258 52bc 29b3 da3c ae61 243d 2053 1b3d
000001e0: dc92 f5bc 8d61 173d 2fbf 23bc f6e5 253d
000001f0: de89 1cbd 93e9 753c bc62 f0bc f4f5 013d
00000200: 1d01 86bc d05c 4f3c b857 163d 8fd6 29bd
00000210: e7b1 3c3c 6c99 70bc 7827 b2bc e624 15bd
00000220: 0018 e23b 9017 b4bc e7bc 363a 112a ccbc
00000230: c5a4 113c 5747 28bd c563 0abd bf0a 00bd
00000240: 105f 3fbd 58a3 9c3c e417 6e3d 8d96 0abd
00000250: 51fc c3bc 8518 09bd d522 933c b27e e63c
00000260: adc4 07bc 721e 5cbd ffc6 23bd de53 fa3c
00000270: 933c 7d3c d615 2a3d 81e7 5a3b b34c e6bb
00000280: e08f cd3c aef1 6f3d 655a 8abc e1da cdbc
00000290: cd73 953c 1f8a 363d aa92 ee3c 2e93 a23c
000002a0: 0179 49bd a04d beba e3f5 6ebc a1a7 c8bc
000002b0: 2e28 1fbd 5e1d ac3c 1fea a6bc e100 e4bd
000002c0: c045 cbbc 39d6 4abd c61a 12bd ddb3 153c
000002d0: ecd6 853c 2660 213a 21c8 4dbd 4796 a5bc
000002e0: 7911 d73c 46c4 15bd 9cbd 0a3d 65c6 113c
000002f0: 5cab 0c3d 0d31 84bc 2baf fc3c d01a 413c
00000300: 8778 2bbc f544 923c c368 05bd d817 32bd
00000310: 1120 d63c 357f df3c 003d 3abd dc8b 0b3d
00000320: 4e92 12bc c3e8 783c c508 153b 1d6a 81bc
00000330: f8e3 b6bb f8c3 b3bc d256 d0bc 2e2e 1ebc
00000340: 7688 263d 0d08 0fbc 4289 d8ba e585 89bc
00000350: 36dc 17bd 5d89 1a3d 7565 973c 7a78 91bc
00000360: 6c71 ffbc 4a12 d4bc 4edc 273d 13d2 e2bc
00000370: a031 32bd 44b7 5fbd 1eb8 a63b b754 383d
00000380: 3886 36bd c501 123d 3545 133d dc27 f2bc
00000390: a4b6 043d df58 b93c 427b eb3c ab45 66bd
000003a0: 17a6 2cbc 31cd 5b3c d310 e4bc be77 35bd
000003b0: e0fd c33b 1c27 083d 138b f23b 829f e63c
000003c0: f745 2fbd b266 6a3c 6b34 6cbd 212e 76bd
000003d0: ce6b 273d 8e5b 18bd fe17 233d 23e1 ff3c
000003e0: 9632 203d b7f4 64bd 266d babc d83c 30bd
000003f0: de91 a33b 4e16 96ba b566 1c3d d58c 123d
0.0068921163 -0.05128575 -0.022844806 -0.04747925 0.025932701 -0.04727839 -0.03147762 -0.00091414974
0.021257084 -0.04062545 -0.021257458 0.026191609 0.0046416693 0.033485547 -0.013931016 -0.022386596
0.009886935 -0.0009718302 -0.029331828 0.0037454632 -0.009604227 -0.025224896 0.010030819 -0.026745562
0.0025882642 0.04260134 -0.0048188074 -0.02500883 0.015701616 -0.023632335 -0.026760835 -0.00702027
0.016651139 -0.0065037124 -0.04192334 0.033922896 0.0010779486 0.021323394 0.00534873 -0.010395526
-0.024690606 0.016261838 -0.02003966 -0.0074914265 -0.03793057 -0.016525218 -0.028161174 -0.020109696
-0.009366337 0.010263277 -0.0006739232 0.018161366 0.008376602 0.0050016344 0.029473593 0.024033919
-0.01335937 0.0012135959 -0.040138926 -0.016328523 -0.038707666 0.0070433663 0.012500688 0.03256093
-0.050191257 0.008289989 0.02678095 0.002867568 -0.036864392 -0.041462895 -0.023767693 -0.00537498
0.0012957386 -0.0042081387 -0.021260008 0.02430214 0.021475013 -0.051232852 0.01146841 -0.0045232987
-0.0030293392 0.014669183 0.022804571 0.027707059 -0.032982636 0.02357034 -0.024409058 -0.01683032
-0.051025726 0.01520041 0.0319321 -0.028878665 -0.009621782 0.012456171 -0.03747832 -0.009720385
-0.011002749 -0.050568257 0.0036965392 0.014739777 0.01926989 -0.014416608 -0.0055577196 0.01090794
-0.0069941 -0.028254306 0.04182648 -0.010522186 -0.034603138 0.08079112 -0.037186258 -0.006229629
-0.025096746 -0.08731076 -0.0399996 0.036552954 -0.012838574 0.026696758 0.040132217 0.03792107
-0.029977255 0.036958266 -0.009994312 0.04050251 -0.038217418 0.015009302 -0.029343955 0.0317287
-0.016357953 0.012656406 0.03670475 -0.041464385 0.011517025 -0.014685016 -0.021747336 -0.036412142
0.0068998337 -0.021983892 0.00069708977 -0.024922403 0.008889382 -0.04108366 -0.033786554 -0.03126025
-0.046721518 0.019120857 0.058128253 -0.033834983 -0.023924025 -0.03347065 0.017960945 0.028136585
-0.008286637 -0.053739972 -0.0399847 0.03055757 0.015456337 0.04152473 0.0033402147 -0.007028186
0.025093019 0.058580093 -0.016888807 -0.025128784 0.018243695 0.044565316 0.02912267 0.019845571
-0.049187664 -0.0014518984 -0.014584991 -0.024493994 -0.038856678 0.021010097 -0.02037531 -0.1113298
-0.024813533 -0.049520705 -0.035670064 0.009137121 0.016337834 0.000615599 -0.050239686 -0.02021326
0.026253449 -0.036564134 0.03387223 0.008897399 0.03434311 -0.01613667 0.030845245 0.011786178
-0.010465748 0.017855147 -0.03257061 -0.04347977 0.026138337 0.027282337 -0.04546833 0.034068927
-0.008946015 0.0151922135 0.0022740823 -0.015797669 -0.005581375 -0.021944031 -0.025432024 -0.009654565
0.040657483 -0.008729947 -0.0016520398 -0.016787479 -0.037075244 0.037728656 0.018480996 -0.017757643
-0.031182013 -0.025887627 0.040981583 -0.027688062 -0.043504357 -0.054618135 0.0050878664 0.045002665
-0.044561595 0.03564622 0.035954673 -0.029560022 0.032400742 0.022625385 0.028745297 -0.056218784
-0.010537646 0.013415621 -0.027840054 -0.04430365 0.005981192 0.033240423 0.007401833 0.028152231
-0.042791333 0.014306711 -0.057667177 -0.060102586 0.040874295 -0.03719669 0.039817803 0.031235283
0.039110743 -0.05589744 -0.022757124 -0.043026775 0.004991754 -0.0011450739 0.038183887 0.03577884

linear2.weight f4 [256, 256]
00000000: 3180 e33b 1f21 bbbc 1f60 a43d 7900 5e3d
00000010: b63e 123d c5fd 8d3e 06ea 2f3d cfe1 bc3d
00000020: 6f82 2abc 015a 4a3d d4e7 873c 222d 523d
00000030: 9bd0 723d 2d84 18bc bbb2 6bbd e888 c73b
00000040: 5008 e53b edc7 14bd f4f6 48be 4603 2a3d
00000050: 0875 043d ade9 053d 5bc7 7f3c 6793 3f3d
00000060: ce60 0f3d 42b4 d53c 589b ccbc 67bd 38bd
00000070: 145b 7abe 7c6d 823b 4f29 303d c8c2 083d
00000080: 2db2 cbbe d83b 6f3c 717b c03c 4c8a 72bd
00000090: 9144 d2bc dd12 02bd 5fdb 363d 53d9 7fbc
000000a0: 465f 00bd ca61 66bd 85bb 8bbc 3055 3d3d
000000b0: 6d87 0c3d 55e6 013d 75a3 153c 000a cf3c
000000c0: 58bd f93c ed07 023c 8830 373c f878 cc3c
000000d0: b082 443c 8144 e5be 3efd 1b3d 4054 4c3d
000000e0: 444a e93c ce63 203c 7850 32bc 3b45 f73c
000000f0: 3a08 643d 0d61 953c e2b3 e03c 2d25 93bc
00000100: 6f03 bb3c d5bc 0abc beb1 99ba 5f9a 2cbd
00000110: a846 b8bc cfc8 24bd 3f05 dfbc 5ec6 dd3d
00000120: ae63 933b 8da0 99bc cb33 dd3d 0b99 e2bc
00000130: 7be2 62bd f48f 603d 2d9b 103d 88db 40bd
00000140: 7c07 c83c 549b 813c f5bf 8abd c586 993c
00000150: 7a81 ee3c 1325 28be 6e22 a139 71ed df3c
00000160: fb27 66bd 66ce 14bd c288 ef3c 9496 073c
00000170: b898 4ebd f27e 67bd 2f74 bcbb 805a d3bc
00000180: e34e 753c b4a1 0e3d ece4 8b3c d263 52bd
00000190: 99b6 5fbd 0f83 80bd f05e 4b3d 2497 83bc
000001a0: 0e75 1a3d ebf4 673d 80c9 463d 95a0 16bd
000001b0: 041d 82bc d10f c9bc 4d2a 82bc 381c 263d
000001c0: bcb3 08bb 7def 42bd 93f6 f7bc 9a18 e7bb
000001d0: e2e7 683d 746f 8dbc 2e76 713d 55b0 36be
000001e0: 8235 673d 9020 bfbc 9ba8 68bb d77d babb
000001f0: 70d0 4f3d d101 41bd dd19 9e3c 7485 01bd
00000200: 6d56 10bd 9747 a9bc bc68 29be 78c2 c6bc
00000210: 108e 333d 1f2b 31bd e4d1 8dbc cc61 7f3d
00000220: 1c05 643d fed2 21bc b02c b13c ecf2 783c
00000230: 1c61 9b3e 84f6 fdbc aa16 593d 7875 a9bc
00000240: f676 923d 9efc 2fbc c23e 5abe 52c8 54bd
00000250: 40b9 b73c 8376 71bd d9f1 c83c b97a 53bb
00000260: 1f2d 203d 7d36 873d 48bd 443d a027 8cbc
00000270: 81e1 5b3c b6e7 93bc 226f 603d 5b4c 6e3c
00000280: d5a8 853d 0ff1 aebe 6ab7 d23c 73a6 efbb
00000290: 7fd8 373d 9fa7 2f3d e77a 28bc 3521 19bd
000002a0: 372a a4bc 33af 79bd 5a3f 53bd 51ce 533c
000002b0: d784 bdbc 1805 323b c9d9 d23c ae5b 29bd
000002c0: 8b25 ef3b 324f 57bc c017 41bd 389e 4bbc
000002d0: fb00 00bc f4d5 7e3c 44b9 823c 34a2 77bd
000002e0: b41f fa3c cb02 fabb f885 ce3c 55ee 88bc
000002f0: 6e7d 16bd 12c6 12bd 410b 54bd 113f d5bc
00000300: d04f b4bc 289f bcbb 836f e83b df5e b8bc
00000310: c42c 8fbc c0b8 c0bd c1a9 44bd 10d8 c8bc
00000320: 18be 41bc 78fa 45bd b0db 313d 4bd9 e9bc
00000330: 08b0 41bd 81d5 5d3d 5c70 01bd ec33 033d
00000340: ffe9 b2bc b1e5 c0bb 6ce0 123d 33da f6bc
00000350: 9d38 83bd 82ae 57bd 739d 64bd eade 1ebd
00000360: 40d1 4c3d 58ed cf3c 34fe 703d aa5a 6fbd
00000370: 41ba 543d f2a8 8ebe 7ab6 e1bc c0c8 42bd
00000380: 6db6 19bb 9915 dbbc 2461 f33c 89ee da3c
00000390: aefd 233d 5da8 003d fd0b 0cbd 8347 fdbc
000003a0: defa 9eb6 5071 3dbc bf63 bfbb 1e81 90be
000003b0: 6d55 8c3c b651 93bc 8782 21bd cbe1 72bd
000003c0: 9850 4dbc e4ca f13c af86 3bbd 2c29 4d3e
000003d0: 08ad 4ebd c428 ff3c d295 d2bc 5764 383b
000003e0: 9960 c2bb d336 753d 51fd 3d3e f1f8 5b3c
000003f0: 4022 4cbd 5802 f0bc f598 84bd 2064 343d
0.006942772 -0.022842942 0.08026146 0.05419967 0.035704337 0.27732673 0.04294779 0.09222757
-0.010407074 0.04940224 0.016590036 0.051312573 0.059280973 -0.009308857 -0.057543498 0.0060893185
0.0069895163 -0.036323477 -0.19625455 0.041507028 0.032338172 0.032693554 0.015611495 0.046771433
0.03500443 0.02608693 -0.024976417 -0.045102503 -0.24448806 0.0039803367 0.043008145 0.033388883
-0.39784375 0.01460167 0.023496361 -0.05921392 -0.02566746 -0.03175627 0.044642802 -0.015615779
-0.03134086 -0.056245603 -0.01705719 0.04622382 0.03430884 0.031713802 0.0091332095 0.025273323
0.030485794 0.00793646 0.011181004 0.024960026 0.011994049 -0.44778827 0.038083307 0.049885035
0.028477795 0.00978942 -0.010883443 0.030184379 0.055671908 0.018234754 0.027429525 -0.017962063
0.022828786 -0.008467873 -0.0011725945 -0.042139407 -0.022494629 -0.04023057 -0.027224181 0.10828851
0.0044979667 -0.018753314 0.10800894 -0.027660867 -0.05539177 0.054824784 0.035304237 -0.04708436
0.024417631 0.015821137 -0.06774894 0.018741021 0.029114474 -0.16420393 0.00030733965 0.0273349
-0.056190472 -0.03632965 0.029240016 0.008275647 -0.050438613 -0.05651755 -0.005751155 -0.02579999
0.014972421 0.03482218 0.017076932 -0.051364727 -0.054617498 -0.062749974 0.049651086 -0.01606328
0.03770929 0.056630056 0.04853201 -0.036774237 -0.015882976 -0.024543675 -0.015889311 0.040554255
-0.0020859083 -0.047591675 -0.030268943 -0.0070524933 0.056861766 -0.017265059 0.058950596 -0.17840703
0.056447513 -0.023330957 -0.0035500887 -0.005691271 0.05073589 -0.047120873 0.019299442 -0.03162141
-0.035238672 -0.02066402 -0.16543859 -0.024262652 0.043836653 -0.043254014 -0.017311998 0.062349126
0.055668935 -0.009876965 0.021627754 0.015194636 0.30347526 -0.031001337 0.05300013 -0.020685896
0.07151596 -0.010741381 -0.21313003 -0.051948853 0.022427201 -0.058950912 0.024529384 -0.0032269193
0.03910553 0.0660219 0.048032075 -0.017108738 0.013420464 -0.018054824 0.054793485 0.014544572
0.06526343 -0.34168288 0.025722224 -0.0073135435 0.0448842 0.042884465 -0.010283208 -0.037385184
-0.02003966 -0.0609581 -0.05157409 0.012927608 -0.023134632 0.002716368 0.025738614 -0.0413472
0.0072981766 -0.01314144 -0.04714179 -0.012427859 -0.007812734 0.01555394 0.015957482 -0.060457423
0.030532695 -0.0076297275 0.025210366 -0.016715208 -0.036740713 -0.035833426 -0.051768545 -0.026031049
-0.022010714 -0.0057562776 0.0070933714 -0.022506176 -0.0174774 -0.09410238 -0.048013452 -0.02451709
-0.011825107 -0.04833457 0.0434224 -0.028545996 -0.047287017 0.05415869 -0.031601295 0.03203194
-0.021840094 -0.0058867563 0.035858557 -0.030133342 -0.064072825 -0.052656658 -0.055814218 -0.038786806
0.050004244 0.025381729 0.058836177 -0.058436073 0.051935438 -0.2786327 -0.027552832 -0.04755473
-0.0023454682 -0.026743697 0.029709406 0.02672507 0.04003685 0.031410564 -0.03419112 -0.030917889
-4.7379717e-06 -0.01156266 -0.005840748 -0.2822351 0.017130578 -0.017983299 -0.03943112 -0.059297364
-0.012531422 0.029515691 -0.04578274 0.20035237 -0.050457984 0.031147368 -0.025706206 0.002813598
-0.0059319255 0.059866738 0.18553664 0.0134260515 -0.04983735 -0.029297993 -0.06474487 0.0440408

linear2.bias f4 [256]
00000000: a5ae 98bd b19c c7bd da77 f53a e4e2 dabd
00000010: 8ab7 303d f9f2 52bd cc48 7fbd 184d bfbc
00000020: 8dcc 81bd e692 8abc 0e7a 95bc fa2d 653c
00000030: 3788 a5bd 1692 303c 5264 ed3c 0b07 a53d
00000040: 5186 9c3d fcdf f1bb 5174 30be 58ff 4c3c
00000050: e99d 74bd 2771 313d 12e1 48bc 2988 d9bc
00000060: 028e 0dbd 067e 6ebd 587d 66be fba9 7a3b
00000070: eed3 85bd 50f7 293e 76f0 9dbd a9cc ff3c
00000080: b06b b3bc 93fd 283d 9944 6ebd 3fc4 57bc
00000090: c1b0 47bc 493f 77ba d36c da3b 463a 13bd
000000a0: edb4 0c3e 3195 dc3c a58f d3bd 42d8 c63c
000000b0: 4d55 0cbe f5f0 86bd 8b2f 65bc 65c8 00be
000000c0: 5c31 76bd f8e3 7fbc 5bae 5ebd b133 893d
000000d0: 3488 8a3d d110 95bc 5979 0fbd ea5d 67bc
000000e0: 879c ee3d e0c7 43bd d664 f23c 2e05 90bd
000000f0: 1607 d43d 6b1c 45bd 0e36 c23c 62b4 ef3b
00000100: 795f 4abc 0811 5fbd 94b9 a93c adef 53bd
00000110: f526 013e 8b4b 0bbe 1fec 2ebd 4222 1e3d
00000120: b009 f03d e00b ba3c 1b8f 16bd 7806 fe3c
00000130: 9211 1ebd 9f08 e9bc 5180 e13d 8a98 e93c
00000140: 614a a83d 5226 913c 20d9 62be ccb5 8abd
00000150: 5467 47bd 2de3 443d f376 cd3d 20a2 16be
00000160: 3663 4f3c 337b 033e 89e3 a2bd 8eb4 1ebd
00000170: eeb1 e03d 4f1c aebd 6a19 02bd 0848 ca3c
00000180: 5c26 d3bc 224e 8cbd 8e8f 6f3e 9632 80bd
00000190: 3218 5cbb e0b5 53b8 6918 c7bc 6baa e9bc
000001a0: 1e99 d3bd 855e 8ebd 841c 5cbd 2d7f 04bd
000001b0: eafe 133e 10b2 2fbd aeba 11bc 3a93 51bc
000001c0: 4ce2 0d3b ed6e 72be baf6 e83c ca0b 25be
000001d0: 0d50 83bd c26f e33d 8c4c 13be 947e e0bc
000001e0: 025d 803c 2303 bc3d e9bd 4e3c 666f efbb
000001f0: 0dae a33d 1c01 90bb a6c9 12be a4b2 74bd
00000200: 4a9c ef3b 96e0 1cbd 2dcf 6dbd 3f9d e2bd
00000210: 5c7a 9cbd 6d1a 4cbe 515d ab3d 8e70 16be
00000220: 8f6c babd f4b3 0d3c 65b2 0cbc a8c2 d1bc
00000230: 460f 16bc 150f 0bbe 6b60 6dbd 1143 ccbc
00000240: 6a19 01bd 3462 30be 58db 48bd 7840 6dbd
00000250: 6842 1c3e 0868 93bd f143 43bd 1922 eebd
00000260: 774e 44bd 94c2 6d3d e469 0fbe 845b b43d
00000270: 2be8 7fbc 484e 703c 901f bbbc e79b a7bd
00000280: 167e 9abd 7b56 063d b039 053d 1180 2c3d
00000290: 84d8 08be e7c3 b93b b0d7 babc 4d10 13bd
000002a0: 4963 533c deb8 5e3d 82a6 123d bcd4 603d
000002b0: 137b 0e3a 1560 183e 4e93 afbd 72b8 403d
000002c0: b561 e0bd 949a 8b3c 54b0 13be 17f9 68bd
000002d0: 5dad 4b3c f172 89be 871a 45be 547f 75bd
000002e0: f149 163e 3374 bfbd 5a95 453e 1af2 2cbe
000002f0: a1a9 17bd 89fc 833e 497a 9d3c 5cc6 0bbe
00000300: 2406 15bd 11a3 03be 0e41 7a3c 4336 09be
00000310: af99 34be 6e7c 92bd 0c5f 973d 3613 cd3c
00000320: 2b07 1bbe 5c65 2c3c fc1d ecbd 9c87 ee3d
00000330: b52e 84bd c8a9 40be 6935 7bbd ebb2 ea3d
00000340: 1361 80bd 9328 bdbc c30b 62ba 7ecb 91bd
00000350: 3f8f 25bd 0852 44be de94 16bd 8256 613d
00000360: cbf0 76bd 8a48 883c adfd 0abd efa5 00bd
00000370: 2089 06bc ab82 1bbe 03dd 19be 8630 253d
00000380: 6a98 763d 613d 263d 1da6 d83d ac75 f7bc
00000390: 77f4 66bc a823 c23c 55d4 04bd 1494 443d
000003a0: d075 70bd e5bd 88bd 537a 623e f9fe 673d
000003b0: 6eeb c33d a47e 893d 6905 03bb ee1f 09bd
000003c0: 25ee 37bd 1f41 02bc aaff 33bd 0fbb 2dbd
000003d0: b006 4a3d 9706 45bd db50 3e3b 236e d6bd
000003e0: 9f1d 76bd 2bd5 ddbd 8f30 08bc 049f 7dbb
000003f0: 7fcd 80bd 88e8 17be bab0 6abd 1baa bfbd
-0.07455186 -0.097466834 0.0018727735 -0.10687807 0.043143786 -0.051501248 -0.062325284 -0.02335219
-0.06337843 -0.01691575 -0.018246677 0.013988012 -0.080826215 0.010777017 0.0289785 0.08057984
0.07642806 -0.0073814373 -0.17231871 0.012512051 -0.059720907 0.0433208 -0.012260692 -0.026554184
-0.034559257 -0.058225654 -0.22508752 0.003824829 -0.06534563 0.16598248 -0.0771188 0.03122552
-0.021901935 0.041257452 -0.05817089 -0.013169347 -0.0121881375 -0.00094317325 0.006665805 -0.035944246
0.13740893 0.026926609 -0.103301324 0.024273042 -0.13704415 -0.06588928 -0.013988386 -0.12576444
-0.060105667 -0.015618317 -0.054365497 0.066993125 0.0676426 -0.018196495 -0.035027836 -0.014121512
0.11650949 -0.047798038 0.029589098 -0.07032238 0.10352914 -0.048122805 0.023707416 0.0073152045
-0.012351864 -0.0544596 0.020718373 -0.051742245 0.12612517 -0.13603036 -0.04270565 0.03860689
0.11720598 0.02271074 -0.03675757 0.031008944 -0.038590975 -0.028446494 0.110108025 0.02851512
0.08217312 0.017718468 -0.22153139 -0.06772956 -0.048682526 0.048068214 0.100324534 -0.14710283
0.012657931 0.12839966 -0.07953555 -0.03874641 0.109714374 -0.08501493 -0.031762518 0.02469255
-0.025775127 -0.0685084 0.23394606 -0.062596485 -0.0033583757 -5.0475704e-05 -0.024303632 -0.028523644
-0.10331939 -0.06951622 -0.053738132 -0.032347847 0.14452711 -0.042894423 -0.008894606 -0.012791449
0.0021649776 -0.23675127 0.02843796 -0.16117778 -0.06411753 0.111053005 -0.14384669 -0.027404107
0.01566935 0.09180286 0.01261852 -0.007306981 0.07992182 -0.0043946635 -0.14334735 -0.059740677
0.0073123323 -0.03830012 -0.058058906 -0.110651486 -0.07640526 -0.19931956 0.08367408 -0.14691374
-0.09102737 0.008648861 -0.008587454 -0.025605515 -0.009158915 -0.13579972 -0.05795328 -0.024934324
-0.031518377 -0.17224962 -0.049037308 -0.05792281 0.15259707 -0.07197577 -0.047672216 -0.11627597
-0.047926392 0.058046892 -0.14005238 0.08806518 -0.015619318 0.014667101 -0.022842199 -0.08184033
-0.0754358 0.032797318 0.03252572 0.04211432 -0.13363844 0.0056691053 -0.022807926 -0.035904218
0.012902089 0.05437552 0.035803325 0.05489038 0.00054352096 0.14880402 -0.08573018 0.0470509
-0.10956136 0.017041482 -0.14422733 -0.056878176 0.01243147 -0.26845506 -0.192484 -0.059935883
0.14676644 -0.09348335 0.19295254 -0.1688923 -0.037027005 0.25778607 0.01922335 -0.13649887
-0.03638281 -0.12855174 0.015274299 -0.13399605 -0.1763675 -0.07152639 0.07391176 0.025033575
-0.15139453 0.010522213 -0.115291566 0.11646959 -0.06454221 -0.18814766 -0.061330233 0.11459907
-0.062685154 -0.023090636 -0.00086229685 -0.07118891 -0.040419813 -0.19171917 -0.036763065 0.05501414
-0.06028823 0.016636152 -0.03393333 -0.031408247 -0.008211404 -0.15186565 -0.15025716 0.04032948
0.060203947 0.04058588 0.105785586 -0.030207478 -0.014096371 0.023698643 -0.032429058 0.04799278
-0.058706105 -0.066768445 0.22116975 0.056639645 0.09566389 0.06713608 -0.0019992238 -0.033477716
-0.044904847 -0.007950096 -0.043944992 -0.04241472 0.049322784 -0.048101988 0.0029039893 -0.10470226
-0.060086843 -0.10831674 -0.0083123585 -0.0038699517 -0.06289195 -0.14834797 -0.057297446 -0.09358617

linear3.weight f4 [2, 256]
00000000: 1430 213f 0dde 2d3f 8241 903c 21fb b2be
00000010: 03d7 21bf cd72 01bd 1a4b d0bc 1e82 16bc
00000020: 3f6d 33bd ff49 6d3f 4719 253c bca0 073d
00000030: 3f49 b93c bd83 273f 0f13 bb3c 8121 133f
00000040: 2e06 d1bf 6cc3 023d b9fa 35bf f1e1 ca3c
00000050: c99d e73e 77ec 0c3e 887b 8c3f b3da 8f3f
00000060: e552 c73d eb29 bcbd 3bbe 64be fa7d 803d
00000070: 1326 f03e 6ea9 8f3f 9016 493c 3244 a33e
00000080: 76b0 97ba 46c9 f6be dbda 4a3f cb4c 663e
00000090: 4a4a d3bc 2707 b03e bca0 56be 7143 c13c
000000a0: c2e2 1f3f 20cb 40bd c1f8 493f a088 15be
000000b0: 8d2b 4cbf 2585 06bc 77df 3dbd fc7b 0abc
000000c0: 7877 d6bd b151 95be c185 cabd 564f babf
000000d0: c2dd 2c3d 1193 57bf 0df6 d4be 01bc 66bd
000000e0: d004 b2be 2f28 38bc d470 d0be 84d7 7e3d
000000f0: a9ba f1bd c6f3 a4be 273b 26bf 861c 8d3e
00000100: 4664 25bb 8b7a e93d e6b6 f23e a97b 673f
00000110: d51c d4bf 3880 00be 9398 76bd 32a3 aebd
00000120: ecac 3abe 8660 0d3d ecf3 8dbf 5ad0 d83e
00000130: 49bd 373f 0d5f d0bb 17fe 2bbf 4696 9e3e
00000140: 04cc 193e fef0 0d3f 018b 4e3f 7e46 15bd
00000150: 054e 003f aa4c cdbe f433 d7bf 5ff3 cfbe
00000160: 0bdc 8a3e 64cf 333e 8900 633e fdc8 923d
00000170: 4160 843e 9c9e 723c d42d c83d 1a7e 6d3c
00000180: da09 803f 0775 763f f7da 9abf 2cac f0bb
00000190: 3355 ef3c 4f30 0e3f 6513 1a3d a7b7 3a3d
000001a0: 0af0 183f 4004 b83c 4123 8f3f 7582 0e3d
000001b0: a10b 8dbf d395 5d3f 6f0a 3e3d d2af 6fbd
000001c0: cdf4 0c3d aa0c 9cbe fa3b 52bc 8eb3 17bd
000001d0: c82c c1b7 3f39 52bf f9e7 4fbf 41cc e63e
000001e0: 1971 29be 767b 11bf ba60 d03c 6b7e a33e
000001f0: ae2f 53bf f77b 533b fba0 c7bf cdf1 003d
00000200: 66f2 2bbc e7ae 303d a339 2c3e 50e6 a93c
00000210: 3897 f73e 09e6 f63e de23 39be 0947 2a3f
00000220: 9e73 ab3e fafd fb3c 5185 db3c 07b4 55bd
00000230: 3c83 753b f83b b8be 7960 cebc 9cfe 7b3d
00000240: 946e 273f 6a4c d23d 6d72 fcbe 5737 d1be
00000250: af84 d3be fc10 2ebf a5df 923d 3974 61be
00000260: 7238 533f 132d 053f b7af ea3e 6d6a aebf
00000270: 46ab 2e3d 0dca 383f 06b8 2f3c 2c3b 8f3d
00000280: 98b2 073f 96c6 4c3f 4385 97bd 2632 f2bd
00000290: 15ea 7cbe a8aa 383d 893a c6bb e3c4 b1be
000002a0: be34 9939 9bce 4f3f ec27 74bf e91c bcbe
000002b0: b6d2 21bf bcc2 8cbf a1f8 213e 3681 633f
000002c0: 5f6d 513f 26cf b7be 7907 493f a69e 9c3e
000002d0: cf98 80bf 8a77 a3be a854 abbf ce14 a9bc
000002e0: 6acc c1bf 4743 fc3e 216b 193f de56 70bf
000002f0: d3c9 b3bf 5edd d3bf 55d6 2cbe 4ff1 3bbf
00000300: 89e1 a9bd 7a5f e9be c238 823f 017c bc3e
00000310: 956d a2be d933 57bd 2cb3 6a3d 4443 ae3e
00000320: eed1 23be 3cca af3b d3d4 61be 11c3 b8be
00000330: 8465 783b a1ad 5ebe 8a52 cdbe ae35 87bf
00000340: 7f90 2abc 5988 c2bb 4d0e 773e 18ba 6ebf
00000350: 1967 dcbc 5769 6cbf a425 ff3c aa60 943e
00000360: 7230 13be 6cc8 903f bcde 053d ef02 40bf
00000370: dc8b 2f3e 836b b0be 5b28 dd3e 3ce1 87bf
00000380: 8065 9f3e 40e8 84bf 2639 90bf e94d d5bb
00000390: cc80 253f d6bb 9f3d efeb 27bd d6e7 eebe
000003a0: eb8c 6d3f cf5c 363d ddfe b4bf a947 febc
000003b0: 7e48 0abe 39ed 2bbf 637d 00bd f28c bf3e
000003c0: 0636 a5bd 14b9 fd3d 6854 7f3f 4d01 20bf
000003d0: a438 883f 433b c93d a254 653e 624a 2bbf
000003e0: d5a7 ecbd b611 99bf 103e 6abe 4165 45bd
000003f0: 9d47 8dbf 1943 b4be 7f08 f93e d0b0 e8bd
0.62963986 0.6791695 0.017609362 -0.3495722 -0.63218707 -0.031603623 -0.025426436 -0.009186296
-0.043805357 0.92691034 0.010076827 0.033112273 0.022617934 0.6543539 0.022836236 0.57473
-1.6330011 0.03192465 -0.710857 0.02476594 0.45237568 0.13762079 1.0975199 1.1238617
0.09732608 -0.09187683 -0.22338192 0.06274028 0.46904048 1.1223581 0.012273446 0.31887966
-0.0011572975 -0.48200434 0.79240197 0.22490232 -0.02579226 0.34380457 -0.20959753 0.023591729
0.6245538 -0.047068715 0.78895193 -0.146029 -0.79753953 -0.008210455 -0.04635569 -0.008452412
-0.104720056 -0.29163888 -0.09888793 -1.4555461 0.042203672 -0.8420878 -0.41593972 -0.05633164
-0.34769297 -0.011240049 -0.4071108 0.06221725 -0.11803181 -0.32217234 -0.6493401 0.27560824
-0.002523677 0.11400326 0.47405165 0.90423065 -1.6571299 -0.12548912 -0.0602041 -0.08527221
-0.18230027 0.03451588 -1.1090064 0.4234646 0.717732 -0.006358987 -0.67184585 0.30974025
0.15019232 0.5544585 0.80680853 -0.03644418 0.5011905 -0.40097553 -1.681273 -0.40615365
0.27121004 0.17559582 0.22168173 0.07167242 0.25854686 0.014808323 0.09774366 0.014495397
1.0003006 0.9627232 -1.2098073 -0.0073447432 0.02921543 0.55542463 0.037616152 0.0455853
0.5974127 0.022462964 1.1182634 0.034792382 -1.1019174 0.8655674 0.04639667 -0.058517285
0.034413148 -0.30478412 -0.012831682 -0.03703647 -2.3028246e-05 -0.821186 -0.8121334 0.45077708
-0.1654705 -0.5682901 0.025436748 0.31932387 -0.8249463 0.0032269934 -1.5596002 0.0314806
-0.010494804 0.04313555 0.16818862 0.020739704 0.48357558 0.48222378 -0.18080088 0.6651464
0.33486646 0.030760754 0.026796969 -0.05217364 0.0037462255 -0.35983253 -0.025192486 0.06152211
0.65403104 0.10268481 -0.4930605 -0.40862533 -0.41312167 -0.67994666 0.07171563 -0.22016992
0.82508004 0.520219 0.45837185 -1.3626229 0.042643808 0.72183305 0.010725027 0.06993708
0.5300689 0.7999052 -0.073984645 -0.11825971 -0.2469867 0.045084625 -0.0060494584 -0.34720525
0.0002922173 0.8117463 -0.95373416 -0.36740807 -0.63212144 -1.0996928 0.158175 0.88869035
0.8180751 -0.3590023 0.7852703 0.3058979 -1.0046633 -0.3192714 -1.338521 -0.020639803
-1.5140507 0.4927008 0.5992909 -0.9388255 -1.4045967 -1.6551931 -0.16878636 -0.7341508
-0.082949705 -0.45580655 1.0173571 0.36813357 -0.3172423 -0.05253968 0.057299778 0.34035695
-0.1599805 0.0053646844 -0.22053842 -0.36086324 0.0037902305 -0.21745922 -0.40102035 -1.0563257
-0.010410427 -0.005936664 0.24126549 -0.93252707 -0.02690463 -0.92348236 0.031145878 0.2898
-0.14373949 1.1311164 0.03268312 -0.75004476 0.17143196 -0.34457025 0.4319485 -1.0615611
0.31132126 -1.0383377 -1.126744 -0.0065095318 0.64649653 0.07799499 -0.04099649 -0.46661252
0.9279315 0.044522103 -1.4140278 -0.03104003 -0.13504216 -0.6715885 -0.031369578 0.3741222
-0.08066945 0.123888165 0.9973817 -0.62501985 1.0642285 0.098257564 0.22395566 -0.66910374
-0.11555449 -1.195853 -0.22875237 -0.048192266 -1.103748 -0.3520744 0.48639295 -0.11361849

linear3.bias f4 [2]
00000000: 80a7 cf3e d217 223d
0.4055748 0.039573498
