turtlebot3_rl_sim/src/models/td3/turtlebot3_top_1_obstacle/td3_actor_model_ep2500.pt (torch_old, 646182 bytes, 6 tensors)

linear1.weight f4 [256, 370]
0	0xbd2f71b7	-0.042833056
1	0xbd6275e3	-0.055288207
2	0xbc1bc2a6	-0.009506857
3	0xbce52dfb	-0.027976027
4	0x3ce8287a	0.028339613
5	0x3cde7fd1	0.027160557
6	0x3b1cfbed	0.002395387
7	0xbc2139df	-0.009840458
8	0x3d0b7e94	0.03405626
9	0xbcccaa31	-0.024983497
10	0x3bcff780	0.006346643
11	0xbcbcebb8	-0.023061618
12	0xbd2c25f7	-0.042028394
13	0xbca9359f	-0.020655451
14	0xbc33e018	-0.010978721
15	0x3d1aa7d5	0.037757713
16	0x3cf3a83b	0.029743304
17	0x3c88ab24	0.016683169
18	0xbcdd6b42	-0.027028684
19	0x3cc456f0	0.023967236
20	0x3c0a74f4	0.008450735
21	0xbc92fe1e	-0.017943438
22	0xbd622e03	-0.05521966
23	0x3d360f77	0.044448342
24	0x3d2d39be	0.042291395
25	0x3cc55a50	0.024090916
26	0xbd2e05a7	-0.04248586
27	0xbc85139d	-0.016244704
28	0xbcb56910	-0.022144824
29	0x3c9c357d	0.019068474
30	0x3d3a032f	0.045413192
31	0xbd6c909b	-0.057755094
32	0xbcd4f34a	-0.025994916
33	0xbc729924	-0.014807019
34	0x3be98d82	0.0071274647
35	0x3d29e94e	0.041482262
36	0xbcb3e4c8	-0.021959677
37	0xbd21cfdf	-0.039504882
38	0xbd446371	-0.047946397
39	0x3d2efbbe	0.04272055
40	0xbd002b2b	-0.03129117
41	0x3c33e337	0.010979465
42	0x3b205e56	0.002447029
43	0xbcf8ff6c	-0.030395232
44	0x3d023b7c	0.03179501
45	0x3d230606	0.039800666
46	0xbc56abea	-0.013102511
47	0x3cfc36db	0.030787876
48	0x3bd3fd31	0.0064693918
49	0xbc887e9d	-0.016661936
50	0x3cf7db3b	0.030255904
51	0xbd570a72	-0.052500196
52	0xbcd7d4ca	-0.026346583
53	0xbd3ed7e8	-0.046592623
54	0xbd29d04f	-0.041458424
55	0xbb19f746	-0.0023493334
56	0xbd41a069	-0.04727212
57	0xbc9a624e	-0.018845703
58	0xbb35d0f8	-0.0027742963
59	0x3d27f486	0.04100468
60	0x3c68831a	0.014191413
61	0xbd3623c8	-0.044467717
62	0xbc884c9d	-0.016638095
63	0xbd415631	-0.04720134
64	0xbd191af6	-0.037379228
65	0xbbad87df	-0.005295738
66	0x3cb2add7	0.021811409
67	0xbd5bc3d2	-0.053653546
68	0xba48da69	-0.000766194
69	0xbcc09539	-0.023508655
70	0xbce81363	-0.028329557
71	0x3c8de3dc	0.017320566
72	0xbd63c763	-0.055610072
73	0x3d283626	0.041067265
74	0xbd2fea07	-0.042947795
75	0x3c188685	0.009309416
76	0xbd2ca86f	-0.04215282
77	0x3d3a4727	0.045478012
78	0x3c187a05	0.0093064355
79	0xbc78088c	-0.0151387565
80	0x3d22c466	0.03973808
81	0x3ced363a	0.028956521
82	0xbb60cf3b	-0.0034303206
83	0x3c33f07f	0.010982632
84	0x3d1c6cf5	0.038189847
85	0x3cad2a1e	0.021138247
86	0x3bf9d70b	0.007624512
87	0xbcfb6194	-0.030686177
88	0xbd4b3589	-0.049611602
89	0x3c185b8d	0.009299171
90	0x3d196e8d	0.037458945
91	0x3d35596f	0.044274744
92	0x3cd73f91	0.026275428
93	0x3d121615	0.03566559
94	0xbd3faec0	-0.046797514
95	0xbcb3ae18	-0.0219336
96	0xbbafc54f	-0.005364097
97	0xbcfc8fec	-0.030830346
98	0x3ce200b2	0.027588222
99	0xbcc436e9	-0.023951964
100	0x3d1da63d	0.038488615
101	0x3cbfa55f	0.023394285
102	0xbca05b37	-0.019574745
103	0x3d0a7814	0.03380592
104	0xbc8093db	-0.015695503
105	0xbc2646d7	-0.0101487255
106	0x3c9fa52d	0.019487942
107	0xbb01aaf5	-0.0019785736
108	0x3caf4c36	0.021398645
109	0xbd53c4f2	-0.051701494
110	0xbd404bc9	-0.046947274
111	0x3d3a9ddf	0.045560714
112	0xbd2abd07	-0.041684177
113	0xbd2aae2f	-0.04167002
114	0x3a54e6c9	0.0008121548
115	0xbbca9881	-0.0061827307
116	0x3d16cd1d	0.036816705
117	0x3cbe24ff	0.023211
118	0x3b0ca9cc	0.0021463512
119	0xbd4e9d69	-0.050443087
120	0xbcb2b030	-0.021812528
121	0x3d06d59c	0.032918558
122	0xbc14ff66	-0.009094095
123	0x3cb139f7	0.021634085
124	0x3cd29f31	0.025710674
125	0x3c85a104	0.01631213
126	0xbc3b28f0	-0.0114233345
127	0xbd68c32b	-0.05682675
128	0xbd57b7e2	-0.0526656
129	0xbcdb06c2	-0.02673662
130	0x3c6bf842	0.014402451
131	0x3d309cef	0.043118414
132	0x3c977dad	0.018492544
133	0xbd63098b	-0.055429023
134	0xbb6364f3	-0.0034697622
135	0xbd53747a	-0.051624753
136	0xbc875f1e	-0.016524848
137	0xbd0aaec5	-0.03385808
138	0xbbf98e64	-0.0076158512
139	0x3cc8f110	0.02452901
140	0xbd1885be	-0.03723692
141	0x3ce5f9e2	0.028073255
142	0xbc77a874	-0.015115846
143	0x3cc71ea8	0.02430661
144	0xbb8896d5	-0.004168371
145	0xbd3d7d08	-0.046261817
146	0xbd2eb4a7	-0.042652752
147	0xbd0645dd	-0.03278147
148	0xbd0f21d5	-0.034944374
149	0x3d37b16f	0.04484695
150	0xbd0a981d	-0.033836473
151	0xbccd6f12	-0.025077377
152	0xbd515c8a	-0.051113643
153	0x3ba0db56	0.0049089594
154	0x3cfc6043	0.03080762
155	0xbd4fed59	-0.05076346
156	0xbc0fcc25	-0.008776699
157	0xbbb984a0	-0.005661562
158	0xbca83177	-0.0205314
159	0xbd150a56	-0.03638681
160	0xbc867bc5	-0.01641644
161	0xbd121ac6	-0.035670064
162	0xbced971b	-0.029002717
163	0xbc8e0e0d	-0.017340684
164	0xbd45f2a9	-0.048327122
165	0x3ce2ebda	0.027700353
166	0x3d297cb6	0.0413787
167	0xbb9f557e	-0.0048624864
168	0xbd5f8eea	-0.054579653
169	0xbc00ae9d	-0.007854131
170	0x3d2a920e	0.041643195
171	0x3cdd0421	0.026979508
172	0x3c4aded0	0.012382224
173	0x3cbfef97	0.023429675
174	0xbd24f48f	-0.04027229
175	0xbc9a7b4e	-0.018857624
176	0xbb21591f	-0.002461977
177	0xbd34c1e0	-0.044130206
178	0x3d0731cc	0.033006474
179	0xbc47ac11	-0.01218702
180	0x3c885c3c	0.016645543
181	0xbcd875ba	-0.026423324
182	0xbd39ac78	-0.045330495
183	0xbcfff894	-0.031246461
184	0x3cd5ed49	0.026114123
185	0x3aa6a3ce	0.0012713613
186	0xbd319628	-0.04335609
187	0xbb2b280f	-0.0026116406
188	0xbcb10b18	-0.021611735
189	0xbcbe49b8	-0.023228511
190	0x3d35758f	0.044301566
191	0xbd5ad8aa	-0.053429283
192	0x3bd5b441	0.006521732
193	0xbcf0a6b4	-0.029376365
194	0x3d131fb5	0.03591891
195	0x3d177f3d	0.03698658
196	0x3c178e15	0.009250184
197	0x3d35a6c7	0.044348504
198	0x3d1b560d	0.03792386
199	0x3c0196a4	0.007909451
200	0xbd404bc9	-0.046947274
201	0xbd518462	-0.05115164
202	0xbcfdb0fc	-0.030968182
203	0xbd683e5b	-0.05670009
204	0xbd43b219	-0.04777727
205	0x3d222f2e	0.039595775
206	0x3c9ceddd	0.01915639
207	0xbb96885e	-0.004593893
208	0xbd00b34d	-0.031420995
209	0x3d32d5af	0.043660816
210	0xbc507612	-0.012723463
211	0x3d171b3d	0.03689121
212	0xbc7d57ec	-0.015462857
213	0x3b0b27dc	0.0021233475
214	0x3c8f25bc	0.017474048
215	0x3d02c8e4	0.031929865
216	0x3d1548d5	0.03644641
217	0x3ceeb82a	0.02914055
218	0xbccc6571	-0.024950715
219	0x3cc73ac8	0.024320021
220	0x3ca4f61e	0.02013689
221	0xbd384b58	-0.04499373
222	0x3c518141	0.012787164
223	0xbcd2982a	-0.025707323
224	0xbcce65f1	-0.025195094
225	0xbcffda1c	-0.031231932
226	0x3d2c82ee	0.04211705
227	0xbcbc29f8	-0.022969231
228	0xbd14f21e	-0.036363713
229	0xbcaa169f	-0.02076274
230	0x3cf5d6d3	0.030009663
231	0x3c7c0d73	0.015384066
232	0x3cadfd0e	0.02123883
233	0xbbe87ffb	-0.0070953346
234	0x3d0fc83c	0.035103068
235	0x3ceee70a	0.029162902
236	0x3b927ba5	0.004470306
237	0xbd4b1969	-0.04958478
238	0x3bf5ca53	0.0075009256
239	0x3ca5c846	0.0202371
240	0x3c698cba	0.014254743
241	0xbc9d35be	-0.019190665
242	0x3c0bc354	0.008530457
243	0xbd59520a	-0.053056754
244	0xbcb7bdf0	-0.022429436
245	0x3cdd7e01	0.027037622
246	0xbd37ce58	-0.04487452
247	0xbd5454b2	-0.051838584
248	0xbac0c031	-0.0014705715
249	0xbd052275	-0.032503564
250	0xbcdd85d2	-0.02704135
251	0x3d3a24c7	0.04544523
252	0xbbc66a31	-0.0060551395
253	0xbcef915b	-0.029244116
254	0x3b3a4d67	0.0028427483
255	0x3c6644e2	0.014054509

linear1.bias f4 [256]
0	0x3c6acf62	0.0143316705
1	0xbc6e5683	-0.014546993
2	0xbcafe237	-0.021470172
3	0xbc69d94b	-0.014272998
4	0xbc2585c4	-0.010102693
5	0x3c80092e	0.015629377
6	0x3d357017	0.04429635
7	0xbc83cdd5	-0.01608936
8	0x3cca3ea8	0.02468808
9	0xbd4944a9	-0.049137745
10	0x3d1fc3a5	0.03900494
11	0xbbafd8d7	-0.0053664255
12	0x3c0cb0d4	0.008587081
13	0x3c745a5b	0.014914121
14	0xbd61b99b	-0.055108648
15	0x3d54ae9b	0.05192433
16	0xbcb34ec8	-0.021888152
17	0xbd4510e1	-0.0481118
18	0xbd3dbea8	-0.046324402
19	0x3d0b1774	0.033957914
20	0xbbabf32f	-0.0052474956
21	0xbd47bd99	-0.0487648
22	0x3cf21db3	0.029555177
23	0x3c7d1ee3	0.0154492585
24	0x3d059b8c	0.032619044
25	0xbd0da175	-0.034577806
26	0xbcd6c11b	-0.026215127
27	0x3cc29a68	0.023755267
28	0x3cee687a	0.029102553
29	0xbb190680	-0.0023349822
30	0x3d01da9c	0.031702623
31	0xbc326d00	-0.010890245
32	0xbd6a3fa3	-0.057189595
33	0xbc52ec8a	-0.012873778
34	0xbc6ac603	-0.014329436
35	0xbd526dfa	-0.051374413
36	0xbae579c3	-0.0017507601
37	0xbc0a83cd	-0.008454275
38	0xbd5dc38a	-0.05414156
39	0x3d212016	0.03933724
40	0x3c9779c5	0.018490681
41	0xbc2c9d7f	-0.010535597
42	0xbcb8e2e8	-0.022569135
43	0x3c5c3ab8	0.013441734
44	0x3d333b5b	0.043757778
45	0x3d3eedc7	0.04661348
46	0xbc6a5713	-0.014302987
47	0xbc1b0c9e	-0.009463457
48	0x3cef5aaa	0.029218037
49	0x3b2f0c70	0.0026710294
50	0xbd5ae782	-0.05344344
51	0x3d2e5b96	0.042567812
52	0xbc5e165a	-0.013555134
53	0x3ce4646a	0.027879912
54	0x3d2349fe	0.039865486
55	0x3dafbf47	0.08581405
56	0xbcb0c985	-0.021580467
57	0xbd3295de	-0.043599956
58	0x3dd109e2	0.10206963
59	0xbd1b5226	-0.03792014
60	0x3cea1bb2	0.02857766
61	0x3ad9cf09	0.0016617487
62	0x3d02f954	0.03197606
63	0x3cb31f3e	0.021865483
64	0xbcfcf644	-0.030879147
65	0xbc3ccf98	-0.011524104
66	0xbcf33ec4	-0.029693015
67	0xbbf7a3c4	-0.007557364
68	0xbcb2f298	-0.021844193
69	0xbd0076f3	-0.03136344
70	0x3bfc3b8b	0.0076975278
71	0xbcbe2690	-0.023211747
72	0x3c19d278	0.009388559
73	0x3c8be4ec	0.017076932
74	0xb9d052ea	-0.00039734627
75	0xbd59b47a	-0.05315063
76	0xbd41c5e9	-0.047307882
77	0x3b573860	0.0032839999
78	0xbc6a09bb	-0.0142845465
79	0x3d24c036	0.04022237
80	0xbd0cce21	-0.034376267
81	0x3d2a2f9e	0.041549318
82	0x3c4a3868	0.01234255
83	0x3d0b8664	0.03406371
84	0x3cfd0b5b	0.030889204
85	0xbd48ef81	-0.049056534
86	0xbca585df	-0.020205436
87	0x3bc5c3c8	0.006035302
88	0x3cadf85e	0.021236595
89	0xbce12574	-0.02748368
90	0xbcf08e7c	-0.029364817
91	0xbc9dcc86	-0.019262563
92	0x3d19044d	0.037357617
93	0x3d214a46	0.039377473
94	0xbd5ddc8a	-0.0541654
95	0xbbe5bdea	-0.007011165
96	0x3ce4d1ca	0.027932066
97	0xbcc5aeb1	-0.02413115
98	0x3d0eb2e4	0.034838572
99	0x3d1dff4d	0.038573552
100	0x3ccf2ad0	0.02528897
101	0xbd5987f2	-0.053108163
102	0x3b85c4f4	0.0040823165
103	0xbd395f20	-0.045256734
104	0xbc8eafc5	-0.017417798
105	0x3d51fddb	0.051267486
106	0xbd2e0a57	-0.04249033
107	0x3c43d3b0	0.011952326
108	0x3d09fefc	0.033690438
109	0xbd3c6ad0	-0.0460003
110	0x3c0ab11c	0.008465078
111	0xbd125b9e	-0.035731904
112	0x3c78cfc3	0.015186253
113	0xbcabf0d7	-0.020988865
114	0xbd37f888	-0.044914752
115	0xbcdbb112	-0.026817832
116	0xbd3de040	-0.04635644
117	0xbd2d40c7	-0.042298105
118	0x3d328537	0.043584075
119	0xbd0478ed	-0.032341886
120	0x3d2955a6	0.041341446
121	0x3c08b2f4	0.008343447
122	0xbd314a69	-0.043283854
123	0xbd5ae782	-0.05344344
124	0xbd37c368	-0.04486409
125	0x3cd57e59	0.026061224
126	0xbd5c6a3a	-0.053812243
127	0x3cce54c0	0.025186896
128	0xbcd191aa	-0.025582153
129	0xbd42f1e9	-0.047593985
130	0x3cfec7e3	0.031101173
131	0x3ce377b2	0.027767036
132	0x3d0184ac	0.031620666
133	0xbadc914a	-0.0016827967
134	0xbcca45b1	-0.024691435
135	0x3d2d8266	0.042360686
136	0xbc6cf6f3	-0.014463174
137	0x3d35370f	0.04424196
138	0x3dce7e59	0.10082693
139	0xbd020ef5	-0.031752545
140	0x3cdd5d31	0.027021976
141	0x3ccf2a42	0.025288705
142	0xbcb2f428	-0.021844938
143	0x3ced1eca	0.028945345
144	0xbb5b652f	-0.0033477058
145	0x3ccf1748	0.025279656
146	0x3d1135dd	0.03545176
147	0xbcefbba0	-0.029264271
148	0x3ba79aae	0.005114875
149	0x3d34993f	0.04409146
150	0x3d1bcfed	0.03804009
151	0x3d8d2417	0.06891649
152	0xbd29ab97	-0.041423406
153	0x3ccc35c8	0.024927989
154	0x3d23a566	0.039952658
155	0x3bbee917	0.0058261263
156	0x3c99f99d	0.018795783
157	0xbd2a583f	-0.041588064
158	0x3c21fcd8	0.009886943
159	0xbd149c2e	-0.036281757
160	0xbac8cd21	-0.0015319922
161	0xbcdebcc2	-0.027189616
162	0x3c978edd	0.01850074
163	0x3cdb23a9	0.026750403
164	0xbca95f07	-0.020675195
165	0x3c9d3365	0.019189546
166	0xba6d25d3	-0.0009046469
167	0xbc9a2ebe	-0.018821117
168	0x3ccb9028	0.024849012
169	0x3b460a18	0.0030218419
170	0x3cb2f99f	0.021847544
171	0x3d2589c6	0.040414594
172	0x3cd6c4e9	0.026216941
173	0xbd090d95	-0.03346022
174	0xbcd12abf	-0.025533078
175	0x3afc9d33	0.0019272923
176	0xbd5566ea	-0.0521001
177	0x3c75fb8b	0.015013586
178	0x3d3c79a7	0.046014454
179	0x3c92d005	0.017921457
180	0x3d1674d5	0.036732513
181	0x3d475620	0.04866612
182	0xbce1333b	-0.027490249
183	0xba628c8b	-0.00086421584
184	0x3cec92f2	0.028878663
185	0xbafbd5fc	-0.0019213553
186	0x3d03f354	0.032214478
187	0x3d01bc24	0.031673566
188	0xbcf03c74	-0.029325701
189	0x3cf0162b	0.029307446
190	0x3d2216f7	0.039572682
191	0xbca8fa0e	-0.020627048
192	0x3d10ac5d	0.03532063
193	0x3cc8e3c8	0.024522677
194	0xbd5f06fa	-0.054450013
195	0x3c68ed5c	0.014216747
196	0xbca69367	-0.020333959
197	0x3c9ebafa	0.019376267
198	0xbbc0ee88	-0.00588781
199	0xbd51131a	-0.051043607
200	0xbd40ee62	-0.04710234
201	0x3d3c5bf7	0.045986142
202	0x3cc49270	0.023995608
203	0x3c89f72c	0.016841494
204	0x3c426f70	0.011867389
205	0xbc6ec4ab	-0.0145732565
206	0x3d0dc6f4	0.034613565
207	0xbc20d6a7	-0.009816802
208	0x3d29da76	0.041468106
209	0x3ad2fcf1	0.0016097111
210	0x3c791483	0.015202644
211	0xbc972dfe	-0.018454548
212	0x3d13d10d	0.03608804
213	0x3d96726a	0.073460415
214	0x3d346037	0.04403707
215	0x3ca6816e	0.020325389
216	0xbc6d2a83	-0.014475468
217	0xbd5c19c2	-0.053735502
218	0xbd05a80d	-0.03263097
219	0xbcbfc950	-0.023411423
220	0xbcc6df61	-0.024276437
221	0x3cdc7209	0.026909845
222	0x3cc8ad18	0.0244966
223	0xbc502d6a	-0.01270614
224	0x3b5ef691	0.0034021477
225	0xbbe2d5fb	-0.006922481
226	0xbd06e605	-0.032934207
227	0x3d903032	0.070404425
228	0x3c65230a	0.013985405
229	0x3a65c3fa	0.00087648595
230	0x3d1c86bd	0.038214434
231	0x3c84ddb4	0.016218998
232	0xbd2f0137	-0.042725768
233	0xbcee2f73	-0.02907536
234	0xbcf7e94c	-0.030262612
235	0x3b269a6e	0.0025421637
236	0xbc568412	-0.013093011
237	0x3cfa6b7b	0.030568829
238	0x3d367057	0.04454073
239	0x3d0cccf4	0.034375146
240	0xb995dc80	-0.0002858378
241	0xbd481269	-0.048845682
242	0x3d2ee5de	0.042699687
243	0xbc933e2e	-0.017973986
244	0xbcc5c301	-0.024140837
245	0x3d3b919f	0.045793172
246	0xbca85887	-0.020550026
247	0xbaba47f0	-0.0014212113
248	0xbc57e082	-0.013176085
249	0x3d201b26	0.03908839
250	0x3c58e7c9	0.013238856
251	0xbd122426	-0.035679005
252	0xbc7e0c64	-0.015505884
253	0x3d23d82e	0.040001087
254	0xbd40c671	-0.04706425
255	0xbd5d10a2	-0.05397094

linear2.weight f4 [256, 256]
0	0xbc20a0bf	-0.00980395
1	0x3d70ab63	0.058757197
2	0xbd244eef	-0.04011434
3	0xbcdbfffa	-0.026855458
4	0xbb984bee	-0.0046477234
5	0x3cef9092	0.029243741
6	0x3ac64578	0.0015126904
7	0xba7f9680	-0.0009749904
8	0x3d436bc8	0.04771021
9	0xbd2557c7	-0.040366914
10	0xbd5a5e02	-0.05331231
11	0xbd6cdefe	-0.05782985
12	0x3d629dba	0.0553262
13	0x3d3b0d97	0.045667257
14	0xbca1b617	-0.019740148
15	0x3ce50ed0	0.027961165
16	0x3c74528c	0.014912259
17	0x3d0d848c	0.034550235
18	0x3c30b077	0.01078426
19	0xbd388c30	-0.04505557
20	0xbd68c0d3	-0.056824517
21	0x3d04d3cc	0.032428548
22	0xbd6de603	-0.058080684
23	0xbd315a00	-0.04329872
24	0x3d520611	0.051275317
25	0x3ca7dd16	0.020491164
26	0xbd51e542	-0.051244028
27	0xbbcdd7c1	-0.0062818234
28	0xbd44c389	-0.04803804
29	0xbd3f4e56	-0.046705566
30	0xbcad0d37	-0.021124465
31	0xbc4303e1	-0.01190278
32	0xbc2effb0	-0.010681078
33	0x3cf786db	0.030215671
34	0x3c8b16ac	0.016978584
35	0xbd440679	-0.047857735
36	0xbd0a3832	-0.033745
37	0x3d3f37ff	0.04668426
38	0xbd1fcaae	-0.03901165
39	0xbd267fdf	-0.04064929
40	0xbc91150e	-0.017710235
41	0xbd10980e	-0.03530126
42	0xbcd623fa	-0.026140202
43	0xbd196aa6	-0.037455224
44	0xbd3568da	-0.044289447
45	0xbd4d5f71	-0.05013985
46	0xbd6ad34b	-0.05733041
47	0xbb1ac0d6	-0.0023613474
48	0xbc04f77d	-0.008115646
49	0x3d72c35c	0.05926834
50	0x3b78bbe0	0.003795378
51	0xbb8610bd	-0.004091351
52	0x3d0fa064	0.03506507
53	0x3cb28dcf	0.021796135
54	0xbc910e05	-0.01770688
55	0xbca6c49f	-0.020357428
56	0x3b27fa00	0.002563119
57	0xbbb72640	-0.0055892766
58	0x3c22c20e	0.009933962
59	0xbc7eb90c	-0.015547048
60	0x3bb35697	0.005472969
61	0xbc3885f0	-0.011262402
62	0xbcfca2ac	-0.030839287
63	0xbd4047e1	-0.04694355
64	0x3ce6a68a	0.028155584
65	0xbca0f9cf	-0.019650368
66	0x3cda2369	0.026628213
67	0xbcd279b2	-0.025692794
68	0x3cffac04	0.031209953
69	0xbd4f90a2	-0.050675042
70	0xbca4c73f	-0.02011454
71	0xbd7abb2c	-0.061213657
72	0xbd034adc	-0.032053813
73	0x3d27e0fe	0.040986054
74	0x3c985935	0.018597225
75	0xbd2e8757	-0.04260954
76	0x3d6f5aaa	0.058436073
77	0x3cb1f478	0.021723017
78	0x3c943b4d	0.018094683
79	0xbcef6fc3	-0.029228097
80	0x3c668950	0.014070824
81	0xbc98b565	-0.018641183
82	0x3cab54f0	0.020914525
83	0xbcf6d583	-0.030131107
84	0x3c7ac61b	0.015306021
85	0x3d00e766	0.03147068
86	0xbbb91b00	-0.0056489706
87	0xbc76a9c4	-0.015055124
88	0x3d6138b2	0.05498571
89	0x3d217f44	0.03942801
90	0x3c1c9b0d	0.009558451
91	0x3d6749d2	0.056466885
92	0x3d6916c2	0.05690647
93	0xbd26c30f	-0.040713366
94	0x3cabf0d6	0.020988863
95	0x3d3959a7	0.045251515
96	0x3bd33aa9	0.006446202
97	0xbc88b2f5	-0.016686896
98	0xbd70e214	-0.058809355
99	0x3d155235	0.03645535
100	0x3a632f0b	0.0008666373
101	0x3d2c8d16	0.042126738
102	0x3d2f7efe	0.04284572
103	0x3d2ac59e	0.04169237
104	0x3bd10509	0.006378774
105	0x3cb5a130	0.022171587
106	0xbc5535b2	-0.01301329
107	0x3cdb3b19	0.026761578
108	0xbc5c78b8	-0.013456516
109	0x3c808f2a	0.015693266
110	0x3b774153	0.0037728145
111	0xbc1445c0	-0.009049833
112	0xbd5de2c9	-0.054171357
113	0xbb9a7cde	-0.0047145924
114	0xbcc061a9	-0.023484068
115	0xbd2fb358	-0.042895645
116	0xbbd101ea	-0.006378402
117	0xbbef7f63	-0.007308887
118	0x3d2f9f06	0.042876266
119	0x3d169d75	0.036771256
120	0x3d522231	0.05130214
121	0x3c7624f3	0.015023458
122	0x3ba23890	0.0049505904
123	0xbd751c1c	-0.05984126
124	0x3bab2296	0.005222629
125	0xbc925946	-0.017864835
126	0xbcdb0212	-0.026734386
127	0xbd5bb5c2	-0.053640135
128	0xbb0627e0	-0.0020470545
129	0xba57789a	-0.000821957
130	0xbcffb884	-0.031215914
131	0x3c80911e	0.015694197
132	0x3d28c776	0.041205846
133	0xbcb363e0	-0.02189821
134	0x3c35a537	0.011086754
135	0xbd1d3974	-0.03838487
136	0x3d6d2762	0.057898887
137	0xbd54fa52	-0.051996537
138	0xbd27a347	-0.040927198
139	0x3c8eaca4	0.017416306
140	0xbd76323c	-0.0601065
141	0x3d6e1398	0.058124155
142	0xbc9eb3c6	-0.019372832
143	0x3c2521de	0.010078875
144	0xbcd0bdf2	-0.025481198
145	0x3c66da1a	0.014090085
146	0x3d622312	0.055209227
147	0xbd3a315a	-0.04545722
148	0x3d0d127c	0.034441456
149	0x3c87655c	0.016527824
150	0xbd422bfa	-0.04740522
151	0xbd2db9c2	-0.04241348
152	0x3d3e2890	0.046425402
153	0xbcb47f90	-0.022033483
154	0xbd3a81c0	-0.045533895
155	0xbd491c09	-0.049099002
156	0xbd274ab0	-0.040842712
157	0xbd3ef7f0	-0.04662317
158	0xbcdccbb8	-0.02695261
159	0x3d73a9cc	0.059488103
160	0xbc040dc0	-0.008059919
161	0x3d10db3d	0.035365332
162	0xbb91c1b6	-0.004448141
163	0x3d131a3d	0.035913695
164	0x3beae5f0	0.007168524
165	0x3d17555c	0.03694664
166	0xbcfb7e7c	-0.03069996
167	0x3cbddac7	0.02317561
168	0xbd806433	-0.062691115
169	0x3d118e25	0.03553595
170	0x3d0ffbcc	0.03515224
171	0x3d39a318	0.045321554
172	0xbd607dfb	-0.054807644
173	0x3d694fca	0.05696086
174	0xb9cf5000	-0.0003954172
175	0x3c801932	0.015637014
176	0xbd7b39bc	-0.061334357
177	0x3d3b5bb7	0.045741763
178	0xbc73123c	-0.01483589
179	0xbb829235	-0.0039847144
180	0x3c09beec	0.008407336
181	0xbd454151	-0.048157994
182	0xbcbd0580	-0.023073912
183	0x3d2dd46e	0.042438917
184	0x3d085f5c	0.033294067
185	0xbd706064	-0.058685675
186	0xbceacb7b	-0.02866148
187	0xbd258e77	-0.04041907
188	0x3d362877	0.044472184
189	0x3d5de841	0.054176573
190	0x3d63d95b	0.05562721
191	0x3cba5858	0.022747204
192	0x3ae7e482	0.0017692002
193	0x3c9ef49d	0.01940375
194	0xbcc6cd69	-0.02426787
195	0xbcce7b1c	-0.025205187
196	0xbd7ee33c	-0.062228426
197	0xbbb07c50	-0.005385913
198	0x3d5960f6	0.053070985
199	0x3aeb9b4a	0.0017975357
200	0xbbd9c290	-0.006645508
201	0xbd139b26	-0.036036633
202	0xbd60fc8b	-0.054928344
203	0x3d230606	0.039800666
204	0xbc82e2ad	-0.015977228
205	0xbcd09eb2	-0.025466297
206	0xbd13d924	-0.036095753
207	0xbb1fef66	-0.0024404167
208	0xbd7e136c	-0.06203024
209	0x3d47a058	0.0487369
210	0x3d341857	0.043968525
211	0xbbb23970	-0.005438976
212	0xbd4a5489	-0.049397025
213	0xbca89a27	-0.020581318
214	0xbc3586c0	-0.01107949
215	0x3d652562	0.055943854
216	0x3d35eea7	0.04441705
217	0x3d4f23c8	0.050571233
218	0xba922426	-0.0011149689
219	0x3d19814d	0.037476826
220	0xbd3d14ee	-0.04616254
221	0xbd1a34fe	-0.037648194
222	0x3d7ebeca	0.06219367
223	0x3ca2d8fc	0.019878857
224	0xbcd8567a	-0.026408423
225	0xbd039275	-0.032122094
226	0xbd489a59	-0.048975322
227	0xbc988bfe	-0.018621441
228	0xbb17aee6	-0.002314502
229	0xbd16614e	-0.03671389
230	0xbd3fb5c8	-0.04680422
231	0x3d5f9aa1	0.054590825
232	0xbd0758dd	-0.03304373
233	0xbabac810	-0.0014250297
234	0xbba9b990	-0.0051795915
235	0x3d54ac31	0.051922027
236	0xbd81b1fd	-0.06332777
237	0xbc77cc64	-0.015124414
238	0x3cc48e68	0.023993686
239	0xbca32bcc	-0.019918345
240	0xbd1ab02a	-0.03776566
241	0x3cf97dfb	0.03045558
242	0x3c85715c	0.016289406
243	0xbb619803	-0.0034422881
244	0x3c03da54	0.008047659
245	0x3d22595e	0.03963601
246	0xbd05d305	-0.032671947
247	0xbd27e997	-0.040994253
248	0xbb070abd	-0.0020605766
249	0x3caf02c6	0.021363627
250	0x3d62de92	0.05538804
251	0x3c889224	0.016671248
252	0x3b568d71	0.0032738114
253	0x3d2c8d16	0.042126738
254	0x3c7cfd4b	0.015441249
255	0xb99e8d7e	-0.00030241528

linear2.bias f4 [256]
0	0x3cd26179	0.025681244
1	0xbdb4dab7	-0.08830779
2	0xbc0e5df9	-0.008689397
3	0x3d13c3c5	0.036075372
4	0x3d6573d1	0.056018654
5	0xbca279f3	-0.01983354
6	0x3d5215c1	0.051290277
7	0xbd14b9de	-0.03631007
8	0x3c8d5cb4	0.017256118
9	0x3c9c807d	0.019104237
10	0x3ddbe37d	0.10736749
11	0x3d6bdce7	0.057583716
12	0xbd0b8a1c	-0.03406726
13	0xbcd482b5	-0.025941232
14	0xbc5a6442	-0.013329567
15	0x3d0738e6	0.033013247
16	0xbda48ed7	-0.08035057
17	0x3daf311b	0.08554288
18	0xbe266d82	-0.16252711
19	0xbcb9b914	-0.02267126
20	0xbda8e99c	-0.082476825
21	0xbbc652aa	-0.006052335
22	0xbda24ce6	-0.079248235
23	0xbdf11450	-0.117714524
24	0xbb2c24cf	-0.0026267057
25	0x3d867b03	0.065664314
26	0x3d2e6d8e	0.04258495
27	0xbd6c8033	-0.057739448
28	0xbd0abbd6	-0.03387054
29	0xbdccdae9	-0.10002691
30	0x3d494db9	0.049146388
31	0xbdb64362	-0.08899571
32	0xbba45a4e	-0.005015648
33	0xbde2f8bb	-0.11082598
34	0x3d8016de	0.062543616
35	0xbd7e8c84	-0.062145725
36	0xbd696505	-0.056981105
37	0x3cd58895	0.026066104
38	0xbd04cc1c	-0.032421216
39	0xbe1513d2	-0.14558342
40	0xbea0a51a	-0.31375962
41	0xbddfebea	-0.10933669
42	0x3d1e913c	0.038712725
43	0xbcb40feb	-0.021980247
44	0xbcd55f0d	-0.0260463
45	0xbcd220ce	-0.025650408
46	0xbcf22726	-0.029559683
47	0xbd6c97a3	-0.0577618
48	0xbda5a0da	-0.080873206
49	0xbd886b15	-0.06661049
50	0x3e078301	0.13233568
51	0x3de3ce28	0.111233056
52	0xbe360663	-0.17775874
53	0x3d132aa5	0.03592934
54	0xbc761a04	-0.015020851
55	0xbdc8a549	-0.09797151
56	0xbe123296	-0.1427711
57	0xbdd624bf	-0.104562275
58	0x3c9eb2fd	0.019372458
59	0xbe46af26	-0.19402751
60	0x3d3d36ab	0.046194714
61	0xbbd46a92	-0.0064824307
62	0xbd43ad9d	-0.047772992
63	0xbd632d7b	-0.055463295
64	0x3d292085	0.04129078
65	0xbd84e8a5	-0.06489686
66	0xbd4c3816	-0.049858175
67	0xbd3e5765	-0.046470065
68	0xbafa1973	-0.0019081071
69	0xbcf92615	-0.030413667
70	0x3d5f5d60	0.05453241
71	0x3c1b9480	0.009495854
72	0xbd8efefb	-0.069822274
73	0x3d3a53dd	0.045490135
74	0xbdf4b5e1	-0.11948753
75	0xbe0b91ff	-0.13629912
76	0xbcfeb77f	-0.031093357
77	0xbdfe0059	-0.1240241
78	0xbc727e61	-0.014800639
79	0xbe62d981	-0.22153284
80	0x3cfbb6b0	0.03072676
81	0x3cf472f7	0.029839976
82	0xbdbe6a29	-0.09297592
83	0xbe137ba1	-0.1440263
84	0x3d03db03	0.032191288
85	0x3d424a95	0.04743441
86	0xbc8bcf0d	-0.017066503
87	0x3d5a936a	0.05336324
88	0x3de35c54	0.111015946
89	0xbd8126a0	-0.06306195
90	0xbd0ab055	-0.03385957
91	0xbdf9f056	-0.122040436
92	0x3d2630c6	0.040573858
93	0x3d78fd74	0.060788587
94	0xbce9a4f3	-0.028521037
95	0x3be771aa	0.0070631104
96	0xbdfb2e09	-0.1226464
97	0xbdecc532	-0.115610495
98	0x3b40a280	0.0029393733
99	0x3cf3fbed	0.029783214
100	0xbdb9d112	-0.0907308
101	0xbdaea2ce	-0.08527146
102	0xbd37d4aa	-0.044880547
103	0x3d2015c4	0.039083257
104	0xbe1cfebc	-0.15331548
105	0x3d8eb94a	0.06968935
106	0xb77aedb4	-1.4956506e-05
107	0xbdf9c2e1	-0.12195373
108	0x3d777f58	0.06042418
109	0xbdf41bd2	-0.11919369
110	0xbe0930ee	-0.13397571
111	0x3d304a48	0.04303959
112	0x3bd021b1	0.0063516726
113	0xbd537b89	-0.051631484
114	0x3df8bedc	0.121457785
115	0xbc1caa07	-0.009562022
116	0x3b623902	0.0034518843
117	0x3d6b8b26	0.05750575
118	0xbded2080	-0.115784645
119	0xbe1368f6	-0.14395508
120	0xbb27875c	-0.0025562858
121	0xbc194545	-0.009354894
122	0xbe1d5d61	-0.15367652
123	0xbcbcbd38	-0.023039445
124	0xbd616a1b	-0.05503283
125	0x3ce6e4e3	0.028185314
126	0x3c8bda51	0.017071875
127	0x3c656d46	0.014003104
128	0x3d23bff6	0.03997799
129	0xbda71a8f	-0.081593625
130	0x3d69b7fa	0.05706022
131	0xbb416623	-0.002951034
132	0xbd25d3fe	-0.040485375
133	0x3d0daaf3	0.034586858
134	0xbd60d731	-0.054892723
135	0xbc9834c6	-0.018579852
136	0xbd4af3b8	-0.049548835
137	0xbd37380a	-0.044731177
138	0xbe135ef1	-0.14391686
139	0xbd16b806	-0.036796592
140	0x3c91a71b	0.017779877
141	0x3cf72d71	0.030173035
142	0xbda841f7	-0.08215707
143	0xbd89cb6d	-0.067282535
144	0xbd590045	-0.052978773
145	0x3c9ba827	0.01900108
146	0xbca4bb87	-0.020108951
147	0x3cde8a90	0.027165681
148	0xbb9622ce	-0.0045817858
149	0xbdc627b2	-0.0967554
150	0xbceb7d2f	-0.028746216
151	0x3d65d5b9	0.056112025
152	0xbd0d9638	-0.034567088
153	0xbd4bca60	-0.049753547
154	0x3d2ab400	0.041675568
155	0x3cd6f559	0.026240038
156	0xbdf1ca0b	-0.11806115
157	0xbdb3b458	-0.08774632
158	0xbd400579	-0.04688022
159	0xbd83050d	-0.06397448
160	0x3cab31a7	0.0208977
161	0xbcfbfe9c	-0.030761056
162	0x3d37d0da	0.04487691
163	0x3d890f84	0.066924125
164	0xbd3f9530	-0.046773136
165	0x3c89a074	0.016800143
166	0xbdb7c4bb	-0.0897307
167	0xbb203bf7	-0.0024449804
168	0x3d2a182e	0.041526966
169	0x3d8a5560	0.06754565
170	0xbdc09eae	-0.09405266
171	0x3d01e7e4	0.03171529
172	0x3b082994	0.0020776736
173	0x3d2b68d6	0.041848026
174	0x3be09c50	0.0068545714
175	0xbe1170e8	-0.14203227
176	0x3cba79ef	0.02276322
177	0xbdf46641	-0.11933566
178	0xbd8a2120	-0.06744599
179	0xbbdb5bd1	-0.006694295
180	0xbbf9dbf9	-0.0076250997
181	0x3bac5a49	0.0052597863
182	0x3d069b7a	0.032863118
183	0xbd841b2d	-0.06450496
184	0x3c043989	0.008070358
185	0xbd5dd0d2	-0.054154225
186	0x3d821586	0.063517615
187	0xbde3fc50	-0.11132109
188	0xbdb0482e	-0.08607517
189	0xbd3fab19	-0.04679403
190	0xbd5923ce	-0.05301266
191	0xbcc9eb11	-0.024648221
192	0xbcacd97d	-0.0210998
193	0xbc233c14	-0.009963054
194	0xbdc6f469	-0.09714586
195	0xbddb4e36	-0.10708277
196	0xbe22f2b9	-0.15912904
197	0xbe22754d	-0.15865059
198	0xbe08ed67	-0.13371812
199	0xbdd056a1	-0.10172773
200	0xbd69e43b	-0.057102423
201	0xbdc7042d	-0.09717593
202	0xba49b5d6	-0.0007694637
203	0x3cd5f76a	0.026118953
204	0x3d3e79b7	0.046502795
205	0xbd61f114	-0.05516155
206	0x3cf0e625	0.029406616
207	0xbe021d94	-0.12706596
208	0x3e19688d	0.14981289
209	0xbbc46d99	-0.0059945104
210	0x3d647562	0.055776007
211	0x3cef37a8	0.029201344
212	0xbd96fcbf	-0.07372426
213	0xbe482caf	-0.19548295
214	0xbd1cb59e	-0.03825914
215	0xbc81822b	-0.01580914
216	0xbe19c138	-0.15015113
217	0x3cc1f270	0.023675174
218	0x3d985da2	0.07439734
219	0x3c5d6691	0.013513223
220	0xbc12dc86	-0.00896371
221	0x3ca4b6d6	0.020106714
222	0x3ce10697	0.027468963
223	0xbd3870dc	-0.045029506
224	0xbdf47001	-0.119354255
225	0xbe18f310	-0.14936471
226	0xbd24e964	-0.04026164
227	0xbd8cd426	-0.068764016
228	0x3d501adb	0.05080686
229	0x3d1605e5	0.036626715
230	0x3cbb1887	0.022838844
231	0xbdc2d8e9	-0.095140286
232	0x3d394232	0.045229144
233	0x3c1d9fce	0.00962062
234	0xbdeab786	-0.114607856
235	0x3bdd1ed7	0.006748061
236	0xbe7d00f5	-0.24707396
237	0x3d512a34	0.05106564
238	0xbdf34661	-0.11878658
239	0xbd3582f7	-0.04431435
240	0x3d518d3d	0.051160086
241	0xbc766e44	-0.015040938
242	0xbcd30bca	-0.025762457
243	0xbcc1e079	-0.023666607
244	0x3d9ea66b	0.077465855
245	0xbdb25693	-0.08707919
246	0xbe3987cf	-0.18118213
247	0xbdf7e1db	-0.121036254
248	0xbe4b8b4e	-0.1987736
249	0xbdf59550	-0.1199137
250	0xbdaebcab	-0.08532079
251	0x3c8f4e8b	0.017493507
252	0xbd99fa66	-0.07518463
253	0xbdd20f78	-0.10256857
254	0xbe1c9010	-0.1528933
255	0x3d0c8aea	0.034312166

linear3.weight f4 [2, 256]
0	0x3c88145c	0.01661127
1	0xbf43c389	-0.7647024
2	0x3f5e73c2	0.8689538
3	0xbd547582	-0.051869877
4	0x3ed270a2	0.41101557
5	0xbca0f062	-0.019645873
6	0x3ea52447	0.3225424
7	0x3ce5b13a	0.02803861
8	0x3d387267	0.045030978
9	0x3c721903	0.014776471
10	0x3f73f059	0.95288616
11	0xbeb304b1	-0.34964517
12	0xbed588c0	-0.41705894
13	0x3e9012cb	0.28139338
14	0x3cafd5b6	0.02146421
15	0xbffc9910	-1.9734211
16	0x3f4f4224	0.809603
17	0xbf94e321	-1.1631814
18	0x3f838bb4	1.0277009
19	0x3f6e31e9	0.93044907
20	0xbfa6e573	-1.3038772
21	0xbeff7328	-0.49892545
22	0xbf5647d8	-0.83703375
23	0x3e454568	0.19264758
24	0xbd7546c5	-0.059881944
25	0xbe6348b1	-0.22195698
26	0xbd8599fd	-0.065235116
27	0xbbbcb508	-0.0057588853
28	0xbe992c90	-0.2991681
29	0xbf359684	-0.70932794
30	0xbf041afe	-0.51603687
31	0xbe742714	-0.23843032
32	0xbf8564d7	-1.0421399
33	0xbf275fd5	-0.65380603
34	0xbe26fdb8	-0.16307724
35	0x3b93dfe5	0.0045127743
36	0xbd61ec9f	-0.0551573
37	0x3f1b9c15	0.6078504
38	0xbe0c3222	-0.13690999
39	0xbf43f5bd	-0.7654684
40	0xbe44a333	-0.1920288
41	0xbeae3dc2	-0.34031492
42	0xbf135837	-0.5755648
43	0xbf759da2	-0.95943654
44	0xbfb04440	-1.3770828
45	0xbedd0f8d	-0.43175927
46	0x3de7c087	0.113160186
47	0xbb349c5f	-0.0027559025
48	0xbfba2397	-1.4542111
49	0xbde6f703	-0.112775825
50	0x3ef6f2bc	0.48232067
51	0x3f82d6c3	1.022179
52	0xc00332c2	-2.049973
53	0xbcea3bba	-0.028592933
54	0x3cab7dfe	0.020934101
55	0xbdb432e8	-0.08798772
56	0x3f75589b	0.95838326
57	0xbe33fb5a	-0.17576352
58	0xbd2cd4f6	-0.042195283
59	0x3e9dec97	0.30844566
60	0x3f469393	0.7756893
61	0x3bb23e1f	0.0054395343
62	0x3df5398f	0.11973869
63	0xbb48d8d9	-0.003064683
64	0x3e10c859	0.14138927
65	0xbe1b15fe	-0.15145108
66	0xbe212607	-0.15737163
67	0x3f4f1e37	0.8090548
68	0x3f5cec97	0.8629851
69	0xbeff618a	-0.49879104
70	0x3e64a9a5	0.22330339
71	0xbfa89c6a	-1.3172734
72	0xbe8dfe79	-0.2773321
73	0x3f089036	0.5334505
74	0x3f3a2870	0.7271795
75	0xbf91d6a4	-1.1393628
76	0xbf2c0485	-0.67194396
77	0x3f237ca4	0.6386206
78	0xbf530099	-0.82422787
79	0x3beef673	0.0072925626
80	0xbf8d4f88	-1.1039896
81	0xbf53f036	-0.8278841
82	0x3f4d24c5	0.8013423
83	0x3f6924cf	0.9107179
84	0xbedc0be6	-0.42977828
85	0x3f5a1043	0.85181063
86	0xbd386a97	-0.045023527
87	0x3f3819bc	0.7191427
88	0x3f367b18	0.71281576
89	0x3ebe8868	0.37213445
90	0x3c2d7136	0.010586074
91	0xbd71c2aa	-0.059023537
92	0xbf112dcc	-0.56710505
93	0xbe4c4e31	-0.19951703
94	0xbbb772ef	-0.005598418
95	0x3b1af84d	0.0023646534
96	0xbe96eeb6	-0.29478997
97	0x3c7cf4af	0.0154391965
98	0xbce758ab	-0.028240522
99	0xbfc9912b	-1.5747427
100	0xbfa1e24f	-1.2647189
101	0xbefd833b	-0.49514183
102	0xbe53fbd6	-0.20701537
103	0xbfd18574	-1.6368852
104	0xbec06db8	-0.3758371
105	0xbfca8d21	-1.5824319
106	0x3f8998cc	1.0749755
107	0xbdb8060e	-0.0898553
108	0xbf9c3202	-1.2202761
109	0xbf1cab11	-0.61198527
110	0xbfa83d50	-1.3143711
111	0x3f7d9c34	0.9906647
112	0x3b9a9516	0.0047174795
113	0xbfb03ed8	-1.3769178
114	0x3f1b14b9	0.60578495
115	0x3ed78026	0.42089957
116	0x3f473ec5	0.77830154
117	0xbea03550	-0.31290674
118	0x3ec9fb61	0.394496
119	0xbf054bbb	-0.5206868
120	0xbf09fead	-0.5390423
121	0x3eff6827	0.4988415
122	0xbf85649e	-1.0421331
123	0x3e4d86ee	0.20071003
124	0xbdc8793b	-0.09788748
125	0xbdd4647e	-0.1037073
126	0x3f10e1fa	0.5659481
127	0xbf1d6ff2	-0.6149894
128	0xbd05acbc	-0.032635435
129	0xbdbc1f07	-0.091856055
130	0x3d0e4128	0.034730107
131	0xbcab3255	-0.020898024
132	0xbca89e0f	-0.02058318
133	0x3f5f3b3e	0.8719977
134	0xbf08bb3d	-0.534107
135	0x3f271bdf	0.652769
136	0xbfa1e31d	-1.2647434
137	0xbf2e5973	-0.6810524
138	0xbf7815bc	-0.96908164
139	0xbd6f16b2	-0.058371253
140	0x3f76c596	0.9639524
141	0xbeb13cef	-0.346168
142	0xbf4bbc51	-0.79584223
143	0x394da750	0.00019612652
144	0x3c224fc4	0.009906713
145	0xbea1ef5a	-0.31627923
146	0xbd798a7c	-0.060923085
147	0x3f0e61e9	0.5561815
148	0xbd845b3c	-0.06462714
149	0xbf957e2b	-1.1679128
150	0xbf3b7212	-0.7322093
151	0x3f6632c7	0.8992123
152	0xbf50256f	-0.8130712
153	0x3f42031a	0.7578598
154	0x3f7c7a20	0.9862385
155	0x3bac8546	0.005264911
156	0xbf21e8a9	-0.63245636
157	0xbd9b385d	-0.0757911
158	0x3cb6d137	0.022316558
159	0x3d25f1b0	0.040513694
160	0x3df081ed	0.117435314
161	0xbce83cca	-0.028349299
162	0xbf8aadc2	-1.0834277
163	0x3f6eb713	0.932481
164	0xbee708b7	-0.45123836
165	0xbda0943f	-0.07840776
166	0x3f5329f0	0.82485867
167	0xbd51f4e1	-0.051258925
168	0x3cd0d179	0.02549051
169	0xbf81e282	-1.014725
170	0x3efb86e6	0.49126357
171	0xbd073424	-0.03300871
172	0xbf18c5bd	-0.59676725
173	0x3f73656e	0.95076644
174	0x3e9075b8	0.28214812
175	0xbeb5f772	-0.35540348
176	0x3c42f698	0.011899613
177	0x3f3af483	0.73029345
178	0xbd4fc779	-0.05072734
179	0xbd13e79b	-0.036109548
180	0xbb0ad726	-0.0021185367
181	0x3f38a3aa	0.7212473
182	0xbea49983	-0.3214837
183	0x3d04c0cc	0.032410428
184	0x3f5937f5	0.8485101
185	0xbcb1d638	-0.021708593
186	0xc01a2e71	-2.4090846
187	0xbf84560d	-1.0338761
188	0x3cc8f991	0.024533065
189	0xbf3106f6	-0.69151247
190	0xbf323f36	-0.696277
191	0x3cb98adf	0.022649227
192	0x3eab60e3	0.33472356
193	0xbf2d618e	-0.6772698
194	0x3ea2f0b3	0.31824264
195	0xbedf8092	-0.4365278
196	0xbf8aa1b2	-1.0830595
197	0xbe022b26	-0.12711772
198	0x3e170772	0.14748934
199	0x3e2d6101	0.16931535
200	0x3b8a021c	0.0042116772
201	0x3f8e3c65	1.1112181
202	0xbf23f2bb	-0.6404225
203	0x3d1b549e	0.037922494
204	0xbfd8adce	-1.6928041
205	0xbdaa6c8f	-0.08321487
206	0xbebfb2e2	-0.37441164
207	0x3eb1a1ae	0.34693664
208	0x3fb1567b	1.3854517
209	0xbd5e6d11	-0.054303233
210	0x3f5b6a44	0.85709023
211	0x3f4c3585	0.79769164
212	0x3e2dc3ca	0.16969219
213	0x3f65e7a9	0.8980661
214	0xbdb64b9f	-0.08901142
215	0x3f9caedc	1.2240863
216	0x3f962406	1.1729743
217	0xbd27e8cf	-0.040993508
218	0x3f5966eb	0.84922665
219	0x3cdd7569	0.027033525
220	0xbdb8f34f	-0.090307824
221	0xbd6e3f13	-0.05816562
222	0xbdb536e9	-0.08848364
223	0xbf63e3dd	-0.89019567
224	0xbdd18c66	-0.10231857
225	0xbf6cebe1	-0.9254742
226	0xbecec81d	-0.4038705
227	0xbeb66670	-0.3562503
228	0x3f3673ba	0.71270335
229	0xbccae448	-0.024767056
230	0x3c6fbde2	0.014632674
231	0xbd8c556d	-0.06852231
232	0x3f64e48a	0.8941122
233	0x3f594988	0.84877825
234	0xbf6fa638	-0.93613005
235	0xbf9f8822	-1.246342
236	0x3c466897	0.012109897
237	0xbf30d0e6	-0.69068754
238	0x3ebaa401	0.3645325
239	0xbfcaaedb	-1.5834612
240	0xbfd7aa49	-1.6848842
241	0xbfa7891a	-1.3088715
242	0xbd6c760a	-0.05772976
243	0x3ca62dd6	0.020285528
244	0xbed70d21	-0.42002204
245	0xbf1dfe5a	-0.61716235
246	0xbe6a31ae	-0.22870514
247	0x3f68f165	0.9099334
248	0x3f60f627	0.878756
249	0xbf6b9e01	-0.9203797
250	0xbfd59547	-1.6686181
251	0xbf83d181	-1.029831
252	0x3bba79ef	0.005690805
253	0x3ec6c898	0.38824916
254	0x3f43b84a	0.7645308
255	0xbef6f673	-0.482349

linear3.bias f4 [2]
0	0x3ecdf5f8	0.40226722
1	0xbd398fd0	-0.045303166
