turtlebot3_rl_sim/src/models/ddpg/trajectory_test/ddpg_critic_model_ep1500.pt (torch_old, 640034 bytes, 5 tensors)

linear1.weight f4 [256, 365]
0.0025828853 -0.045842152 -0.015991218 -0.031235075 0.038897544 0.04385282 -0.0076654255 -0.0024521835
-0.052063983 0.03556416 -0.024583437 -0.006427373 0.015774015 0.02986697 0.0449816 0.051829733
0.030005611 0.019079894 -0.01283405 -0.023931475 -0.02034884 0.03180258 0.0032174997 -0.048928928
0.025003642 0.043146312 -0.034192193 -0.023904113 -0.026624063 0.043819524 -0.04522013 0.020886011
0.03730929 -0.047683552 -0.047995396 0.011390232 -0.03687249 0.046155162 -0.030563146 -0.018436845
-0.0015896931 -0.029060433 0.017869517 -0.04806124 -0.038241595 -0.032540873 0.04314425 -0.02951718
-0.031897604 0.017717235 -0.001737237 0.006493829 -0.025616443 0.03420175 0.025218591 -0.0018814765
-0.037606243 -0.013720887 0.0016356297 -0.002306573 -0.01993708 0.017578244 -0.02901097 -0.031051103
-0.025129292 -0.049449805 0.019687705 0.045466065 0.04272572 0.026552476 0.020770207 -0.052257184
-0.009288505 -0.042262115 0.010168225 0.015529752 0.01950562 -0.0036824197 -0.006014876 0.04522404
0.04106517 -0.016714815 0.006642977 0.038060367 0.0094965175 -0.0037346855 0.011785358 0.01799564
0.045480795 -0.051004615 0.007894143 0.003875997 -0.009244919 0.04521834 -0.0019130195 -0.005007133
-0.037640143 -0.028252035 0.0008390285 -0.048474517 -0.011154129 0.04386843 -0.05065336 -0.019167513
-0.03482422 -0.039149985 0.0144247785 0.012699045 0.0002579689 0.029405408 -0.025106696 -0.019055787
0.040786866 -0.051361132 0.0014772043 -0.051545843 -0.028901264 -0.032368414 -0.04624079 -0.0024799667
0.014074989 0.03724407 0.0076828226 -0.03288686 0.022026995 -0.008222595 0.0053275563 -0.011826634
-0.03799519 -0.03234856 -0.022608465 0.017666988 -0.023134185 -0.0044571348 0.0094365105 0.005961802
-0.022095913 0.006618947 -0.036713645 0.02341044 -0.0069761947 -0.015970469 -0.04967925 0.00780119
0.01957605 -0.010947373 0.030362904 0.038265914 0.020418607 0.013491839 -0.040442806 0.019397952
0.0016692426 0.031691298 0.048173353 0.0023710728 0.031900764 -0.042859517 0.018749535 0.03549316
0.026560985 0.048174214 -0.033417128 0.042769916 -0.031369537 0.008090418 -0.03971961 -0.03607185
-0.041073717 -0.048446164 0.009516273 0.051162057 0.0022612736 0.037323408 0.024406083 0.020060718
0.012505166 -0.05142344 0.013165481 0.046450906 -0.05174681 -0.030576646 0.023120597 0.010828808
-0.01800489 0.012807384 0.017760515 -0.038876116 -0.046711907 0.009394992 0.036403283 -0.029515682
0.028462516 0.051886275 -0.007870257 -0.0295727 0.028082533 -0.009723599 0.010884042 0.0039707497
-0.03816238 -0.014880933 -0.029447868 0.005997706 0.026477143 0.019386254 -0.04807012 0.03094799
0.034756944 0.01510299 -0.012251705 0.013781592 -0.019849699 0.024886467 -0.047735754 0.017020665
0.016094394 -0.009378074 -0.035941623 0.05071134 -0.008909967 0.03502609 -0.0036247224 -0.04560263
0.016696036 0.045905482 0.0073041096 -0.04087008 -0.04355337 -0.012539599 -0.022576483 -0.039045252
0.016763583 -0.011377387 -0.042309973 0.020319842 -0.03651018 -0.049837153 0.03879501 0.027874812
0.029758934 -0.031865194 0.027722292 0.0077156387 0.05077917 0.02601163 -0.017009526 0.007454635
0.015908368 -0.010995965 0.0039696917 0.048825055 0.036279976 -0.002675645 0.000107720494 -0.025392313
00000000: a045 293b fbc4 3bbd 0400 83bc b3e0 ffbc
00000010: 0853 1f3d 049f 333d 402e fbbb d0b4 20bb
00000020: 0b41 55bd baab 113d 3463 c9bc b69c d2bb
00000030: 8238 813c 93ab f43c a03e 383d 6a4b 543d
00000040: 54ce f53c 704d 9c3c e845 52bc f10b c4bc
00000050: 9cb2 a6bc 6c43 023d b0dc 523b b369 48bd
00000060: 70d4 cc3c 30ba 303d 1d0d 0cbd 8fd2 c3bc
00000070: b51a dabc 1a7c 333d be38 39bd 2419 ab3c
00000080: a0d1 183d d44f 43bd d296 44bd 189e 3a3c
00000090: 9c07 17bd 320d 3d3d 905f fabc de08 97bc
000000a0: 405d d0ba 2510 eebc 1863 923c dddb 44bd
000000b0: 38a3 1cbd 9449 05bd 06b8 303d 03ce f1bc
000000c0: 10a7 02bd bc23 913c 00b4 e3ba 30ca d43b
000000d0: 93d9 d1bc 2217 0c3d 3897 ce3c e09b f6ba
000000e0: 0109 1abd 92cd 60bc a062 d63a e029 17bb
000000f0: 1653 a3bc 4000 903c 6aa8 edbc e25e febc
00000100: f2db cdbc e18b 4abd 1c48 a13c a03a 3a3d
00000110: 2a01 2f3d 9484 d93c 4826 aa3c a10b 56bd
00000120: d02e 18bc 0a1b 2dbd a098 263c 8070 7e3c
00000130: 40ca 9f3c c054 71bb 7018 c5bb d83c 393d
00000140: f433 283d 82ed 88bc 54ad d93b 30e5 1b3d
00000150: 4897 1b3c a0c1 74bb 6017 413c 986b 933c
00000160: 124a 3a3d 37ea 50bd 7056 013c 7004 7e3b
00000170: 0078 17bc de36 393d 48be faba e012 a4bb
00000180: 8d2c 1abd d070 e7bc 40f2 5b3a 378d 46bd
00000190: cfbf 36bc 62af 333d e679 4fbd 3005 9dbc
000001a0: d7a3 0ebd bc5b 20bd e855 6c3c a80f 503c
000001b0: 0040 8739 9ce3 f03c 8fac cdbc e21a 9cbc
000001c0: 2110 273d 0d60 52bd c09e c13a bc21 53bd
000001d0: 58c2 ecbc be94 04bd fc66 3dbd f086 22bb
000001e0: c89a 663c 3d8d 183d 30c0 fb3b 5fb4 06bd
000001f0: f571 b43c 10b8 06bc c892 ae3b 80c4 41bc
00000200: d8a0 1bbd ec7f 04bd 6335 b9bc 5cba 903c
00000210: e783 bdbc 280d 92bb 989b 1a3c 385b c33b
00000220: 7d02 b5bc c0e3 d83b 0c61 16bd 40c7 bf3c
00000230: 9098 e4bb 80d4 82bc 787c 4bbd 20a1 ff3b
00000240: f45d a03c 9c5c 33bc a0bb f83c b8bc 1c3d
00000250: ec44 a73c e00c 5d3c 5ba7 25bd 74e8 9e3c
00000260: 7dca da3a bcce 013d 6c51 453d 0064 1b3b
00000270: 60aa 023d 768d 2fbd a098 993c 4761 113d
00000280: 6c96 d93c 5352 453d 66e0 08bd 822f 2f3d
00000290: 587d 00bd ac8d 043c 08b1 22bd 14c0 13bd
000002a0: ea3c 28bd 7c6f 46bd 24ea 1b3c 4e8f 513d
000002b0: e031 143b 6ee0 183d 44ef c73c 6056 a43c
000002c0: 78e2 4c3c 63a1 52bd 08b4 573c 4e43 3e3d
000002d0: 77f4 53bd e07b fabc 6867 bd3c 506b 313c
000002e0: fe7e 93bc 10d6 513c 807e 913c 903c 1fbd
000002f0: fc54 3fbd 74ed 193c 9c1b 153d dfca f1bc
00000300: 392a e93c b486 543d 40f2 00bc 7242 f2bc
00000310: 570d e63c bb4f 1fbc fb52 323c 101d 823b
00000320: 2850 1cbd 28cf 73bc a83c f1bc 6888 c43b
00000330: 98e6 d83c eccf 9e3c 2de5 44bd a486 fd3c
00000340: 4c5d 0e3d 8872 773c 60bb 48bc 30cc 613c
00000350: d69b a2bc b4de cb3c 9186 43bd ec6e 8b3c
00000360: 64d8 833c 7ea6 19bc 8637 13bd b2b6 4f3d
00000370: 1cfb 11bc 8477 0f3d c08c 6dbb d3c9 3abd
00000380: 20c6 883c 6307 3c3d 5057 ef3b 6367 27bd
00000390: 0565 32bd e472 4dbc 51f2 b8bc eaed 1fbd
000003a0: c853 893c 3868 3abc 394d 2dbd cc75 a63c
000003b0: b38b 15bd 0b22 4cbd 84e7 1e3d b859 e43c
000003c0: 02c9 f33c 1485 02bd dc19 e33c 78d3 fc3b
000003d0: d2fd 4f3d 5816 d53c 9057 8bbc 0346 f43b
000003e0: 4452 823c 6c28 34bc 3014 823b c8fc 473d
000003f0: 509a 143d e059 2fbb 00e8 e138 8a03 d0bc

linear1.bias f4 [256]
-0.0028798953 0.00014509173 0.04405026 0.02217787 0.034472417 -0.0024700158 -0.0247111 -0.036346264
-0.08018046 0.031372935 -0.2631746 -0.00778619 0.021602305 -0.00013519631 -0.20780902 -0.04320834
0.024040539 -0.032900326 0.031730566 -0.021837002 0.042299353 -0.009421847 -0.1371199 -0.045830976
-0.025843604 -0.032895196 -0.033693824 -0.06049391 -0.041587815 -0.03750112 -0.011388825 -0.01221585
-0.023200477 -0.010467735 -0.045000225 -0.04103274 0.039575286 -0.03971397 -0.040114306 0.006025036
-0.016312325 0.047049157 -0.06374427 0.0068879174 0.0029862078 -0.02357301 -0.30899158 -0.06568144
0.0019145327 -0.043212064 0.039840627 -0.0056743887 -0.011613277 -0.057293843 -0.056384858 0.041182015
-0.033842836 0.01238349 -0.054719634 -0.012546474 -0.026514165 -0.04616998 0.037877373 -0.008993433
-0.055740375 -0.012209331 0.04143135 0.017415449 -0.04622586 -0.009655612 -0.09768955 0.013366979
-0.020225793 0.027814306 -0.008324735 0.041770354 -0.045119435 0.042493068 -0.004509755 -0.039341435
-0.056932483 -0.056947384 -0.03969907 -0.016788311 -0.363036 0.042168964 -0.05688778 -0.015517689
0.021896606 0.19080225 -0.046281066 -0.038544215 -0.00074201176 0.036677815 -0.041345667 0.045391385
-0.296607 -0.0458198 -0.010647483 0.29003528 -0.009314743 0.01813029 -0.031023687 -0.044128496
-0.045342956 0.001304891 -0.028054591 -0.025521362 -0.043647926 0.014877133 -0.000947371 -0.040142383
-0.04177781 0.03622705 0.032881696 0.047756974 -0.053464193 -0.043156184 -0.013398338 0.046833087
-0.005881611 -0.08360777 -0.050200798 -0.0025361406 0.033664756 -0.04413222 -0.014898093 -0.018584782
-0.02627591 -0.028442027 0.30924052 0.023524579 -0.035089314 -0.03779542 -0.01844322 0.27689993
-0.044098694 -0.19240777 -0.0052310736 -0.017938435 -0.08434639 0.0049395654 0.020151285 -0.024679435
-0.053236946 -0.067886844 -0.035452183 -0.056884054 -0.14876477 -0.30364737 0.018748695 -0.06428817
-0.0029391756 0.18535893 -0.018454779 0.008679572 0.015010784 -0.053926136 -0.038406376 0.014915789
0.043957125 -0.013616578 -0.027590787 -0.00745091 -0.0006521962 -0.011725969 0.019221812 -0.0652493
-0.0015938046 -0.04354362 -0.04025042 -0.047917165 0.0038616622 -0.0034414195 0.021499857 -0.050491374
-0.050841555 -0.04279855 -0.038384024 -0.023179987 -0.04622373 -0.008805303 -0.033332467 -0.00198968
-0.065545425 -0.05359458 -0.063677214 -0.035940204 -0.030552432 -0.005970088 -0.031887036 0.016725836
-0.1947487 -0.03165979 -0.023416545 -0.03958174 -0.04184114 -0.012992583 0.01984767 0.008397412
-0.030783402 -0.004485075 -0.021155266 -0.029712368 0.02950002 0.035183955 -0.069123656 -0.06968246
-0.019459758 0.0036427986 0.028084394 -0.040552173 -0.016276935 0.033932243 -0.057886172 -0.033188187
-0.06495128 0.012186758 0.008229737 -0.16488351 -0.02678239 -0.041666046 0.014469679 0.013637067
-0.025811939 -0.0041595735 0.008025775 -0.0039621303 0.0011733068 -0.42116603 -0.0035480356 -0.30188593
-0.004981476 -0.05556901 -0.004767269 0.027240604 -0.0064148 0.027577747 -0.02660171 -0.082035676
-0.03734093 -0.39549384 -0.010929678 0.012184184 -0.026558869 -0.042541504 0.011152266 0.011872187
-0.01940622 -0.051735636 0.008109596 -0.025549302 0.009761782 -0.035426106 -0.06740255 -0.029423654
00000000: a0bc 3cbb c423 1839 0c6e 343d 5dae b53c
00000010: f332 0d3d fddf 21bb ef6e cabc d2df 14bd
00000020: a735 a4bd e880 003d d2be 86be 4c23 ffbb
00000030: 51f7 b03c 7cc3 0db9 e3cb 54be 3afb 30bd
00000040: aaf0 c43c 7ec2 06bd e9f7 013d 83e3 b2bc
00000050: 1642 2d3d 175e 1abc 2969 0cbe 43b9 3bbd
00000060: f7b5 d3bc 1dbd 06bd 8902 0abd 76c8 77bd
00000070: fc57 2abd c69a 19bd 3298 3abc fd24 48bc
00000080: ed0e bebc dd80 2bbc 2852 38bd f211 28bd
00000090: b219 223d 1eab 22bd e64e 24bd aa6d c53b
000000a0: 6da1 85bc 9eb6 403d 5b8c 82bd 0ab4 e13b
000000b0: 41b4 433b 2f1c c1bc 2534 9ebe fe83 86bd
000000c0: 0ff1 fa3a 22ff 30bd ed2f 233d 39f0 b9bb
000000d0: 9d45 3ebc f3ac 6abd cff3 66bd 79ae 283d
000000e0: c99e 0abd 1fe4 4a3c b221 60bd ba8f 4dbc
000000f0: 3c34 d9bc bc1c 3dbd 4e25 1b3d 3159 13bc
00000100: 0550 64bd a509 48bc ebb3 293d d8aa 8e3c
00000110: 5457 3dbd 9232 1ebc 7511 c8bd 2c01 5b3c
00000120: 90b0 a5bc d4da e33c 7864 08bc 6417 2b3d
00000130: 28cf 38bd 360d 2e3d 91c6 93bb 7c24 21bd
00000140: 0932 69bd a941 69bd 7e9b 22bd a487 89bc
00000150: dbdf b9be 5db9 2c3d 2903 69bd e83d 7ebc
00000160: 8360 b33c aa61 433e 3791 3dbd 8ae0 1dbd
00000170: 9183 42ba 7a3b 163d 135a 29bd 51ec 393d
00000180: dfdc 97be 8bad 3bbd c872 2ebc 817f 943e
00000190: dd9c 18bc f985 943c 6325 febc 15c0 34bd
000001a0: 89b9 39bd e008 ab3a bed2 e5bc 2d12 d1bc
000001b0: 2bc8 32bd 38bf 733c fe58 78ba 576c 24bd
000001c0: 351f 2bbd d162 143d f5ae 063d d19c 433d
000001d0: 45fd 5abd 8ac4 30bd b484 5bbc 0dd4 3f3d
000001e0: 87ba c0bb 8d3a abbd 5a9f 4dbd 6135 26bb
000001f0: 0ee4 093d fdc3 34bd 2217 74bc 1d3f 98bc
00000200: 9440 d7bc 41ff e8bc c654 9e3e 9eb6 c03c
00000210: d0b9 0fbd 5fcf 1abd 3c16 97bc d4c5 8d3e
00000220: d5a0 34bd 8b06 45be 6d69 abbb a0f3 92bc
00000230: cdbd acbd 14dc a13b 4f14 a53c 872c cabc
00000240: fc0e 5abd 4208 8bbd 4f36 11bd 41ff 68bd
00000250: cb55 18be ab77 9bbe dd96 993c 84a9 83bd
00000260: 2f9f 40bb bbce 3d3e 7a2e 97bc c334 0e3c
00000270: cbef 753c a7e1 5cbd 0150 1dbd 5a61 743c
00000280: 630c 343d 1118 5fbc 1306 e2bc c326 f4bb
00000290: 25f8 2aba 471e 40bc 1077 9d3c 6da1 85bd
000002a0: 35e7 d0ba cb5a 32bd a0dd 24bd ca44 44bd
000002b0: f113 7d3b 7089 61bb 7820 b03c 0bd0 4ebd
000002c0: 3c3f 50bd 884d 2fbd 9138 1dbd f5e3 bdbc
000002d0: 1855 3dbd 1e44 10bc a087 08bd 4b65 02bb
000002e0: ae3c 86bd fe85 5bbd 3369 82bd 0936 13bd
000002f0: 1849 fabc baa0 c3bb fb9b 02bd 9f04 893c
00000300: 346c 47be b2ad 01bd 0ed4 bfbc 7620 22bd
00000310: 9d61 2bbd d8de 54bc 9597 a23c 4c95 093c
00000320: 792d fcbc 89f7 92bb cf4d adbc 5a67 f3bc
00000330: 07aa f13c 0d1d 103d b490 8dbd adb5 8ebd
00000340: 126a 9fbc 05bc 6e3b 3e11 e63c 091a 26bd
00000350: 3557 85bc 89fc 0a3d 0d1a 6dbd 56f0 07bd
00000360: 2d05 85bd f8aa 473c 05d6 063c 39d7 28be
00000370: be66 dbbc 04aa 2abd 3c12 6d3c 016e 5f3c
00000380: 8f73 d3bc 084d 88bb 8a7e 033c c2d4 81bb
00000390: a5c9 993a 13a3 d7be 2986 68bb cb90 9abe
000003a0: a63b a3bb 559c 63bd c036 9cbb b027 df3c
000003b0: 3e33 d2bb baea e13c d4eb d9bc 5202 a8bd
000003c0: cef2 18bd 2b7e cabe 6412 33bc 2ca0 473c
000003d0: fc91 d9bc 0040 2ebd feb7 363c 9083 423c
000003e0: cbf9 9ebc bfe8 53bd 1cde 043c c54c d1bc
000003f0: e2ef 1f3c f71a 11bd 590a 8abd e009 f1bc

linear2.weight f4 [256, 256]
-0.03204935 0.020145698 0.06459364 0.067059815 0.008457915 -0.05674249 -0.045611177 -0.015859697
-0.03133196 0.04386887 -0.05445499 0.019693071 -0.026815915 0.023250766 -0.09870871 0.039609656
0.040988036 -0.029378949 -0.0059236214 -0.03342187 -0.0552449 -0.012620049 -0.23661046 0.014055236
-0.029585198 0.036085963 0.06050881 -0.009265382 -0.014063618 -0.0032150832 0.037590526 -0.043517537
-0.018733796 -0.04919123 -0.04743659 0.009325919 -0.020420976 -0.009679825 0.039745457 -0.040690005
-0.04521257 0.03467731 -0.001601488 -0.0038360506 -0.025480382 -0.0023650078 -0.08385811 0.013409821
0.03302699 -0.03775444 -0.030507725 -0.025446853 0.020428823 0.016487516 -0.0409247 0.18200041
0.019396905 0.039583582 0.03464006 0.059917696 0.049112994 0.05288304 -0.037508566 -0.048725564
0.016630841 -0.053099107 0.054022994 -5.9381127e-06 -0.036513902 0.07097887 -0.034681033 0.06817742
0.06493638 0.026707882 -0.031372935 -0.0064231814 0.0022842146 -0.054492384 -0.049403574 0.066396706
0.020050703 -0.020030212 -0.013035424 0.04569065 0.1546044 0.042683065 0.060318816 0.032309912
-0.013035424 -0.05172031 -0.04765421 0.056444462 0.03740426 -0.024694335 -0.008416937 -0.045529224
-0.20217198 0.058459874 0.023191163 -0.0039269663 0.009365967 0.016200565 0.057528537 -0.014504139
-0.04410614 -0.002183944 -0.050621755 0.007959403 0.026497401 0.026919276 -0.005752621 0.024422387
0.017176604 -0.010988526 0.03629411 0.010287057 -0.029995494 0.059402384 -0.02849146 -0.01762923
0.0466729 -0.019361513 0.0152892545 0.020730577 0.0554654 0.039464373 0.014473406 0.026719058
0.048138887 0.035280816 -0.4110862 0.014123224 -0.033487134 -0.06281293 0.04123391 0.14463896
0.04713484 -0.09457576 0.017225035 0.036107842 -0.02979596 -0.036349986 0.051657405 -0.07408581
0.022768337 0.06074723 0.024239846 0.026029868 -0.24794744 -0.024645483 0.04541001 0.08661784
0.045775093 0.008304232 0.04401432 -0.0076362453 -0.025027754 0.0025796802 0.00060772494 -0.022943426
-0.041304685 0.038749103 -0.031708214 0.04286188 -0.034584176 -0.051959153 -0.05210817 -0.0028451108
-0.011541564 -0.013145321 0.04297364 -0.04744032 0.048554197 0.04859803 0.037150938 -0.0005448598
0.038071096 -0.013242181 0.026298095 -0.049105544 -0.0053947642 0.07004754 -0.06975696 0.039829455
-0.17043771 0.030407142 0.047566984 -0.039661814 0.062013846 -0.05811714 -0.057159726 -0.05669033
-0.02505662 0.0019230313 -0.037702285 -0.057735555 -0.019845808 0.0013446725 0.008811821 -0.036382698
0.003495415 0.058833875 -0.027792968 -0.021329097 -0.020253733 0.026925813 0.023843097 -0.006992227
-0.011726312 -0.027883224 0.0014352448 0.026011243 0.0049637808 0.00014436414 0.0085175205 -0.05854183
-0.029026905 -0.01776664 -0.057251133 -0.054455005 -0.031350587 0.0393347 0.05637368 -0.04760593
0.06471285 -0.016234092 -0.020941056 -0.0057423757 0.059115533 0.15240896 0.00072292984 0.030286435
-0.021114286 0.009457236 -0.004786361 -0.024963938 -0.048863396 0.051825784 -0.021009976 -0.023958582
0.045644708 -0.20138158 0.028937498 0.0050517917 -0.052834608 -0.028175663 -0.017081607 0.03693114
-0.028598491 0.056735042 0.054712184 -0.038525585 -0.06907895 -0.0025683865 -0.07326623 0.03294503
00000000: 2e46 03bd 9708 a53c ac49 843d a856 893d
00000010: 1193 0a3c d06a 68bd c9d2 3abd 32ec 81bc
00000020: f155 00bd d8af 333d 320c 5fbd 5d53 a13c
00000030: 0dad dbbc 6478 be3c cb27 cabd bc3d 223d
00000040: 12e3 273d 1fac f0bc f01a c2bb 5fe5 08bd
00000050: 7a48 62bd 52c4 4ebc 034a 72be ef47 663c
00000060: a85c f2bc e0ce 133d 16d8 773d d4cd 17bc
00000070: 176b 66bc 25b4 52bb 86f8 193d 723f 32bd
00000080: 9e77 99bc be7c 49bd df4c 42bd bdcb 183c
00000090: e449 a7bc 2198 1ebc 22cc 223d 90aa 26bd
000000a0: d130 39bd cc09 0e3d 05e9 d1ba 4066 7bbb
000000b0: 3cbc d0bc 3ffe 1abb cdbd abbd deb4 5b3c
000000c0: 4f47 073d 66a4 1abd 56eb f9bc eb75 d0bc
000000d0: 595a a73c d410 873c a9a0 27bd 515e 3a3e
000000e0: 42e6 9e3c 6522 223d bce2 0d3d 426c 753d
000000f0: b52a 493d e39b 583d 95a2 19bd 7594 47bd
00000100: 673d 883c 737e 59bd 3747 5d3d 0040 c7b6
00000110: 9a8f 15bd 5f5d 913d b30d 0ebd 9aa0 8b3d
00000120: 5dfd 843d 7dca da3c e880 00bd 8d79 d2bb
00000130: c3b2 153b 6833 5fbd 675b 4abd fffa 873d
00000140: 5f41 a43c 6616 a4bc 8892 55bc 1e26 3b3d
00000150: 9e50 1e3e 70d4 2e3d dd10 773d 6657 043d
00000160: 8892 55bc add8 53bd 1031 43bd 4f32 673d
00000170: 3635 193d c64b cabc 31e7 09bc da7c 3abd
00000180: 2c06 4fbe 9f73 6f3d 65fb bd3c c8ad 80bb
00000190: b673 193c 0cb7 843c 0ba3 6b3d c5a2 6dbc
000001a0: a4a8 34bd 8020 0fbb c258 4fbd 2868 023c
000001b0: 1411 d93c d085 dc3c 7c80 bcbb 7511 c83c
000001c0: f3b5 8c3c 3809 34bc 22a9 143d 0b8b 283c
000001d0: 1cb9 f5bc ea4f 733d ec66 e9bc 2d6b 90bc
000001e0: 152c 3f3d 099c 9ebc c87f 7a3c 2cd3 a93c
000001f0: b02f 633d 65a5 213d dd21 6d3c ede1 da3c
00000200: 482d 453d 9e82 103d e479 d2be 1865 673c
00000210: ce29 09bd 11a4 80bd e3e4 283d 3c1c 143e
00000220: 7610 413d f0b0 c1bd 841b 8d3c d1e5 133d
00000230: a816 f4bc b9e3 14bd b796 533d 4dba 97bd
00000240: aa84 ba3c 16d2 783d a492 c63c 973c d53c
00000250: efe5 7dbe 53e5 c9bc d9ff 393d b264 b13d
00000260: aa7e 3b3d 790e 083c 5c48 343d 7839 fabb
00000270: 0107 cdbc da0f 293b bb4f 1f3a daf3 bbbc
00000280: 1a2f 29bd 61b7 1e3d 79e0 01bd f08f 2f3d
00000290: 23a8 0dbd 1fd3 54bd 606f 55bd 0a75 3abb
000002a0: d418 3dbc 795f 57bc 2105 303d c850 42bd
000002b0: c4e0 463d ba0e 473d 952b 183d ecd4 0eba
000002c0: 70f0 1b3d bcf5 58bc 1a6f d73c e522 49bd
000002d0: 90c6 b0bb 1675 8f3d bddc 8ebd 3624 233d
000002e0: 3987 2ebe 6618 f93c 99d5 423d 6d74 22bd
000002f0: 3b02 7e3d 3d0c 6ebd 5120 6abd 1f34 68bd
00000300: 8a43 cdbc 390e fc3a b66d 1abd 1e7c 6cbd
00000310: ad93 a2bc b93f b03a 755f 103c 0606 15bd
00000320: 5513 653b cafb 703d 14ae e3bc 5cba aebc
00000330: 28eb a5bc 8693 dc3c 9952 c33c 0d1f e5bb
00000340: b81f 40bc 5c6b e4bc d31e bc3a 8815 d53c
00000350: 36a7 a23b 7460 1739 128d 0b3c 8fc9 6fbd
00000360: d5c9 edbc 588b 91bc 2a80 6abd 360c 5fbd
00000370: 7969 00bd 6c1d 213d 16e8 663d 70fe 42bd
00000380: 2c88 843d 5cfd 84bc 948c abbc 8a2a bcbb
00000390: 2123 723d 1811 1c3e 0083 3d3a 421b f83c
000003a0: def7 acbc 86f2 1a3c e8d6 9cbb 2c81 ccbc
000003b0: fc24 48bd 4647 543d 1d1d acbc ca44 c4bc
000003c0: f2f5 3a3d f936 4ebe 550e ed3c 8089 a53b
000003d0: 1a69 58bd a6d0 e6bc baee 8bbc 1b45 173d
000003e0: 6247 eabc 0163 683d e219 603d 01cd 1dbd
000003f0: 4479 8dbd 6052 28bb 9b0c 96bd 5ef1 063d

linear2.bias f4 [256]
0.12340693 -0.0430854 0.308993 0.1707754 0.6768363 0.17008698 -0.046967205 0.015312537
-0.09026867 -0.07778879 0.73720455 0.010352249 0.7453132 0.008755942 0.526536 0.23692082
-0.033693824 -0.017579488 -0.044407897 0.06752368 0.028876027 -0.064750105 0.2918881 0.094224975
0.22926421 1.1792426 -0.05173936 0.4013314 -0.276737 0.17516637 0.10862217 0.33465302
-0.07718529 0.588898 0.2759445 -0.02089263 0.83054817 -0.065696344 0.019465653 0.31148756
0.2666659 0.1747204 0.75486636 0.2532529 -0.09302542 0.20902199 0.2807584 -0.08289588
0.17895949 0.19637555 0.26422182 0.119070426 -0.11026629 0.25635517 -0.10631743 0.407514
0.7949783 0.84050494 0.08827934 1.0932765 -0.05826988 0.29868588 -0.05397829 0.028626429
-0.08351836 0.73366064 0.7287404 -0.18847977 0.23177029 -0.50049514 0.28083298 -0.29306272
0.16308418 0.86924934 0.29618424 0.045468736 -0.04409497 -0.05954855 -0.23550019 0.2915532
0.030155681 -0.10628383 0.7120908 -0.038361672 -0.06604653 -0.009383662 -0.0120029505 -0.077006474
-0.06673199 0.24880853 -0.1219415 -0.14402544 0.27341822 -0.30766857 -0.16395214 -0.06397524
0.0044628875 -0.04651271 -0.036506455 0.8168563 -0.05901867 -0.008646526 -0.014705308 0.8198279
0.38616046 -0.03921105 0.06627982 -0.02452856 0.09691835 -0.089642815 -0.070628695 -0.03879754
-0.056828175 -0.42008713 0.21732877 0.27743524 0.36900532 0.27540106 -0.08726605 -0.11894633
-0.056984637 -0.97641253 0.095106676 -0.14826103 -0.026136043 0.4700651 -0.0966092 -0.045670785
-0.108984776 0.74497354 0.73146385 -0.104462214 -0.036532532 -0.05704052 0.22524047 0.33457208
0.64486605 0.74225867 0.47214794 0.019629737 0.3526788 -0.100386694 -0.42943102 -0.055032562
-0.10399282 -0.02650299 -0.0116067575 -0.02868045 -0.08116395 -0.04928064 0.1465848 0.41901708
-0.36389107 0.16834803 -0.095476694 -0.06443718 0.16125345 0.41197902 0.19565505 -1.1018515
-0.029388264 -0.04466122 0.94588685 -0.018094901 0.6911564 0.66588175 -0.012912489 0.52088135
-0.03978475 0.6036728 0.5906292 -0.03756479 0.16103742 0.12760101 0.053533327 0.71145606
0.27445108 0.29378602 -0.06065037 -0.06594966 -0.058146942 0.25742033 0.3717152 0.27169952
-0.15220988 0.9434342 0.29614875 0.84840214 -0.17543651 0.35074532 -0.021815836 -0.0073893615
-0.11130939 -0.020369219 0.6947618 -0.0899827 -0.032486815 0.2829353 0.1300069 0.024299448
-0.16485505 0.30014968 -0.09026867 0.36082295 0.4150392 0.28564826 -0.079852626 0.9226315
0.020209027 0.8212564 -0.036472928 -0.025133926 0.021971112 -0.052775007 0.41431397 -0.10698799
0.19250537 0.32819667 0.29086524 0.31391114 0.16019282 -0.030330773 0.086319655 -0.1486256
-0.06154445 0.15672456 0.25575572 -0.08222195 0.37783793 0.15292153 0.6373969 0.1432906
-0.019160347 0.8261812 0.1968167 -0.34665293 0.61278206 0.2689543 0.015153279 0.22043431
0.26453856 -0.11947533 0.32886374 0.83950526 0.14137334 -0.06930992 0.20579316 -0.05919749
-0.09100698 -0.043886345 -0.003133126 -0.0056133866 0.19330332 -0.008497031 -0.10874635 0.075118065
00000000: c6bc fc3d 517a 30bd 5534 9e3e bfdf 2e3e
00000010: 2545 2d3f 482b 2e3e af60 40bd 6fe1 7a3c
00000020: c8de b8bd bb4f 9fbd 70b9 3c3f 7b9c 293c
00000030: d9cc 3e3f 1575 0f3c 10cb 063f 5f9b 723e
00000040: 8902 0abd dc02 90bc 0ee5 35bd db49 8a3d
00000050: 6b8d ec3c b49b 84bd 5b72 953e 06f9 c03d
00000060: 3dc4 6a3e 6cf1 963f a7ec 53bd 4f7b cd3e
00000070: 79b0 8dbe d05e 333e 4d75 de3d a457 ab3e
00000080: 5213 9ebd 05c2 163f 9948 8d3e 0527 abbc
00000090: ce9e 543f ce8b 86bd 6f76 9f3c 4c7b 9f3e
000000a0: 6f88 883e e8e9 323e ec3e 413f 5daa 813e
000000b0: 1d84 bebd dc09 563e 91bf 8f3e 51c5 a9bd
000000c0: 2841 373e ac16 493e 1548 873e 32db f33d
000000d0: 4bd3 e1bd fc40 833e f4bc d9bd ada5 d03e
000000e0: b383 4b3f 552b 573f cccb b43d 7cf0 8b3f
000000f0: 66ac 6ebd 5bed 983e 5718 5dbd f981 ea3c
00000100: ad0b abbd 2fd1 3b3f bb8e 3a3f d700 41be
00000110: 3155 6d3e 7320 00bf 57c9 8f3e 510c 96be
00000120: 8aff 263e 2087 5e3f 76a5 973e 6d3d 3a3d
00000130: ed9c 34bd 2ee9 73bd f626 71be 7646 953e
00000140: 0c09 f73c 56ab d9bd 954b 363f 2121 1dbd
00000150: 6743 87bd eebd 19bc 06a8 44bc 92b5 9dbd
00000160: c8aa 88bd aac7 7e3e 77bc f9bd 687b 13be
00000170: 79fd 8b3e bc86 9dbe 12e3 27be 7305 83bd
00000180: 6a3d 923b 1d84 3ebd cb87 15bd 7f1d 513f
00000190: 90bd 71bd 29aa 0dbc 88ee 70bc 3ee0 513f
000001a0: d3b6 c53e c49b 20bd b7bd 873d 1ef0 c8bc
000001b0: 217d c63d a796 b7bd c7a5 90bd 2bea 1ebd
000001c0: a9c4 68bd a915 d7be 6f8b 5e3e fe0b 8e3e
000001d0: 44ee bc3e 5e01 8d3e 8bb8 b2bd 229a f3bd
000001e0: b968 69bd 2cf6 79bf 4ac7 c23d bdd1 17be
000001f0: 411b d6bc 5fac f03e 0bdb c5bd 4a11 3bbd
00000200: 6933 dfbd 96b6 3e3f 3741 3b3f 49f0 d5bd
00000210: 23a3 15bd 52a3 69bd 70a5 663e 084d ab3e
00000220: f115 253f aa04 3e3f 60bd f13e 8bce a03c
00000230: 5192 b43e 8a97 cdbd 62de dbbe d369 61bd
00000240: 30fa d4bd cc1c d9bc 452a 3ebc 43f3 eabc
00000250: 4939 a6bd 7fda 49bd 531a 163e 6889 d63e
00000260: ee4f babe 6d63 2c3e 4989 c3bd a4f7 83bd
00000270: a01f 253e eaee d23e cc59 483e 7809 8dbf
00000280: a8bf f0bc afee 36bd a425 723f c23b 94bc
00000290: a0ef 303f 3a77 2a3f e78e 53bc 7b58 053f
000002a0: 56f5 22bd 4d8a 1a3f 7a33 173f 8add 19bd
000002b0: fee6 243e d7a9 023e c345 5b3d fc21 363f
000002c0: da84 8c3e 1f6b 963e 866c 78bd 9e10 87bd
000002d0: 7d2b 6ebd 99cc 833e 7451 be3e 331c 8b3e
000002e0: e8dc 1bbe e784 713f cfa0 973e e230 593f
000002f0: a1a5 33be e494 b33e 20b7 b2bc 7522 f2bb
00000300: 2df6 e3bd 59dd a6bc e9db 313f da48 b8bd
00000310: e510 05bd e5dc 903e 8720 053e a30f c73c
00000320: c3cf 28be 38ad 993e c8de b8bd c9bd b83e
00000330: 0580 d43e 7d40 923e c689 a3bd 9431 6c3f
00000340: 678d a53c dc3d 523f a364 15bd aae5 cdbc
00000350: c3fc b33c 9b2a 58bd f620 d43e 851c dbbd
00000360: 2120 453e 6509 a83e 4aec 943e f6b8 a03e
00000370: 9609 243e 3e78 f8bc 5cc8 b03d 4f31 18be
00000380: 0916 7cbd 677c 203e 6af2 823e fb63 a8bd
00000390: f973 c13e 7697 1c3e 712c 233f c5ba 123e
000003a0: 29f6 9cbc 9c80 533f 518a 493e 7e7c b1be
000003b0: 49df 1c3f 61b4 893e 7545 783c 88b9 613e
000003c0: 9971 873e 7baf f4bd d460 a83e d1e9 563f
000003d0: 2cc4 103e 5cf2 8dbd 71bb 523e 1179 72bd
000003e0: de61 babd 2bc2 33bd 2255 4dbb 80f0 b7bb
000003f0: 4ef1 453e 2237 0bbc 68b6 debd 80d7 993d

linear3.weight f4 [1, 256]
0.023332467 0.019182699 -1.3184437 -1.4562733 0.31305054 -1.6617726 0.0005805416 0.0052776397
0.018640662 -0.008388065 0.19590174 -0.036633115 0.17936847 0.023437034 -0.83989924 -2.2751453
-0.013829853 -1.6871042 0.022291495 -2.1611943 0.030850459 0.00010041314 -2.4163902 -0.030518902
-0.9740418 1.2678138 -0.0032835363 -1.2829466 1.268722 -0.78851104 -1.3535262 1.0516818
0.02422122 0.5908968 -1.3085045 -0.02927464 -2.1169572 -0.02669298 -1.1258357 -2.4916937
0.9806298 -1.5029715 0.43057013 -2.3869727 -0.014447328 -1.6114293 -0.70409864 -1.1071423
-0.93716425 0.9071319 -1.3740823 -0.9782537 0.013810295 0.7394029 -0.008336842 -1.3518796
-2.0298803 0.27799198 -0.54053164 -3.8994088 -0.024824724 -1.5518764 -0.031350587 0.013771178
-0.030602723 0.3852731 1.0691077 0.5084043 -1.4026234 10.899896 -2.2949317 -0.25491247
-3.4479566 0.29425 -0.91236097 -2.003674 -0.024435425 1.3455571 -1.1463844 -1.4206365
-0.002865833 -0.84091187 0.27293977 0.0068092197 0.061820127 -0.005991042 -1.7007195 -0.026709745
0.0039211516 -1.6720861 0.03111682 -1.5670985 -2.4440682 6.669853 0.009320331 -0.048125785
-3.1425462 0.029401302 -0.009470276 -2.007021 0.017880693 -1.1389991 -0.0061679957 0.69324857
-1.7092209 -0.00688233 -1.7552426 0.0028062274 -0.9548781 -0.030794578 -0.026119279 0.025539989
0.02997128 1.5217255 0.0015669123 -0.9406058 0.66045624 -3.1073415 0.014987502 0.019471413
0.009443267 -0.59139115 1.2349358 0.022520602 0.00736057 -1.3085084 0.023375567 0.031719394
-0.029455319 0.19791643 0.27240476 -0.008931965 -0.024793059 -0.00025031072 -0.8968914 -1.1731046
-2.6734061 -2.4884818 -2.0089378 -0.4066132 -1.7844443 0.018256953 6.35281 -0.008906819
-0.02203072 0.016291836 0.005216638 0.027316974 -0.019931491 -0.0077573187 1.1926069 -0.90479016
-0.7890953 -0.016897203 0.011114081 -0.015504393 -1.6619014 -1.9865503 -2.289514 -0.28929254
0.012574414 0.015250138 -2.7908876 -0.55066454 -4.732925 0.21946302 -0.0055705453 -2.6562712
-0.023161361 0.86406046 0.02607692 -0.9009175 -1.7929968 0.7250319 -2.294509 0.61750865
-1.1493344 -1.2400632 -0.027072966 -0.0413792 0.031185739 -2.425159 0.7419011 -0.6955871
0.027741663 0.2587517 -2.0042334 -1.8663027 0.82683957 -1.3119186 -1.7897623 -2.4954195
-0.026862483 0.0031633943 0.77030486 -1.9773692 -0.027981948 -0.90615386 -3.3980393 -0.026132317
-0.9812973 1.3191255 0.024111321 -3.1888974 -1.7734356 -1.6421293 -0.02793352 0.32246897
0.004657371 0.14571017 -0.024409348 -0.034748096 -0.43450853 -0.457397 -1.9084398 0.0024132042
0.8021354 -1.5476141 -3.254914 -1.0852464 -1.0441996 -0.005779164 -1.3211247 -0.40243372
0.025783999 0.47730237 0.35475135 -0.027562847 1.4473256 -1.1313541 -2.504628 -0.74493265
-0.025305292 0.7395089 0.9196561 -0.7663418 1.0918266 -1.4232769 -0.5015497 -1.7202387
-0.9410719 0.011362748 -2.4861562 0.2052907 -1.0288922 -0.0216675 -1.2823352 0.02959502
-2.0939054 -0.010691255 -0.022807453 -0.006315147 -1.0252037 -0.011603032 0.009354791 0.7095172
00000000: bb23 bf3c 0925 9d3c c3c2 a8bf 2a67 babf
00000010: 2948 a03e f7b4 d4bf 7d2f 183a 0df0 ac3b
00000020: 4db4 983c 186e 09bc 779a 483e 9b0c 16bd
00000030: 5eac 373e 06ff bf3c a303 57bf fb9b 11c0
00000040: 9c96 62bc 08f3 d7bf a79c b63c 0251 0ac0
00000050: 1aba fc3c e594 d238 23a6 1ac0 c702 fabc
00000060: ce5a 79bf b947 a23f 9930 57bb 9837 a4bf
00000070: 7c65 a23f dcdb 49bf 5940 adbf 829d 863f
00000080: 946b c63c 0345 173f 137d a7bf 5fd1 efbc
00000090: 3a7c 07c0 3dab dabc 621b 90bf e977 1fc0
000000a0: 8e0a 7b3f 5f61 c0bf b073 dc3e 29c4 18c0
000000b0: 7cb4 6cbc 5143 cebf cf3f 34bf d7b6 8dbf
000000c0: ffe9 6fbf cc39 683f eee1 afbf d66e 7abf
000000d0: 9344 623c 8249 3d3f 4097 08bc 640a adbf
000000e0: 8fe9 01c0 f754 8e3e 4860 0abf ea8f 79c0
000000f0: 385d cbbc e3a3 c6bf 7969 00bd 82a0 613c
00000100: 90b2 fabc 8442 c53e 85d8 883f c926 023f
00000110: 2a89 b3bf f965 2e41 29e0 12c0 e383 82be
00000120: 52ab 5cc0 f0a7 963e 7d90 69bf 323c 00c0
00000130: cd2c c8bc 373b ac3f b9bc 92bf 6bd7 b5bf
00000140: b3d0 3bbb 0046 57bf c3be 8b3e e01f df3b
00000150: 1a37 7d3d 8150 c4bb 2db1 d9bf 65ce dabc
00000160: 017d 803b eb06 d6bf b4e8 fe3c af96 c8bf
00000170: 9d6b 1cc0 706f d540 4db4 183c 8b1f 45bd
00000180: 7a1f 49c0 00db f03c 3729 1bbc 0873 00c0
00000190: 887a 923c b9ca 91bf e61c cabb bd78 313f
000001a0: c0c7 dabf 2b85 e1bb caab e0bf afe8 373b
000001b0: e472 74bf e944 fcbc 19f8 d5bc 3d39 d13c
000001c0: 5486 f53c e7c7 c23f da60 cd3a 8bcb 70bf
000001d0: a913 293f afde 46c0 248e 753c 8382 9f3c
000001e0: efb7 1a3c 6965 17bf 6012 9e3f 207d b83c
000001f0: f030 f13b 347d a7bf 1e7e bf3c 32ec 013d
00000200: 484c f1bc 9baa 4a3e a378 8b3e 6057 12bc
00000210: d01a cbbc 233c 83b9 ad9a 65bf 4b28 96bf
00000220: 1619 2bc0 4943 1fc0 7092 00c0 9b2f d0be
00000230: ac68 e4bf 9b8f 953c 384a cb40 e8ed 11bc
00000240: c579 b4bc 7576 853c 55f0 aa3b d9c7 df3c
00000250: 5e47 a3bc 1b31 febb 58a7 983f 54a0 67bf
00000260: 2602 4abf 016c 8abc d617 363c 2306 7ebc
00000270: 2fb9 d4bf 4847 febf 6687 12c0 271e 94be
00000280: ea04 4e3c b7db 793c e79d 32c0 5af8 0cbf
00000290: 1f74 97c0 eaba 603e 1f89 b6bb 5900 2ac0
000002a0: e5bc bdbc 1133 5d3f 449f d53c 87a2 66bf
000002b0: eb80 e5bf b19b 393f 3cd9 12c0 0c15 1e3f
000002c0: 641d 93bf 64ba 9ebf 20c8 ddbc 3c7d 29bd
000002d0: 3c79 ff3c ce35 1bc0 3bed 3d3f ff11 32bf
000002e0: 7c42 e33c 1a7b 843e 5c45 00c0 02e3 eebf
000002f0: c2ab 533f f3ec a7bf ee16 e5bf f4b4 1fc0
00000300: b60e dcbc f350 4f3b b332 453f 6f1a fdbf
00000310: 663a e5bc b3f9 67bf 7a79 59c0 7113 d6bc
00000320: 4d36 7bbf 1bd9 a83f 1b85 c53c e516 4cc0
00000330: f0ff e2bf 4b31 d2bf d6d4 e4bc a71a a53e
00000340: dc9c 983b 0c35 153e 1df6 c7bc 0554 0ebd
00000350: e777 debe f12f eabe c147 f4bf d926 1e3b
00000360: bf58 4d3f 3818 c6bf 8350 50c0 5be9 8abf
00000370: 55a8 85bf 245f bdbb 9d1a a9bf cb0b cebe
00000380: f738 d33c fa60 f43e f8a1 b53e 7bcb e1bc
00000390: f741 b93f 36d0 90bf d34b 20c0 e8b3 3ebf
000003a0: 0b4d cfbc 7550 3d3f 956e 6b3f fa2e 44bf
000003b0: f9c0 8b3f f02d b6bf 9065 00bf c830 dcbf
000003c0: 17ea 70bf d22a 3a3c 2f1d 1fc0 ba37 523e
000003d0: bdb2 83bf 0a80 b1bc 8f23 a4bf 4171 f23c
000003e0: 8c02 06c0 602a 2fbc b2d6 babc 4bef cebb
000003f0: e039 83bf a51a 3ebc d644 193c eba2 353f
