turtlebot3_rl_sim/src/models/ddpg/trajectory_test/ddpg_critic_model_ep3000.pt (torch_old, 640034 bytes, 5 tensors)

linear1.weight f4 [256, 365]
0	0x3b2945a0	0.0025828853
1	0xbd3bc4fb	-0.045842152
2	0xbc830004	-0.015991218
3	0xbcffe0b3	-0.031235075
4	0x3d1f5308	0.038897544
5	0x3d339f04	0.04385282
6	0xbbfb2e40	-0.0076654255
7	0xbb20b4d0	-0.0024521835
8	0xbd55410b	-0.052063983
9	0x3d11abba	0.03556416
10	0xbcc96334	-0.024583437
11	0xbbd29cb6	-0.006427373
12	0x3c813882	0.015774015
13	0x3cf4ab93	0.02986697
14	0x3d383ea0	0.0449816
15	0x3d544b6a	0.051829733
16	0x3cf5ce54	0.030005611
17	0x3c9c4d70	0.019079894
18	0xbc5245e8	-0.01283405
19	0xbcc40bf1	-0.023931475
20	0xbca6b29c	-0.02034884
21	0x3d02436c	0.03180258
22	0x3b52dcb0	0.0032174997
23	0xbd4869b3	-0.048928928
24	0x3cccd470	0.025003642
25	0x3d30ba30	0.043146312
26	0xbd0c0d1d	-0.034192193
27	0xbcc3d28f	-0.023904113
28	0xbcda1ab5	-0.026624063
29	0x3d337c1a	0.043819524
30	0xbd3938be	-0.04522013
31	0x3cab1924	0.020886011
32	0x3d18d1a0	0.03730929
33	0xbd434fd4	-0.047683552
34	0xbd4496d2	-0.047995396
35	0x3c3a9e18	0.011390232
36	0xbd17079c	-0.03687249
37	0x3d3d0d32	0.046155162
38	0xbcfa5f90	-0.030563146
39	0xbc9708de	-0.018436845
40	0xbad05d40	-0.0015896931
41	0xbcee1025	-0.029060433
42	0x3c926318	0.017869517
43	0xbd44dbdd	-0.04806124
44	0xbd1ca338	-0.038241595
45	0xbd054994	-0.032540873
46	0x3d30b806	0.04314425
47	0xbcf1ce03	-0.02951718
48	0xbd02a710	-0.031897604
49	0x3c9123bc	0.017717235
50	0xbae3b400	-0.001737237
51	0x3bd4ca30	0.006493829
52	0xbcd1d993	-0.025616443
53	0x3d0c1722	0.03420175
54	0x3cce9738	0.025218591
55	0xbaf69be0	-0.0018814765
56	0xbd1a0901	-0.037606243
57	0xbc60cd92	-0.013720887
58	0x3ad662a0	0.0016356297
59	0xbb1729e0	-0.002306573
60	0xbca35316	-0.01993708
61	0x3c900040	0.017578244
62	0xbceda86a	-0.02901097
63	0xbcfe5ee2	-0.031051103
64	0xbccddbf2	-0.025129292
65	0xbd4a8be1	-0.049449805
66	0x3ca1481c	0.019687705
67	0x3d3a3aa0	0.045466065
68	0x3d2f012a	0.04272572
69	0x3cd98494	0.026552476
70	0x3caa2648	0.020770207
71	0xbd560ba1	-0.052257184
72	0xbc182ed0	-0.009288505
73	0xbd2d1b0a	-0.042262115
74	0x3c2698a0	0.010168225
75	0x3c7e7080	0.015529752
76	0x3c9fca40	0.01950562
77	0xbb7154c0	-0.0036824197
78	0xbbc51870	-0.006014876
79	0x3d393cd8	0.04522404
80	0x3d2833f4	0.04106517
81	0xbc88ed82	-0.016714815
82	0x3bd9ad54	0.006642977
83	0x3d1be530	0.038060367
84	0x3c1b9748	0.0094965175
85	0xbb74c1a0	-0.0037346855
86	0x3c411760	0.011785358
87	0x3c936b98	0.01799564
88	0x3d3a4a12	0.045480795
89	0xbd50ea37	-0.051004615
90	0x3c015670	0.007894143
91	0x3b7e0470	0.003875997
92	0xbc177800	-0.009244919
93	0x3d3936de	0.04521834
94	0xbafabe48	-0.0019130195
95	0xbba412e0	-0.005007133
96	0xbd1a2c8d	-0.037640143
97	0xbce770d0	-0.028252035
98	0x3a5bf240	0.0008390285
99	0xbd468d37	-0.048474517
100	0xbc36bfcf	-0.011154129
101	0x3d33af62	0.04386843
102	0xbd4f79e6	-0.05065336
103	0xbc9d0530	-0.019167513
104	0xbd0ea3d7	-0.03482422
105	0xbd205bbc	-0.039149985
106	0x3c6c55e8	0.0144247785
107	0x3c500fa8	0.012699045
108	0x39874000	0.0002579689
109	0x3cf0e39c	0.029405408
110	0xbccdac8f	-0.025106696
111	0xbc9c1ae2	-0.019055787
112	0x3d271021	0.040786866
113	0xbd52600d	-0.051361132
114	0x3ac19ec0	0.0014772043
115	0xbd5321bc	-0.051545843
116	0xbcecc258	-0.028901264
117	0xbd0494be	-0.032368414
118	0xbd3d66fc	-0.04624079
119	0xbb2286f0	-0.0024799667
120	0x3c669ac8	0.014074989
121	0x3d188d3d	0.03724407
122	0x3bfbc030	0.0076828226
123	0xbd06b45f	-0.03288686
124	0x3cb471f5	0.022026995
125	0xbc06b810	-0.008222595
126	0x3bae92c8	0.0053275563
127	0xbc41c480	-0.011826634
128	0xbd1ba0d8	-0.03799519
129	0xbd047fec	-0.03234856
130	0xbcb93563	-0.022608465
131	0x3c90ba5c	0.017666988
132	0xbcbd83e7	-0.023134185
133	0xbb920d28	-0.0044571348
134	0x3c1a9b98	0.0094365105
135	0x3bc35b38	0.005961802
136	0xbcb5027d	-0.022095913
137	0x3bd8e3c0	0.006618947
138	0xbd16610c	-0.036713645
139	0x3cbfc740	0.02341044
140	0xbbe49890	-0.0069761947
141	0xbc82d480	-0.015970469
142	0xbd4b7c78	-0.04967925
143	0x3bffa120	0.00780119
144	0x3ca05df4	0.01957605
145	0xbc335c9c	-0.010947373
146	0x3cf8bba0	0.030362904
147	0x3d1cbcb8	0.038265914
148	0x3ca744ec	0.020418607
149	0x3c5d0ce0	0.013491839
150	0xbd25a75b	-0.040442806
151	0x3c9ee874	0.019397952
152	0x3adaca7d	0.0016692426
153	0x3d01cebc	0.031691298
154	0x3d45516c	0.048173353
155	0x3b1b6400	0.0023710728
156	0x3d02aa60	0.031900764
157	0xbd2f8d76	-0.042859517
158	0x3c9998a0	0.018749535
159	0x3d116147	0.03549316
160	0x3cd9966c	0.026560985
161	0x3d455253	0.048174214
162	0xbd08e066	-0.033417128
163	0x3d2f2f82	0.042769916
164	0xbd007d58	-0.031369537
165	0x3c048dac	0.008090418
166	0xbd22b108	-0.03971961
167	0xbd13c014	-0.03607185
168	0xbd283cea	-0.041073717
169	0xbd466f7c	-0.048446164
170	0x3c1bea24	0.009516273
171	0x3d518f4e	0.051162057
172	0x3b1431e0	0.0022612736
173	0x3d18e06e	0.037323408
174	0x3cc7ef44	0.024406083
175	0x3ca45660	0.020060718
176	0x3c4ce278	0.012505166
177	0xbd52a163	-0.05142344
178	0x3c57b408	0.013165481
179	0x3d3e434e	0.046450906
180	0xbd53f477	-0.05174681
181	0xbcfa7be0	-0.030576646
182	0x3cbd6768	0.023120597
183	0x3c316b50	0.010828808
184	0xbc937efe	-0.01800489
185	0x3c51d610	0.012807384
186	0x3c917e80	0.017760515
187	0xbd1f3c90	-0.038876116
188	0xbd3f54fc	-0.046711907
189	0x3c19ed74	0.009394992
190	0x3d151b9c	0.036403283
191	0xbcf1cadf	-0.029515682
192	0x3ce92a39	0.028462516
193	0x3d5486b4	0.051886275
194	0xbc00f240	-0.007870257
195	0xbcf24272	-0.0295727
196	0x3ce60d57	0.028082533
197	0xbc1f4fbb	-0.009723599
198	0x3c3252fb	0.010884042
199	0x3b821d10	0.0039707497
200	0xbd1c5028	-0.03816238
201	0xbc73cf28	-0.014880933
202	0xbcf13ca8	-0.029447868
203	0x3bc48868	0.005997706
204	0x3cd8e698	0.026477143
205	0x3c9ecfec	0.019386254
206	0xbd44e52d	-0.04807012
207	0x3cfd86a4	0.03094799
208	0x3d0e5d4c	0.034756944
209	0x3c777288	0.01510299
210	0xbc48bb60	-0.012251705
211	0x3c61cc30	0.013781592
212	0xbca29bd6	-0.019849699
213	0x3ccbdeb4	0.024886467
214	0xbd438691	-0.047735754
215	0x3c8b6eec	0.017020665
216	0x3c83d864	0.016094394
217	0xbc19a67e	-0.009378074
218	0xbd133786	-0.035941623
219	0x3d4fb6b2	0.05071134
220	0xbc11fb1c	-0.008909967
221	0x3d0f7784	0.03502609
222	0xbb6d8cc0	-0.0036247224
223	0xbd3ac9d3	-0.04560263
224	0x3c88c620	0.016696036
225	0x3d3c0763	0.045905482
226	0x3bef5750	0.0073041096
227	0xbd276763	-0.04087008
228	0xbd326505	-0.04355337
229	0xbc4d72e4	-0.012539599
230	0xbcb8f251	-0.022576483
231	0xbd1fedea	-0.039045252
232	0x3c8953c8	0.016763583
233	0xbc3a6838	-0.011377387
234	0xbd2d4d39	-0.042309973
235	0x3ca675cc	0.020319842
236	0xbd158bb3	-0.03651018
237	0xbd4c220b	-0.049837153
238	0x3d1ee784	0.03879501
239	0x3ce459b8	0.027874812
240	0x3cf3c902	0.029758934
241	0xbd028514	-0.031865194
242	0x3ce319dc	0.027722292
243	0x3bfcd378	0.0077156387
244	0x3d4ffdd2	0.05077917
245	0x3cd51658	0.02601163
246	0xbc8b5790	-0.017009526
247	0x3bf44603	0.007454635
248	0x3c825244	0.015908368
249	0xbc34286c	-0.010995965
250	0x3b821430	0.0039696917
251	0x3d47fcc8	0.048825055
252	0x3d149a50	0.036279976
253	0xbb2f59e0	-0.002675645
254	0x38e1e800	0.000107720494
255	0xbcd0038a	-0.025392313

linear1.bias f4 [256]
0	0xbb3cbca0	-0.0028798953
1	0x391823c5	0.00014509175
2	0x3d346e0d	0.044050265
3	0x3cb5ae5e	0.022177871
4	0x3d0d32f4	0.03447242
5	0xbb21dffd	-0.0024700158
6	0xbcca6eef	-0.0247111
7	0xbd14dfd2	-0.036346264
8	0xbda435a7	-0.08018046
9	0x3d0080e9	0.03137294
10	0xbe050a4b	-0.12992208
11	0xbbff234c	-0.00778619
12	0x3cb0f752	0.021602307
13	0xb90dc37c	-0.00013519631
14	0xbeae09ff	-0.33992
15	0xbd30fb3a	-0.04320834
16	0x3cc4f0ab	0.02404054
17	0xbd06c27e	-0.032900326
18	0x3d01f7ea	0.03173057
19	0xbcb2e383	-0.021837002
20	0x3d2d4217	0.042299356
21	0xbc1a5e17	-0.009421847
22	0x3c8eab87	0.017415775
23	0xbd3bb943	-0.045830976
24	0xbcd3b5f7	-0.025843604
25	0xbd06bd1d	-0.032895196
26	0xbd0a0289	-0.033693824
27	0xbd77c876	-0.06049391
28	0xbd2a57fc	-0.041587815
29	0xbd199ac6	-0.03750112
30	0xbc3a9832	-0.011388825
31	0xbc4824fd	-0.01221585
32	0xbcbe0eed	-0.023200477
33	0xbc2b80dd	-0.010467735
34	0xbd385228	-0.045000225
35	0xbd2811f2	-0.04103274
36	0x3d2219b2	0.039575286
37	0xbd22ab1e	-0.03971397
38	0xbd244ee6	-0.040114306
39	0x3bc56dab	0.0060250363
40	0xbc85a16d	-0.016312325
41	0x3d40b69f	0.04704916
42	0xbd828c5b	-0.06374427
43	0x3be1b40b	0.006887918
44	0x3b43b442	0.002986208
45	0xbcc11c2f	-0.02357301
46	0xbec6240b	-0.38699374
47	0xbd8683fe	-0.06568144
48	0x3afaf110	0.0019145329
49	0xbd30ff22	-0.043212064
50	0x3d232fee	0.03984063
51	0xbbb9f039	-0.0056743887
52	0xbc3e459d	-0.011613277
53	0xbd6aacf3	-0.057293843
54	0xbd66f3cf	-0.056384858
55	0xbd965138	-0.0733971
56	0xbd0a9ec9	-0.033842836
57	0x3c4ae420	0.012383491
58	0xbd6021b2	-0.054719634
59	0xbc4d8fba	-0.012546474
60	0xbcd9343c	-0.026514165
61	0xbd3d1cbc	-0.04616998
62	0x3d1b254f	0.037877377
63	0xbc135931	-0.008993433
64	0xbd645005	-0.055740375
65	0xbc4809a5	-0.012209331
66	0x3d29b3ec	0.041431352
67	0x3c8eaad8	0.017415449
68	0xbd3d5754	-0.04622586
69	0xbc1e3292	-0.009655612
70	0xbdc81175	-0.09768955
71	0x3c5b012d	0.01336698
72	0xbca5b090	-0.020225793
73	0x3ce3dad5	0.027814308
74	0xbc086478	-0.008324735
75	0x3d2b1765	0.041770358
76	0xbd38cf28	-0.045119435
77	0x3d2e0d37	0.04249307
78	0xbb93c691	-0.004509755
79	0xbd21247c	-0.039341435
80	0xbd693209	-0.056932483
81	0xbd6941a9	-0.056947384
82	0xbd229b7e	-0.03969907
83	0xbc8987a4	-0.016788311
84	0xbebc43a5	-0.3677036
85	0x3d2cb95e	0.042168967
86	0xbd690329	-0.05688778
87	0xbc7e3de8	-0.015517689
88	0x3cb36084	0.021896608
89	0x3e22d765	0.15902479
90	0xbd3d9137	-0.046281066
91	0xbd1de08a	-0.038544215
92	0xba428391	-0.00074201176
93	0x3d163b7b	0.03667782
94	0xbd295a13	-0.041345667
95	0x3d39ec51	0.045391385
96	0xbec8d01c	-0.39221275
97	0xbd3bad8b	-0.0458198
98	0xbc2e72c8	-0.010647483
99	0x3e2051fa	0.15656272
100	0xbc189cdd	-0.009314743
101	0x3c9485fa	0.018130291
102	0xbcfe2563	-0.031023687
103	0xbd34c015	-0.044128496
104	0xbd39b989	-0.045342956
105	0x3aab08e0	0.001304891
106	0xbce5d2be	-0.028054591
107	0xbcd1122d	-0.025521362
108	0xbd32c82b	-0.043647926
109	0x3c73bf38	0.014877133
110	0xba7858fe	-0.000947371
111	0xbd246c57	-0.040142383
112	0xbd2b1f35	-0.04177781
113	0x3d1462d2	0.036227055
114	0x3d06aef6	0.0328817
115	0x3d439cd2	0.047756977
116	0xbd5afd45	-0.053464193
117	0xbd30c48a	-0.043156184
118	0xbc5b84b4	-0.013398338
119	0x3d3fd40e	0.04683309
120	0xbbc0ba87	-0.005881611
121	0xbdab3a8d	-0.08360777
122	0xbd4d9f5a	-0.050200798
123	0xbd0c5833	-0.0342638
124	0x3d09e40e	0.033664756
125	0xbd34c3fd	-0.04413222
126	0xbc741722	-0.014898093
127	0xbc983f1d	-0.018584782
128	0xbcd74094	-0.02627591
129	0xbd503b54	-0.05083783
130	0x3eb516b2	0.35368878
131	0x3cc0b69f	0.02352458
132	0xbd0fb9d0	-0.035089314
133	0xbd1acf5f	-0.03779542
134	0xbc97163c	-0.01844322
135	0x3ea76b09	0.3269885
136	0xbd34a0d5	-0.044098694
137	0xbe83157a	-0.25602323
138	0xbbab696d	-0.0052310736
139	0xbc92f3a0	-0.017938435
140	0xbe5cb4a0	-0.21553278
141	0x3ba1dc15	0.004939566
142	0x3ca51450	0.020151287
143	0xbcca2c87	-0.024679435
144	0xbd5a0efc	-0.053236946
145	0xbd8b0842	-0.067886844
146	0xbd11364f	-0.035452183
147	0xbd68ff41	-0.056884054
148	0x3dd0be4b	0.101925455
149	0xbe070f97	-0.13189541
150	0x3c9996de	0.018748697
151	0xbd83a984	-0.06428817
152	0xbb409f2f	-0.0029391756
153	0xbcd014ce	-0.025400545
154	0xbc972e7a	-0.018454779
155	0x3c0e34c4	0.0086795725
156	0x3c75efcc	0.015010785
157	0xbd5ce1a7	-0.053926136
158	0xbd1d5001	-0.038406376
159	0x3c74615b	0.0149157895
160	0x3d340c64	0.04395713
161	0xbc5f1811	-0.013616578
162	0xbce20613	-0.027590787
163	0xbbf426c3	-0.00745091
164	0xba2af825	-0.0006521962
165	0xbc401e47	-0.011725969
166	0x3c9d7711	0.019221814
167	0xbd85a16d	-0.0652493
168	0xbad0e735	-0.0015938046
169	0xbd325acb	-0.04354362
170	0xbd24dda0	-0.04025042
171	0xbd4444ca	-0.047917165
172	0x3b7d13f2	0.0038616625
173	0xbb618970	-0.0034414195
174	0x3cb02079	0.02149986
175	0xbd4ed00b	-0.050491374
176	0xbd503f3c	-0.050841555
177	0xbd2f4d88	-0.04279855
178	0xbd1d3891	-0.038384024
179	0xbcbde3f5	-0.023179987
180	0xbd3d5518	-0.04622373
181	0xbc10441e	-0.008805303
182	0xbd0887a0	-0.033332467
183	0xbb02654b	-0.00198968
184	0xbe11fd88	-0.14256871
185	0xbd5b85fe	-0.05359458
186	0xbd826933	-0.063677214
187	0xbd133609	-0.035940204
188	0xbcfa4918	-0.030552432
189	0xbbc3a0ba	-0.005970088
190	0xbd029bfb	-0.031887036
191	0x3c8904a0	0.016725838
192	0xbe86b764	-0.2631179
193	0xbd01adb2	-0.03165979
194	0xbcbfd40e	-0.023416545
195	0xbd222076	-0.03958174
196	0xbd2b619d	-0.04184114
197	0xbc54ded8	-0.012992583
198	0x3ca29796	0.019847672
199	0x3c09954c	0.008397412
200	0xbcfc2d79	-0.030783402
201	0xbb92f789	-0.004485075
202	0xbcad4dcf	-0.021155266
203	0xbcf3675a	-0.029712368
204	0x3cf1aa08	0.029500023
205	0x3d101d0e	0.03518396
206	0xbd8d90b4	-0.069123656
207	0xbd8eb5ad	-0.06968246
208	0xbc9f6a12	-0.019459758
209	0x3b6ebc06	0.0036427989
210	0x3ce6113f	0.028084395
211	0xbd261a09	-0.040552173
212	0xbc855735	-0.016276935
213	0x3d0afc8a	0.033932246
214	0xbd6d1a0d	-0.057886172
215	0xbd07f056	-0.033188187
216	0xbd85052d	-0.06495128
217	0x3c47aaf8	0.012186758
218	0x3c06d606	0.008229738
219	0xbe635e6c	-0.22203988
220	0xbcdb66be	-0.02678239
221	0xbd2aaa04	-0.041666046
222	0x3c6d123d	0.01446968
223	0xbc94300a	-0.018089313
224	0xbcd3738f	-0.025811939
225	0xbb884d08	-0.0041595735
226	0x3c037e8b	0.008025776
227	0xbb81d4c2	-0.0039621303
228	0x3a99c9a6	0.001173307
229	0xbedf744a	-0.4364341
230	0xbb688629	-0.0035480356
231	0xbe9e3b08	-0.30904412
232	0xbba33ba6	-0.004981476
233	0xbd639c55	-0.05556901
234	0xbb9c36c0	-0.004767269
235	0x3cdf27b1	0.027240606
236	0xbbd2333e	-0.0064148
237	0x3ce1eabb	0.027577749
238	0xbcd9ebd4	-0.02660171
239	0xbda80252	-0.082035676
240	0xbd18f2ce	-0.03734093
241	0xbf039a4b	-0.5140731
242	0xbc331264	-0.010929678
243	0x3c47a02d	0.012184185
244	0xbcd991fc	-0.026558869
245	0xbd2e4000	-0.042541504
246	0x3c36b7ff	0.0111522665
247	0x3c428391	0.011872188
248	0xbc9ef9cb	-0.01940622
249	0xbd53e8bf	-0.051735636
250	0x3c04de1d	0.008109597
251	0xbcd14cc5	-0.025549302
252	0x3c1fefe3	0.009761783
253	0xbd111af7	-0.035426106
254	0xbd8a0a59	-0.06740255
255	0xbcf109e0	-0.029423654

linear2.weight f4 [256, 256]
0	0xbd03462e	-0.03204935
1	0x3ca50898	0.0201457
2	0x3d8449ac	0.06459364
3	0x3d8956a8	0.067059815
4	0x3c0a9311	0.008457915
5	0xbd686ad1	-0.056742493
6	0xbd3ad2ca	-0.04561118
7	0xbc81ec32	-0.015859697
8	0xbd0055f1	-0.03133196
9	0x3d33afd8	0.04386887
10	0x3f350b32	0.7072021
11	0x3ca1535d	0.019693071
12	0xbcdbad0e	-0.026815917
13	0x3cbe7865	0.023250768
14	0xbf0f189b	-0.5589692
15	0x3d223dbd	0.03960966
16	0x3d27e312	0.040988036
17	0xbcf0ac20	-0.02937895
18	0xbbc21af0	-0.0059236214
19	0xbd08e560	-0.033421874
20	0xbd62487b	-0.055244904
21	0xbc4ec453	-0.0126200495
22	0xbfc7e69f	-1.5617255
23	0x3c6647ef	0.014055236
24	0xbcf25ca8	-0.029585198
25	0x3d13cee0	0.036085963
26	0x3d77d816	0.06050881
27	0xbc17cdd5	-0.009265383
28	0xbc666b17	-0.014063618
29	0xbb52b426	-0.0032150834
30	0x3d19f886	0.037590526
31	0xbd323f73	-0.04351754
32	0xbc99779e	-0.018733796
33	0xbd497cbf	-0.049191233
34	0xbd424ce0	-0.047436595
35	0x3c18cbbd	0.009325919
36	0xbca749e4	-0.020420976
37	0xbc1e9822	-0.009679826
38	0x3d22cc22	0.039745457
39	0xbd26aa91	-0.04069001
40	0xbd3930d1	-0.04521257
41	0x3d0e09cc	0.03467731
42	0xbad1e906	-0.0016014881
43	0xbb7b6641	-0.0038360509
44	0xbcd0bc3d	-0.025480384
45	0xbb1afe3f	-0.0023650078
46	0xbdacd1be	-0.08438443
47	0x3c5bb4de	0.013409821
48	0x3d07474f	0.03302699
49	0xbd1aa467	-0.037754443
50	0xbcf9eb57	-0.030507727
51	0xbcd075ec	-0.025446855
52	0x3ca75a5a	0.020428825
53	0x3c8710d4	0.016487516
54	0xbd27a0aa	-0.040924706
55	0x3ebf9807	0.37420675
56	0x3c9ee643	0.019396907
57	0x3d222265	0.039583582
58	0x3d0de2bc	0.03464006
59	0x3d756c42	0.059917696
60	0x3d492ab6	0.049112998
61	0x3d589be3	0.05288304
62	0xbd19a296	-0.03750857
63	0xbd479475	-0.048725564
64	0x3c883d67	0.016630841
65	0xbd597e74	-0.05309911
66	0x3d5d4737	0.054022994
67	0xb6c74000	-5.9381127e-06
68	0xbd158f9b	-0.036513906
69	0x3d915d5f	0.07097887
70	0xbd0e0db4	-0.034681037
71	0x3d8ba09a	0.06817742
72	0x3d84fd5d	0.06493638
73	0x3cdaca7d	0.026707882
74	0xbd0080e9	-0.03137294
75	0xbbd2798e	-0.006423182
76	0x3b15b2c3	0.0022842146
77	0xbd5f3369	-0.054492388
78	0xbd4a5b67	-0.049403574
79	0x3d87faff	0.066396706
80	0x3ca4415f	0.020050703
81	0xbca41667	-0.020030214
82	0xbc559289	-0.013035425
83	0x3d3b261e	0.04569065
84	0x3ebc02e6	0.3672096
85	0x3d2ed470	0.042683065
86	0x3d7710dd	0.060318816
87	0x3d045766	0.032309912
88	0xbc559289	-0.013035425
89	0x3e93dfc9	0.28881672
90	0xbd433110	-0.04765421
91	0x3d673250	0.056444466
92	0x3d193536	0.03740426
93	0xbcca4bc7	-0.024694337
94	0xbc09e731	-0.008416937
95	0xbd3a7cda	-0.045529224
96	0xbeb14d03	-0.34629068
97	0x3d6f739f	0.058459874
98	0x3cbdfb65	0.023191163
99	0xbd85075b	-0.064955436
100	0x3c1973b6	0.009365967
101	0x3c84b70c	0.016200565
102	0x3d6ba30b	0.057528537
103	0xbc6da2c5	-0.014504139
104	0xbd34a8a5	-0.044106144
105	0xbb0f2080	-0.002183944
106	0xbd4f58c3	-0.05062176
107	0x3c026828	0.007959403
108	0x3cd91114	0.026497401
109	0x3cdc85d0	0.026919276
110	0xbbbc807c	-0.005752621
111	0x3cc81175	0.024422387
112	0x3c8cb5f3	0.017176604
113	0xbc340938	-0.010988526
114	0x3d14a922	0.03629411
115	0x3c288b0b	0.010287057
116	0xbcf5b91c	-0.029995494
117	0x3d734fea	0.059402384
118	0xbce966ec	-0.02849146
119	0xbc906b2e	-0.017629232
120	0x3d3f2c16	0.046672903
121	0xbc9e9c0a	-0.019361515
122	0x3c7a7fc8	0.0152892545
123	0x3ca9d32c	0.020730577
124	0x3d632fb0	0.0554654
125	0x3d21a565	0.039464373
126	0x3c6d21dd	0.014473406
127	0x3cdae1ed	0.026719058
128	0x3d452d48	0.048138887
129	0x3d10829e	0.035280816
130	0xbe2677f5	-0.16256697
131	0x3c676518	0.014123224
132	0xbd0929ce	-0.033487134
133	0xbd80a411	-0.06281293
134	0x3d28e4e3	0.04123391
135	0x3ef96650	0.4871087
136	0x3d411077	0.047134843
137	0xbdb0b2c4	-0.08627847
138	0x3c8d1b84	0.017225035
139	0x3d13e5d1	0.036107842
140	0x3e6ae4df	0.2293887
141	0xbd14e3ba	-0.03634999
142	0x3d5396b7	0.051657405
143	0xbd97ba4d	-0.07408581
144	0x3cba84aa	0.022768337
145	0x3d78d216	0.06074723
146	0x3cc692a4	0.024239846
147	0x3cd53c98	0.02602987
148	0xbece6012	-0.4030767
149	0xbe0954d3	-0.13411264
150	0x3d39ffd9	0.04541001
151	0x3db164b2	0.08661784
152	0x3d3b7eab	0.045775097
153	0xbce4efdf	-0.02794641
154	0x3d34485c	0.04401432
155	0xbbfa3978	-0.0076362453
156	0xbccd0701	-0.025027754
157	0x3b290fdb	0.0025796804
158	0x3a1f4fbb	0.00060772494
159	0xbcbbf3db	-0.022943428
160	0xbd292f1b	-0.04130469
161	0x3d1eb762	0.038749106
162	0xbd01e07a	-0.03170822
163	0x3d2f8ff1	0.042861883
164	0xbd0da824	-0.03458418
165	0xbd54d320	-0.051959157
166	0xbd556f61	-0.052108172
167	0xbb3a750a	-0.0028451108
168	0xbc3d18d4	-0.011541564
169	0xbc575f7a	-0.013145322
170	0x3d300521	0.04297364
171	0xbd4250c8	-0.04744032
172	0x3d46e0c4	0.048554197
173	0x3d470eba	0.04859803
174	0x3d182b95	0.037150938
175	0xba0ed4ed	-0.00054485985
176	0x3d1bf070	0.038071096
177	0xbc58f5bc	-0.013242181
178	0x3cd76f1a	0.026298095
179	0xbd4922e6	-0.049105547
180	0xbbb0c690	-0.0053947642
181	0x3d8f7516	0.07004754
182	0xbd8edcbd	-0.06975696
183	0x3d232436	0.039829455
184	0xbe51b63d	-0.20479675
185	0x3cf91867	0.030407144
186	0x3d42d599	0.047566984
187	0xbd22746e	-0.039661817
188	0x3d7e023b	0.062013846
189	0xbd6e0c3d	-0.05811714
190	0xbd6a2052	-0.05715973
191	0xbd683420	-0.056690335
192	0xbefead63	-0.4974166
193	0x3afc0e39	0.0019230313
194	0xbd1a6db7	-0.03770229
195	0xbd6c7c1e	-0.057735555
196	0xbca293ae	-0.01984581
197	0x3ab03fb9	0.0013446725
198	0x3c105f76	0.008811822
199	0xbd150606	-0.036382698
200	0x3b651356	0.0034954152
201	0x3d70fbca	0.058833875
202	0xbce3ae14	-0.027792968
203	0xbcaeba5c	-0.021329097
204	0xbca5eb28	-0.020253733
205	0x3cdc9387	0.026925815
206	0x3cc35299	0.023843097
207	0xbbe51f0e	-0.0069922274
208	0xbc401fb8	-0.011726312
209	0xbce46b5d	-0.027883226
210	0x3abc1ed3	0.0014352448
211	0x3cd51588	0.026011243
212	0x3ba2a736	0.0049637808
213	0x39176074	0.00014436414
214	0x3c0b8d12	0.0085175205
215	0xbd6fc98f	-0.05854183
216	0xbcedc9d5	-0.029026905
217	0xbc918b58	-0.01776664
218	0xbd6a802a	-0.057251133
219	0xbeae1ded	-0.34007207
220	0xbd006979	-0.031350587
221	0x3d211d6c	0.0393347
222	0x3d66e817	0.056373682
223	0xbc823281	-0.015893223
224	0x3d84882c	0.06471285
225	0xbc84fd5d	-0.016234094
226	0xbcab8c95	-0.020941058
227	0xbbbc2a8b	-0.005742376
228	0x3d722321	0.059115533
229	0x3e5835eb	0.21114318
230	0x3a3d8300	0.00072292984
231	0x3eeed73e	0.46648592
232	0xbcacf7de	-0.021114286
233	0x3c1af287	0.009457237
234	0xbb9cd6e9	-0.0047863615
235	0xbccc812c	-0.024963938
236	0xbd4824fd	-0.0488634
237	0x3d544746	0.051825784
238	0xbcac1d1e	-0.021009978
239	0xbcc444ca	-0.023958582
240	0x3d3af5f2	0.045644708
241	0xbec05198	-0.3756225
242	0x3ced0e55	0.028937498
243	0x3ba58980	0.0050517917
244	0xbd58691b	-0.05283461
245	0xbce6d0a7	-0.028175665
246	0xbc8beebb	-0.017081609
247	0x3d17451c	0.036931142
248	0xbcea4762	-0.028598491
249	0x3d686301	0.056735042
250	0x3d6019e2	0.054712184
251	0xbd1dcd02	-0.03852559
252	0xbd8d7944	-0.06907895
253	0xbb285260	-0.0025683865
254	0xbd960c9b	-0.07326623
255	0x3d06f15e	0.03294503

linear2.bias f4 [256]
0	0x3cd0e3ef	0.025499312
1	0xbd307a51	-0.0430854
2	0x3ea09647	0.31364653
3	0x3dee4988	0.11635119
4	0x3f553683	0.83286303
5	0x3e046372	0.1292856
6	0x3e322679	0.17397489
7	0x3c7ae170	0.015312538
8	0xbdb8dec8	-0.09026867
9	0xbd9f4fbb	-0.07778879
10	0x3f424c04	0.7589724
11	0x3c299c7c	0.01035225
12	0x3f69887b	0.9122388
13	0x3c0f7516	0.008755943
14	0x3f2eb325	0.682421
15	0x3f74040a	0.95318663
16	0xbd0a0289	-0.033693824
17	0x3b3b82d3	0.0028611913
18	0xbd35e50e	-0.044407897
19	0x3da70c41	0.08156634
20	0x3cec8d6c	0.028876029
21	0xbd849bb4	-0.064750105
22	0x3e66db0e	0.225445
23	0x3dc0f907	0.09422498
24	0x3e37f192	0.17963246
25	0x3fba146d	1.4537483
26	0xbd53eca7	-0.05173936
27	0x3f2dc9fb	0.6788632
28	0xbdcb9ba3	-0.09941795
29	0x3e894c7f	0.26816174
30	0x3d46d768	0.04854527
31	0x3db6b48e	0.08921157
32	0xbddf1fe1	-0.10894752
33	0x3f238211	0.6387034
34	0x3de63c36	0.11241953
35	0xbcab2705	-0.02089263
36	0x3f625584	0.88411736
37	0xbd868bce	-0.065696344
38	0xbdcda4e6	-0.100412175
39	0x3e8f97b5	0.2804543
40	0x3e958439	0.2920244
41	0x3def449e	0.116830096
42	0x3f6aaac7	0.91666836
43	0x3e5f6a7a	0.21817961
44	0xbdbe841d	-0.09302542
45	0x3e078e58	0.13237894
46	0x3e2bb991	0.16770007
47	0xbd2113f2	-0.039325662
48	0x3d6704b6	0.056400977
49	0x3d6fc659	0.05853877
50	0x3e764c45	0.24052532
51	0x3de991c6	0.11404757
52	0xbde1d34b	-0.11026629
53	0x3f098156	0.53712976
54	0xbdd9bcf4	-0.10631743
55	0x3e6d8a00	0.23197174
56	0x3f5ae7b3	0.85509795
57	0x3f8647b8	1.0490637
58	0x3db4cbcd	0.088279344
59	0x3f99b7ca	1.2009213
60	0xbd6eac66	-0.05826988
61	0x3e6fa7eb	0.234039
62	0xbd5d1857	-0.05397829
63	0x3cea81fa	0.02862643
64	0xbdab0bad	-0.08351836
65	0x3f65773c	0.8963506
66	0x3f786f68	0.9704499
67	0x3ede35d4	0.43400443
68	0x3e7d97e8	0.24764979
69	0xbee53528	-0.44767118
70	0x3e88f33c	0.26748073
71	0xbed0379b	-0.40667424
72	0x3dcb766f	0.09934699
73	0x3f8a8320	1.0821266
74	0x3e614b7a	0.22001448
75	0x3d0816ba	0.0332248
76	0xbd253f48	-0.040343553
77	0x3e397772	0.18111971
78	0x3cbc1ea7	0.022963835
79	0x3e8fe246	0.2810232
80	0xbacc7e49	-0.0015601601
81	0xbe4cb9f3	-0.19992809
82	0x3f59b340	0.8503914
83	0xbd1d2121	-0.038361672
84	0xbd874367	-0.06604653
85	0xbc52f4a0	-0.012875706
86	0xbdb861d3	-0.090030335
87	0xbd9db592	-0.077006474
88	0xbd88aac8	-0.06673199
89	0x3e32a878	0.17447078
90	0xbdf9bc77	-0.1219415
91	0xbe318121	-0.17334415
92	0x3f01c8da	0.506971
93	0xbe8c6727	-0.2742245
94	0xbe27e312	-0.16395214
95	0xbd830573	-0.06397524
96	0x3f2097aa	0.6273142
97	0xbd3e841d	-0.04651271
98	0xbd1587cb	-0.036506455
99	0x3f267ffc	0.6503904
100	0xbd71bd90	-0.05901867
101	0x3c5720b6	0.0131303575
102	0xbd56945a	-0.052387573
103	0x3f8a535c	1.0806689
104	0x3e4e707b	0.20160095
105	0xbd8fca27	-0.070209794
106	0x3da156f5	0.07877914
107	0xbd668e3f	-0.056288
108	0x3dc253c4	0.09488633
109	0xbdb796a7	-0.089642815
110	0xbd90a5c7	-0.070628695
111	0xbd1eea2b	-0.03879754
112	0xbd68c4a9	-0.056828175
113	0xbf11e2f4	-0.5698693
114	0x3e5e8b70	0.21732879
115	0x3ec5f513	0.3866354
116	0x3ed158cd	0.40888062
117	0x3dee816d	0.1164578
118	0xbdb2b88b	-0.08726605
119	0xbdf39a22	-0.11894633
120	0xbd6968b9	-0.056984637
121	0xbf94f0d9	-1.1636001
122	0xbc680320	-0.014160901
123	0xbe17d1bd	-0.14826103
124	0xbcd61b41	-0.026136043
125	0x3e93af2b	0.2884458
126	0xbdc5db0b	-0.0966092
127	0xbd3b114a	-0.045670785
128	0xbddf3369	-0.108984776
129	0x3f45cd55	0.77266437
130	0x3f61e33a	0.88237345
131	0xbdd5f049	-0.104462214
132	0xbd15a323	-0.036532532
133	0xbd69a352	-0.05704052
134	0x3e692f21	0.22771885
135	0x3e791471	0.24324204
136	0x3f6c89db	0.9239785
137	0x3f84963b	1.0358347
138	0x3ee0d5df	0.4391317
139	0x3ca0ce8c	0.01962974
140	0x3ead2f4b	0.33825144
141	0xbdcd978a	-0.100386694
142	0xbeb944fc	-0.36185443
143	0xbd6169d3	-0.055032562
144	0xbdd4fa30	-0.10399282
145	0xbcd91ccc	-0.02650299
146	0xbc3e2a45	-0.0116067575
147	0xbceaf343	-0.02868045
148	0xbda63949	-0.08116395
149	0xbda4722c	-0.08029589
150	0x3ee0cfdf	0.43908593
151	0x3effac51	0.49936154
152	0xbee1c7a1	-0.44097617
153	0x3e2c636e	0.16834804
154	0xbdc38949	-0.095476694
155	0xbd83f7a4	-0.06443718
156	0x3e90471f	0.2817926
157	0x3ecf2620	0.40458775
158	0x3e08632b	0.1331908
159	0xbf9d4ede	-1.2289693
160	0xbcf0bfa8	-0.029388264
161	0xbd36eeaf	-0.04466122
162	0x3f7f83fe	0.9981078
163	0xbc943bc2	-0.018094901
164	0x3f310b7e	0.6915816
165	0x3f3960ed	0.7241352
166	0xbc538ee7	-0.012912489
167	0x3f9adce7	1.2098664
168	0xbd22f556	-0.03978475
169	0x3f548e36	0.83029497
170	0x3f120880	0.5704422
171	0xbd812c67	-0.06307297
172	0x3dc3c35a	0.09558745
173	0x3edbfe00	0.42967224
174	0x3e342fbc	0.17596334
175	0x3f59d511	0.8509074
176	0x3e89d197	0.26917717
177	0x3e3b965f	0.18319081
178	0xbd786c86	-0.06065037
179	0xbdc81945	-0.09770445
180	0xbd6e2b7d	-0.058146942
181	0x3e78a314	0.2428096
182	0x3ea00b2c	0.31258523
183	0x3d3bb172	0.045823522
184	0xbe1bdce8	-0.15220988
185	0x3f92eda6	1.1478775
186	0x3e8f01b2	0.2793098
187	0x3f525f0e	0.8217629
188	0xbdb732be	-0.08945225
189	0x3e98e234	0.2986008
190	0x3ebbebd9	0.36703375
191	0x3ee68bb2	0.45028454
192	0xbde3f62d	-0.11130939
193	0xbca6dd59	-0.020369219
194	0x3f49f6b2	0.7889205
195	0x3dca1d78	0.09868902
196	0xbd0510e5	-0.032486815
197	0x3e391860	0.18075705
198	0x3e69f91c	0.22848934
199	0x3cc70fa4	0.02429945
200	0xbe97ba26	-0.29634207
201	0x3ebc136c	0.36733568
202	0xbdb8dec8	-0.09026867
203	0x3f1f6418	0.62262106
204	0x3e98ca9a	0.29842073
205	0x3e52d1e4	0.2058788
206	0xbda389c6	-0.079852626
207	0x3f929e0f	1.1454486
208	0x3ca58d68	0.02020903
209	0x3f761229	0.9612146
210	0xbd8bbfda	-0.06823702
211	0xbccde5aa	-0.025133926
212	0x3cb3fcc4	0.021971114
213	0xbd582a9b	-0.052775007
214	0x3ec78133	0.3896576
215	0xbddb1c85	-0.10698799
216	0x3de1f9b2	0.11033954
217	0x3e762a82	0.24039653
218	0x3ea626ab	0.32451376
219	0x3e3475dc	0.17623085
220	0x3d454c5a	0.048168518
221	0xbcf8783e	-0.030330773
222	0x3c7422fd	0.01490092
223	0xbed5e887	-0.41778967
224	0xbd7c1609	-0.06154445
225	0x3d0cc192	0.03436429
226	0x3e38d55d	0.18050142
227	0xbda863fb	-0.08222195
228	0x3ed27688	0.41106057
229	0x3daac07a	0.08337493
230	0x3f1b403b	0.6064488
231	0x3d789146	0.06068542
232	0xbc9cf629	-0.019160347
233	0x3f7eee57	0.9958243
234	0x3f15ab0d	0.5846413
235	0xbef4bacd	-0.47798768
236	0x3f2310a6	0.6369728
237	0x3e8b038e	0.2715115
238	0x3c784576	0.0151532795
239	0x3e25f86d	0.16208048
240	0x3e2026b7	0.15639769
241	0xbdf4af7b	-0.11947533
242	0x3f5ce02b	0.86279553
243	0x3f8205a7	1.0157975
244	0x3dd20798	0.10255355
245	0xbd8df25c	-0.06930992
246	0x3e194c8a	0.14970604
247	0xbd727911	-0.05919749
248	0xbde9a3f0	-0.11408222
249	0xbd33c22c	-0.04388635
250	0xbb4d5522	-0.003133126
251	0xbbb7f080	-0.0056133866
252	0x3e401f75	0.18762
253	0xbc0b3722	-0.008497031
254	0xbddeb668	-0.10874635
255	0x3dade2c1	0.084905155

linear3.weight f4 [1, 256]
0	0x3fd9079b	1.6955446
1	0x3c9d2509	0.019182699
2	0xc009d84e	-2.1538272
3	0xc01d12db	-2.4542758
4	0x3e44c3f1	0.1921537
5	0xc03d4d11	-2.9578288
6	0x3fcb62d9	1.5889541
7	0x3bacf00e	0.00527764
8	0x3c98b44d	0.018640662
9	0xbc096e18	-0.008388065
10	0xbcf6e7c5	-0.030139813
11	0xbd160c9b	-0.036633115
12	0x3e2a0fa2	0.16607526
13	0x3cbfff06	0.023437034
14	0xbfd6cbe6	-1.6780975
15	0xc00f644f	-2.2404974
16	0xbc62969c	-0.013829853
17	0xc04fc5d5	-3.2464497
18	0x3cb69ca7	0.022291495
19	0xc03d78fb	-2.960509
20	0x3cfcba1a	0.030850459
21	0x38d294e6	0.00010041315
22	0xc05d3dca	-3.4568963
23	0xbcfa02c7	-0.030518902
24	0xbfaa088d	-1.328386
25	0x3fa9fe83	1.3280796
26	0xbb57309a	-0.0032835365
27	0xbfb44ca7	-1.4085892
28	0x3f7c52db	0.9856393
29	0xbf8cd389	-1.1002055
30	0xc047c14d	-3.1211731
31	0x3f9817fc	1.188232
32	0xbbf72c35	-0.0075431117
33	0x3f3c7b81	0.7362595
34	0xbf96bc63	-1.1776241
35	0xbcefd15f	-0.02927464
36	0xc010290a	-2.2525048
37	0xbcdaab3d	-0.02669298
38	0xc0368680	-2.8519592
39	0xc05bc4f9	-3.4338973
40	0x3fc19b88	1.5125589
41	0xc01a3b3b	-2.4098651
42	0x3ebae129	0.3649991
43	0xc055efe4	-3.3427668
44	0xbc6cb47c	-0.014447328
45	0xc022b2a2	-2.542153
46	0xbf6e0e88	-0.9299092
47	0xc00fcae0	-2.2467575
48	0xc027671c	-2.6156683
49	0x3faf32e0	1.3687401
50	0xbff322c0	-1.899498
51	0xbfa3d428	-1.279912
52	0x3c624493	0.013810295
53	0x40003e11	2.0037882
54	0xbc089740	-0.008336842
55	0xc00962d8	-2.146658
56	0xc0044eb2	-2.0673032
57	0x3e9668ff	0.2937698
58	0xbf0a6049	-0.5405317
59	0xc09635f9	-4.6940885
60	0xbccb5d38	-0.024824724
61	0xc024fd81	-2.5779727
62	0xbd006979	-0.031350587
63	0x3c61a083	0.013771179
64	0xbcfab290	-0.030602723
65	0x3e9e9518	0.30973125
66	0x3fa25a5e	1.2683828
67	0x40495d44	3.1463175
68	0xc0093474	-2.1438265
69	0x4158c99e	13.549223
70	0xc04ecffb	-3.2314441
71	0xbf2121a5	-0.6294196
72	0xc0a03b42	-5.0072336
73	0x3e9fa77b	0.31182465
74	0xbf707b0a	-0.9393774
75	0xc03ef999	-2.9839842
76	0xbc986a15	-0.018605271
77	0x40017866	2.0229735
78	0xc02ecf31	-2.731396
79	0xc008703a	-2.1318498
80	0x3cec5e8c	0.028853677
81	0xc0111e7d	-2.2674859
82	0x3df1c141	0.118044384
83	0x3bdf1fe1	0.00680922
84	0x3d7d371a	0.061820127
85	0x3b8871ef	0.0041639726
86	0xc01d38b6	-2.4565864
87	0xbcdace65	-0.026709745
88	0x3b807d01	0.0039211516
89	0xc0328d99	-2.7898924
90	0x3cfee8b4	0.03111682
91	0xc0810fb4	-4.033167
92	0xc029eb5d	-2.6549904
93	0x411516b0	9.318039
94	0x3c18b44d	0.009320331
95	0xbd451f8b	-0.048125785
96	0xc06c0839	-3.6880019
97	0x3cf0db00	0.029401302
98	0xbc1b2937	-0.009470276
99	0xbfea9585	-1.832688
100	0x3c927a88	0.017880693
101	0xbffc8db7	-1.9730748
102	0xbc59a96b	-0.013285021
103	0x3f4fcc87	0.8117146
104	0xc01a7b98	-2.4137936
105	0x3cc59314	0.024117984
106	0xbfedda24	-1.8582196
107	0xbced3565	-0.028956125
108	0xbf9529ed	-1.165342
109	0xbcfc44e9	-0.030794578
110	0xbcd5f819	-0.026119279
111	0x3cd1393d	0.025539989
112	0x3cf58654	0.02997128
113	0x40958f62	4.673753
114	0x3acd60da	0.0015669123
115	0xbfd1ce4b	-1.6391081
116	0x3f083564	0.5320647
117	0xc03facfd	-2.9949334
118	0x3c758e24	0.014987502
119	0x3c9f8283	0.019471413
120	0x3c1ab7ef	0.009443267
121	0xbfa7150a	-1.3053296
122	0x3fc5d823	1.5456585
123	0x3cb87d20	0.022520602
124	0x3bf130f0	0.00736057
125	0xbff3f84d	-1.906015
126	0x3cbf7e1e	0.023375567
127	0x3d01ec32	0.031719394
128	0xbcf14c48	-0.029455319
129	0xbca8d5c0	-0.020609736
130	0x3de821a4	0.113345414
131	0xbc125760	-0.008931965
132	0xbccb1ad0	-0.024793059
133	0xb9833c23	-0.00025031072
134	0xbf9ed46e	-1.2408578
135	0xc01651bb	-2.3487384
136	0xc04d54a7	-3.2082918
137	0xc02811d6	-2.6260886
138	0xc037e9dd	-2.873649
139	0xbed02f9c	-0.40661323
140	0xc02506ee	-2.578548
141	0x3c958f9b	0.018256953
142	0x410b33b5	8.700124
143	0xbc11ede8	-0.008906819
144	0xbcb479c5	-0.02203072
145	0x3c857675	0.016291836
146	0x3baaf055	0.005216638
147	0x3cdfc7d9	0.027316974
148	0xbca3475e	-0.019931491
149	0x3cbe7e64	0.023253627
150	0x4021508f	2.520542
151	0xbf87e3f0	-1.0616436
152	0xbf7e3a56	-0.99307764
153	0xbc8a6c01	-0.016897203
154	0x3c3617d6	0.011114081
155	0xbc7e0623	-0.015504393
156	0xc04f9028	-3.2431736
157	0xc0494a7e	-3.1451716
158	0xc0546a97	-3.3190057
159	0xbf11a5b3	-0.5689346
160	0x3c4e04ea	0.012574414
161	0x3c79dbb7	0.015250138
162	0xc03cee0a	-2.9520288
163	0xbf0cf85b	-0.5506646
164	0xc0adcc41	-5.4311833
165	0x3baa7ec5	0.0052031004
166	0xbbb6891f	-0.0055705453
167	0xc0809334	-4.017969
168	0xbcbdbce5	-0.023161361
169	0x3f6bee2a	0.92160285
170	0x3e41084c	0.18850821
171	0xc00c492e	-2.1919665
172	0xc03bf83e	-2.9370265
173	0x3f931ed1	1.149378
174	0xc05a9020	-3.4150467
175	0x3f2c107a	0.6721264
176	0xbfeb5dab	-1.838796
177	0xc00d2223	-2.2052085
178	0xbcddc820	-0.027072966
179	0xbc1e2ea9	-0.009654679
180	0x3cff793c	0.031185739
181	0xc0559bd8	-3.337637
182	0x3fd81856	1.6882427
183	0xbf2ccce5	-0.67500144
184	0x3ce3427c	0.027741663
185	0x3e9762c6	0.29567546
186	0xc03c228a	-2.939608
187	0xbffabfdc	-1.9589801
188	0x3f82b9f9	1.0213004
189	0xc015ac44	-2.3386393
190	0xc001c6a9	-2.0277503
191	0xc05f68f6	-3.4907813
192	0xbcdc0eb6	-0.026862483
193	0x3b4f50f3	0.0031633943
194	0x3f473c5f	0.77826494
195	0xc0028ac0	-2.0397186
196	0xbce53a66	-0.027981948
197	0xc003de68	-2.0604496
198	0xc0890a09	-4.282475
199	0xbcd61371	-0.026132317
200	0xbf524c17	-0.82147354
201	0x401b9a63	2.431298
202	0x3cc5851b	0.024111321
203	0xc0839f1b	-4.113172
204	0xc003d291	-2.059727
205	0xc020e0a2	-2.5137105
206	0xbce4d4d6	-0.02793352
207	0x3ebfee75	0.37486616
208	0x3b989cdd	0.0046573714
209	0x3de7d7e5	0.113204755
210	0x3bf109e0	0.0073559135
211	0xbd0e5405	-0.034748096
212	0xbede77e8	-0.43450856
213	0xbeea2ff2	-0.45739704
214	0xc0390e6c	-2.8915052
215	0x3b1e26da	0.0024132044
216	0x3f9e90d3	1.2387947
217	0xc0320a26	-2.7818694
218	0xc08191bc	-4.04904
219	0xbf7f2733	-0.9966919
220	0xc03bebb4	-2.9362612
221	0xbbbd5f24	-0.005779164
222	0xc01276d4	-2.2885027
223	0xbebd6146	-0.36988276
224	0x3cd338f7	0.025783999
225	0x3f3ca7ce	0.7369355
226	0x3f73466a	0.9502932
227	0xbce1cb7b	-0.027562847
228	0x4001b858	2.0268764
229	0xc03fd83c	-2.997573
230	0xc010120d	-2.2511017
231	0xbfdcadfa	-1.7240593
232	0xbccf4d0b	-0.025305292
233	0x3f5f0354	0.87114453
234	0x401ca67d	2.4476616
235	0xbf1cacce	-0.6120118
236	0x3f8d3f0c	1.1034865
237	0xc00f9276	-2.2433143
238	0xbf006591	-0.5015498
239	0xc02e1506	-2.7200332
240	0xbf867724	-1.0505109
241	0x3c3a2ad2	0.011362748
242	0xc0658dd7	-3.5867822
243	0x3e4c4042	0.19946387
244	0xc003f936	-2.0620856
245	0xbcb1800a	-0.0216675
246	0xc00f1b1b	-2.2360294
247	0x3cf27141	0.02959502
248	0xc0028da4	-2.039895
249	0xbc2f2a60	-0.010691255
250	0xbcbad6b2	-0.022807453
251	0xbbceef4b	-0.006315147
252	0xbf86a0ac	-1.0517783
253	0xbc3e1aa5	-0.011603032
254	0x3c1944d6	0.009354791
255	0x3fbe5109	1.486848
