turtlebot3_rl_sim/src/models/td3/turtlebot3_top_4_obstacle/td3_actor_model_ep2500.pt (torch_old, 658470 bytes, 6 tensors)

linear1.weight f4 [256, 382]
000000 25 07 02 bd 23 ab 6f bd 1c 0f 0c 3d db 63 68 bd
       -0.031745095 -0.058512818 0.034194097 -0.056735855
000010 d6 31 9d bc c1 2f d0 3c b3 76 78 3c e2 c0 e2 3c
       -0.019188803 0.025413396 0.015165019 0.027679864
000020 aa 78 ea 3a 83 bf 69 bd 42 fe ea 3c 05 75 9d 39
       0.0017888744 -0.057067405 0.028685693 0.0003003256
000030 50 93 48 3c a5 e1 1a 3b df 42 2c bd 37 f2 24 bd
       0.012242153 0.002363303 -0.04205596 -0.040270057
000040 dd b4 80 bc 16 30 96 bc f5 79 9e 3b 43 9a 6a bd
       -0.015711242 -0.018333476 0.0048363158 -0.05727602
000050 a9 da 49 bd da 33 57 bc 1a ee 6b 3c d5 e0 9d 3c
       -0.049280796 -0.013134921 0.01440003 0.019272247
000060 0c 21 f6 bc 1c 99 f5 bc 63 bc 69 bd d0 5e 3e bd
       -0.030045055 -0.029980235 -0.057064425 -0.04647714
000070 6b d5 66 bd 0c 9d 0b 3d 6b 9f 6f bd 7b fd 6a bd
       -0.056355875 0.03408532 -0.058501642 -0.057370644
000080 2d 91 1a 3c e0 c9 bb bc 98 01 bd bc a1 d8 44 bd
       0.009434027 -0.02292341 -0.023072049 -0.048058156
000090 7c 99 83 3c 6d 0e 1c 3d 94 33 72 bd 57 d5 ba 3c
       0.016064398 0.038099695 -0.05913122 0.022806806
0000a0 0f f1 2f bc 0c fb 0c 3b 6d 1e 11 3d 0b 18 eb bb
       -0.010738625 0.002151194 0.035429407 -0.007174497
0000b0 3a f3 da bc 89 25 d6 3c 2e 4b 15 bd 76 15 03 bd
       -0.026727308 0.026140945 -0.03644865 -0.03200289
0000c0 2c 84 7f bc 46 b4 20 3d 37 98 33 3c c5 7b 06 bd
       -0.015595477 0.039234422 0.010961584 -0.03283288
0000d0 ec 4d 07 3d cc 62 83 3c 27 2e ba 3c 05 d9 1d 3d
       0.033033296 0.016038321 0.022727085 0.038537044
0000e0 0f c0 33 3c e8 b1 3c bd 5f 4b 35 3c 8e 05 1e bd
       0.010971083 -0.046068102 0.011065333 -0.038579516
0000f0 8d ed 88 bb d0 d5 a6 bc 55 62 17 3d 00 6d b2 bc
       -0.004178709 -0.020365626 0.03695901 -0.02178049
000100 6f 2b 2c bc ce 55 9a bc ff d1 36 3c 96 82 9b bc
       -0.010508402 -0.018839743 0.011158465 -0.018983167
000110 37 e0 27 bd 38 1a 48 3c 58 bd be bb 2d bf 8a bc
       -0.040985312 0.012213282 -0.0058209114 -0.016936863
000120 a2 3a d6 bb 92 35 61 3c f7 e0 aa bc 24 9f 71 bd
       -0.0065377513 0.013745682 -0.020859225 -0.05898966
000130 65 e9 87 bc 2d dd 05 bd b3 93 6f bd cd f8 9c 3c
       -0.016590783 -0.032681633 -0.058490466 0.019161606
000140 e4 85 f0 bc ae fa 97 bc 5e fb 20 3a cf 8f 21 bd
       -0.029360719 -0.01855215 0.0006140972 -0.039443787
000150 f4 0f 06 3d fb 61 6d bd e2 4c 54 bd 98 2c ba ba
       0.032730058 -0.05795477 -0.051831134 -0.0014203964
000160 de ac 2b 3c 05 b0 8f bc 07 b7 2b bd 74 dd 83 3c
       0.0104782265 -0.017539987 -0.041922595 0.016096808
000170 a9 ac c0 bc 14 15 8e 3c 37 6b 2e bd d4 d9 01 3c
       -0.02351983 0.017344035 -0.042582717 0.007925469
000180 6f 61 23 bd 47 72 ab bc 6e 7f 9e bc dc f0 0f 3d
       -0.03988784 -0.020928515 -0.019347873 0.03514181
000190 b9 e0 42 bc 32 54 d2 bc 82 a0 6a 3c b9 e0 42 bc
       -0.011894398 -0.025674913 0.014320495 -0.011894398
0001a0 d2 1f 6e 3c 63 31 7c 3c 69 fa cb bc 49 71 40 bd
       0.014533954 0.015392634 -0.024899678 -0.046983037
0001b0 01 9f cb bc 6f 94 a7 bb e4 5d ff b9 31 31 43 bc
       -0.024856092 -0.00511413 -0.00048707344 -0.011913584
0001c0 6d 5d 13 3d 3e 88 22 3d f3 52 66 bd eb a9 67 bd
       0.03597777 0.039680712 -0.05623145 -0.05655853
0001d0 4c 84 73 bc f6 d0 1c bd a0 7e 3a bd 8c f0 7b bd
       -0.014863085 -0.03828522 -0.045530915 -0.0615087
0001e0 48 f8 cf 3b 1e 41 a5 3c c1 8b 49 bc 30 4d 36 bd
       0.006346736 0.020172652 -0.012301386 -0.044507205
0001f0 df cf ba 3b eb f3 63 bc f5 b7 03 bd 63 0c e5 bc
       0.0057010497 -0.013913135 -0.032157857 -0.027960008
000200 bc b6 7b bd b6 ee 16 bd 7e 52 13 bd 25 0c 16 3c
       -0.061453566 -0.036848746 -0.035967343 0.009158169
000210 9a 65 56 bd 4c cf 0c 3c 5a 23 80 3c b3 1b ea bc
       -0.05234299 0.008594345 0.015641857 -0.028577661
000220 5f 29 aa bc 56 de 13 bd e3 68 f9 3b ae fc 1f bd
       -0.02077168 -0.036100708 0.0076113804 -0.039059334
000230 b6 00 14 bc 2d 46 01 bd 78 31 c1 3c 73 14 66 bd
       -0.009033373 -0.031561065 0.023583159 -0.056171846
000240 9e a3 1f bd 31 8e c0 bc 79 33 49 ba 23 b2 f2 3c
       -0.038974397 -0.023505302 -0.00076752115 0.029625958
000250 ed 8d 0d bc 59 bf 46 bd 9a e7 d1 bb 8c ee 73 bd
       -0.008639795 -0.048522327 -0.006405783 -0.059553668
000260 dd 9e 0c bd a8 ee 35 bd f1 e0 5f 3c ad ec 11 3d
       -0.03433119 -0.044417053 0.01366447 0.035626102
000270 51 a3 d6 3c 61 ac 5b 3c eb bc 68 bd 6b 38 63 bd
       0.026200922 0.013407798 -0.05682079 -0.055473726
000280 b8 13 c7 3b ad 10 0c bc 46 47 95 bc ac 3b 70 bd
       0.0060753487 -0.008548898 -0.018222462 -0.058650658
000290 df 36 2e bd 07 96 a4 bb c9 65 5d 3c 58 3f 3a bd
       -0.042532798 -0.0050227675 0.013513037 -0.045470566
0002a0 65 ef 9f 3c 36 2e 1b bc ad 83 16 3d b2 d1 54 bd
       0.019523332 -0.009471467 0.03674667 -0.051957794
0002b0 55 5a 10 3d 6c 2f 0a 3d 4d b9 98 3b 20 f6 3d bc
       0.035242397 0.03373663 0.0046607614 -0.011594325
0002c0 e8 e4 40 3c 46 3a 93 ba bf 48 b7 3c de 17 2f 3c
       0.0117733255 -0.0011232577 0.022373555 0.010686843
0002d0 a3 f9 64 bd f1 f7 d7 3b 3b 32 76 3c 6e 42 24 3c
       -0.055902135 0.006590836 0.015026624 0.010025604
0002e0 bc 91 fd ba be 00 2a 3c 56 36 16 bd 0a 45 57 bd
       -0.00193458 0.0103761535 -0.036672913 -0.052556075
0002f0 e0 78 3c bd af b1 b8 3c 44 5d 09 3c 5e 04 93 bb
       -0.046013713 0.022545664 0.008384053 -0.0044866046
000300 50 87 31 bc 18 b1 3f bd a7 d0 3a 3c 15 08 8c bb
       -0.010835484 -0.04679975 0.011402286 -0.0042734244
000310 69 8c d5 3c 38 cb 37 bc 32 3b 52 bd c6 e5 b7 3b
       0.02606793 -0.011217885 -0.051325984 0.005612108
000320 03 22 64 bb 4a cd eb 3c 9e 95 99 bb 40 a4 47 3c
       -0.0034810312 0.028784413 -0.004687025 0.012185156
000330 14 42 7a bd 01 e9 47 bd da e0 e8 3b 86 59 13 bd
       -0.061098173 -0.048806194 0.0071068825 -0.035974048
000340 65 c9 04 bd 53 bf 62 bd 7f a8 26 bd 4c f9 05 3d
       -0.032418627 -0.055358242 -0.040688034 0.03270845
000350 e5 83 81 b9 42 11 d3 bc 06 46 29 3c 5b b3 e1 bc
       -0.00024703066 -0.025765065 0.010331636 -0.027551344
000360 bc 76 f5 bc 4b d4 ee bc 8f d9 35 3c 54 59 0c 3d
       -0.029963844 -0.029153964 0.011099233 0.034264877
000370 0b c5 e3 bc fa 26 e2 3b 18 78 3c bd 5b 4f fa 3c
       -0.027803918 0.006901619 -0.046012968 0.030555418
000380 84 76 f1 bb 03 c4 e2 bc 96 49 18 bd 9e 3b a8 3c
       -0.0073688645 -0.027681356 -0.037179552 0.02053624
000390 25 01 1c 3c c8 41 4a 3c 96 c0 19 bd ce 22 16 bd
       0.009521757 0.012344785 -0.03753718 -0.036654286
0003a0 52 01 58 bd 68 bc b4 bc 93 fb f2 3c ae 56 aa 3c
       -0.052735634 -0.022062495 0.029660976 0.020793285
0003b0 69 c6 43 bd 47 2c bf 3c 9d 13 1e 3c 69 e7 ca bb
       -0.04779664 0.023336543 0.009648231 -0.006192137
0003c0 65 aa 9e 39 c4 a2 8c 3c 01 98 c8 bc e2 db ea 3a
       0.00030263062 0.017167456 -0.024486544 0.0017918313
0003d0 27 2b 2e bd 5a 1b 59 bd 0c cc ff bc ba 6a 5e bd
       -0.042521622 -0.0530046 -0.031225227 -0.054301
0003e0 00 de cd 3c e5 ae 17 3c b8 b0 31 bd 08 b6 c0 3c
       0.025130272 0.009258007 -0.043381423 0.0235243
0003f0 75 35 06 bd e5 b4 16 3c aa 09 57 bc 2a e4 56 bd
       -0.032765824 0.009198402 -0.013124863 -0.052463688

linear1.bias f4 [256]
000000 6a 10 59 bc 0e 40 a7 3b c7 3d ba 3c cb fd fe 3b
       -0.013248542 0.0051040715 0.022734536 0.0077817193
000010 a3 d2 77 3c f1 9d 4d bd bb 14 fd 3c 56 fc a7 3c
       0.015125903 -0.050199453 0.030893674 0.020506065
000020 e4 f7 76 bb 64 b3 77 bd 2e 35 21 3d 80 ce aa 3c
       -0.0037684375 -0.060473815 0.039357357 0.02085042
000030 89 b6 db 3a 99 a5 5c 3b 88 5d 09 bd a0 cf 89 3b
       0.0016762774 0.003366804 -0.033536464 0.004205659
000040 6a a6 59 bb 1d 1b 0a bd a9 48 40 bd 59 a6 46 bd
       -0.0033210763 -0.033717263 -0.046944294 -0.048498485
000050 23 56 00 bd d8 a1 34 bd fa 81 d7 bc 47 e4 31 3c
       -0.031332146 -0.04409966 -0.026307095 0.010857648
000060 3a aa e2 3c 59 1e cc bc 80 0d c4 3c ec e3 07 3d
       0.027669061 -0.024916815 0.023932219 0.033176348
000070 ee 6f 12 bb 5a aa ef 3c 48 e4 31 bd 06 f1 19 bd
       -0.0022344547 0.029256035 -0.043430597 -0.037583373
000080 20 7e aa 3a 57 ca 27 bd 3d 8c 19 3d 18 c5 24 bd
       0.0013007559 -0.04096445 0.037487257 -0.040227026
000090 f8 43 c0 3c 6e 37 aa 3c fb 71 62 bb 2c 7b 74 ba
       0.02346991 0.020778384 -0.00345528 -0.00093262154
0000a0 3a 94 c9 3c 72 e7 d1 3c e6 0b 95 bb 7d e5 07 bd
       0.024606813 0.025623057 -0.0045485375 -0.03317784
0000b0 d4 aa 8d 3c e7 c7 30 3d 4c b9 ff bc 5a dc a5 3c
       0.017293371 0.04315939 -0.031216286 0.020246673
0000c0 12 93 00 3c 0e 1b a9 3b f4 80 67 bc 17 ac ab bc
       0.007847564 0.005160696 -0.014129866 -0.020956082
0000d0 77 d4 aa bc b8 a9 47 3c de f0 28 3d 96 81 97 bc
       -0.020853264 0.01218646 0.041245334 -0.018494409
0000e0 06 b7 92 bc 0e 55 97 bc 6d 2d 0f 3d c8 df 38 bd
       -0.017909538 -0.018473174 0.03495543 -0.04513529
0000f0 ab fe 91 bb 35 2a 8b bc de 29 13 bd 0e b6 a4 39
       -0.0044554076 -0.0169879 -0.0359286 0.0003141616
000100 d1 77 d7 3c 17 35 2a bd 11 7c 4f bd 1a ee eb 3c
       0.02630225 -0.041554537 -0.05065543 0.02880006
000110 69 d5 4d bd d6 fb 25 3b c9 e2 dd 3a 1f 69 2f bd
       -0.050252352 0.0025327108 0.0016928549 -0.04282486
000120 77 d8 ba 3b 1c 86 8d 3c c4 5c 87 38 11 e7 d2 3b
       0.005702074 0.017275862 6.4545806e-05 0.0064362367
000130 2a 03 d6 bc 51 c6 4c bd 28 30 c2 3c 8b de fe 3c
       -0.026124556 -0.049993817 0.023704603 0.031111976
000140 75 39 96 3c 4a c6 e8 3c a0 4f c6 3c 45 dd 95 3c
       0.018337945 0.028414864 0.02420789 0.018293986
000150 64 03 8c 3c dd af 9e 3c ca f3 56 bd 67 6c 39 3a
       0.01709146 0.019370968 -0.05247859 0.0007073343
000160 7a 61 d0 3c bc 9e 78 3c a4 d6 07 3d 80 21 6d ba
       0.025437105 0.015174564 0.03316368 -0.00090458244
000170 8c e6 05 3d 59 26 d3 3b 05 17 83 bd d5 d1 93 3c
       0.03269057 0.0064437804 -0.06400875 0.018044392
000180 0d 50 03 bc 89 d6 c5 bb b4 f1 33 bc b4 70 7c 3d
       -0.008014691 -0.0060375375 -0.0109829195 0.06163092
000190 fd db 93 3c 34 da 8f 3b fd be 83 bc 82 64 db bc
       0.018049235 0.0043900255 -0.016082281 -0.026781324
0001a0 76 46 18 bd fe 23 a1 3c 96 32 20 3b e2 37 e4 3b
       -0.03717657 0.019670483 0.0024444214 0.0069646696
0001b0 a2 56 62 3c 42 d7 4a 3d f4 b5 b3 3d db d2 62 bd
       0.0138146 0.049521692 0.08774939 -0.05537687
0001c0 ae 63 ac 3c 65 63 15 3b 1b d6 ef bb 39 4b 44 bd
       0.021043625 0.002279484 -0.0073192245 -0.0479233
0001d0 c9 2f 4d bd a2 61 dc bc d8 66 c2 3c bd 7f 99 3b
       -0.0500944 -0.026902024 0.02373068 0.004684417
0001e0 fd 79 02 bb 9b af 6b bc 87 0f 30 3d 0c c7 04 3d
       -0.0019909136 -0.014385129 0.042983558 0.03241639
0001f0 8d 2e 00 bd 2e 60 4d 3d 6e 1b 1e bb f6 8c 1f bd
       -0.031294394 0.050140552 -0.0024125236 -0.03895279
000200 29 c6 5b 3c c1 53 ca bc db 13 ed bc 86 c5 9a bc
       0.013413944 -0.02469814 -0.028940132 -0.018893015
000210 de 2b 9b bc 18 4d 3f bd 34 d5 7b bd 59 e4 44 bd
       -0.018941816 -0.04670438 -0.061482623 -0.04806933
000220 c5 2e 97 3c 5e 98 a4 3c e5 d2 11 3d b4 f7 08 3d
       0.018454919 0.020092186 0.035601515 0.033439353
000230 c4 dd fe bb d8 a2 4f bc 4d d8 b1 3d 4c f9 85 3c
       -0.0077779014 -0.012673102 0.08683834 0.016354226
000240 51 a2 d2 3b ae 1b f9 bc 92 e5 e5 3c b5 5e 15 3d
       0.006428041 -0.030408707 0.02806357 0.036467273
000250 03 31 ee bc 61 fd 41 bc 31 b5 46 bd 51 12 51 3c
       -0.029076105 -0.011840195 -0.04851264 0.012760715
000260 a7 7f 22 bd 2b 0f 6d bd 38 0c c2 3c 14 11 fe bc
       -0.03967252 -0.057875793 0.023687467 -0.031014003
000270 30 57 c5 3c 27 6e 27 bd f5 46 1a 3c ed d6 05 bc
       0.024089426 -0.040876534 0.009416332 -0.008168918
000280 e7 18 b0 3b f5 29 8a bc 19 93 dd 3a 10 b3 08 bd
       0.0053740623 -0.01686571 0.00169048 -0.033373892
000290 de b2 2a 3d a4 99 0d 3d 5e 84 1f bd bb 43 71 3b
       0.041674487 0.03457035 -0.038944595 0.0036814052
0002a0 d9 6e c9 bb 0f 02 a9 bc 42 0a d0 bc 2e a2 2c 3d
       -0.0061472473 -0.020630864 -0.025395516 0.042146854
0002b0 0c a5 f9 bb 66 63 95 bb 9d 46 09 bd 7e 40 94 3c
       -0.007618552 -0.0045589684 -0.033514608 0.018097159
0002c0 f2 14 e8 3a 85 f5 12 3d d4 14 8d 3c 77 29 21 bd
       0.0017706438 0.035878677 0.017221846 -0.039346185
0002d0 f7 9f 00 bc df e3 26 bc ee 13 98 bc 6a 02 ec 3c
       -0.007850639 -0.010186165 -0.01856419 0.028809745
0002e0 b2 f3 df bc b3 a0 71 3c ec c9 03 3d 95 84 0a bd
       -0.027337883 0.014747786 0.03217499 -0.033817846
0002f0 90 d0 43 3c 13 6e 7b 3c 0f 13 bb 3c 2a fd eb 3c
       0.011951581 0.015346068 0.022836236 0.028807241
000300 f2 e7 62 3c f0 c3 f1 bb 9f 6b 00 bc 33 f0 ea bc
       0.013849245 -0.007378094 -0.007838159 -0.028678989
000310 3b 18 f2 3c 77 f2 25 bd 13 4d f4 3c 10 05 4e 3c
       0.02955257 -0.040514436 0.029821908 0.012574449
000320 92 5f 5a bd 71 aa cd bc 1d 09 7e 3d 22 21 54 bb
       -0.0533138 -0.025105687 0.06202041 -0.0032368382
000330 65 f9 15 3b fe 9c aa 3b 62 ad 5f bd c8 6b c3 3c
       0.0022884246 0.005206703 -0.05460871 0.023855105
000340 4d b6 8c bc bf a7 23 bd 36 12 f8 bc 6c 25 fb bc
       -0.017176772 -0.039954897 -0.030282121 -0.030657493
000350 db 19 6c bc 3c 44 8c 3c 51 59 c1 bc 51 f0 45 bd
       -0.014410461 0.01712238 -0.02360216 -0.048324887
000360 36 53 99 ba 55 5b 14 3d 9b b6 fb 3c 54 a9 87 3c
       -0.0011697772 0.036219914 0.030726722 0.016560234
000370 be e2 88 3d 61 a1 c8 bc e5 46 87 bd 6c a6 0b 3c
       0.06683873 -0.024491014 -0.06605319 0.008523565
000380 f2 e9 51 bc 7c 9d 13 3d e6 9e a2 3c 6b 55 73 3c
       -0.012812125 0.03603886 0.01985116 0.014851908
000390 0f 39 24 bd 8e 80 16 bd b8 78 b2 bb 0d 05 83 bc
       -0.040093478 -0.036743693 -0.0054465197 -0.01599362
0003a0 c7 87 36 3b 9d 89 1b 3d c0 09 85 3a ca f4 5a bd
       0.0027851926 0.037973035 0.001015 -0.053456105
0003b0 71 81 d8 3c e6 3d 2e 3d d0 95 39 bd a0 d3 c9 3c
       0.02642891 0.0425395 -0.045308888 0.024637043
0003c0 b4 85 02 3c 4a 70 55 bd 4e 13 a3 3c af 11 29 bc
       0.007966448 -0.05210904 0.019906666 -0.0103191575
0003d0 80 4b 96 bb d4 b6 0b 3d cd 6a 8a bd 66 a2 17 bc
       -0.004586637 0.034109905 -0.06758652 -0.009255027
0003e0 70 05 43 3d 9a 8e 45 3d 1a 1d e8 bc b3 c4 eb bb
       0.047612607 0.0482317 -0.02833419 -0.0071950792
0003f0 6b ca e0 3c 27 3d 35 bd 84 29 5e bc 06 09 44 bd
       0.02744027 -0.044247773 -0.013559703 -0.047860168

linear2.weight f4 [256, 256]
000000 7e a8 4b bd c0 02 ea 3a 80 af 73 bc 28 7d d9 3c
       -0.049721234 0.0017853603 -0.014873385 0.026548937
000010 c5 8d 9c 3b 22 5e 6f bd 15 9a 15 3d c4 16 4c bd
       0.0047776424 -0.05843938 0.036523897 -0.0498264
000020 92 10 1a bd e2 72 52 3d 94 ec c4 bc 59 6b 15 3d
       -0.03761346 0.051379092 -0.02403859 0.036479328
000030 ea a4 1f bd 0b d5 f1 ba f2 35 73 3e 04 66 f6 3c
       -0.038975634 -0.0018450333 0.23751047 0.030077942
000040 14 4d e2 3c b8 65 13 3c 04 d6 bb bc 00 80 d5 39
       0.027624644 0.00899642 -0.022929199 0.00040721893
000050 7a ab 57 3d 44 cc e0 3c 1a 64 69 3b 08 dd 6f bd
       0.052653767 0.027441151 0.0035612644 -0.0585604
000060 70 31 1d 3c d6 08 3f bd 5f 49 ad bd 38 54 4f 3c
       0.009594306 -0.046639286 -0.0846126 0.012654357
000070 40 f6 8a bb d1 6d 48 3d c8 33 05 bd 88 25 29 3d
       -0.004240781 0.048932854 -0.032520086 0.04129556
000080 00 a1 fd 3c c0 81 d9 3b 00 57 50 3c d9 e7 4d 3e
       0.03096056 0.006637782 0.012716055 0.20107974
000090 9b 1d fb bc ee 44 95 3c 16 d3 98 bc 50 23 89 3b
       -0.030653765 0.018221345 -0.018655341 0.004185118
0000a0 ce 92 52 3d fc 4f 0b 3d 30 72 64 3d c8 7a d5 3c
       0.051409535 0.034011826 0.05577296 0.026059523
0000b0 72 8b e7 3c 80 df aa ba 76 26 28 3d 44 dd dc bc
       0.028264735 -0.0013036579 0.041052304 -0.026960976
0000c0 e4 0c 22 bd 38 02 6b bc 20 31 cb bb 1f 36 ab bc
       -0.039563075 -0.014343791 -0.0062009245 -0.02089983
0000d0 df d7 28 bd f8 8c 45 bc c6 51 1b 3d c2 27 4d bd
       -0.041221496 -0.012057535 0.037919782 -0.050086744
0000e0 84 e6 88 3c 34 e8 5c bd ac 91 61 bd 7c 29 13 3d
       0.01671148 -0.053932384 -0.055070564 0.035928234
0000f0 bd dd 93 bd be 34 6b bd 04 da 7b bd a9 a4 d2 3c
       -0.072200276 -0.057423346 -0.061487213 0.025713282
000100 e0 e6 d3 3c 90 82 8b 3b 62 6e 4e 3d 01 9e c7 3c
       0.025866926 0.0042575076 0.050398238 0.024367334
000110 e8 53 15 bd 24 f0 ad bc 92 1c 11 bd 1d d3 15 bd
       -0.036456972 -0.021232672 -0.035427637 -0.036578286
000120 ae c5 1f 3d 16 6f 98 bb 1a 81 00 3d 5c 5b 78 3d
       0.03900688 -0.0046519144 0.03137312 0.060634002
000130 70 8a fe 3c fe 79 1b 3d c0 a6 1b bd 5b fc 72 bd
       0.031071872 0.037958138 -0.038000822 -0.059322696
000140 5c d3 42 3d 28 90 26 bd a6 37 2e bc 88 f6 28 3d
       0.04756485 -0.040664822 -0.010633385 0.041250736
000150 29 dd 53 3d a7 54 3e 3d 48 8f 85 3c 74 64 61 3a
       0.051724587 0.04646745 0.016303673 0.00085980375
000160 f4 e8 65 bd 2b 56 ca 3e 3c 60 aa 3c 22 e8 3a bd
       -0.056130365 0.39518866 0.020797841 -0.045631535
000170 48 33 c5 bc a2 56 6b 3d 78 87 ae 3c bc 78 7d 3d
       -0.024072304 0.057455666 0.02130483 0.06188272
000180 d8 b7 19 bc 84 b3 11 bd 2e ec 61 bd 29 17 f7 3d
       -0.009382211 -0.03557159 -0.05515688 0.12064964
000190 80 9b 38 bc ac 9b db bc b7 1c a0 ba 90 32 31 3d
       -0.011267543 -0.026807629 -0.0012215589 0.04326111
0001a0 1c 66 c5 bc d8 64 29 3c 70 2c 01 bd b7 27 33 3d
       -0.024096541 0.010338984 -0.03153652 0.043739047
0001b0 e4 af 76 bd 41 8d eb 3d b8 24 0d be ca 49 45 3d
       -0.060226336 0.115015514 -0.13783538 0.048166074
0001c0 84 15 7f 3d e6 e6 96 bd 14 51 1e bd be 71 93 bd
       0.06227638 -0.07368259 -0.03865154 -0.07199429
0001d0 53 99 00 bc 7c 51 14 3d e0 05 38 3b 08 99 2c bc
       -0.007849055 0.036210522 0.0028079674 -0.010534532
0001e0 a0 9c f8 bc 0d ab 91 bc 00 78 24 bc 25 97 9c 3c
       -0.030348122 -0.017781759 -0.010038376 0.01911504
0001f0 d8 05 e8 3c d6 ac 78 bd 00 c7 ef 3b b8 9d a1 bc
       0.028323099 -0.060711704 0.007317424 -0.019728526
000200 34 b3 d8 3c 6c 23 2b bd 48 1d ab 3c ac ba 95 bc
       0.026452638 -0.041781828 0.020887986 -0.018277489
000210 04 32 14 bd 39 0d 5f bd b8 d7 6a bc 54 72 68 3d
       -0.03618051 -0.05445597 -0.014333658 0.056749657
000220 b9 b7 cd bc 16 62 16 bd 10 b5 1e 3d 60 f3 ab bc
       -0.02511202 -0.036714636 0.038746893 -0.020990074
000230 a4 bd 07 3b 90 2d 96 3b 0d 75 be be 00 ce bb 39
       0.00207124 0.004583068 -0.37198678 0.000358209
000240 00 d0 d0 b7 20 b2 1d 3d 35 e4 85 3d 38 d0 c4 3c
       -2.489239e-05 0.03849995 0.06537668 0.024025068
000250 10 08 a7 bb ba da 55 3d d4 eb ac bc 88 2d 20 3c
       -0.0050973967 0.052210547 -0.021108545 0.0097764805
000260 32 1c 64 3d ac 57 7b bd a1 f0 59 bc cc 05 61 3d
       0.05569095 -0.061362907 -0.013301999 0.05493717
000270 c0 09 4c 3d a8 3d 14 3c 9e aa 22 3b 40 13 08 3d
       0.049813986 0.009047903 0.0024820934 0.033221483
000280 a0 d6 43 3c 44 57 95 3c 84 dc b7 bc ec 79 a2 3c
       0.011953026 0.018230088 -0.022444017 0.019833528
000290 c0 b9 69 bd 38 52 c3 bc 20 06 a3 3b e0 6f e7 bc
       -0.05706191 -0.023842916 0.0049750954 -0.028251588
0002a0 00 19 1f bd ae 91 03 bd dc eb 15 3d d8 c5 39 bc
       -0.0388422 -0.032121353 0.036601886 -0.0113386735
0002b0 ee f1 62 bd 64 7a 6b 3d 4b b3 67 bd f1 15 5c 3c
       -0.055406503 0.057489768 -0.05656747 0.013432966
0002c0 84 02 e3 3c 66 a2 97 bd b8 bf 4f 3d 34 42 1d 3d
       0.02771116 -0.07404022 0.050719947 0.038393214
0002d0 8c 42 2e bd a8 51 08 bd e0 c6 86 3b 70 07 4b 3c
       -0.042543933 -0.033281 0.004113063 0.01239191
0002e0 0c 9d 72 bc 5f ed 33 3c 68 f9 78 bd 7c 05 86 bc
       -0.014807951 0.010981887 -0.060784727 -0.016360037
0002f0 ca 96 6a bd ee 9b 2c bd 90 f3 c1 bc 19 b1 09 be
       -0.05727271 -0.042140894 -0.02367571 -0.13446464
000300 88 d1 4e bd 06 fa 58 3d 6a 2e 77 bd 34 cb c0 bc
       -0.050492793 0.052972816 -0.060347 -0.023534395
000310 0e 8f 9e bc e5 16 8f 3d ec 2d ce bc 2c b6 db bc
       -0.019355323 0.06986789 -0.025168382 -0.026820265
000320 20 4d 21 bc 20 68 4f 3c f3 42 ef be 39 06 43 3d
       -0.009845048 0.012659103 -0.46730766 0.047613356
000330 3f c6 39 3c 9b f1 60 3c 2d c3 9a ba a8 2b c9 3c
       0.011338769 0.013729478 -0.0011807434 0.02455695
000340 fd 84 95 3c 60 21 3c 3d 08 36 7d 3d 15 da 1b 3d
       0.01825189 0.045930266 0.061819106 0.038049776
000350 30 c3 3c 3d 44 af 0c bd 29 9b bd 3d 1e b7 28 3d
       0.046084583 -0.034346834 0.0925811 0.04119026
000360 a8 be cd bc d0 18 d5 3b 8b db 58 be 3e 8c 7f bd
       -0.025115326 0.006503202 -0.21177499 -0.062389605
000370 bc 13 58 3d c4 d4 e9 bc ac 1e b7 3c 78 d5 c7 3c
       0.052753195 -0.028543837 0.022353493 0.024393782
000380 74 14 ff 3c 05 bb 89 bd e8 9f 3f bc 94 c1 5f 3d
       0.031137682 -0.06725124 -0.011695839 0.05462797
000390 10 0e 28 3c e0 9a 47 bc 78 10 c7 bc 20 16 bb bb
       0.010257259 -0.012182921 -0.024299845 -0.0057094246
0003a0 d6 94 58 3d 43 3b 65 bd 3c 47 d2 3c bc 02 c1 bc
       0.052876316 -0.05596472 0.025668733 -0.023560874
0003b0 56 85 7e 3d e5 9c 81 bd 7c 06 76 3d df f4 38 3d
       0.062138878 -0.063287534 0.060064778 0.045155402
0003c0 30 bb ab bb ac 78 70 bd e6 45 6d bd eb 9c 65 bd
       -0.0052408203 -0.05870883 -0.05792799 -0.05605785
0003d0 70 95 91 bb ea fd 2b bd a0 c8 55 bd 64 bc 02 3d
       -0.004442863 -0.0419902 -0.052193284 0.031917945
0003e0 78 7d 0f bd e8 07 5c 3e bc 08 56 bd 1e 5d 2a bd
       -0.035031766 0.21487391 -0.052254423 -0.04159271
0003f0 ee 7b 57 bc d8 f0 59 3e ba c9 40 bd e5 8a b1 bc
       -0.013152106 0.21283281 -0.04706738 -0.021672675

linear2.bias f4 [256]
000000 28 2e e3 bd 45 98 d3 bc bf de 13 3e 12 e4 ae 3d
       -0.11092788 -0.025829444 0.1444044 0.08539595
000010 65 01 a2 bd 4e f3 1d 3d a8 47 bc bd 8e 60 8d 3d
       -0.07910422 0.03856211 -0.09193355 0.06903182
000020 c4 61 83 3d 5e dc f5 3c 1f d7 a6 3d f9 f1 ed bd
       0.06415132 0.030012306 0.081465 -0.11618418
000030 a8 14 25 be cd 58 23 bc 15 2b dd 3c e5 80 a0 3d
       -0.16121161 -0.009969902 0.026998082 0.07837085
000040 b3 1f ff 3b e5 b1 2a bd ba bb 5d bd fb 72 0b 3e
       0.0077857613 -0.04167356 -0.054134108 0.1361808
000050 81 c2 a4 bc 1b 80 f0 3d c4 32 d2 3d 44 9a 86 3d
       -0.020112278 0.11743184 0.10263589 0.065723926
000060 8a e6 94 bd 30 cb e9 bd a6 ca c5 3d a6 2c ba bd
       -0.07270534 -0.11415708 0.09657793 -0.09090547
000070 2c 7b b1 bc 74 8e 8c bd 44 91 f3 bd 62 73 af bd
       -0.021665178 -0.06863108 -0.118929416 -0.085669294
000080 a2 17 77 3d 6f a0 25 bd 0e 6a 39 be 27 46 c5 bd
       0.060325272 -0.040436205 -0.18106863 -0.09632521
000090 a4 a7 ff bc 70 74 3d bd 01 6b 76 3c f9 52 53 bc
       -0.031207867 -0.04625362 0.01504016 -0.0128982
0000a0 06 a7 1d bd f4 be 05 3d 38 a8 33 3d 8e 27 88 bd
       -0.038489364 0.03265281 0.043861598 -0.066481695
0000b0 6f 86 21 bd 9d 19 8b 3d 8b 66 60 bd b2 11 00 ba
       -0.039434846 0.06791995 -0.054785293 -0.00048854493
0000c0 11 60 9a 3c 1d 57 99 bc 9e 9e 16 be 64 77 1e be
       0.018844636 -0.018718297 -0.14708945 -0.15475231
0000d0 67 06 31 3d 3d a6 8b b9 a8 d8 a9 3d 55 ef 8c bd
       0.043218996 -0.00026636003 0.08293277 -0.068815865
0000e0 b9 71 af bd b6 7d 94 bd 60 68 0b bd 23 ee 16 bc
       -0.08566613 -0.0725054 -0.034035087 -0.00921205
0000f0 b6 ec 12 bd 0d ab 95 3d 9a 4a f4 37 4b 16 64 bc
       -0.035870276 0.07308016 2.9121806e-05 -0.013921331
000100 4c 64 d8 3c 9a f6 97 bd 1b 31 c8 3c 63 cc e4 bd
       0.026415013 -0.074200824 0.024437478 -0.11171796
000110 9b 57 c6 ba be 0b 8a bd ba 41 9e bd 7f 32 6f bd
       -0.001513231 -0.06740521 -0.0772738 -0.058397766
000120 bf 49 31 3c 5b 41 49 3d 7b 7a eb bc eb 15 d1 3c
       0.010820805 0.049134593 -0.028744927 0.025523147
000130 1d b7 09 bd d9 0c a5 bd b5 b3 b8 bc 98 f7 80 bd
       -0.033621896 -0.08059091 -0.022546628 -0.06297225
000140 4e 81 e0 3c 88 d8 bf bd 70 b7 42 bc 6f 63 b6 bb
       0.027405407 -0.09367472 -0.011884555 -0.0055660526
000150 30 af 76 bd a0 34 ed bd 7a 7f d2 bd 43 ed c6 bc
       -0.060225666 -0.11582303 -0.102782205 -0.024283057
000160 89 c2 40 bc 78 e0 27 bd 1f bb 3c bd 6c 6e 22 be
       -0.011765131 -0.040985554 -0.04607689 -0.15862435
000170 9e 10 4d bd 7b 5f 14 be 7f 8e 23 bc 25 2f 36 bd
       -0.050064676 -0.14489548 -0.009982704 -0.044478554
000180 c0 6f 3d bd be a6 80 bd cf a7 54 3d 64 f5 8b 3d
       -0.04624915 -0.062818035 0.051917847 0.06833914
000190 26 b3 28 3c 7d 74 20 be 9b 0b 52 bc 70 96 fc bb
       0.010296619 -0.15669437 -0.01282015 -0.0077083632
0001a0 01 f0 12 be 65 0a 0f bc 5d 21 0a bd b3 0f fa 3d
       -0.14349367 -0.008730506 -0.033723224 0.12210026
0001b0 dc c3 71 bd e4 61 15 be 2f 1d 93 bd a7 74 46 bd
       -0.059024677 -0.14588124 -0.07183301 -0.048451092
0001c0 33 1e dc bd be b8 b2 bd 4b 12 92 3d 49 f5 97 3d
       -0.107479475 -0.08726643 0.07132395 0.07419831
0001d0 ef bc 98 bc ee b1 20 3c cf 99 da bd 96 f7 14 be
       -0.018644778 0.009808047 -0.10673868 -0.14547572
0001e0 c4 6b f8 bc e6 04 12 bd 25 e9 86 bd b6 13 86 bb
       -0.030324824 -0.035649203 -0.065874375 -0.004091705
0001f0 8a e1 21 3d c8 20 a9 bd 8d fa 8a bd 6d 90 6c 3d
       0.03952173 -0.08258206 -0.0678607 0.057754923
000200 47 42 c8 bd 92 f7 73 3c 76 a2 77 3d b1 a3 e2 bc
       -0.097782664 0.014890568 0.06045767 -0.027665945
000210 a9 10 81 bd 60 ca bd bd be f0 0f bd 3a 48 51 bd
       -0.06302006 -0.092671156 -0.0351417 -0.05109427
000220 b7 01 04 bb ef 1c b0 bd f0 31 41 3d 21 6a 5a 3c
       -0.0020142624 -0.08599269 0.047166765 0.013330967
000230 95 25 85 bd 04 38 3a be 56 9f 1f bd 71 5d 28 bc
       -0.06501309 -0.18185431 -0.038970314 -0.010276184
000240 88 66 fa bd a5 21 9c 3d 8e 26 ad bd 58 b8 a5 bd
       -0.122265875 0.07623605 -0.08454619 -0.080918014
000250 9f fd ed bc b4 90 63 bd e9 bd 92 3d 3a 75 96 3d
       -0.0290516 -0.05555792 0.07165129 0.07346578
000260 22 58 30 bd 0b d3 1e bc 62 2e e9 bb a8 49 f1 3d
       -0.0430528 -0.009693871 -0.007116125 0.11781627
000270 ef fe a8 bd c0 31 f1 bd 85 26 15 bc 38 f9 c0 3b
       -0.0825175 -0.11777067 -0.009103422 0.005889084
000280 04 94 c6 bd 35 a9 fc bd 9f 29 c7 bc ac 8a 08 3e
       -0.096962005 -0.12336961 -0.024311839 0.13334149
000290 ad da 65 bd b1 27 f8 bd 8d cb 94 bb 0c e5 b8 3b
       -0.05611675 -0.121169455 -0.0045408667 0.005642539
0002a0 cc 1d 02 3c 11 3c d6 bd 98 7a 28 3d 09 62 4e bc
       0.007941674 -0.104606755 0.04113254 -0.012596616
0002b0 32 a6 17 3c cb 34 73 bd 49 e9 28 3d 6f ea 48 3d
       0.009255933 -0.05937652 0.041238103 0.0490517
0002c0 1f 5a 25 bd 1e a1 b2 3d c5 58 22 bd 5f 4e 49 3d
       -0.04036915 0.08722137 -0.03963544 0.049147006
0002d0 d3 89 d5 bd 2d 88 8f bd cd eb 01 bb 81 1b ff 3c
       -0.104266785 -0.07008395 -0.0019824386 0.031141045
0002e0 5d 0c 20 bc 02 12 2e 3b c6 dd 6a bd 55 30 8a 3d
       -0.009768573 0.0026561026 -0.057340406 0.067475
0002f0 ac 80 f1 bd 92 cc a4 3d 90 d8 da bc 68 35 ff bd
       -0.1179212 0.08046831 -0.026714593 -0.12461358
000300 2a c7 1c 3c 36 d1 9d bd 5f fc 9f bd fd c9 80 bd
       0.009568969 -0.077059194 -0.07811808 -0.06288526
000310 87 7d ee 3c c4 69 9a bd 33 d9 47 3c cd 29 89 3b
       0.02911259 -0.075397044 0.01219778 0.0041858912
000320 91 4a 5e 3d 6f 61 6e bd 8e f6 ac 3c 2d d6 04 bd
       0.05427033 -0.05819839 0.02111366 -0.032430816
000330 17 52 eb 3d dc 35 b6 bb e7 36 9c 3c 0e e1 f6 bd
       0.11490267 -0.0055606198 0.019069148 -0.120546445
000340 43 74 2a bd 2b c1 60 bd 9b 13 9c bd 3c 03 92 bd
       -0.041614782 -0.05487172 -0.07620927 -0.07129523
000350 03 fc e1 bc 2e 4b ae 3b 6d 0c 14 bc e2 fe 06 bd
       -0.027585989 0.0053190207 -0.009036166 -0.03295792
000360 fe da 92 bc 6d ab 1f 3a 13 ae 62 be b5 4e a7 bc
       -0.01792669 0.0006090913 -0.22136717 -0.020423273
000370 e3 11 85 3c f3 24 95 bc 62 29 dc bc 7a 1d 2a bb
       0.01624388 -0.018206095 -0.026875202 -0.002595751
000380 bf 9f be bd 1b 54 45 3b b2 11 7e bd f7 e0 2a bd
       -0.09307813 0.0030109945 -0.062028594 -0.04171845
000390 9b 27 ae 3c e3 78 06 3d 83 22 e5 bc f4 72 82 3b
       0.02125912 0.03283013 -0.027970558 0.0039809886
0003a0 e7 1e 2f bd 6d 22 88 bd b6 a0 23 3c a8 43 95 bd
       -0.04275408 -0.06647191 0.009987047 -0.07288295
0003b0 eb 86 21 3d 7b d3 71 3c 69 99 1e bc 9f 9d 80 bd
       0.03943531 0.0147598935 -0.0096801305 -0.06280064
0003c0 12 05 1c bc 11 0c 84 bd 4b 1b af bd 4c 10 fe bc
       -0.009522693 -0.06447614 -0.085501276 -0.03101363
0003d0 5a 6b 5a bd 4f e9 bb bc 80 56 35 3d 84 88 48 3d
       -0.053325035 -0.022938399 0.044271946 0.048958316
0003e0 60 39 d1 bc 28 9b 30 3d 24 9c 8d bd 59 ed 85 bc
       -0.025540054 0.04311672 -0.06914547 -0.016348528
0003f0 e3 10 ef bd 67 3c a8 bc a6 03 1b bc 8c dd 3e be
       -0.11673143 -0.020536615 -0.009461319 -0.18639201

linear3.weight f4 [2, 256]
000000 3d b9 b1 3f b7 e3 fe bd a7 ff 7a 3f 29 ca 5c bf
       1.3884655 -0.12445777 0.98046345 -0.8624597
000010 32 b0 a6 3e 0a 94 84 bf 9e 20 00 3d 0f f4 73 bf
       0.325563 -1.0357678 0.031281106 -0.9529428
000020 bc bc 91 3f 39 f3 84 bf 03 d8 b2 be 1d 32 a2 3f
       1.1385722 -1.0386726 -0.3493043 1.2671543
000030 03 66 94 bf 43 17 d5 3f 38 43 cb 3d 2a ce 34 3f
       -1.1593632 1.6647724 0.0992493 0.7062708
000040 44 bd af 3f bb 41 49 bf d5 ed 06 bf ab 6c e3 be
       1.3729634 -0.7861592 -0.5270665 -0.44418845
000050 de b0 fc bd e5 16 87 3e b8 28 8d be 31 d5 6d bf
       -0.12338422 0.26384655 -0.27570128 -0.9290343
000060 19 fe 34 bf 19 fa 71 bf ba e4 d9 3e 0f 99 08 be
       -0.7070022 -0.94522244 0.42557317 -0.13339637
000070 50 41 45 3f ca 5e 5a bc 85 18 19 3f 86 43 92 bf
       0.77052784 -0.013328264 0.5980304 -1.1426857
000080 f3 92 8b bf 3f 08 2f bd 54 ea 8b bc d9 a8 dd bd
       -1.090422 -0.042732473 -0.01707951 -0.10823221
000090 1d de 5e bf 19 68 47 3d 9f d1 4e be 8c c4 7c bf
       -0.8705767 0.04868326 -0.20197152 -0.98737407
0000a0 95 e2 0b 3c 88 d3 d9 bc be de 50 3f 2b f0 92 bd
       0.008537908 -0.026590124 0.8158988 -0.07174715
0000b0 10 6d c5 bc 53 0d 64 bf d1 a3 d8 bb de 18 a7 bf
       -0.024099857 -0.8908283 -0.0066113253 -1.3054464
0000c0 3c 93 63 3f 2a 3c 87 bf 9a e6 3a 3f e0 85 5e be
       0.88896537 -1.0565236 0.7300812 -0.21730757
0000d0 6d a2 14 3d 77 ee bb 3f 90 43 bc be 35 99 05 bd
       0.036287714 1.4682149 -0.36770296 -0.032616813
0000e0 d0 26 1a bf 11 5d d0 bc a8 30 18 3f 23 69 37 bd
       -0.60215473 -0.025435003 0.59449244 -0.044778
0000f0 03 81 af be 94 a8 b9 bd e8 65 99 bf 66 79 a2 3c
       -0.34278116 -0.09065357 -1.1984224 0.019833278
000100 d5 b2 e4 3e 9c b1 03 3f 3b 79 e8 bd 47 cf 1f 3f
       0.44667688 0.51442885 -0.11351248 0.62425655
000110 42 f0 57 bf f3 5b 7a bf 2a 1f 66 bf 82 04 f1 be
       -0.8435098 -0.97796553 -0.898913 -0.47073752
000120 46 5a 03 3e 08 0a 69 3d 1b 36 f9 3c 9b 7d 89 bd
       0.12827405 0.056894332 0.030421307 -0.067134105
000130 18 18 33 3c bd 44 2e bf 24 69 76 3f 50 2e 07 bb
       0.010931037 -0.68073636 0.9625418 -0.002062697
000140 b6 3d 8f bd ed 5f 46 bf b8 b0 56 bf 4c d6 4c bf
       -0.06994192 -0.7749012 -0.838634 -0.8001449
000150 d5 89 98 bd 45 6f a4 3d d5 5f 93 3f 2a 39 21 bf
       -0.074481644 0.080290355 1.1513621 -0.6297785
000160 fd de 06 3c 63 31 aa 3c e5 9f a8 3d 2e ec 54 be
       0.0082318755 0.020775503 0.082336225 -0.2079322
000170 65 7c e3 bc 47 87 d5 bd c9 28 26 bf 76 a9 89 bf
       -0.027769277 -0.10426193 -0.64905983 -1.075484
000180 1c 21 89 bd 4d aa 76 3f 29 bf 14 bf 2e 45 17 bf
       -0.06695768 0.9635361 -0.5810419 -0.59089935
000190 c0 57 c1 3c 2c 1c da 3e 6a 01 1d 3e 20 ca 89 bf
       0.023601413 0.42599618 0.1533257 -1.0764809
0001a0 92 0f bb be b2 a8 df 3c 23 4c ea 3b af 47 1b 3f
       -0.36535317 0.02730212 0.0071501895 0.60656255
0001b0 e9 aa d2 3c 6d 31 1d 3e 77 31 24 3f 9b 9a cf 3e
       0.025716262 0.15350886 0.6413798 0.40547642
0001c0 66 85 b4 bd 22 54 dc 3e 5c 91 9c 3f b5 a3 4d 3f
       -0.08814506 0.43032938 1.223186 0.8032792
0001d0 5e 4e 56 bd b4 11 f4 3c 9c a7 88 bf 0e c4 11 bf
       -0.05232083 0.029793598 -1.067615 -0.5693978
0001e0 f1 ba 5d bc 5b 42 78 3b 05 bb 09 bd 17 d4 c5 bd
       -0.01353334 0.0037881348 -0.03362562 -0.096595936
0001f0 df cc 23 3f 59 eb f5 3e 95 1d 97 3c 9a 8c d8 bd
       0.63984483 0.4803112 0.018446723 -0.105736926
000200 0f 08 eb 3c 7b a3 e5 be f0 d4 85 bf af 25 da bd
       0.028690366 -0.44851288 -1.0455608 -0.10651719
000210 cf 4e f2 bb be 52 14 3c ae 90 f6 bc 24 67 0b bd
       -0.0073946486 0.00905293 -0.030098286 -0.03403391
000220 98 01 cf 3e fa 2f 01 bf 16 af 7e bf e1 af 0b 3f
       0.40430903 -0.5046383 -0.9948591 0.54565245
000230 83 98 fc 3c e9 83 06 bf 46 71 ea 3e 3f 9d 64 bf
       0.030834442 -0.5254503 0.45789546 -0.8930244
000240 32 d7 58 bf e0 25 59 be cb c9 59 bf 8a 81 6b be
       -0.8470336 -0.21205854 -0.85073537 -0.22998634
000250 fd 48 8f bf 64 4d 8b bf 99 5c 8a 3d 7d 53 18 bf
       -1.1194149 -1.0882993 0.06755943 -0.59502393
000260 99 c5 6d be 3d bd ca 3d 2c 1f 80 bf 3f 1a b2 be
       -0.23219909 0.098993756 -1.0009513 -0.3478565
000270 86 89 24 3d 8e 08 91 be f8 04 37 bf 6d d2 8c 3d
       0.040170215 -0.2832684 -0.71491957 0.06876073
000280 a0 05 98 3f 71 0a 89 3e 1f c7 d0 3e 6e 4d 1a bf
       1.1876717 0.2676578 0.40776917 -0.602744
000290 b7 5e 32 bf 8f 6e 44 3f 0d 0b b0 3e 65 e4 82 bf
       -0.69675773 0.767312 0.3438343 -1.022595
0002a0 57 13 b9 bc bd bf ab be fb 27 9a bf 65 55 0f 3d
       -0.02259223 -0.33544722 -1.2043451 0.034993548
0002b0 07 04 26 3d e1 ac 76 bf f4 90 69 bf e1 0d d8 3e
       0.040531185 -0.9635754 -0.91236806 0.4219809
0002c0 e6 f4 9c bc 2a 6a 2b bf 04 a8 78 3e 95 d4 c8 be
       -0.019159745 -0.6695887 0.24282843 -0.39224687
0002d0 f4 36 80 bf 78 72 cb bc 29 23 59 bd c4 27 56 3c
       -1.001677 -0.024834856 -0.053012047 0.013071004
0002e0 b7 ab 77 bf f9 38 1e 3f 61 3d 93 3e df 41 32 3f
       -0.9674639 0.61805683 0.28757766 0.6963176
0002f0 d0 e9 44 bf 48 2b 29 bf e4 b8 41 bf 2b ab ce 3c
       -0.7691927 -0.66081667 -0.75672746 0.025228104
000300 ff 81 1d bf d1 f7 4a 3d 80 94 85 3e 9c ae 2a 3f
       -0.61526483 0.049552742 0.2608986 0.6667268
000310 40 97 92 be 76 20 9e 3f 8d 80 bf 3f 56 cc 92 3f
       -0.2863102 1.2353656 1.4961106 1.1468608
000320 d1 80 11 bf bf 5b 6f bd 31 bf d5 3b e8 34 83 be
       -0.56837183 -0.058437105 0.006523036 -0.25626302
000330 1b a7 e4 be ca e6 a7 be 8b be 33 3f 8e a6 04 bf
       -0.4465874 -0.32793266 0.7021262 -0.5181664
000340 6b 9b 36 3d 1a 83 68 bf 34 e2 b5 be a5 2b c3 3e
       0.044581812 -0.90825045 -0.35524142 0.38119236
000350 1c 16 76 bb f4 6b 7f 3b 54 bf fb bb 9c 6f 1c bd
       -0.00375498 0.0038974257 -0.00768272 -0.038192376
000360 16 76 d7 bd 18 ed 4e 3d d4 d1 2d be 2d 6c ed 3e
       -0.1052057 0.05051908 -0.16974574 0.46371594
000370 e7 44 08 3e 7e 36 36 3e ad 0e 9d bb a3 da 23 3f
       0.13307534 0.17794225 -0.0047930093 0.6400549
000380 df 5b 2c be 06 5a 1a bf ed 7c cf 3e e4 6c 70 3c
       -0.16831921 -0.60293615 0.40524998 0.014674399
000390 2a cf 5d 3f 92 25 e6 3e b4 39 99 3f be 38 29 3b
       0.8664423 0.4495054 1.1970735 0.0025821174
0003a0 c4 b9 04 3d 80 4f b9 bb be ab 1a 3c ff 0d f7 3e
       0.032403722 -0.005655229 0.009440361 0.48252866
0003b0 fe 74 6d bf a1 3c de 3c c7 9a 1d bf f9 b7 4e bc
       -0.9275664 0.02712852 -0.61564296 -0.012617105
0003c0 31 3a 9b bf 98 19 c1 3e 3e e6 3c bc 1d 5f 87 bd
       -1.2127134 0.3771484 -0.011529503 -0.06609938
0003d0 5d 3b 4b bf c9 48 01 3f 15 98 47 bf e6 5e 08 be
       -0.79387456 0.50501686 -0.77966434 -0.13317451
0003e0 d7 68 9c 3f d3 b5 22 3f d2 85 8b 3f 62 94 91 3e
       1.2219495 0.6355869 1.0900214 0.2843352
0003f0 a1 33 2a 3f a3 80 74 bc 16 74 90 3f f2 d6 30 bf
       0.6648503 -0.0149232475 1.1285427 -0.6907798

linear3.bias f4 [2]
000000 e2 7c 8c 3e ae 89 b8 bd
       0.27439028 -0.09010635
