turtlebot3_rl_sim/src/models/td3/turtlebot3_top_4_obstacle/td3_critic1_model_ep2500.pt (torch_old, 659490 bytes, 5 tensors)

linear1.weight f4 [256, 384]
0	0x3caee386	0.021348726
1	0x3d267fde	0.040649287
2	0xbb11eb1e	-0.0022265385
3	0x3d27d226	0.040971898
4	0x3cb8a9df	0.022541938
5	0x3c95e1f5	0.018296221
6	0x3d5203b9	0.05127308
7	0x3cd858d1	0.026409538
8	0xbc2c82ef	-0.010529264
9	0xbbeb4943	-0.0071803643
10	0xbcacbb2f	-0.02108535
11	0xbbed6db3	-0.007245743
12	0x3c0f6054	0.008750994
13	0x3d4e14b0	0.050312698
14	0xbd0cba35	-0.03435727
15	0xbbba2018	-0.0056800954
16	0x3d3609ff	0.044443127
17	0x3d15b88d	0.036552954
18	0x3d5fdc41	0.05465341
19	0x3d23a30e	0.039950423
20	0xbca83f87	-0.020538105
21	0x3c03f804	0.008054737
22	0x3d2dc1ae	0.042421035
23	0x3c98d24d	0.018654967
24	0x3cf5e73b	0.030017486
25	0xbd429429	-0.047504578
26	0xbd34d6f8	-0.044150323
27	0xbdde5d72	-0.10857667
28	0xbe012495	-0.12611611
29	0xbdd9c8ca	-0.106340006
30	0xbd22081f	-0.039558526
31	0xbdeb1e4b	-0.11480387
32	0xbdcd0279	-0.10010237
33	0xbe072ac5	-0.13199909
34	0xbe159d36	-0.14610752
35	0xbdb0cb08	-0.08632475
36	0xbe0b791d	-0.1362042
37	0xbe1df9d6	-0.15427336
38	0xbddbca12	-0.10731901
39	0xbd4ccbc9	-0.049999032
40	0xbe0bb15d	-0.13641877
41	0xbd696a5b	-0.056986194
42	0xbd988b36	-0.074484274
43	0xbdbfa880	-0.09358311
44	0xbdd23682	-0.10264303
45	0xbd179a96	-0.03701266
46	0xbdb9f390	-0.09079659
47	0xbdff1d0c	-0.12456712
48	0xbd2d5067	-0.042313006
49	0xbc28d4bf	-0.010304629
50	0xbafb8fac	-0.0019192598
51	0xbdaec50f	-0.0853368
52	0xbdd5e002	-0.10443117
53	0xbdae64f7	-0.08515351
54	0xbda46e2f	-0.08028828
55	0xbdcd6421	-0.10028864
56	0xbd41eaa1	-0.0473429
57	0xbd6d08eb	-0.057869833
58	0xbd6f64d3	-0.058445763
59	0xbdb2c480	-0.08728886
60	0x3b6c3e92	0.0036048037
61	0x3c9cc475	0.019136647
62	0x3c0f080c	0.008729946
63	0x3d17825d	0.03698956
64	0x3bfa220b	0.007633453
65	0xbd5cfac2	-0.05395008
66	0xbd84d455	-0.064858116
67	0x3cb038ef	0.021511523
68	0x3ba62ab6	0.0050710095
69	0x3b97d6bd	0.004633753
70	0xbc3c8f88	-0.01150883
71	0xbcd12512	-0.025530372
72	0x3cbfc887	0.023411049
73	0x3bbc9e5f	0.005756184
74	0xbd7b2bac	-0.061320946
75	0xbd06606d	-0.032806803
76	0xbd0fc6ad	-0.03510158
77	0xbc4543a9	-0.012040057
78	0xbc3bb978	-0.011457793
79	0xbd454089	-0.04815725
80	0xbd752d4c	-0.05985765
81	0xbbef7ab3	-0.007308328
82	0xbc833005	-0.016014108
83	0xbca3774f	-0.019954352
84	0x3cde7cb1	0.027159067
85	0x3c88f55c	0.016718559
86	0x3d0d06c4	0.03443028
87	0x3d5fd471	0.05464596
88	0x3d2c9f0e	0.042143874
89	0x3d101fbd	0.035186518
90	0x3cf0c84b	0.029392382
91	0xbd03cf65	-0.03218021
92	0x3cd63141	0.026146533
93	0xbc65a19b	-0.0140155805
94	0x3d3571a7	0.04429784
95	0xbc8dc49d	-0.017305667
96	0x3be27f42	0.006912143
97	0x3cba0587	0.022707714
98	0x3d3ca3d7	0.046054687
99	0x3d4a7170	0.04942459
100	0xbd5f5cea	-0.05453197
101	0xba880ee5	-0.0010380415
102	0xbd3d4fb8	-0.046218604
103	0xbc696beb	-0.014246921
104	0xbd629393	-0.05531652
105	0xbd6fd0a3	-0.05854858
106	0x3b2629ee	0.0025354582
107	0x3c34a42f	0.011025473
108	0xbc3f18c0	-0.011663616
109	0x3cbce257	0.023057146
110	0xbc1fc14e	-0.009750677
111	0x3b998f5d	0.0046862797
112	0xbbedf02b	-0.0072612963
113	0xbb459fd9	-0.003015509
114	0xbc6749d3	-0.014116722
115	0xbd643bcb	-0.055721086
116	0xbcf2e744	-0.029651292
117	0x3bc74bf8	0.006082054
118	0x3d0f3624	0.034963742
119	0xbd631f6b	-0.055449884
120	0xbd646853	-0.055763554
121	0x3c05378c	0.008130919
122	0xbcf287f4	-0.029605843
123	0x3c6e4a02	0.014544012
124	0x3cc1c138	0.023651704
125	0xbc651433	-0.013981867
126	0x3c8ddf2c	0.01731833
127	0xbd4aa119	-0.04947004
128	0xbd61bd83	-0.055112373
129	0xbd4f8251	-0.05066139
130	0xbbf437fc	-0.007452963
131	0xbcec4bdb	-0.028844764
132	0x3cbf8877	0.023380501
133	0x3cae4b2e	0.021276083
134	0x3cef1072	0.029182646
135	0xbd2853d7	-0.04109558
136	0xbd262f67	-0.04057255
137	0x3d079054	0.033096626
138	0xbd3a79f0	-0.045526445
139	0xbd1d4b9e	-0.038402192
140	0x3cac090e	0.021000411
141	0xbd1daed6	-0.038496815
142	0xbd1ddc26	-0.038540028
143	0x3ca64d16	0.02030043
144	0xbcf36b4c	-0.02971425
145	0x3d38700f	0.045028742
146	0x3d40ecb8	0.047100753
147	0x3ba586a6	0.0050514517
148	0x3c752643	0.014962736
149	0x3b560261	0.0032655227
150	0x3c0d7744	0.008634392
151	0x3d76788b	0.060173552
152	0xbaca85c1	-0.0015451239
153	0x3d559691	0.052145544
154	0x3d1e152d	0.038594414
155	0x3cae36de	0.021266397
156	0x3d7d33fb	0.06181715
157	0x3b9e9c55	0.0048404136
158	0x3cad175e	0.021129306
159	0x3cc89a58	0.02448766
160	0x3d057094	0.032578066
161	0x3d7bbb6b	0.061458033
162	0xba9dc3ee	-0.0012036541
163	0x3dc9a650	0.09846175
164	0x3c493698	0.012281083
165	0x3ac056b8	0.0014674282
166	0x3d3396a7	0.043844845
167	0xbc014f8d	-0.007892502
168	0x3d1ebc5d	0.038753856
169	0x3cfb030b	0.0306411
170	0x3c5daf39	0.013530546
171	0x3d5abc89	0.053402457
172	0xbd02cc05	-0.03193285
173	0xbcc681a1	-0.024231734
174	0x3d2ea5ce	0.042638592
175	0xbb8b35ed	-0.004248372
176	0x3c67b0f2	0.014141308
177	0xbcf025cc	-0.029314898
178	0xbc969d76	-0.01838563
179	0xbd5f470a	-0.054511108
180	0xbbd3f49a	-0.0064683678
181	0xbd7405fc	-0.05957602
182	0xbcd993aa	-0.02655967
183	0xbcbaa5b0	-0.022784084
184	0x3b36135f	0.0027782542
185	0xbd0d460d	-0.034490634
186	0x3add8059	0.0016899212
187	0xbd9519f6	-0.07280342
188	0xbd2da7e7	-0.042396452
189	0xbc0bf0a5	-0.008541261
190	0xbd8b7e95	-0.06811253
191	0xbd2fdbf7	-0.042934384
192	0xbd82f185	-0.063937224
193	0xbd61a7a3	-0.05509151
194	0xbd3a1208	-0.045427352
195	0x3b954b2d	0.004556081
196	0x3b0503fc	0.0020296564
197	0xbce2a333	-0.02766571
198	0xbcef960b	-0.02924635
199	0xbb8ad2b5	-0.004236544
200	0xbd94b5f6	-0.07261269
201	0xbd7d7efc	-0.06188868
202	0xbc99db26	-0.018781256
203	0xbd8adb4d	-0.067801096
204	0xbd9147d6	-0.0709378
205	0x3c27d866	0.0102444645
206	0xbd7d5e2c	-0.061857387
207	0xbd326080	-0.04354906
208	0xbd1eec06	-0.03879931
209	0x3becda0a	0.0072281407
210	0xbcf8d3ac	-0.03037437
211	0xbd009377	-0.031390633
212	0xbe072d1d	-0.13200803
213	0xbd844df5	-0.064601816
214	0xbde88c7b	-0.113549195
215	0xbdd3297a	-0.103106454
216	0xbd7f027c	-0.06225823
217	0xbd7a4e94	-0.061110094
218	0xbd843b35	-0.06456605
219	0xbd7db034	-0.06193562
220	0xbde2670b	-0.1105481
221	0xbdf69d44	-0.12041715
222	0xbddbc0b2	-0.10730113
223	0xbdcb5019	-0.09927387
224	0xbde64cb3	-0.11245098
225	0xbdb64df8	-0.0890159
226	0xbda3cecf	-0.0799843
227	0xbe03e3b5	-0.12879832
228	0xbdc14691	-0.094372876
229	0xbdc7a5d1	-0.09748424
230	0xbd6c4a4b	-0.05768804
231	0xbb8b8e35	-0.0042588958
232	0xbda80bf7	-0.08205407
233	0xbc96371e	-0.018336829
234	0xbd2b523f	-0.041826483
235	0xbd2f0c27	-0.0427362
236	0xbc533dca	-0.01289315
237	0xbd2a5b5f	-0.041591045
238	0xbd8cb585	-0.068705596
239	0xbda19f6f	-0.07891738
240	0xbc05f886	-0.008176928
241	0xbcd91772	-0.026500437
242	0xbd6de85b	-0.05808292
243	0xbd4bac49	-0.04972485
244	0xbce1b103	-0.027550226
245	0xbd0ef165	-0.03489818
246	0xbbf9a5d4	-0.007618645
247	0xbd0d5e45	-0.03451373
248	0xbda1a5af	-0.0789293
249	0xbba15dcf	-0.004924513
250	0xbc8986ad	-0.016787851
251	0xbcb11478	-0.021616206
252	0xbbc43879	-0.0059881774
253	0xbc156686	-0.009118682
254	0xbd4142a9	-0.047182713
255	0x3c0f0424	0.008729015

linear1.bias f4 [256]
0	0xbd01b9cd	-0.031671334
1	0x3cce0c18	0.025152251
2	0x3cff9a0b	0.031201383
3	0x3c12de8c	0.008964192
4	0xbcff7eb4	-0.031188346
5	0x3c86a914	0.016438045
6	0x3c818f9c	0.015815549
7	0xbd4f14f1	-0.05055708
8	0xbd1c8019	-0.0382081
9	0xbcecd623	-0.028910702
10	0xbde4555f	-0.11149096
11	0xbc8760ad	-0.01652559
12	0x3d986d85	0.07442764
13	0xbc800b87	-0.015630497
14	0xbd20d76f	-0.039267953
15	0x3c834050	0.016021878
16	0x3dfe0c22	0.12404658
17	0xbd265a5f	-0.04061353
18	0xbbae0ab0	-0.0053113326
19	0x3e24a22c	0.16077489
20	0x3e2b0970	0.16702819
21	0xbda0b114	-0.07846275
22	0xbce4484b	-0.027866503
23	0xbccebbe1	-0.025236072
24	0xbb03ee00	-0.0020130873
25	0x3d392167	0.04519787
26	0x3c99a475	0.018755177
27	0x3d81b38c	0.06333074
28	0xbe5bc8c8	-0.2146331
29	0x3c85b554	0.016321816
30	0x3c0bcf0c	0.008533251
31	0xbc01c5a2	-0.0079206545
32	0xbdb62672	-0.088940516
33	0xbe2912a6	-0.1651102
34	0x3e82ff0f	0.2558522
35	0xbe2f5952	-0.17123917
36	0xbd2b080e	-0.04175573
37	0x3d2bc12e	0.041932277
38	0x3d28035e	0.041018836
39	0xbd07687d	-0.033058632
40	0xbd50272a	-0.0508186
41	0xbd28148f	-0.04103523
42	0x3ca93ca6	0.020658802
43	0xbd1c22be	-0.03811907
44	0x3c9b2324	0.018937655
45	0x3b5ce070	0.003370311
46	0x3e0e6318	0.13904989
47	0xbc8c97d5	-0.017162243
48	0xbc4c25f0	-0.012460217
49	0x3d137735	0.036002357
50	0xbc9ac730	-0.018893808
51	0xbd0b4eff	-0.034010883
52	0x3d09d274	0.03364797
53	0xbc83315a	-0.016014744
54	0xbd1c690e	-0.038186125
55	0xbd3d0580	-0.046147823
56	0xbd200c42	-0.03907419
57	0xbcafda67	-0.021466447
58	0x3d02f56c	0.031972334
59	0x3d376d77	0.04478213
60	0xbd15b316	-0.036547743
61	0xbd7fa1dc	-0.06241022
62	0xbc9aeb06	-0.018910896
63	0xbd3b7e18	-0.04577455
64	0xbccef421	-0.025262894
65	0x3cd13734	0.025539018
66	0x3cdf9b69	0.027295785
67	0xbd45a3c1	-0.04825187
68	0x3b651fea	0.003496165
69	0x3d073b2c	0.033015415
70	0xbd3ac8d8	-0.045601696
71	0x398acae4	0.00026472576
72	0xbbdb974a	-0.0067013847
73	0x3e1c2ed0	0.15252233
74	0xbbeb25a8	-0.00717612
75	0xbd58fe72	-0.052977033
76	0xbe16caa3	-0.14725737
77	0x3cc47568	0.023981765
78	0xbd6e416b	-0.058167856
79	0xbd05dd2d	-0.032681633
80	0x3d2fb41e	0.042896383
81	0x3cbfd697	0.023417754
82	0xbd2a777f	-0.041617867
83	0xbd6e18cb	-0.058129113
84	0x3c621f2a	0.013801375
85	0xbc3c1030	-0.011478469
86	0x3d19e615	0.03757294
87	0xbbd92854	-0.006627122
88	0xbd452211	-0.04812819
89	0x3dfeeed5	0.12447897
90	0xbab0d540	-0.0013491288
91	0x3cea2ebc	0.028586738
92	0x3d1e9c55	0.03872331
93	0x3e6edc8a	0.23326316
94	0x3d3046ff	0.043036457
95	0xbc21056b	-0.009827952
96	0x3d75c8c3	0.060005914
97	0x3d8b2089	0.06793315
98	0xbc22595f	-0.009909003
99	0xbc9990ee	-0.018745866
100	0x3b9af20d	0.0047285617
101	0xbc8da78a	-0.017291803
102	0x3cf2abe3	0.029622978
103	0xbc282a6f	-0.010264023
104	0xbdc0ecce	-0.09420167
105	0x3da49fb8	0.080382764
106	0x3e167549	0.14693178
107	0x3d392f77	0.04521128
108	0x3cea820a	0.02862646
109	0x3cb29ca7	0.021803213
110	0xbcef21a3	-0.029190844
111	0xbd2b961f	-0.041891214
112	0xbc4fb9c9	-0.012678572
113	0xbd65582b	-0.055992287
114	0x3c9ec1d5	0.019379536
115	0x3e9364e3	0.28787908
116	0x3b0dd7c0	0.002164349
117	0xbd171d9e	-0.03689348
118	0x3d2ce31c	0.042208776
119	0x3c809d3a	0.015699971
120	0x3d298936	0.04139062
121	0xbd2e5fb8	-0.042571753
122	0xbd418969	-0.047250185
123	0xbc80b5a5	-0.015711615
124	0xbcf9d644	-0.030497678
125	0x3c65e402	0.014031412
126	0x3cb95c54	0.022627033
127	0xbc586b92	-0.0132092405
128	0x3bef627a	0.0073054405
129	0x3c85d0ac	0.016334854
130	0x3aadc8b6	0.0013258669
131	0xba0d17f5	-0.0005382293
132	0xbc4bcd19	-0.012439036
133	0x3d1a47f5	0.03766628
134	0x3d5fbff5	0.054626424
135	0x3d9aa89d	0.07551692
136	0xbba1708f	-0.004926748
137	0xbc0faa8d	-0.00876869
138	0x3d1ae760	0.037818313
139	0xbd1ba366	-0.037997626
140	0x3e3fd6c7	0.18734275
141	0x3cf962a3	0.030442541
142	0x3d8b65d9	0.06806535
143	0xbc9a782e	-0.018856134
144	0x3cf009ab	0.029301485
145	0xbc80b8c5	-0.015713105
146	0xbc5c76ba	-0.013456041
147	0x3e2d9c97	0.16954266
148	0xbd33a030	-0.04385394
149	0xbc71aec4	-0.01475114
150	0xbc88a995	-0.016682426
151	0x3df2201c	0.118225306
152	0xbd10c23e	-0.035341494
153	0xbc16d35e	-0.009205667
154	0xbd2cdfe7	-0.042205717
155	0x3e28d8c2	0.16488937
156	0x3d0f68ec	0.03501217
157	0x3b97744d	0.0046220184
158	0x3d47e9ea	0.048807062
159	0x3cf7b683	0.030238396
160	0xbc8edd15	-0.017439405
161	0x3e20acf3	0.15690975
162	0x3de9a4eb	0.11408409
163	0x3d058354	0.032595947
164	0xbd332948	-0.04374054
165	0xbc8524cd	-0.0162529
166	0x3e09b394	0.1344741
167	0xbd779424	-0.060444012
168	0x3d16b8a2	0.036797173
169	0xbe2002ac	-0.15626019
170	0xbd530d5a	-0.051526405
171	0xbd4858e9	-0.048912916
172	0xbc13fdd8	-0.009032689
173	0x3d1f3575	0.03886934
174	0x3d46c598	0.048528284
175	0x3d3618d7	0.044457283
176	0x3cdd5499	0.027017878
177	0xbd41ca99	-0.047312353
178	0xbd5e71c2	-0.054307707
179	0x3b53f561	0.0032342302
180	0x3c01e014	0.00792696
181	0xbce89833	-0.028392887
182	0xbd044175	-0.032288987
183	0x3d9e954d	0.077433206
184	0xbcdfb3a2	-0.027307335
185	0x3e00061e	0.12502334
186	0x3d01bbc1	0.031673197
187	0x3cc5eec0	0.024161696
188	0xbbc53279	-0.0060179797
189	0x3b7e76a3	0.0038828037
190	0xbb92ab4e	-0.0044759875
191	0xbd146006	-0.036224388
192	0x3e1e6615	0.15468629
193	0x3e2e4131	0.17017056
194	0x3c88cf14	0.016700305
195	0xb9e8bceb	-0.00044391243
196	0xbc3ec8dc	-0.011644568
197	0x3e7233ad	0.23652525
198	0xbce36043	-0.027755862
199	0x3e1fb47c	0.15596193
200	0xbd0e5845	-0.03475215
201	0x3c885854	0.01664368
202	0xbd4469b1	-0.047952358
203	0xbd09b26d	-0.033617426
204	0x3d1ece55	0.038770992
205	0xbd4a68f9	-0.049416516
206	0xbcebd809	-0.028789537
207	0xbb6ae6d3	-0.0035843148
208	0xbb5bb9aa	-0.0033527412
209	0x3bd56621	0.006512419
210	0x3d27dca9	0.040981922
211	0x3d8cf0e4	0.06881884
212	0xbce307fb	-0.027713766
213	0x3e81a1f0	0.2531886
214	0xbd4fb2c1	-0.050707582
215	0x3d97c015	0.074096836
216	0x3d462a50	0.048380196
217	0x3cee7fea	0.029113729
218	0xbd3ad170	-0.04560989
219	0xbd1b6996	-0.03794249
220	0xbd28918f	-0.04115444
221	0xbd40a8c1	-0.047035936
222	0x3dc34352	0.09534325
223	0xbe7722bc	-0.24134344
224	0x3d7ba7e3	0.061439406
225	0xbcbcbfea	-0.02304073
226	0xbcae836f	-0.021302907
227	0x3c27e766	0.010248041
228	0xbbec3a80	-0.007209122
229	0x3c128e65	0.008945082
230	0xbb0b40f0	-0.0021248423
231	0x3b89806c	0.0041962173
232	0x3d1afe4b	0.03784017
233	0xbcd37c4a	-0.025816102
234	0x3d826d53	0.06368508
235	0x3d0684b6	0.032841407
236	0x3d309f84	0.043120876
237	0x3d0b21dc	0.033967838
238	0x3ba680a6	0.005081254
239	0xbc01faa5	-0.0079332935
240	0x3d6a11dd	0.057145942
241	0x3d08ccd2	0.033398457
242	0xbd086a4d	-0.0333045
243	0xbd1c758e	-0.038198046
244	0xbc9602c6	-0.01831187
245	0x3d05af14	0.03263767
246	0xbd432ed9	-0.0476521
247	0x3e253532	0.16133574
248	0xbc17ff5e	-0.009277193
249	0x3cf8a65b	0.030352762
250	0xbd0b19cd	-0.033960152
251	0xbd169ebf	-0.036772486
252	0x3d2d11e6	0.042253397
253	0x3ca47f5e	0.020080265
254	0x3e45a0ea	0.19299665
255	0xbd37cf46	-0.044875406

linear2.weight f4 [256, 256]
0	0xbd10dd0e	-0.035367064
1	0xbc0863f0	-0.008324608
2	0x3d61f64a	0.05516652
3	0x3cb626d0	0.022235304
4	0x3d59a4dc	0.053135738
5	0x3bada720	0.005299464
6	0xbcac5558	-0.021036789
7	0x3ce22634	0.027606107
8	0x3d74466e	0.05963748
9	0x3d337a4a	0.043817796
10	0x3ad9d140	0.0016618147
11	0x3c5d3c50	0.013503149
12	0x3cb74c88	0.02237536
13	0x3d65503c	0.05598472
14	0x3bd1d3e0	0.0064034313
15	0x3cd88744	0.026431687
16	0x3d6c356e	0.057668142
17	0x3ccadba4	0.024762936
18	0x3b56a0a0	0.0032749549
19	0x3cee0ac8	0.029057875
20	0x3d093a1e	0.03350269
21	0x3d6f8ece	0.0584858
22	0x3d4611a6	0.048356675
23	0xbc996f14	-0.018729724
24	0x3ce5de48	0.028060094
25	0x3d0834c8	0.03325346
26	0xbbe8f820	-0.007109657
27	0x3d19ae8e	0.037519984
28	0xbc9dc8b0	-0.019260734
29	0xbc958894	-0.018253602
30	0xbc7d0050	-0.015441969
31	0x3d646b9a	0.05576668
32	0xbd061258	-0.032732338
33	0xbbe38700	-0.0069435835
34	0xbcd022e8	-0.02540727
35	0xbcd81630	-0.026377767
36	0xbd77add2	-0.060468502
37	0x3cbda9bc	0.023152225
38	0x3cc0e1c9	0.023545163
39	0x3cfb721c	0.03069406
40	0xbd5c12f2	-0.053729005
41	0xbd090bbc	-0.033458456
42	0x3d642006	0.055694602
43	0x3c8489dc	0.016179018
44	0xbd1a2c22	-0.037639745
45	0xbd5bea42	-0.053690203
46	0x3d1b9e30	0.037992656
47	0x3d69d18c	0.057084605
48	0xbccd3ffc	-0.025054924
49	0xbd6499f8	-0.0558109
50	0xbce65ffc	-0.02812194
51	0xbc4f4208	-0.01265002
52	0x3aee7640	0.00181932
53	0xbd5ad844	-0.053428903
54	0x3d2a7140	0.04161191
55	0x3c39e820	0.011346847
56	0xbcfdce78	-0.030982241
57	0x3c049a98	0.008093499
58	0xbd6733b8	-0.056445807
59	0x3d28006e	0.041016035
60	0x3d792104	0.0608225
61	0xbbada9b0	-0.0052997693
62	0xbcc5cc80	-0.024145365
63	0xbd088912	-0.033333845
64	0x3d5c0262	0.05371321
65	0x3d2ba370	0.041903913
66	0xbc06fd60	-0.00823912
67	0x3d1bd63c	0.038046107
68	0xbd4fb968	-0.050713927
69	0xbd688986	-0.056771778
70	0xbd60adf4	-0.054853395
71	0x3c69df50	0.014274433
72	0x3d01d0da	0.031693317
73	0xbd3627d2	-0.04447157
74	0xbbef0600	-0.0072944164
75	0xbd66f934	-0.056390002
76	0xbd385e8a	-0.045012034
77	0x3d23bb0e	0.03997331
78	0xbd6a6342	-0.057223566
79	0x3d6fa5c6	0.058507703
80	0xbd7fc646	-0.062444948
81	0x3d0c2c34	0.034221843
82	0x3cfb1d80	0.030653715
83	0xbb8770e0	-0.004133329
84	0x3d48e250	0.049043953
85	0x3d7fd1a0	0.062455773
86	0xbcc5dfe9	-0.02415462
87	0xbcb4e9e4	-0.022084184
88	0xbd482f66	-0.048873328
89	0x3bd4b050	0.0064907447
90	0xbc38a570	-0.011269912
91	0x3d452d14	0.048138693
92	0x3d444eb6	0.047926627
93	0xbd7a9cf2	-0.06118483
94	0xbd72f300	-0.059313774
95	0x3d0736ee	0.03301137
96	0x3d009406	0.031391166
97	0xbbb29520	-0.005449906
98	0xbccc2500	-0.024919987
99	0x3d5b918a	0.053605594
100	0x3c023330	0.007946774
101	0x3d712f16	0.058882795
102	0x3d087d8c	0.033322856
103	0x3bac9910	0.00526727
104	0x3ce66d5c	0.028128318
105	0x3d4e2d60	0.05033624
106	0x3c55bc78	0.013045423
107	0x3d73eb1e	0.059550397
108	0xbd4c1592	-0.04982526
109	0xbccbb014	-0.024864234
110	0x3d21b1b6	0.03947612
111	0xbd5bc2ac	-0.05365245
112	0xbd6ceb08	-0.05784133
113	0xbcdf34d4	-0.02724687
114	0xbc6f21e0	-0.014595479
115	0x3c7d81d8	0.015472852
116	0xbd430f1a	-0.047621824
117	0x3d61ad26	0.055096768
118	0xbd46c810	-0.04853064
119	0xbbcbacf0	-0.006215684
120	0x3d56c7dc	0.052436695
121	0x3d1e0aaa	0.03858439
122	0x3d7b750c	0.06139092
123	0xbd5b2260	-0.05349958
124	0x3cf39074	0.029731967
125	0xbac2e440	-0.0014869049
126	0x3cc520ec	0.02406355
127	0xbd04bd1c	-0.03240691
128	0xbd2f1f1a	-0.04275427
129	0xbc9ff5b0	-0.019526333
130	0xbce91490	-0.028452188
131	0x3d5d1b92	0.05398137
132	0x3d32ffac	0.04370086
133	0x3d242cbc	0.040081725
134	0x3d61eaee	0.055155687
135	0xbd333a32	-0.04375667
136	0x3d1643a0	0.036685586
137	0xbb063c80	-0.0020482838
138	0x3a4be380	0.00077777356
139	0xbc14a918	-0.009073518
140	0xbc5744f0	-0.013138995
141	0x3d19e772	0.03757424
142	0xbd7f65d8	-0.062352985
143	0xbacd3e40	-0.0015658811
144	0x3d5cb49c	0.05388318
145	0xbd515fb0	-0.051116645
146	0xbd4f2e5a	-0.050581314
147	0xbcb26708	-0.021777645
148	0x3c8c7ae4	0.017148443
149	0xbc9f163c	-0.019419782
150	0x3d7100bc	0.05883859
151	0xba909180	-0.001102969
152	0x3ca9cb6c	0.020726882
153	0xbd440aac	-0.04786174
154	0xbca99004	-0.020698555
155	0xbb5faee0	-0.0034131333
156	0xbd1007fa	-0.035163857
157	0x3cff7964	0.031185813
158	0x3d2d3834	0.042289928
159	0x3cfb6100	0.030685902
160	0xbd294378	-0.04132411
161	0xbccc709c	-0.02495604
162	0x3cefd3d0	0.029275805
163	0x3d29bf5c	0.04144226
164	0x3c51ba30	0.012800738
165	0xbcfe1780	-0.031017065
166	0xbac945c0	-0.001535587
167	0xbd68f970	-0.056878507
168	0xbd7a20a4	-0.061066285
169	0xbcc15068	-0.023597911
170	0xbbcd07b0	-0.00625702
171	0x3d76f7fe	0.060295098
172	0x3d236b98	0.03989753
173	0x3d67ae46	0.056562684
174	0x3d50754a	0.050893106
175	0xbcb55ffc	-0.022140495
176	0x3cdc1c20	0.02686888
177	0x3d34ae64	0.044111624
178	0xbcf8bcc4	-0.030363448
179	0x3d524f82	0.051345356
180	0xbc0c1788	-0.008550532
181	0x3d3dbc28	0.046322018
182	0xbd43bc72	-0.047787137
183	0x3c1d17b0	0.009588167
184	0xbd192320	-0.037387013
185	0x3bf24700	0.0073937178
186	0xbd04d292	-0.032427378
187	0xbcb25428	-0.021768644
188	0xbd3d0e60	-0.046156287
189	0x3be93830	0.007117294
190	0xbd44cb0a	-0.048045196
191	0xbd591a0e	-0.053003363
192	0xbd12508e	-0.035721354
193	0x3c0ab878	0.008466832
194	0xbd279090	-0.04090935
195	0xbcbe14d4	-0.023203291
196	0x3d505876	0.050865613
197	0xbc0b6918	-0.008508943
198	0x3cf57090	0.0299609
199	0x3c89141c	0.016733222
200	0xbb536240	-0.0032254606
201	0xbc84d990	-0.016217023
202	0xbce2df70	-0.027694434
203	0xbd3a3b70	-0.04546684
204	0x3d1fa0c0	0.038971663
205	0xbd639b32	-0.055567928
206	0xbd48ef4c	-0.049056336
207	0x3cb361f8	0.021897301
208	0x3c895f64	0.016769119
209	0xbd4f04be	-0.050541632
210	0xbce4d660	-0.027934253
211	0xbd71bb44	-0.05901648
212	0x3d69f944	0.057122484
213	0xbd2cffc6	-0.042236112
214	0x3ca16e24	0.01970584
215	0xbd699c16	-0.05703362
216	0xbd72af78	-0.05924937
217	0xbd1d6b2a	-0.038432278
218	0x3d243310	0.04008776
219	0xbbe78c90	-0.007066317
220	0x3d0e7b76	0.03478571
221	0xbac28e40	-0.0014843419
222	0xbd382e7c	-0.044966206
223	0x3cd12954	0.025532402
224	0xbd097686	-0.0335603
225	0xbd1c6032	-0.038177676
226	0x39a39c07	0.00031206032
227	0xbc549208	-0.01297427
228	0x3d04e5e0	0.03244579
229	0x3d15dfe0	0.036590457
230	0xbba069b0	-0.0048954114
231	0xbd3fcd40	-0.0468266
232	0x3c729898	0.014806889
233	0x3d2e4d00	0.0425539
234	0xbcf06d6c	-0.029349051
235	0xbc25f710	-0.010129705
236	0x3cffefec	0.031242333
237	0xbd7ac156	-0.061219536
238	0x3bbcc820	0.0057611614
239	0xbd44f932	-0.048089214
240	0x3d45920c	0.048234984
241	0xbd60c414	-0.054874495
242	0xbccfba68	-0.02535744
243	0xbc9619c8	-0.01832284
244	0xbd740a3a	-0.059580065
245	0xbc99d808	-0.01877977
246	0xbc909464	-0.017648883
247	0xbd3868fa	-0.04502199
248	0xbd32347c	-0.043507084
249	0x3d2f9da0	0.042874932
250	0x3d0ffcfa	0.035153367
251	0xbd73c4bc	-0.059513792
252	0xbc632060	-0.013862699
253	0x3d0d034e	0.03442698
254	0x3c1f4238	0.009720378
255	0xbcea03bc	-0.028566234

linear2.bias f4 [256]
0	0x3c72bb68	0.014815189
1	0xbd8b584d	-0.068039514
2	0xbdee7b50	-0.11644614
3	0x3e762536	0.24037632
4	0x3d08b03e	0.033371203
5	0xbe68924f	-0.22712062
6	0x3d022e27	0.031782296
7	0x3e98f513	0.29874477
8	0xbbbcf450	-0.005766429
9	0x3d1780cd	0.03698807
10	0x3e38b7eb	0.18038909
11	0xbe2a8fbb	-0.16656391
12	0xbd4e0f39	-0.050307486
13	0x3c1c5d55	0.009543736
14	0xbd7c0aea	-0.061533846
15	0xbe02b213	-0.12763242
16	0x3d9b154b	0.07572421
17	0x3e39508c	0.18097132
18	0xbe611dae	-0.21983978
19	0xbd7552cc	-0.059893414
20	0xbda77253	-0.081761025
21	0xbe251963	-0.16122966
22	0xbe13fb93	-0.14451437
23	0x3eadee77	0.33970997
24	0x3e858af5	0.26082578
25	0xbe08d9cd	-0.13364334
26	0x3e918d34	0.28428042
27	0x3e5ae350	0.21375775
28	0xbcb97690	-0.022639543
29	0x3e45b11b	0.19305842
30	0x3e80721b	0.25087056
31	0x3e8a3ad3	0.26998004
32	0xbe15e897	-0.14639507
33	0x3e488044	0.1958018
34	0x3b4b1b51	0.0030991624
35	0x3ea0bc2c	0.31393564
36	0x3d9deec8	0.077115595
37	0xbd895aed	-0.06706796
38	0x3d7f83c8	0.062381536
39	0xbe1804db	-0.14845602
40	0x3dec4a5d	0.11537621
41	0xbd470be9	-0.048595343
42	0x3cde3021	0.027122559
43	0x3c7722db	0.015083994
44	0xbd9cbefe	-0.07653616
45	0x3eb2006b	0.34765944
46	0x3e8386c1	0.25688747
47	0xbc987250	-0.018609196
48	0x3d1f8f4d	0.03895502
49	0x3e79682e	0.24356148
50	0xbd610dbb	-0.054944735
51	0x3ea1430e	0.3149647
52	0x3e8a6855	0.27032724
53	0x3e92113e	0.2852878
54	0xbe53894a	-0.2065784
55	0x3d782b16	0.060587965
56	0xbe2a97a5	-0.1665941
57	0x3dfa1d99	0.122126766
58	0xbe256b4e	-0.16154215
59	0x3e8f6ce4	0.28012764
60	0xbc8ab2ad	-0.016930902
61	0x3c35e15f	0.011101096
62	0x3d453340	0.04814458
63	0x3e504541	0.20338918
64	0x3e37a9b5	0.17935832
65	0x3eb9f80a	0.3632205
66	0xbd94a58e	-0.072581396
67	0xbce15d6b	-0.027510365
68	0x3e8efe4e	0.27928394
69	0xbe4806d8	-0.1953386
70	0x3d62d2da	0.055376865
71	0x3e8412c6	0.25795573
72	0x3dabb9b4	0.083850294
73	0xbbd9c032	-0.006645226
74	0xbd651cf2	-0.055935808
75	0x3e773db0	0.24144626
76	0x3e937622	0.28801066
77	0x3e955910	0.29169512
78	0xbd96e93e	-0.07368706
79	0x3bf54713	0.0074852793
80	0xbd6846f3	-0.056708287
81	0xbc912576	-0.017718058
82	0x3e8fb903	0.2807084
83	0x3e8a4f91	0.2701383
84	0xbe65a42d	-0.2242591
85	0x3e8d8a64	0.27644646
86	0xbe20306e	-0.15643474
87	0xbdeef31c	-0.11667463
88	0xbd6f7dd3	-0.058469605
89	0xbd61de38	-0.055143565
90	0x3e249998	0.16074216
91	0x3e059184	0.13043791
92	0x3e8e57a4	0.2780124
93	0x3e8e072f	0.27739856
94	0x3e3c0e93	0.18364935
95	0xbcfbf2e4	-0.030755468
96	0xbe3c63c7	-0.18397437
97	0xbe068ea5	-0.13140352
98	0x3e9836c0	0.2972927
99	0xbe2b44be	-0.16725442
100	0xbd92e136	-0.07171862
101	0x3da26702	0.079298034
102	0x3dca55d8	0.09879655
103	0xbd5708e2	-0.052498706
104	0xbea05d08	-0.31320977
105	0xbde6552d	-0.11246715
106	0x3e6e2158	0.23254907
107	0x3e824110	0.25440264
108	0x3e46ec4e	0.1942608
109	0x3b9c62cd	0.00477252
110	0x3e90982f	0.28241107
111	0x3c27e05b	0.010246362
112	0x3e137465	0.1439987
113	0x3e326908	0.17422879
114	0xbd0601e5	-0.03271665
115	0x3e96d5ff	0.2946014
116	0x3e82f956	0.25580853
117	0x3bcebddb	0.0063092536
118	0x3e7f9c34	0.2496193
119	0xbd99d036	-0.07510416
120	0xbc10e0b6	-0.008842638
121	0xbd56514a	-0.052323617
122	0xbe074ca4	-0.1321283
123	0x3e70de73	0.23522358
124	0xbd665d1b	-0.056241136
125	0xbe5124a9	-0.20424141
126	0xbd0d893d	-0.03455471
127	0xbd29327f	-0.041307922
128	0x3d0a1284	0.033709064
129	0x3d105816	0.035240255
130	0x3e8b6082	0.27222067
131	0x3e5a29f3	0.21305065
132	0xbccae381	-0.024766685
133	0x3db6c364	0.089239866
134	0x3e8bffb4	0.27343524
135	0x3e41fed2	0.18944862
136	0x3e8b80cd	0.27246705
137	0x3da6333f	0.08115243
138	0x3e8df028	0.27722287
139	0x3e8db364	0.27675927
140	0xbdff357f	-0.124613754
141	0x3c81c706	0.015841972
142	0x3e8ef48e	0.27920955
143	0x3ebcda66	0.36885375
144	0xbd39c037	-0.045349326
145	0x3e5dfca0	0.216784
146	0x3e96a524	0.29422867
147	0xbd146fa6	-0.03623929
148	0xbca5957f	-0.020212887
149	0x3d3cf12f	0.046128448
150	0xbc3df878	-0.011594884
151	0x3c0a6f28	0.008449353
152	0xbd80c865	-0.06288222
153	0x3e9deab9	0.30843142
154	0x3cbacb2f	0.022801964
155	0x3d072f74	0.03300424
156	0xbe94714a	-0.28992683
157	0x3e632b14	0.22184402
158	0xbd84aaed	-0.06477914
159	0x3ebe3fa4	0.3715793
160	0x3e38cf27	0.18047772
161	0x3e577244	0.21039683
162	0xbe06379d	-0.13107152
163	0xbe46b0bf	-0.19403361
164	0x3d9f0abf	0.077657215
165	0x3baf3bce	0.0053477054
166	0xbd5e82f2	-0.054324098
167	0x3e0691a2	0.13141492
168	0x3e914a41	0.28376964
169	0xbd630f03	-0.05543424
170	0x3b97294d	0.0046130777
171	0x3e5bc884	0.2146321
172	0x3e5d6132	0.21619108
173	0xbdd1a04a	-0.10235651
174	0x3e7bce38	0.24590385
175	0x3cbc635c	0.022996597
176	0x3e82379d	0.25433055
177	0xbb167346	-0.0022956892
178	0x3e9308d5	0.28717676
179	0x3e86476e	0.26226372
180	0xbe3d41f1	-0.18482186
181	0x3e7d55ed	0.2473981
182	0x3d2c685e	0.04209172
183	0xbe11be13	-0.14232664
184	0x3e4071e3	0.18793444
185	0x3e6aa909	0.22916044
186	0x3e53c512	0.20680645
187	0x3d4073fc	0.04698561
188	0xbdbbb9f2	-0.09166326
189	0x3d1017ed	0.035179067
190	0x3d735477	0.059406724
191	0xbca4c093	-0.020111358
192	0xbc2355b7	-0.0099691665
193	0xbd36b130	-0.044602573
194	0x3df4b92b	0.119493805
195	0xbc9bddfe	-0.019026753
196	0x3e9160a3	0.2839404
197	0x3d4ef5b0	0.050527275
198	0x3e93926a	0.28822643
199	0xbd3b4bbe	-0.04572653
200	0x3e7540ca	0.23950496
201	0x3cf29603	0.029612547
202	0x3e31c777	0.17361246
203	0x3d001b8a	0.031276263
204	0x3e31baa0	0.17356348
205	0x3e5982fe	0.21241376
206	0x3e44ee0c	0.19231433
207	0x3db5f4b8	0.08884567
208	0x3e318040	0.1733408
209	0x3e29f30d	0.16596623
210	0xbd8053cb	-0.06265982
211	0x3e4af47a	0.19819823
212	0x3e989a71	0.2980533
213	0x3e528bb1	0.205611
214	0xbcb566b8	-0.022143707
215	0x3e8980f1	0.26856187
216	0xbe3bf4cb	-0.183551
217	0xbd09b58d	-0.033620406
218	0xbc2593ef	-0.010106071
219	0x3ce64af4	0.028111912
220	0x3dc28c1f	0.09499382
221	0x3ea17999	0.31538084
222	0xbe6cb658	-0.23116434
223	0x3e7ce8cf	0.24698184
224	0x3df5c914	0.12001243
225	0x3e78914c	0.24274176
226	0x3e8236f7	0.2543256
227	0xbe2d6808	-0.16934216
228	0x3e57af4e	0.21062967
229	0xbdeb8a1f	-0.11500954
230	0xbe0bc8ee	-0.13650867
231	0xbd2b4687	-0.041815307
232	0x3e06bc3f	0.13157748
233	0x3e76b4a9	0.24092354
234	0x3e51cd7a	0.2048854
235	0x3dfd26a3	0.12360885
236	0x3e355b34	0.17710572
237	0x3c2d3ffe	0.010574339
238	0x3e915102	0.28382117
239	0xbe094121	-0.13403751
240	0x3d343ab7	0.044001307
241	0x3dcd3e7c	0.100216836
242	0xbd904156	-0.07043712
243	0xbd79762c	-0.060903713
244	0x3d124e55	0.035719234
245	0x3da8c5fc	0.082408875
246	0x3e9b1337	0.30288097
247	0x3e5fc647	0.2185298
248	0xbe0f318a	-0.13983741
249	0xbd196e8e	-0.03745895
250	0x3e644732	0.22292784
251	0x3e832de0	0.25620937
252	0x3e632366	0.22181472
253	0x3e6fb8e2	0.23410371
254	0x3e4ca0fd	0.19983287
255	0xbe070d3d	-0.13188644

linear3.weight f4 [1, 256]
0	0x3ac93f00	0.0015353858
1	0xbcace23e	-0.021103974
2	0x3f9725d9	1.1808425
3	0xbf110ef8	-0.56663465
4	0x3f144d63	0.5793058
5	0x3fa13674	1.2594743
6	0x4005bce8	2.089655
7	0xbf2386ab	-0.6387736
8	0x3c13239d	0.008980659
9	0x3b9a9065	0.00471692
10	0xbeedd5f8	-0.46452308
11	0x3fad68b1	1.3547574
12	0x3d2850b6	0.041092597
13	0x3c99f1cd	0.018792057
14	0x3fbf6fdc	1.4956012
15	0x3f9d67ff	1.2297362
16	0xbffd9464	-1.981091
17	0xbfba999f	-1.4578131
18	0x3fb1b37c	1.3882899
19	0x3ce158ba	0.027508128
20	0x3f861e01	1.0477906
21	0x3f92d1e8	1.1470308
22	0x3f8bfddc	1.0936847
23	0xbfcd3779	-1.6032554
24	0xbf115d83	-0.5678331
25	0x3fb0bbc4	1.3807302
26	0xc008ba47	-2.1363695
27	0xbec13f06	-0.37743396
28	0x3d0d9b34	0.03457184
29	0xbeb68f71	-0.35656312
30	0xc016adf7	-2.354368
31	0xbf030eb2	-0.511943
32	0x3f950f5b	1.1645311
33	0xbf1fed07	-0.6247105
34	0x3f7173e4	0.9431746
35	0xc009edb0	-2.1551323
36	0x3f794f8b	0.97387
37	0x3cebbdaa	0.028776962
38	0x3fae62c6	1.3623893
39	0x3f93ec7a	1.1556542
40	0xc02512df	-2.5792768
41	0x3d2987a6	0.04138913
42	0x3c9277bd	0.017879361
43	0x3d76de1b	0.06027041
44	0xbcf53b5b	-0.02993553
45	0xbff30477	-1.8985738
46	0xbf13e900	-0.57777405
47	0x4025289e	2.580604
48	0x3c17343d	0.009228763
49	0xbee90855	-0.4551417
50	0x3c139bee	0.0090093445
51	0xbef43d32	-0.47702938
52	0xbedc96f7	-0.43083927
53	0xbeb37fe0	-0.35058498
54	0x3fc3e341	1.5303727
55	0x3f62bff7	0.88574165
56	0x3fdb484b	1.7131437
57	0xbfe281b0	-1.7695827
58	0x3f8155a2	1.0104258
59	0xbed62a71	-0.41829255
60	0x3c453e30	0.012038752
61	0x3c2075c6	0.009793704
62	0x3d11d85d	0.03560673
63	0xbf087e82	-0.53318036
64	0xbfbc7394	-1.4722772
65	0xc00fc794	-2.2465563
66	0xbbb37060	-0.0054760426
67	0x3f477352	0.7791034
68	0xbf0209fd	-0.5079649
69	0x3fa0bc98	1.2557554
70	0x3c21dd26	0.009879386
71	0xbee97b08	-0.45601678
72	0xbfbe1bb5	-1.4852206
73	0x3ce7d28b	0.028298637
74	0x4022ba54	2.5426226
75	0xbf0b0a35	-0.5431245
76	0xbf00f28b	-0.5037009
77	0xbef954ce	-0.48697513
78	0xbba28a97	-0.004960369
79	0x3ced3e0a	0.028960247
80	0x3c1196be	0.008886037
81	0xbb91312d	-0.004430911
82	0xbeda5522	-0.42643076
83	0xbf77d0e7	-0.96803135
84	0x3fd351cb	1.6509336
85	0xbf25bfea	-0.6474596
86	0x3f84161c	1.0319247
87	0x3fba7b24	1.456883
88	0xbc6ff6ea	-0.014646271
89	0xbcf254c8	-0.029581442
90	0xbefe235f	-0.4963636
91	0xbfb52ea1	-1.4154855
92	0xbefbd0e8	-0.4918282
93	0xbf3632a9	-0.7117105
94	0xbfb0b700	-1.3805847
95	0x3c958435	0.018251518
96	0x3fb0c177	1.3809041
97	0x3f8061a6	1.00298
98	0xbed9d13a	-0.4254244
99	0x3f8e1144	1.1099019
100	0x3ceb35ba	0.028712142
101	0x3fd06a02	1.6282351
102	0x40153285	2.3312085
103	0x3c8ce20c	0.017197631
104	0x404564d6	3.0842795
105	0x3f9011b6	1.1255405
106	0xbf00af92	-0.502679
107	0xbf413096	-0.7546476
108	0xbef61212	-0.48060662
109	0xbd6fdf7a	-0.058562733
110	0xbee808bd	-0.45319167
111	0x40354996	2.8326163
112	0x3eda2a64	0.42610466
113	0xbeded30d	-0.43520394
114	0x3d2c7f06	0.042113326
115	0xbf05e657	-0.52304596
116	0xbf22efe2	-0.6364728
117	0x3f88d540	1.0690079
118	0xbf7521d5	-0.9575475
119	0x3c10d8e6	0.008840775
120	0x3cf409e3	0.02978987
121	0x3c5cd2ea	0.01347802
122	0x3fa2e660	1.2726555
123	0xbf03a0b7	-0.51417106
124	0x3ce5d142	0.028053883
125	0x3fa27925	1.269322
126	0xbd57c20a	-0.052675284
127	0x3d2c491e	0.042061917
128	0x3ce63222	0.028100077
129	0x3ed2f9b3	0.4120613
130	0xbf074962	-0.5284635
131	0xbf6b50fb	-0.9192044
132	0x3ba2d406	0.004969123
133	0xc036581c	-2.8491278
134	0xbf0e9836	-0.55701005
135	0xbf0b1148	-0.54323244
136	0xbee0de9a	-0.43919832
137	0xbfe5e046	-1.7959068
138	0xbed9f334	-0.42568362
139	0xbece8ac4	-0.40340245
140	0x3fb55a32	1.416815
141	0x3f7c2164	0.9848845
142	0xbf16a000	-0.5883789
143	0xc0305c03	-2.755616
144	0x3fc1c402	1.5137942
145	0xbf343f47	-0.70409054
146	0xbef92030	-0.4865737
147	0x3d325977	0.04354235
148	0x3b9b6ddf	0.0047433223
149	0xbac73489	-0.0015198152
150	0x3bf8dc43	0.0075946166
151	0xbd4cd850	-0.05001098
152	0x3c1398ce	0.009008599
153	0xbfee380e	-1.8610857
154	0xbb759d03	-0.003747762
155	0xbca8995e	-0.020580944
156	0x403c0aad	2.9381516
157	0xbebf4040	-0.37353706
158	0x3bc4aa88	0.006001774
159	0xbfc29423	-1.5201458
160	0xbecb25f6	-0.396774
161	0xbec29309	-0.38002804
162	0x3fb6929b	1.426349
163	0x3f92deaf	1.1474208
164	0xbfbc99bc	-1.4734416
165	0xbcf96c03	-0.030447012
166	0xbcd79199	-0.026314544
167	0xbfacbd7c	-1.3495326
168	0xbf0a823a	-0.5410496
169	0x3caca3be	0.021074172
170	0x3d2b45be	0.04181456
171	0xbee64bac	-0.44979608
172	0xbf0f7bb7	-0.5604815
173	0x3fb20146	1.3906639
174	0xbeeeae42	-0.46617323
175	0x3fa4d1cc	1.2876525
176	0xbf1efac4	-0.6210139
177	0x3c336187	0.010948545
178	0xbf694b32	-0.91130364
179	0xbef53383	-0.47890863
180	0x3f95a3a3	1.1690563
181	0xbefe9e29	-0.49730042
182	0xbba9197f	-0.00516051
183	0x3fb18e33	1.3871521
184	0xbef831c4	-0.48475468
185	0xbf035faa	-0.51317847
186	0xbf6213b2	-0.883113
187	0xbfda650c	-1.7062087
188	0x401e77fd	2.4760735
189	0x3d692982	0.05692435
190	0x3fc7fb9b	1.5623659
191	0x40712660	3.7679672
192	0xba01c32d	-0.0004950043
193	0xbaffc11c	-0.0019512507
194	0x3fe4a799	1.7863647
195	0xbd149525	-0.036275048
196	0xbf1719db	-0.5902383
197	0xbcc0e1c8	-0.02354516
198	0xbed96176	-0.4245717
199	0x3f2bb512	0.67073166
200	0xbf15f78c	-0.5858085
201	0x3cec7092	0.028862271
202	0xbeff89aa	-0.49909717
203	0x3b5bc309	0.0033532998
204	0xbfb65f9c	-1.4247928
205	0xbedaa875	-0.42706648
206	0xbed9576e	-0.42449516
207	0xc0083264	-2.1280756
208	0xbef0e297	-0.47047874
209	0xbfc1436e	-1.5098703
210	0xbbc7e068	-0.0060997494
211	0xbec1bc71	-0.37839082
212	0xbf1286db	-0.57237023
213	0xbf1be0df	-0.6089
214	0xbd43aca0	-0.04777205
215	0xbee0e2b6	-0.43922967
216	0x404a1baa	3.1579385
217	0x3abda8c7	0.0014469855
218	0xbcdb4d11	-0.026770147
219	0x400c5bbc	2.193099
220	0xbfb8e761	-1.4445611
221	0xc00a0bc1	-2.1569674
222	0x3fb1c07f	1.388687
223	0xbeef0683	-0.46684656
224	0xbfc14f2e	-1.5102289
225	0xbf21df88	-0.63231707
226	0xbef6c522	-0.48197275
227	0x3f8ec27c	1.1153102
228	0xbee2ce74	-0.44298136
229	0x3f825b3e	1.0184095
230	0x3fe52fe0	1.7905235
231	0xbd1ca535	-0.03824349
232	0xbfdfdbd3	-1.748896
233	0xbeee269b	-0.4651383
234	0xbf36fa1d	-0.7147539
235	0xbfa5b206	-1.2944953
236	0xbef1d292	-0.47230965
237	0x3c8f0a64	0.01746101
238	0xbf26b7a1	-0.65123945
239	0x3fd58d0c	1.6683669
240	0x3d176c7d	0.036968697
241	0xbfdbc6ff	-1.7170104
242	0x3d2bffae	0.041991882
243	0xbc44f4c0	-0.012021244
244	0x3d0b0edc	0.033949718
245	0xbfaf66a0	-1.3703194
246	0xbef9deec	-0.48802888
247	0xbecbbc7c	-0.3979224
248	0x3fd4bcdc	1.6620135
249	0x3be41d53	0.0069615035
250	0xbecc90e2	-0.39954287
251	0xbedea352	-0.4348398
252	0xbef2b420	-0.4740305
253	0xbef5313c	-0.47889125
254	0xbff8a79c	-1.942615
255	0x3fc34db7	1.5258092
