turtlebot3_rl_sim/src/models/td3/turtlebot3_top_4_obstacle/td3_critic2_model_ep2500.pt (torch_old, 659490 bytes, 5 tensors)

linear1.weight f4 [256, 384]
00000000: c567 01bd 93d9 67bd 9f7d b63c 6461 f4bc
00000010: 9da0 133d 530e 733c a6e0 af3c 0a19 d6bc
00000020: c397 00bd ca4a ee3c c9f0 cabb b68b 9abc
00000030: 5e62 14bd 514e 47bd b7a5 b73c 405d bebc
00000040: 0aa4 dcbc 36a1 253d a8e7 32bc d90b cdbc
00000050: 6853 b9bc b0f1 bebc 6873 bcbc b818 c23a
00000060: 0f34 29bd e362 e1bb b2fd d5bb e572 08bd
00000070: 6f04 3f3c 17a5 28bd e5fb 9fbb 21af cd3c
00000080: f69f 20bd 339d 633c e188 4a3d 6e8a 983b
00000090: f8ea b93b 7fe8 2c3c 46f1 1a3d e74d 3cbc
000000a0: a821 3a3d 9e84 80bc 36b1 1a3d e227 d63b
000000b0: 89f9 54bd fb48 ed3c 7cfe 07bd ae17 28ba
000000c0: 87e7 253d 5345 ee3c 5d39 1fbc bf5c 3cbc
000000d0: e1c9 54bd 35f7 1fbd 4665 903b 9c38 033d
000000e0: 3500 123d a76b 363d 8c9f 153d 0a47 5fbd
000000f0: 6cf1 f2bc eafe 5dbc 4ef8 1aba c011 3cbd
00000100: 2d9a 0cbb bf1f 29bd a0d1 c13c 4055 37bd
00000110: cc3c 8139 1aa9 6a3b 4946 dc3c 0534 133d
00000120: b498 033d cada 56bc 57bc 21bd b49e 823b
00000130: 7b10 6cbd 143a 8c3b 88ea 31bd f2b2 56bd
00000140: d4d9 8138 f920 4abd 56e9 a63c 6d02 05bd
00000150: 44d3 063b a836 433c f898 36bd e5a9 03bd
00000160: ce5f 293d 05a6 80bb 948b 0d3d 6426 823c
00000170: 8f96 23bc 5358 efbc 772f b93c a3af 68bc
00000180: 01c0 523c e694 2c3c 26a8 2e3d 0d54 133d
00000190: 9dc8 04bd ea77 e73c b7ec a7bb 84ec 073d
000001a0: 0433 76bb 8246 e03c 4c89 073d 6728 23bc
000001b0: 894d c7bc 019b d43c 72aa e63c 8f7a 303c
000001c0: ac48 72bd 3c8a f8bb df22 29bc 5728 29ba
000001d0: 567c 1bbd 53ec 67bc 4128 cbbc d256 693c
000001e0: 7e32 10bd 07ca acbc 659d 1c3d 3a6e 53bd
000001f0: 9aac dfbc d921 c1bb 2c3d f6bb e00c 35bd
00000200: 8ed0 2a3d f677 96bc 94a1 813c 948d 7cba
00000210: 3b84 80bc b4d0 023d 9618 1cbd f3d3 763c
00000220: 5433 0a3b 00b8 b2bc 0f4c be3c 3638 aa3b
00000230: 767f 9bbc e5db 1c3d f826 c93b d644 1ebd
00000240: e731 303d 0766 2cbd 1667 aa3c 48d0 c53c
00000250: dbaf ecbc 8548 1a3d 3640 18bd ce9e 2b3d
00000260: 2482 fabc bb02 e7bb 2852 34bd b521 02bd
00000270: c8fd b3bc 707e 33bc 464f 1cbc f7d7 b83c
00000280: d6d5 233d 3117 583b fe82 263d f7a0 a4ba
00000290: 5a32 51bc b340 68bc 1f4f 2bbd bedd 1abd
000002a0: ad29 0cbd 1c03 f5bb 7fcb b53c 0393 66bd
000002b0: da12 50bd aed1 a23b dca7 7ebc c6e4 9abc
000002c0: ce7b 9cbb 943b 79bc 5769 b33c 24ee 013d
000002d0: d435 fbbb 594b 513c 40f2 3ab9 5f03 28bc
000002e0: 8441 febc dd69 993b fb9d fc3b ae3b a23c
000002f0: 2291 52bd bdb8 03bd af67 bc3c 475a 2fbd
00000300: 958e 193c 71ff c3bc 3e7e 93bc 7aff 59bd
00000310: 08e1 3dbd ad85 05bb eb37 61bd 7df1 85bc
00000320: 321a e43b 4e09 2d3d 0942 cbbc 0096 c03b
00000330: 717f 503c 57da b53a b18e 42bd ad2b 143b
00000340: af96 b03c fb54 6bbd d5a4 0ebd 49d3 d13a
00000350: fca5 033c 8b15 61bd cc58 8d3a 6bb5 63bd
00000360: 947c 033c cceb 013c 4bbf e5bc c017 3bbd
00000370: 7edb 11bd 5de0 183d 51d2 4abd 4b01 f43b
00000380: 9988 ccbc 8004 39bc 9446 73bd b8f1 3bbd
00000390: fc75 0b3d 3f78 adbb 1bf1 f73c cdda 88bc
000003a0: 6069 b0ba 4728 2fbd 7793 00bd 9e9a ad3a
000003b0: f4de 70bd 8458 0f3d 6374 753c 34e5 f0bc
000003c0: 2b5d e0bb 0e35 14bd 2d14 81bc 703c 3ebc
000003d0: df0e 24bd f773 383c 355c 8bbc 7729 ba3c
000003e0: 42e1 5abc c881 37bc 6754 24bd fdd0 193d
000003f0: 397f 4cbd 72c3 e63c 6ffe 26bd baf0 d0bb
-0.031593103 -0.05660398 0.022276698 -0.029831596 0.036041845 0.014834958 0.021469425 -0.026134986
-0.03139473 0.029088397 -0.0061932546 -0.018865447 -0.036226623 -0.048658673 0.022417886 -0.023237824
-0.026933689 0.040436946 -0.010919489 -0.025030063 -0.022622779 -0.023308605 -0.023004249 0.0014808392
-0.041309413 -0.0068782433 -0.006530487 -0.033312697 0.011658772 -0.041173067 -0.004882323 0.025107922
-0.03921505 0.01389246 0.049446944 0.004655174 0.0056737624 0.010553478 0.037827753 -0.011493183
0.045442253 -0.015688237 0.037766658 0.006535516 -0.051995788 0.028965464 -0.03320168 -0.000641222
0.040504005 0.02908579 -0.009718266 -0.011496722 -0.05195034 -0.039054114 0.004406604 0.03203641
0.03564473 0.04453626 0.03652911 -0.054511108 -0.029656135 -0.013549546 -0.0005911634 -0.045915365
-0.00214542 -0.04129004 0.023659527 -0.044759035 0.00024650095 0.0035806359 0.026888983 0.03593828
0.03212805 -0.013113687 -0.039486255 0.003986204 -0.057632904 0.0042793844 -0.043436557 -0.05241675
6.191773e-05 -0.04934785 0.020374935 -0.032473017 0.0020572701 0.0119148865 -0.044579476 -0.032144446
0.041351132 -0.003926041 0.03455694 0.015887447 -0.009984626 -0.029216921 0.02260564 -0.014202031
0.01286316 0.010533547 0.042640828 0.03596883 -0.032417882 0.028255422 -0.005124654 0.033184543
-0.0037567029 0.02737737 0.03308992 -0.009958363 -0.024328964 0.025952818 0.028157447 0.010771408
-0.059151337 -0.007584838 -0.010323255 -0.00064528495 -0.037960373 -0.014155465 -0.024799468 0.014241891
-0.035204403 -0.021092428 0.03823604 -0.051618792 -0.027303983 -0.0058939275 -0.0075146165 -0.04420173
0.0417028 -0.018367749 0.015824117 -0.0009634134 -0.015688052 0.031937316 -0.038109384 0.015065181
0.0021087723 -0.021816254 0.023229627 0.005194689 -0.018981677 0.038295645 0.0061386786 -0.038639866
0.04301634 -0.04208949 0.020801108 0.024147168 -0.028892448 0.037666816 -0.03717061 0.041899495
-0.030579634 -0.007049886 -0.044023663 -0.031770427 -0.021971598 -0.010955438 -0.009540385 0.022563918
0.03999885 0.0032972808 0.040652268 -0.0012560178 -0.012768352 -0.014175582 -0.041823503 -0.037809126
-0.034219433 -0.0074771773 0.022191761 -0.056292545 -0.05079923 0.0049688434 -0.0155429505 -0.018907916
-0.004775501 -0.015211958 0.021900816 0.03172125 -0.007666329 0.012774312 -0.00017828587 -0.01025471
-0.0310371 0.0046818093 0.0077092624 0.019803848 -0.05140794 -0.032158602 0.022998659 -0.042810705
0.009372373 -0.023925515 -0.018004533 -0.053222157 -0.046357185 -0.0020373866 -0.05498497 -0.016350502
0.0069611305 0.0422452 -0.024811761 0.0058772564 0.012725697 0.0013874274 -0.047499362 0.002260904
0.021556227 -0.05745409 -0.034825165 0.0016008402 0.008035179 -0.054952186 0.001078391 -0.055592936
0.008025307 0.0079297535 -0.028045317 -0.045676947 -0.035609715 0.037323344 -0.04951698 0.007446443
-0.024967479 -0.011292577 -0.05939348 -0.045884818 0.034048066 -0.0052938755 0.030266335 -0.016705895
-0.0013459139 -0.04276302 -0.031390633 0.0013244932 -0.058806375 0.034996524 0.014981362 -0.029406168
-0.006847044 -0.03618341 -0.01575669 -0.011611089 -0.040053245 0.011258117 -0.017011741 0.02272485
-0.01335937 -0.011200376 -0.040119555 0.037552822 -0.049926016 0.028169367 -0.04076999 -0.006376353

linear1.bias f4 [256]
00000000: b6bd 9abc f550 16be 10e1 a73c 5172 c1bc
00000010: 282c cb3c 1da8 183c 681e debc 06a4 2a3b
00000020: be8d 1fbc f4a8 2fbc 801d 39bd c7bf 353b
00000030: 4873 723c 393c 10bd f4cc 6c3e a8bf ad3d
00000040: 6672 1fbd 9048 493c e49e 70bc 3aac 6a3c
00000050: b95e 283e cc06 72be f210 58bd 522b 6a3c
00000060: 537f 26bd a0da b3bc d184 40bd 8752 a9bc
00000070: 86c3 12bd 55d3 193c 20e3 3cbd dbc6 e4bc
00000080: 34c0 07bd 6025 4c3c 86fc 15bd 6a6c 52bc
00000090: 96aa 893d 6612 16bd eaa1 403e f239 663c
000000a0: c158 c5bc e901 0ebc f788 28bc dcbe 0f3d
000000b0: 332b a53c 083b 483c 5940 4b3e 2d84 563e
000000c0: aa58 e7bc 8034 b1bc c7f5 acbc caad 51bb
000000d0: df3d 293e 057b 1c3d 50e9 0abc d46e febc
000000e0: fd9a 09bd 0111 d23c b569 0fbd 40e0 3dbd
000000f0: ee2f a53d 0bc6 67bd a9b6 05be 9f60 26bc
00000100: dc88 ffbc 2e78 1abd fab6 e33c d8d2 30bd
00000110: e54e 0ebd 9ad5 d4bc b558 163c 1025 023b
00000120: 9d1a 88bc bd79 01bd cef1 19bd 0158 db3c
00000130: a8b4 c738 72d1 20be 29f7 503d cb88 6cbc
00000140: fa90 813e 9389 6cbd 7e19 293d 5d17 143d
00000150: 1239 56bc 37eb 21bc a3ef 543e 49a6 0f3e
00000160: c483 0d3d 8561 20be b029 b43d 12c0 b73d
00000170: 10b7 413d 2c38 fbbc fef0 1cbd 24a2 7dbb
00000180: 7af2 35bd 14e0 99bc 8a49 d0bc 2837 c53c
00000190: dc45 263c 8d61 973c 7e40 16bd 0a00 903e
000001a0: 4c9b 043d 57b2 e5bc d7b5 393d da7f 5bbd
000001b0: 9053 433c 61d9 47bd 9d9b 983a acb3 43bc
000001c0: 122f e03c 5c03 8f3b 4887 ee3b 2fdc b33c
000001d0: 0188 1c3e 4cfa 893b ee2b 2e3d 2bb3 f33c
000001e0: b595 103d 14ca 74bd ef1c 7b3d 6a7d 643c
000001f0: c700 27bd 49c2 663e fcf9 8e3c 9d6f 1e3d
00000200: 469c 95bc 5096 913c d88d 3ebc dcee 46bd
00000210: c9e5 d03c dcb0 2cbe 2e35 a13c 0ae6 ea3b
00000220: e294 613d 25ec 213e 605d cb3b 8985 46bc
00000230: d8b7 413d 7495 ea3d ff77 acbc c525 0cbd
00000240: 2034 67bb d887 30bd 71ff 43bc 12bc 4c3e
00000250: 3888 31bd c95e c1bb 7293 d5bc 5958 3b3e
00000260: 589e a13c c244 59bb 73c9 e5ba a92f 253e
00000270: 4b61 7d3c befc 05be d052 cc3b 7625 2a3d
00000280: 07c5 313b 494d 5f3d 8fa4 14be d120 8abe
00000290: 2313 e7bc 01e9 47bd 795f cabb 0fde 633c
000002a0: 7411 8c3a 572d 3d3d 6add 513e c926 c2bc
000002b0: 6e47 1fbd a88e 453c 6715 bb3c 3781 22bd
000002c0: 3976 41bd 2656 08bd 7281 f3bd 6022 943b
000002d0: 4910 4cbd 950f 113c 2073 3ebd 25e7 973d
000002e0: 222e d6bc b5c4 413e 4ada ed3b 627e eb3c
000002f0: fb57 453e 1d32 82bb 3ff3 25bd 2fae 2abd
00000300: 9d33 08bd 7a53 8cbc 0dc3 8dbb 1538 84bd
00000310: e005 6abc 6809 3dbc 0bc2 703d 0fc3 26bd
00000320: 4eca aa3c dd55 143d 6fc4 693e b032 26bb
00000330: 0e10 16bd 47a9 26bc 802e b2bb d205 973d
00000340: 181c c33b a5f7 ce3c c0a5 91ba a6e8 9dba
00000350: 5fc5 25bd aa69 30bd 1cb6 853c f4f2 0e3d
00000360: 57f6 28bd 287e ce3c 2243 dfbc a42a 993c
00000370: 6858 2e3e ecf8 f7bc a0a2 b4bb 058f 723c
00000380: e895 30bc 671c 25bd 0613 253d 0555 81bc
00000390: c827 e73b 15d1 103b e415 0b3c fc8e f2bc
000003a0: f308 6abd dc02 f33c 52cc 6bbe addd 07bd
000003b0: e8ce a7bb fddd 1b3d 8984 c2bc f79f af3d
000003c0: 7e3f 2b3d 79d5 c5bd dc8a 073d 5cf4 043d
000003d0: 90fa 3cbd c9c7 d3bd 9720 56be 4c46 0e3d
000003e0: fc4a 0e3d 5590 07bd b841 b7bc 5dc1 993c
000003f0: 896c 813e 6294 3e3e 0231 6e3c 7fdb 2abd
-0.01888929 -0.1467932 0.02049306 -0.02361408 0.024801329 0.009317425 -0.027114108 0.0026037707
-0.009738384 -0.010721434 -0.04519415 0.0027732716 0.014797993 -0.035213683 0.23125058 0.08483821
-0.03892746 0.012285367 -0.01468632 0.014323289 0.16442384 -0.23635405 -0.052750535 0.014292555
-0.04064877 -0.021954834 -0.047001664 -0.020669235 -0.035830997 0.009388764 -0.04611504 -0.027926853
-0.033142284 0.012460083 -0.03661778 -0.012843231 0.0672199 -0.03663864 0.18811765 0.014051901
-0.024090173 -0.008667448 -0.010286561 0.035094127 0.0201622 0.012221105 0.19848765 0.20948859
-0.02824052 -0.02163148 -0.02111329 -0.0031994455 0.16527508 0.038203258 -0.008478478 -0.031058706
-0.033595074 0.025642874 -0.03501292 -0.04635644 0.080657825 -0.056585353 -0.1305796 -0.010154872
-0.03119319 -0.03771227 0.027797211 -0.043169826 -0.03474321 -0.02598076 0.009176423 0.0019858517
-0.016614253 -0.03161024 -0.03758412 0.026775362 9.522709e-05 -0.15704897 0.05101696 -0.014436911
0.2530592 -0.05774839 0.041284077 0.036155093 -0.01307513 -0.00988274 0.20794539 0.14028277
0.03454949 -0.15662201 0.08797014 0.089721814 0.047293723 -0.030666433 -0.038315766 -0.003870138
-0.044420697 -0.018783607 -0.025425691 0.024074152 0.010148492 0.018479133 -0.0366826 0.2812503
0.032374665 -0.02803914 0.04533943 -0.053588726 0.011921778 -0.048791293 0.0011643056 -0.011944693
0.027366195 0.004364414 0.0072793104 0.021955578 0.15286256 0.004210746 0.042522363 0.02974852
0.03529902 -0.05976303 0.06130689 0.013945917 -0.040772226 0.22535051 0.017453186 0.03868066
-0.018262994 0.01777187 -0.011630498 -0.048567638 0.025500195 -0.16864341 0.019678678 0.007168536
0.055073626 0.15812738 0.0062061995 -0.012116798 0.047294468 0.11454287 -0.021053312 -0.034215707
-0.0035278872 -0.0430983 -0.011962757 0.19993618 -0.0433428 -0.005901192 -0.026071284 0.1829542
0.019728824 -0.0033152555 -0.001753135 0.16131462 0.015465091 -0.13084695 0.006235458 0.04153963
0.0027125494 0.054517064 -0.14515899 -0.26978162 -0.028207367 -0.048806194 -0.006175932 0.013907923
0.0010686354 0.046185818 0.20494619 -0.023700135 -0.03888648 0.012057938 0.022837354 -0.03967401
-0.047231887 -0.033285283 -0.11889924 0.0045206994 -0.04982022 0.008853813 -0.04649651 0.07417134
-0.026145045 0.18922694 0.007258688 0.028746787 0.19271843 -0.003973259 -0.04051518 -0.04167002
-0.033252347 -0.017129648 -0.0043262304 -0.06456009 -0.014283627 -0.011537887 0.058778804 -0.040713366
0.02084842 0.036214698 0.2282884 -0.0025359802 -0.036636405 -0.010172195 -0.005437672 0.07374157
0.005954277 0.02526457 -0.001111202 -0.0012047484 -0.04047143 -0.04306952 0.016322188 0.034899667
-0.041250553 0.02520664 -0.027253691 0.01869709 0.17025912 -0.030270062 -0.0055125505 0.014804606
-0.010777928 -0.04031029 0.040301345 -0.01578761 0.007054303 0.002209728 0.008489106 -0.029609196
-0.05713744 0.02966445 -0.23027161 -0.03317039 -0.0051211007 0.0380535 -0.023744838 0.08575433
0.041808598 -0.09659857 0.03309141 0.0324596 -0.046137393 -0.1034084 -0.2091087 0.03473501
0.03473948 -0.03309663 -0.022370204 0.01876896 0.25278118 0.18611291 0.014538052 -0.041713234

linear2.weight f4 [256, 256]
00000000: 5a34 d9bc 19d0 573d 5cf2 d13c 281e 453c
00000010: 6343 80bd e596 82bd 840c cebc 365d 283c
00000020: 8ab8 6fbd b25b 25bd 23d9 f83c 1061 33bd
00000030: 4c8d acbc 809b 4e3d 46a1 1fbd 5bd3 7d3a
00000040: 74d4 b83c f23c 59bd b8f2 76bc 4ccf 6e3d
00000050: 9e02 253c daca 5ebd 668b 9fbc ae0a 263d
00000060: 0053 8e39 ca6f 273d 9660 a93c eab4 05bd
00000070: dec2 3e3d c2a1 d6bc 7e57 7f3d e887 013d
00000080: 409e 23bd 98af 163c e034 333b 3b08 64bd
00000090: c8de d93c 40e8 86bc 753c 09bd c15b 513d
000000a0: 8a5a 5cbd 3d47 983a 626e 063d f2a8 603c
000000b0: 8090 513c 685e d83c 7f64 29bd bdab 01bd
000000c0: fb74 eebc f08b 5e3d cd9a 9b3c 6775 abbc
000000d0: a39e 6fbd 2498 363d 3023 f13b ee08 15bd
000000e0: 9107 583d 5a1b 59bd 6135 41bc 18fd 3bbd
000000f0: 258d 8dbb 40a1 56bb 4675 353d 2524 123c
00000100: 9e8c a73c 0054 713b c3f3 723d 3972 4abd
00000110: 1a92 59bd dc59 d2bc 9cc8 093d 82d2 04bd
00000120: 68ad c7bc 2ee0 653d 0013 d63a 4032 c13c
00000130: 4cc1 c73c 6c35 70bd f8d0 b5bc 4021 8aba
00000140: 84eb 033c 2803 bd3b 4a68 543d 3410 67bd
00000150: bd9a 88bc 6125 4cbd acf3 a8bc a046 3bbd
00000160: da84 6f3d 1fad 2cbd 98d8 473d 3538 913c
00000170: 4a06 563d 1c1a 25bd 563e 78bd 669f 243d
00000180: 9023 19bd 99a8 4fbd 4238 d9bc d389 6dbd
00000190: 64a7 6a3d 241a 193d f83f cb3c 91e4 48bd
000001a0: 2c7f 043d 9644 663d 4423 023d 40b7 d8bc
000001b0: 2230 773d 6c87 633d 3926 46bd a094 bb3b
000001c0: e7dd a4bc 7420 763d 901b 443c c4aa 013d
000001d0: 9074 31bd 69b3 c2bc 7090 0c3d 57bf 2dbc
000001e0: f06e de3c 60e8 913b 59d7 42bd 2ec6 263a
000001f0: a0c8 5e3c 4ebc a43c d165 5a3d a043 8a3b
00000200: fc19 e1bc 3c7c f93c 2e67 113d 4994 4fbd
00000210: e05a 55bc 049c f1bc 26d2 03bd 8c94 023d
00000220: 06f7 18ba 82c3 603c 58cc cabc e53e 193d
00000230: befe 17bd 8036 39bd e639 1e3d 2b5e 643d
00000240: 4013 203d e05d 4fbc 3c56 3fbd fff7 383d
00000250: c016 44bc 6596 993c 139a fc3b 52dd 5dbd
00000260: 774e 383d 4a5f 313d 4ba0 66bd 4e5a 113d
00000270: 2ef5 503d f234 5cbd 0670 763d 4941 48bd
00000280: 6484 fe3c 66f4 3d3d d5b7 8fba 9473 60bd
00000290: f405 f6bc 7fa8 26bc 2637 13bd e2ef d6bb
000002a0: 2801 053c 54b1 e73c 8318 f03a 0035 a6bb
000002b0: d27c 6b3d 3adf 793d 6a84 3dbd 40ee 28bd
000002c0: 4435 453d 38eb d4bc 31b8 d23c b833 cfbc
000002d0: 47cd 393d c74d afbc d4f7 c2bc 2de5 0cbd
000002e0: 2bb1 6bbd c057 403b 767a 203d 80e4 54ba
000002f0: 921a 27bd 721a 013d 40d3 f8bb 90bb 263d
00000300: 72ca 693d 800f 0b3c bafc 24bd ba03 52bd
00000310: 0c20 b03c b6fc 1cbb bc59 7ebd 20e6 633b
00000320: 9a02 dabc f064 e7bc bc4e 7b3d a54f 913c
00000330: 2499 fe3c 58ac 0a3d 560d 58bd 707b 403b
00000340: 426c e13b 3430 94bc 34ba 64bd b47f 60bd
00000350: 831e 6fbc 38e7 563c 8421 0cbd 624c 42bd
00000360: bfd2 20bd 70e2 223c 0c43 813c 618d 5c3d
00000370: 0894 35bd 5b84 6dbd 976c 27bc d0f6 69bc
00000380: 8c15 7abd 4486 8c3c deef 243c 83e8 773d
00000390: 7e49 173d c693 6e3d 3a50 6dbd 3ce6 f1bc
000003a0: 2855 26bc ace3 b33c 35cb 1e3d eee9 593d
000003b0: 0874 ec3c eeff 703d 2f5f 333a 1091 3fbd
000003c0: 204d f63b b79b 28bd 733e f83c 6d21 1d3d
000003d0: bc5a 853c e4d7 98bc 6089 2fbb 4706 24bd
000003e0: 0ac5 633d 74f9 163d 2c5f 473d c44d 3dbd
000003f0: 80c3 033c 5ea3 9ebc 1752 3a3d 32bd 5f3d
-0.026514221 0.05268869 0.025628261 0.012031116 -0.06262853 -0.06376437 -0.025152452 0.0102761295
-0.0585256 -0.04037065 0.030376976 -0.043793738 -0.02106347 0.050441265 -0.03897216 0.00096826785
0.022562243 -0.053036638 -0.015072517 0.058303162 0.010071425 -0.054392673 -0.01947565 0.04053753
0.0002714619 0.040878095 0.020675939 -0.032643236 0.04657256 -0.026200179 0.0623393 0.03162375
-0.03994584 0.009197138 0.0027344748 -0.05567191 0.026595488 -0.016468167 -0.033504922 0.051112894
-0.053797282 0.001161791 0.032820113 0.013712155 0.012790799 0.026412204 -0.041355606 -0.031657923
-0.029108515 0.054332674 0.018994713 -0.020930005 -0.058500897 0.044578686 0.007358931 -0.03638547
0.05274159 -0.0530046 -0.011792512 -0.045895666 -0.0043198043 -0.003274992 0.044301294 0.00891975
0.020452794 0.003682375 0.0593145 -0.049425337 -0.05311785 -0.025677614 0.03363858 -0.03242732
-0.024374679 0.056121998 0.0016332567 0.023583531 0.024384163 -0.058644697 -0.02219437 -0.0010538474
0.008051757 0.0057681985 0.05185727 -0.056411937 -0.016675347 -0.049840335 -0.020624004 -0.04572165
0.058476306 -0.04215729 0.048790544 0.017726997 0.05225209 -0.040308103 -0.060606323 0.040191077
-0.03738743 -0.050697897 -0.026516084 -0.057992768 0.057288542 0.037378445 0.024810776 -0.049046103
0.032347843 0.056217752 0.031771913 -0.026454568 0.060348637 0.05554907 -0.048376296 0.0057245046
-0.020125343 0.060089543 0.011969462 0.031656995 -0.043324053 -0.02376719 0.034317434 -0.010604701
0.027152508 0.00445275 -0.047568653 0.00063619285 0.013597637 0.020109322 0.053319756 0.0042194873
-0.02747821 0.030454747 0.03549879 -0.050678525 -0.013022155 -0.02949334 -0.032182835 0.031879947
-0.0005835149 0.013718488 -0.024755642 0.037413497 -0.037108175 -0.04521799 0.038629435 0.055753868
0.03908086 -0.012656659 -0.0467131 0.045158383 -0.011968315 0.018748472 0.0077087968 -0.054166146
0.044996705 0.043303765 -0.05630521 0.035486512 0.05101507 -0.05376143 0.060165428 -0.048890386
0.031068988 0.046375655 -0.001096482 -0.054797724 -0.030032136 -0.010172009 -0.035941266 -0.006559358
0.008117951 0.028282799 0.0018317852 -0.005072236 0.057492085 0.0610039 -0.046268858 -0.041242838
0.0481465 -0.025991067 0.025722595 -0.025293216 0.045361783 -0.021399392 -0.023799814 -0.034398247
-0.057542007 0.0029349178 0.039179288 -0.00081212074 -0.040796824 0.03151936 -0.0075935423 0.040706217
0.057077833 0.008487582 -0.04028008 -0.051273085 0.021499656 -0.0023954338 -0.062097296 0.0034774616
-0.026612569 -0.028246373 0.061354384 0.017738173 0.031078883 0.033855766 -0.052747093 0.002937045
0.0068793604 -0.018089391 -0.05584164 -0.054809287 -0.014594677 0.01311665 -0.03421165 -0.047436126
-0.039263483 0.009941682 0.01577904 0.053845767 -0.044330627 -0.057987552 -0.010218761 -0.014280036
-0.061055705 0.017153867 0.010066954 0.060524475 0.036935322 0.058246396 -0.057937838 -0.02952873
-0.010152139 0.021959148 0.038768012 0.05320161 0.028863922 0.058837824 0.00068424916 -0.0467692
0.0075165182 -0.041164126 0.030303216 0.038361955 0.016278617 -0.018657632 -0.0026784763 -0.04004505
0.055607833 0.03685899 0.048674747 -0.04621674 0.008042216 -0.019365009 0.045488443 0.05462379

linear2.bias f4 [256]
00000000: 5e24 96bc 7b1d 8d3e 393a 55be 2948 573d
00000010: 5bc3 1fbd 8b96 463e 2926 ccbc 9a49 2b3e
00000020: 37bc 473e 5719 d33e 7f45 fcbd 34f3 0f3d
00000030: 787e 30bd 7b46 63bd 0f8d 3e3e ff29 b93c
00000040: e62a 86be 7f2e 53be b275 993e 0041 02be
00000050: 8e55 07be f949 38be 5253 683e e437 fdbc
00000060: 42a2 543e 5290 7e3e a901 df3d 1233 1b3c
00000070: 2cc3 013d 0bab 993e 7892 863e 213d 39be
00000080: 64b8 c23e 71d2 99bc f86d 26be 7d2a 8c3e
00000090: 9732 43bc a0ba 803e 8b77 5a3c d8ce 2b3d
000000a0: e2b9 5fbd 36e0 723e 44dc 683e 005c dabc
000000b0: 9883 d4bb e532 02bd da19 963e 9982 2f3e
000000c0: 8c51 9e3e fd80 85bd a86c 6d3e 06d0 ab3c
000000d0: 1adb bebd 1d90 6cbd af4c 1e3e b435 073d
000000e0: 2625 96bc 518c 45bd 70a4 983e 36c4 9bbd
000000f0: 09cd 843e 6248 8b3e f3da 60bd fe50 263d
00000100: 5777 20bd 4551 6a3e 2e14 1abd 9373 933e
00000110: bc7b 70bd 3de0 573e fe12 27bd 6060 973e
00000120: 3378 c9bd a6d3 2d3d 6439 50be 2bab ecbc
00000130: 6861 803e 55c9 903e 0073 31bd 55a9 07bd
00000140: 2520 793e a1cb 42bd 853c 86be d3d7 60bc
00000150: 010e 283e 0145 73bd bcaf d1bc 064d 2c3d
00000160: 8264 5bbd 5b12 853e b003 1dbe daae 00be
00000170: d7a9 803e c787 2bbe ee43 11bc 1673 a83b
00000180: e3db 6abd 5397 37be ada3 f43d 9e81 0a3e
00000190: d5d4 3d3e 8da7 83bd b4f7 8d3e d708 7a3e
000001a0: 5c08 71bd 3960 4dba 1c3a d9bd b390 8e3e
000001b0: d4b1 77bc f842 8b3e f8da 3e3c d637 7d3e
000001c0: 6e18 2b3d c9c2 5a3c bfc0 8e3e d309 963e
000001d0: af85 443e f707 5d3e 7121 74be 1f7b 2cbd
000001e0: 213c 65be f526 923e 8fdf a83c 92f5 9b3e
000001f0: 3ff3 443e 2941 ee3d fb48 6d3e e77f 23bd
00000200: f3fd 973e 9764 393d 7579 56be 458e 9e3b
00000210: 7aca 60bd 4091 9f3e 25c2 80bc 8463 8f3e
00000220: dc07 9d3e 40af 0ebe e786 d7bd fb9e 603e
00000230: 3f96 28bc 82c4 a0bd 0849 253e 0028 eabd
00000240: ec40 c7bd ec6a 7ebd 3fac 47be 9765 a4bc
00000250: 13f9 593e 1e9a 4bbe cfe7 23bd c0ba 15bd
00000260: f425 233e 01b2 8b3e c4c8 983e 2a89 303e
00000270: 0e5c 3ebd c08e 00be 6d44 06bc 99f6 963e
00000280: 1688 14bd 013f 35be 12d3 553e f9c9 51be
00000290: 4e23 3e3e f4c9 183d 81dd 4bbc a000 4b3e
000002a0: 85e2 483e 7b8c 68bd d6d9 1abd 2349 5bbe
000002b0: 52a3 ef3b 9520 483e 0c7a fcba 74b3 0a3c
000002c0: 4b2d e1bd 09d0 dd3c 237f 803e 5a55 963e
000002d0: 5951 873e 7ab7 63be 681d 04be 6149 46bd
000002e0: b22d 7ebe 4218 af3d ca56 d3bc 5d97 aeba
000002f0: 05ab 143d 39f2 7f3e 090b 7ebc 9ca7 833e
00000300: fc0a 943e 4ad4 d5bc 9463 1dbe 7d27 743e
00000310: 9f1c 3e3e f911 15be 6893 853e 564a 9bbd
00000320: f24f c03d cc0c e23c 0efc 76be 0bb9 6a3e
00000330: 75eb 87bd f5fc 8f3e eb32 ff3c 70a0 15be
00000340: 661f 903e dbf9 5bbc 15e7 04bd f21b 963e
00000350: e21e 643b 41c7 d63c d1ae 853e b15c 1c3e
00000360: ac58 3dbe 1bc5 923e 5577 07bd 2f20 b13c
00000370: 8126 4bbe 1bb8 933e 05cc 41be 87d9 2c3e
00000380: d601 6bbd 209e 523e 13c2 813e e54e 8ebc
00000390: f965 1abe 2869 9c3c 996a 00be af80 bc3c
000003a0: 8c93 f63e e1d9 623e 8493 96be 26bf 653e
000003b0: 3773 2a3e a3d5 053e b6af 7d3e ce6c f83d
000003c0: 7ff9 25bd 74d3 983e 3eba 673e 2e92 333c
000003d0: 777c a8bc be7e 95bd 2781 0a3e cbd6 a23e
000003e0: e37d 973e 4bdb 54be 22ea 58bc 60e6 493d
000003f0: beb8 9cbd 3729 0dbe 8e3a 11bd 641f 923d
-0.018327888 0.27561554 -0.20822991 0.05255905 -0.039004665 0.19393365 -0.02492054 0.16727296
0.19505392 0.4123027 -0.12317943 0.035144046 -0.04308936 -0.055487137 0.18608497 0.022603033
-0.26204604 -0.20623206 0.29972607 -0.12720108 -0.1321623 -0.17996968 0.22688034 -0.03091044
0.20765021 0.24859741 0.108889885 0.009472625 0.03168027 0.30013308 0.26283622 -0.18089725
0.38031304 -0.018777104 -0.16252887 0.27376166 -0.011913917 0.25142384 0.013334165 0.04194531
-0.05462063 0.23718342 0.22740275 -0.026655197 -0.0064854138 -0.031786818 0.29316598 0.17139663
0.3092159 -0.06518743 0.2318598 0.020973217 -0.09319134 -0.057754625 0.1545894 0.0330102
-0.01832826 -0.04822952 0.29812956 -0.07605784 0.2593768 0.2720366 -0.054896306 0.040604584
-0.03917631 0.22882564 -0.0376169 0.28799114 -0.058711752 0.21081634 -0.040789597 0.29565716
-0.09837379 0.04243817 -0.20334393 -0.028890213 0.25074315 0.28278604 -0.043322563 -0.033120472
0.24328668 -0.047557477 -0.26218048 -0.0137233315 0.16411592 -0.05939198 -0.025596492 0.042065643
-0.05356265 0.25990567 -0.15333438 -0.125667 0.25129578 -0.16751014 -0.008866293 0.0051406724
-0.057338607 -0.1792882 0.11945281 0.13526008 0.1853822 -0.06428442 0.27728045 0.24417435
-0.058845863 -0.00078344677 -0.106067866 0.27844772 -0.015118081 0.2719953 0.011648886 0.24728331
0.041771345 0.013352104 0.2788143 0.2930437 0.19191621 0.2158507 -0.23840882 -0.042109605
-0.22386219 0.28545347 0.020614414 0.30460793 0.19233416 0.11633522 0.23172371 -0.0399169
0.29685935 0.045261946 -0.2094477 0.004838737 -0.054880597 0.31165504 -0.015717575 0.28005612
0.3067006 -0.1393404 -0.105237775 0.21935646 -0.010289728 -0.07849981 0.1614114 -0.11433411
-0.0972918 -0.062113687 -0.194993 -0.020067973 0.2128642 -0.1988301 -0.04001599 -0.03655505
0.15932447 0.27284244 0.29840672 0.17239824 -0.04647451 -0.12554455 -0.008195025 0.29485014
-0.036262594 -0.17699815 0.20881298 -0.20487203 0.18568155 0.037301973 -0.012442947 0.19824457
0.1961766 -0.056774598 -0.0378054 -0.21414618 0.0073131705 0.19543679 -0.0019262447 0.0084656365
-0.10994967 0.027076738 0.25096998 0.29361993 0.2642925 -0.2223796 -0.12901843 -0.048409823
-0.24822119 0.08549549 -0.02579822 -0.0013320256 0.03629591 0.24994744 -0.015505561 0.25713813
0.2891463 -0.026102204 -0.15370017 0.23843189 0.18565606 -0.14557637 0.26089025 -0.07582538
0.09390248 0.027593993 -0.24119589 0.22922151 -0.06636707 0.28122678 0.03115221 -0.14611983
0.28148955 -0.013426269 -0.03244694 0.29318196 0.0034808447 0.026218059 0.26109937 0.15269734
-0.18490857 0.28666005 -0.03307279 0.021621792 -0.19838907 0.288514 -0.18925484 0.16879855
-0.057374798 0.20568132 0.2534338 -0.017371604 -0.15077962 0.019093111 -0.12540664 0.02301058
0.48159444 0.22153427 -0.2940942 0.22436199 0.16645513 0.13069777 0.2477406 0.12130128
-0.04052114 0.29848826 0.2262964 0.010960145 -0.020567162 -0.07299565 0.1352583 0.318045
0.2958823 -0.20786779 -0.013239415 0.04929197 -0.07652424 -0.13785253 -0.035456233 0.071348935

linear3.weight f4 [1, 256]
00000000: 8724 393a 02a0 d5be f6b7 ab3f b56b 17bd
00000010: e664 8c3f 8a45 0cbf bd09 833b dc10 f5bf
00000020: ac66 cdbe 18ce 6fc0 ddaa bb3f 861a 2a3d
00000030: 3809 cfba 343d 8c3c 36ea 0abf 5f2b b23c
00000040: 17b2 683f 4b4b c13f 7e87 15bf 5403 e13f
00000050: a980 c13f 6118 c23f 7138 0cbf aa6c 6c3c
00000060: 5a4f f4bf 1e40 f3be f7df ddbf d2fc d63e
00000070: 1c2c 833c e5fb e7be 04d3 12bf fd66 883f
00000080: 80d8 2dc0 1be8 503f 18c9 c13f 4e52 f7be
00000090: 54d6 2c40 59d8 07bf 9fb7 963f b805 623f
000000a0: fce5 093d b7c9 e3be 9aea febf 480f 01bd
000000b0: d5af 2a40 7b6d 6939 8f66 1ebf 3e60 04c0
000000c0: cd11 d0bf 5817 c93c 7ab1 2dbf daad 643c
000000d0: a764 ec3f 269b 4b3f 3c79 f2bf 3b3d 703b
000000e0: 4d95 1e3d 0739 273b 71b9 0dbf 3773 b5bc
000000f0: a54e 09bf 3626 10bf 0c24 02bd 83ca fc3c
00000100: 643f 023d 4fb7 febe f5f2 0ebc 36b4 ebbe
00000110: 2be8 ffbc 4870 04bf 0849 1f3c 1886 e8be
00000120: 0815 4a3f 01ae d53b e0ce 6b3f 5498 8e3c
00000130: 0dbc 1fbf aea5 0dbf 0808 c43c 4c12 063d
00000140: 496a 0dbf a3ff fc3c 411d 8d3f b2a2 003c
00000150: 6c5e e8bf 414e 6640 a370 dd3c 36a0 21bd
00000160: ac03 0a3d 0720 2fbf 44ef 5a3f 3214 c93f
00000170: 4ff3 36bf 6343 3640 b10a 583c a681 aa3c
00000180: 1917 c8bb a017 a23f a3f1 fcbf 89a9 01c0
00000190: ef46 d4bf 4047 ca3b e17d d3be 219e 1abf
000001a0: 00a0 cfbc d1d3 503c 6828 8a40 6234 c8be
000001b0: 2647 213d daff e4be 80e0 7cbc dc15 10bf
000001c0: 4d7c 1ebd 161c aabb ec05 e4be e881 10bf
000001d0: 5550 1bbf a99e 1abf b9ec 783f 8926 da3c
000001e0: aaf4 7c3f ed6e 09bf 469f 56bf f82f d2be
000001f0: dfa1 e5be 9acd fcbf b2fa 08bf ea53 6d3c
00000200: d3d8 2ebf 4766 adba be30 e13f b95d 5c3d
00000210: 8a96 393d 6c0e 25bf bd15 01bc 2be4 febe
00000220: 1b18 08bf c496 953f 494b 3a3f 407a 1abf
00000230: 0659 aabb eb01 583f df8c 00c0 3afb d43f
00000240: 0d42 bf3f ed6e 0e3c 9473 7940 37b3 3b3d
00000250: 0138 12bf ebc2 9e3f 2e82 293d fa02 203d
00000260: 7b30 863f 4824 dcbe 2d0a 1dbf da8e a93e
00000270: 704f ebbc 7c0b 903f da17 943f 7ec6 03bf
00000280: 2241 1ebd 5b72 3c40 9844 adbe 5ac5 6a3f
00000290: d423 0dbf 014b 843f 3d6f 893b 8af3 10bf
000002a0: d535 00bf f77f 363d 32ea 6b3c 1672 b43f
000002b0: e834 bc3b a16c 1cbf 94d3 013d a7b7 21bb
000002c0: f64e b43f 6ddb 173c 075a f2be 7759 17bf
000002d0: ae15 f5be e716 6a3f ccae b93f 3896 443c
000002e0: 6c28 6c3f b4f7 343f 8b99 fd3c 2c5b fc3f
000002f0: 1154 de3c 42a1 03bf 5ee9 073d 74cd 00bf
00000300: d63e ffbe 3c4f 86bc 3dd7 913f 47a9 06bf
00000310: 86c6 ddbe f05d be3f 8c5d e3be 8d7a 17bd
00000320: 167f 06c0 8962 963f c2ac a93f 3a18 ecbe
00000330: dae9 1ebd 91ba 0cbf b2c3 673d d4eb af3f
00000340: 9824 0bbf cd5e 3a40 3ff9 bdbc 8bdc 01bf
00000350: 69d1 563c c035 cf3b 0764 ffbe 3d91 ffbf
00000360: 8dbf a23f 704a e5be 6f46 b43c bc24 8b3c
00000370: 8901 853f d37b ffbe c35f 873f e8dc ebbf
00000380: ac42 a63c 4648 dbbe e982 dcbe b8ed c43c
00000390: 14bb 953f fa6e 993f 497e ee3f 8036 39bb
000003a0: 8f4f 5bc0 56ae 1abf 4a91 3640 8dcf 0dbf
000003b0: 6510 ecbf 5f84 a73f 768a e1be 9af6 ab3f
000003c0: e492 0b3c 4acf 12bf 6d0b 08bf 9a1b 663f
000003d0: 6c3b 883c b84c ca3c 8400 f2bf 14bd fcbe
000003e0: 50bb fbbe 8864 963f 71b3 583c d476 053d
000003f0: 25b7 06bc 095c 5c3f 0947 c638 fef9 fcbf
0.0007062633 -0.4172364 1.3415515 -0.03696795 1.0968292 -0.5479361 0.0039989636 -1.914577
-0.40117395 -3.746954 1.4661518 0.0415292 -0.0015795594 0.017119028 -0.5426363 0.021749197
0.90896744 1.5101103 -0.5840987 1.7579141 1.5117389 1.516369 -0.5477362 0.014430204
-1.9086716 -0.47509855 -1.7333974 0.41989762 0.016012244 -0.45309368 -0.57353234 1.065643
-2.716339 0.81604165 1.5139494 -0.4830498 2.7005816 -0.53064495 1.1774787 0.88289976
0.033666596 -0.44489834 -1.9915345 -0.031508714 2.666982 0.00022261396 -0.6187524 -2.0683742
-1.6255432 0.024547264 -0.6784893 0.013957465 1.8468217 0.7953361 -1.8943248 0.003665759
0.038716603 0.0025516169 -0.55361086 -0.022149665 -0.5363563 -0.56308305 -0.03177266 0.030858284
0.031798735 -0.49749228 -0.008724918 -0.46035928 -0.031238636 -0.5173383 0.009722002 -0.45414805
0.7893834 0.006520987 0.9211254 0.01740662 -0.6239632 -0.5533093 0.02392961 0.032732293
-0.55240303 0.030883616 1.1024553 0.00785129 -1.8153815 3.5985262 0.027031248 -0.03945943
0.033694908 -0.68408245 0.8552134 1.5709288 -0.7146501 2.847863 0.013186143 0.020813774
-0.006106269 1.266346 -1.9761242 -2.0259726 -1.6584147 0.0061730444 -0.41306975 -0.60397536
-0.025344849 0.0127458135 4.3174324 -0.39102465 0.039374493 -0.4472645 -0.015434384 -0.56283355
-0.03869276 -0.0051913364 -0.44535768 -0.5644822 -0.6066945 -0.60398346 0.9723621 0.026629703
0.9881083 -0.53684884 -0.8383678 -0.41052222 -0.4485006 -1.9750245 -0.5350753 0.014485339
-0.682996 -0.0013229334 1.7593 0.05380032 0.04530958 -0.6447513 -0.007878718 -0.49783453
-0.5316178 1.1686635 0.72771126 -0.6034279 -0.0051986007 0.84377927 -2.008598 1.6639168
1.4942032 0.008693439 3.8976793 0.04582521 -0.57116705 1.2403234 0.041383915 0.03906534
1.0483545 -0.4299643 -0.6134365 0.331168 -0.028724402 1.1253505 1.1569779 -0.5147475
-0.038636334 2.9444797 -0.33841395 0.91707385 -0.55132794 1.0335389 0.004194169 -0.5662161
-0.5008214 0.04455563 0.014399098 1.4097316 0.0057436116 -0.61103255 0.031695917 -0.0024676116
1.4086597 0.009268624 -0.4733431 -0.5912089 -0.47868103 0.91441196 1.4506469 0.011998706
0.9224918 0.70690465 0.030957004 1.9715323 0.027139695 -0.51417935 0.03318154 -0.50313497
-0.49852628 -0.016395204 1.139381 -0.52602047 -0.43315524 1.4872417 -0.44407308 -0.036982108
-2.1015067 1.174882 1.3255847 -0.46112233 -0.038797237 -0.5497218 0.056583114 1.3743844
-0.5435271 2.9120362 -0.023190139 -0.50727147 0.013111451 0.006323546 -0.49881002 -1.9966198
1.2714707 -0.44783354 0.022006242 0.01698529 1.0391093 -0.49899158 1.0576099 -1.842679
0.020295464 -0.42828578 -0.43068627 0.024039134 1.1697717 1.1986992 1.8632289 -0.0028261244
-3.4267309 -0.60422266 2.8526177 -0.5539482 -1.8442503 1.3087271 -0.4405095 1.3434632
0.008518908 -0.5734755 -0.53142434 0.89885867 0.016629897 0.024694785 -1.8906407 -0.49363005
-0.49166346 1.174943 0.013226376 0.032584026 -0.008222376 0.86077935 9.454607e-05 -1.9763792
