turtlebot3_rl_sim/src/models/td3/revamped/new_tracking_cp_gcp_nobonus_corrected_3/td3_critic2_model_ep3000.pt (torch_old, 647202 bytes, 5 tensors)

linear1.weight f4 [256, 372]
00000000: b396 62bb ae95 13bc dd85 0cbd 7202 693c
00000010: 4672 2b3d 1746 bc3c f710 a3bb e8c4 3dbd
00000020: d7b8 acbc 5813 39bd 4b97 f43b d979 43bc
00000030: 465d a23c a0e7 4e3c a2dd d8bc 5381 64bc
00000040: 8dbf 183d 745c 0c3d d057 3bbd b618 10bc
00000050: d846 bfbc 0524 85bc 8fd0 2abd 3954 cfbc
00000060: 7db6 133d fcc2 7abd 553c 153d bb02 e7bc
00000070: 338d eebc 3500 123d b267 d5bc 6644 2f3c
00000080: 313a 4ebc 0681 1bbd cdfe 1b3d b892 36bc
00000090: f229 d8bc 7701 b03c 1629 ac3c 90ca c43c
000000a0: af8c ba3c 939f 60bd 7c45 f8bc d5d5 8abc
000000b0: e74a 303c 2996 4abd 2cc3 013d fae8 e33c
000000c0: 8679 16bd 3f50 23bd 9573 113d 5eb1 a43b
000000d0: 1ade 5dbd dd2f 923b 5cf0 74bc 7b14 e3bc
000000e0: 859b 08bc 1e93 283c c739 2abb 3097 cb3c
000000f0: 3cd1 813b 5842 c63c 9263 51bd fd3e 103d
00000100: a6f7 273d d52b 05bd e673 a53c af62 28bd
00000110: 26a7 11b7 f5dc 9a3c d84c 3ebc 210a dc3b
00000120: 6a3b ef3b 1cd6 083d 721c 54bd 6a78 e93c
00000130: 66e6 94bc b5c5 08bd f650 293d 421f 59bb
00000140: b558 163d 25c9 03bd 99ae 4ebd 15e0 01bd
00000150: 641b 883c ce08 12bc 3867 37bd d420 72bc
00000160: 5215 5dbd ca34 e13c c85b ce3c 1bfd 753c
00000170: ea1c d9bc 539a e4bc 11f7 c7bc 43ea fe3c
00000180: 5196 d43b 7407 7dbd c125 41bd fca0 083d
00000190: c4c7 f1bc 2f64 2ebc 0eb3 18bd 8d68 1a3d
000001a0: bac7 5bbd 0409 7dbd 6cea 6fba 13d1 f73c
000001b0: 53b7 743c 6486 f2bc df6a 363c a637 15bd
000001c0: 3b78 7b3c 2ae0 dfbc 9f52 20bd f1c9 4ebd
000001d0: 915b 4abd 6129 43bd 2a67 6f3c 7eac 1dbd
000001e0: 5695 1bbd 7cab 803c 3cd4 f4bb ee8d 263d
000001f0: 8d61 973c c002 b2bb e061 c43c 1c2e f2ba
00000200: 3c82 0a3d af35 23bc 82a9 5cbd 623c 5dbd
00000210: d9e5 cabc 55a2 1d3d dbde f93c dbd5 eebc
00000220: 0067 33bd b10c 47bd e330 7a3c 8217 53bd
00000230: d6f3 1ebc 15f0 0fbd dda7 973c f60e 1bbd
00000240: 144e f8bc 433c 69bd 70b7 b6bb 8f3f be3c
00000250: 09b3 4dbd 2ca3 7ebd 98e0 ce3c f81e 423c
00000260: d6f1 af3c 46ab ae3c 08a7 36bd 3e80 1bbd
00000270: 65cf 9c3c 15e0 1a3d 065a 15bd 4d7c 85bb
00000280: 08f3 3abb a7ad abbc 14e7 043c 49ef 44bd
00000290: e8fa b4bc 7b49 6fbd f7b9 24bc f67b 263d
000002a0: 45c6 9d3c 18b4 32bd 6630 91bb 227e ea3a
000002b0: 3266 e83a 0eec 1bbd 2356 00bd c7a9 28bd
000002c0: b47b 0c3d b9a2 44bc a2be 59bd bdb8 1c3d
000002d0: 9127 42bc 94e9 f5bc 7a22 50bc 49f2 d03c
000002e0: 489f 30bd bad3 59bd 634f f73c 3bc0 6fbc
000002f0: 849c 0c3c ae88 2a3a 00b9 b6bc 97d5 bb3c
00000300: 20c7 30bd 8bd2 e7bc e936 44bd f74b aebc
00000310: 7479 833c 5dd1 8ebc 9d85 8bbc c5bb 0cbd
00000320: ce8a 263d e5ba 153c 3d48 1c3a ca6e e83c
00000330: 5e90 9dbc deea 10bc 7ae4 51bd 8551 0cbd
00000340: 82e1 42bd e6a8 98bc dc6c 73bd 4c06 083d
00000350: f820 31bd 8471 8f3c c327 fb3c d244 53bd
00000360: 3927 cabc c223 eb3c ef89 afba 9620 233d
00000370: 4543 1e3b 1efc a33b 6e0f 203c f4b9 0b3d
00000380: 676d bd3c 8592 163d 143a 0c3d ee24 12bb
00000390: b5bb 123c 8248 e83c e653 a23c 4287 50bc
000003a0: bc14 7dbc ce1e 1fbd a820 36bc 9bad 63bd
000003b0: e55f 87bb 1a41 dabc c107 df3c e4bf 77bc
000003c0: d32a 68bd bd13 123d eed6 1ebb 3733 afbb
000003d0: 54a5 77bd 6cc4 063d 9ec8 1dbc 3f5a b23c
000003e0: 0282 ed3c 5506 05bd ae7b a83c e52e 8bbc
000003f0: 2afd 6f3c 297d 4abd 0c24 023d fe34 9abb
-0.0034574687 -0.009007854 -0.03430735 0.014221774 0.041857027 0.02298264 -0.0049763876 -0.046330363
-0.021084232 -0.045184463 0.0074643246 -0.011930906 0.019819867 0.012628466 -0.02647287 -0.013946849
0.037292052 0.034267858 -0.04573804 -0.008794954 -0.02334921 -0.016252527 -0.041702803 -0.025308715
0.036062706 -0.061221108 0.03643449 -0.028199544 -0.029120063 0.03564473 -0.026050422 0.01069746
-0.012587116 -0.037964843 0.038084794 -0.011143379 -0.026387189 0.021485073 0.021015685 0.02402237
0.022772161 -0.05483968 -0.03030657 -0.016947666 0.010760046 -0.04945961 0.03168027 0.027821053
-0.036736988 -0.03987145 0.03551062 0.0050260266 -0.05416689 0.004461272 -0.014949884 -0.027719727
-0.00833786 0.010288982 -0.002597438 0.024852365 0.0039617103 0.024201557 -0.05112035 0.03521632
0.04100766 -0.032512505 0.020196866 -0.041109737 -8.681591e-06 0.018904189 -0.011615001 0.0067150746
0.007300784 0.033407316 -0.05178494 0.0284998 -0.018176269 -0.033391673 0.041336976 -0.0033130203
0.03670569 -0.03217425 -0.050459478 -0.031707842 0.016614623 -0.008913232 -0.04477617 -0.014778335
-0.05397541 0.027490992 0.02519025 0.015013958 -0.026503045 -0.027905619 -0.024409803 0.031117564
0.0064876457 -0.061774686 -0.047155146 0.03335665 -0.029514201 -0.010644003 -0.037280135 0.037697364
-0.05365727 -0.061776176 -0.0009152058 0.030251062 0.014936286 -0.029605098 0.0111338785 -0.036430024
0.015348489 -0.02732857 -0.039141294 -0.050485555 -0.04940373 -0.047646884 0.014611999 -0.03849458
-0.037984215 0.01570677 -0.0074715894 0.0406627 0.018479133 -0.0054324567 0.023972452 -0.0018476876
0.033815607 -0.00996153 -0.053872593 -0.054012664 -0.024767803 0.03848489 0.030501774 -0.029154709
-0.0437994 -0.048596088 0.015270445 -0.05153609 -0.00970169 -0.03514107 0.01851266 -0.037856065
-0.030310668 -0.056942236 -0.0055760667 0.023223666 -0.05021957 -0.06216733 0.025253579 0.011848204
0.021477621 0.021321904 -0.044592887 -0.0379641 0.019141862 0.037811358 -0.036462806 -0.0040736557
-0.0028526206 -0.020956827 0.008111734 -0.048079763 -0.022092298 -0.058419686 -0.010054103 0.040645562
0.019259581 -0.043628782 -0.0044308184 0.0017890374 0.0017730652 -0.038066916 -0.031332146 -0.041177537
0.03429766 -0.012001687 -0.053160317 0.038262118 -0.011850254 -0.030018605 -0.012703532 0.025506156
-0.043120652 -0.053180434 0.030189222 -0.014633234 0.008582238 0.0006505352 -0.022305012 0.022928996
-0.04315865 -0.028298637 -0.04790393 -0.021276457 0.016049124 -0.017433817 -0.017031485 -0.03435876
0.04065972 0.009138797 0.0005961692 0.02837314 -0.019233879 -0.008845059 -0.051243283 -0.03425743
-0.047578342 -0.018635225 -0.05942999 0.03320913 -0.043244332 0.017510183 0.030658608 -0.051579304
-0.024676906 0.028703574 -0.0013392548 0.039826 0.0024148982 0.00500442 0.009769304 0.034112886
0.023123456 0.036760826 0.034235075 -0.0022299844 0.008955886 0.028354887 0.019815397 -0.0127275605
-0.015446838 -0.038847737 -0.011116184 -0.055585485 -0.0041313046 -0.026642371 0.027225377 -0.015121434
-0.056681465 0.035663355 -0.0024236995 -0.0053466815 -0.060460404 0.032902166 -0.00963035 0.021771548
0.028992657 -0.03247674 0.020566788 -0.016990134 0.014647761 -0.04943577 0.03177266 -0.004706024

linear1.bias f4 [256]
00000000: 66c8 19bd bc5f fdbb bdd7 02bd 9aa1 653d
00000010: 91e2 e13c ea90 e73c 8028 33bd 8ce8 0d3d
00000020: 43fc 6e3e 6501 04bb 4a2c 58bd b066 41bc
00000030: 0eb9 17bd e04a dc3d 8c74 513d d801 3ebd
00000040: 83d6 61bd 3162 d83c dcc9 093d ae3c 1e3d
00000050: b26e 6abe 5448 7abd 89dc 96bb e674 293d
00000060: 7f37 24bc c02c 9cbc 6823 60be f429 343d
00000070: d4e2 0c3d 1c39 053b c1dc 48bd adca 1f3d
00000080: 34ed 77bd 2cb5 7bbb e6e1 af3d ccba d03c
00000090: 339e 67bd d96b 2ebd 204b 3dbb 0fa3 3c3d
000000a0: 8d5b eebc 6e11 a83c 8e45 a43c 65b3 103d
000000b0: 092d 42bd 7828 11bc 8562 1e3d ae64 17bd
000000c0: f07f b9bc a5c3 4fbd 33e1 f93c 5834 7d3e
000000d0: 5135 be3d b48b 813c 16b4 99bc 0ae6 ea3c
000000e0: 885e 403c 961f 1fbd dd2b 1b3c 203a f13d
000000f0: 8bb9 67bd deef a43a c13a 4abd 828a 0e3d
00000100: 57a8 353c f7cd 29bd 64cb 73bd ef2d 363d
00000110: 46a9 263d 20fa 4d3d aa68 1f3e 7f95 25bd
00000120: bdca 193a 7eeb 9fbc 4419 8c3c d90f bcbd
00000130: e5db 1c3d 9f65 223d 73db fb3c dc47 9ebc
00000140: 73c9 57bd 1d78 72be e07f 4d3d 3c84 783e
00000150: d5cb 5d3d 708e 413d 98d0 403d 4c70 873c
00000160: 12f8 3fbd 4bf7 7d3d e9e8 d03c 5fb7 23bd
00000170: 1857 4e3c ac2a 89be 7515 03bb 5cbe 0d3d
00000180: b6dd 3dbe 5fd4 333d adc9 f63d 67f5 b73c
00000190: 348a fbbc 44e0 c93c 5aac 0b3e 8f44 20bd
000001a0: 4958 40bc 1c31 7ebc e3d4 67bd d92d d83c
000001b0: 8729 343d 27c7 2dbd 98e1 a33d 0fd3 da3d
000001c0: 6035 6ebd 582a 4a3d e8c1 31bc cc81 de3a
000001d0: 28ce 423c 28a5 003e 1460 1c3d 38a7 3dbd
000001e0: 2ca0 8b3b c823 d03c 877e 083e ea2e 56bc
000001f0: d28b 5cbd 0912 773e 497a 003d 33c6 f13b
00000200: a16e 5c3e 77cc b83c 3f29 0e3e 98b1 c13c
00000210: 63e7 053e f5e4 b8bc f505 8abe e545 03bd
00000220: 777f 45bd 0efe 193d 8bdb f239 c18c cdbc
00000230: cf39 27bd 4378 3c3e eeb7 2a3d 3edb 10bd
00000240: 275a 3b3c e9ac a63d 7dad ba3e d67d 213d
00000250: fcc5 063d 8101 b4be b458 fdbb 4a77 d8bc
00000260: 74b9 893c 8983 d73c b729 de3d fb59 7f3d
00000270: bd10 9f3c 867f 2e3d ed78 84bc da55 76be
00000280: e01a 78bc cb92 62bd de2c aabd 1a0d dc3d
00000290: a79a aabb 2465 033d 3fd2 7abe 00b2 943e
000002a0: b18b 4fbc 2fa8 ecbd fa10 55bc 550c 84bd
000002b0: 566e 2e3c 63e8 6a3c a0f4 37bb 7c03 833c
000002c0: 7398 69bd cb2e 62bd bac7 153d 0ca4 0e3d
000002d0: 30c3 92bc 962a 28bd aa5f d1bc 904a 25bd
000002e0: c55f 673e 2c7e dd3d b775 26bd 4a3d d1bc
000002f0: 5a22 5cbd aa93 d9ba 7a67 943e 5068 32bc
00000300: 3e4b 6d3e 6090 b53d bdd0 af3d 6661 01bd
00000310: 8263 d7bc c232 dcbb ca73 863e b5d0 1b3d
00000320: d149 cebb e845 4e3d f447 50bd 9f04 0a3e
00000330: 4621 13bc c58a 34be 7a94 8dbc dc9d 883c
00000340: 3f26 843e 1aae 8a3d 39ea 10bd 0da1 02bd
00000350: 73df f23c 0460 7bbd dc51 43be 0d88 bc3d
00000360: 2455 283e 9375 29bd b072 36bd b818 1fbc
00000370: 54d6 453d 65f4 0fbd d655 413e f119 cabb
00000380: e049 483d 9d95 f63c 766b a93d 3064 a63e
00000390: aeae 163e e246 ee3b dbee 6ebd 01c2 41bd
000003a0: edcb 803e be4e 00be 7586 1e3d 7ff9 25bd
000003b0: 8c0a 54bc 46ae 213d f0ef 37bd 04ae 873c
000003c0: f1a2 c8bc 813d d53c fcc6 c23e bf63 05be
000003d0: a833 923e b856 f83b 008a 053d 1c46 5fbe
000003e0: 37cc 22bd ba85 953d e2fc 2b3d acc8 feba
000003f0: 69e2 4fbd ee56 2b3d cc26 0d3c 1f2e a4bc
-0.03754463 -0.0077323597 -0.031944025 0.05606232 0.027573856 0.028267343 -0.043739796 0.034645602
0.23338418 -0.0020142433 -0.052776612 -0.011804268 -0.037041716 0.10756469 0.05113654 -0.046388477
-0.055136215 0.026414009 0.033639774 0.038632087 -0.2289379 -0.061104134 -0.0046039266 0.04137125
-0.010022997 -0.019064307 -0.21888506 0.043985322 0.034396008 0.002032823 -0.049038652 0.039011646
-0.06052895 -0.0038407547 0.085880086 0.025479697 -0.056547355 -0.04258332 -0.002888389 0.046053942
-0.02909639 0.020516124 0.020052698 0.035327334 -0.04740623 -0.008859746 0.038668174 -0.03696125
-0.022644013 -0.05072369 0.030502891 0.24726999 0.09287513 0.015813686 -0.01876263 0.028674144
0.011741288 -0.038848482 0.009470907 0.117786646 -0.056573432 0.0012583693 -0.04937244 0.03480006
0.011087499 -0.04145619 -0.05952014 0.0444774 0.040688775 0.050287366 0.1556727 -0.040425774
0.0005866697 -0.019521471 0.017101891 -0.0918271 0.038295645 0.039647695 0.03074429 -0.019321375
-0.05268235 -0.23678632 0.05017078 0.24269193 0.054149467 0.04725498 0.04707393 0.01653304
-0.046867438 0.062003415 0.025501685 -0.0399698 0.012594007 -0.2679037 -0.0020001803 0.03460537
-0.18541607 0.043903705 0.12050185 0.022455884 -0.030705549 0.024643071 0.13639966 -0.039127883
-0.011739799 -0.015514638 -0.05659951 0.02638905 0.043984916 -0.042426255 0.08002013 0.106847875
-0.05815637 0.04935679 -0.0108494535 0.0016975938 0.011889972 0.12563002 0.038177565 -0.04630205
0.0042610373 0.025407687 0.13329516 -0.013072709 -0.05384428 0.24127974 0.03136662 0.0073783635
0.21526577 0.022558434 0.13882922 0.023644254 0.13076548 -0.022570113 -0.2695767 -0.03204908
-0.048217263 0.0375958 0.0004632141 -0.02509153 -0.040826615 0.18405251 0.041679315 -0.035365336
0.011435068 0.08138449 0.36460486 0.039426647 0.032903656 -0.35157397 -0.0077315215 -0.026424069
0.016812064 0.026307838 0.108478 0.06234167 0.019417161 0.042602085 -0.016170943 -0.24056187
-0.015143126 -0.055315774 -0.08309339 0.107446864 -0.0052064243 0.032078877 -0.24494265 0.29042053
-0.012667582 -0.11555516 -0.013004536 -0.06447665 0.010646423 0.014337632 -0.0028069392 0.015992872
-0.057030153 -0.055220407 0.036567427 0.034824416 -0.017915338 -0.041056238 -0.025558311 -0.04035431
0.22595127 0.10815081 -0.040639605 -0.02554192 -0.053743698 -0.0016599793 0.28985196 -0.010889128
0.23173234 0.08865428 0.085847355 -0.031587027 -0.026292566 -0.006719918 0.26260215 0.038040835
-0.0062954207 0.050359637 -0.05084987 0.13478325 -0.008980101 -0.17631061 -0.017282713 0.016676836
0.2581043 0.067714885 -0.035379622 -0.03189187 0.029647565 -0.061370865 -0.19074196 0.09205637
0.16438729 -0.041371893 -0.04454297 -0.009710483 0.048300102 -0.035145182 0.188804 -0.0061676432
0.048898578 0.030100638 0.0827245 0.32498312 0.14715073 0.0072716335 -0.05833326 -0.047304157
0.25155583 -0.12530038 0.038702447 -0.04052114 -0.012941968 0.03947284 -0.044906557 0.01656247
-0.024491759 0.026030304 0.38042438 -0.13026331 0.28555036 0.007578697 0.03260231 -0.21804088
-0.039745536 0.07300897 0.041989215 -0.0019438467 -0.05075303 0.04183095 0.008615207 -0.020041524

linear2.weight f4 [256, 256]
00000000: addb 18bc 3e21 af3d bec1 3f3d f39a 733e
00000010: dcf7 683d 10ce 483c dc55 76bd 4a10 e5bb
00000020: e0d6 c2bf 44b2 f4bc 93f9 6a3b f862 293c
00000030: 17fe aebc c7fe 3e3e b02a fabc 70d0 4f3f
00000040: 71c4 51bb 21d6 533d ecf7 0c3d 572a 6b3e
00000050: 6e87 d8bc 6bae f93c 8820 103f bfd6 30bd
00000060: d72d 3fbd ff64 2bbd 3482 cabd 428a 463f
00000070: 64d7 0abd 6f01 333e ae12 ad3c e02e c0bc
00000080: d8ff ce3b 67a6 273b db03 c7bf fbb7 233c
00000090: c047 7f3d 7a8d 263d e68b 323d a9fb 50bd
000000a0: d4b1 4ebd f50e 82bd c850 00bc 25a9 19bd
000000b0: 160c 9cbc f95b 33bf d179 5f3e 85b3 843c
000000c0: a51d 913d 8f58 25bd 6c5a 873d 547a 983d
000000d0: 92b3 913e fd1e 8d3c e1be dabc 71fe d8bc
000000e0: dc01 703d aa42 1cbd b1bd 4fbc d271 4dbf
000000f0: c5ef 14bd 9418 a1bc d460 78bd b2fa 24bd
00000100: f98b 4dbd 6b36 74bd a028 403c b826 48bd
00000110: cec7 a03c 2662 90bc 1291 93bf 0de9 8f3b
00000120: 6e37 aabc ce99 0b3d ce38 4b3d 9c03 803f
00000130: a4ac 753c 7a2d 84bd e34f 803c c8d6 5a3c
00000140: b786 74be f264 36bf 88d2 d23e 86a9 3fbe
00000150: 83f1 c13d e962 5ebd de8d 2cbc e3c7 7e3e
00000160: d8de 193c 32eb d6bc b449 0cbd 1637 193c
00000170: 2235 593d d09d b6bb 4859 1d3d d9da 50bd
00000180: 6fd4 abbd 20f5 ce3b 87ad 9cbf f118 5f3c
00000190: e0ae b33c 900c 9c3c 37a2 513f b282 5d3a
000001a0: 33f4 fabc a7e9 213d 2d91 81bc 3697 af3d
000001b0: 20c8 5c3e 92da ebbb 7023 33be bb21 54be
000001c0: 0a8f 2dbf c073 343d 42b4 6e3e 6866 803f
000001d0: 41b4 a0bf 6e35 05be 2889 373d 3959 cabb
000001e0: cc4e 7ebd 4e64 2c3d 9f12 2d3f df14 3cbd
000001f0: 2508 1fbd eccf 763e 062b 423d f855 a6bc
00000200: 9040 df3e f9e3 bebe 49ef 23bd f659 46bd
00000210: 7a2f 9ebd 9496 993e 40d2 adbe d1ef 5c3e
00000220: 84b9 db3e 3892 06bd 2e9f 203e 855c 06bd
00000230: 6ba8 61bd ea9a 663e d4c2 19bf 2924 443d
00000240: 4bc4 f9bc 1026 5b3f e5fa bb3c 8070 2b3a
00000250: 8d2f 173d 6686 3ebe 22ad 533e 1c6a 013e
00000260: 2348 f33c fbf5 fe3d 9b91 5d3e 48ac 4b3e
00000270: a513 1bbd 6c82 b0bc 3a1b e5bc 46f9 aebd
00000280: 2647 543d 7eb3 a03c dc4d 9cbe e1ca 32be
00000290: 8d47 133e 8575 063d fccf 13be 2887 293e
000002a0: 46be 2fbd 0d4c 263e 61a6 5cbb be49 223f
000002b0: f2ea 2dbf 6875 66bc 6485 dcbc 0073 4abd
000002c0: a0bb 06bd ded5 2e3d e0f4 21bd ea00 5fbd
000002d0: 8065 a3bc f890 393d 2fee b03c 6af8 01bd
000002e0: b01f fe3e b2fb 003f e975 463d 512e 5d3d
000002f0: b6d2 a33c 73f5 663c 8bab 013a e41f 013d
00000300: a120 dc3e 83bd 39be 2bb6 66bd 6265 213d
00000310: cb61 7f3e dff0 a8bc b1aa bd3d aba2 7c3d
00000320: 6285 eebc 07de 313e 8556 5ebf 7045 e93e
00000330: b96b 49bd 8d1f 83be b725 8dbe d63a a83c
00000340: 55c1 b93e d260 1cbe fcaa 093d 41de 4e3b
00000350: d484 0bbd 1e79 5cbd d1c5 aabe f0b9 9a3f
00000360: 891a 8dbf 905c f0bc 78f6 a33c c03d 31bc
00000370: ce84 37bd acd3 aebc 981c 1d3e f74d 36bd
00000380: b1be d3bc 9b12 553f 41e7 6fbf 7f7c c13e
00000390: b924 29be 1cdb dc3c 30e2 62bc 2ccc 73bd
000003a0: 54b1 853e 439d e1bd 3f8e ba3d b3b5 e13c
000003b0: 64fd 21bd 080b df3c bc4a 5e3d 9292 5e3d
000003c0: 155f 0abd 0af3 273d 3ab2 213e b1fd 493d
000003d0: 1773 2f3f 70e2 f23c d836 40bc af55 62bf
000003e0: 1825 4ebd 9c15 f0be 4013 a03b 4007 d2bb
000003f0: c03b 4ebd b4c8 283d 95fe 17bc 8269 5abd
-0.009329719 0.08551262 0.046815626 0.23789577 0.056877002 0.01225616 -0.060140476 -0.006990467
-1.5221825 -0.02987016 0.0035854324 0.010338537 -0.021361394 0.18651877 -0.030537933 0.81177425
-0.0032007957 0.05171788 0.034416124 0.2296537 -0.026431765 0.030478677 0.5629964 -0.043173548
-0.046674576 -0.041844364 -0.098881155 0.77554715 -0.03389682 0.17481016 0.021127071 -0.023459852
0.00631712 0.0025581361 -1.5548052 0.009992595 0.062324286 0.040662266 0.04359045 -0.05102125
-0.05046256 -0.06350509 -0.00783176 -0.037514824 -0.019048732 -0.70062214 0.21823813 0.016198883
0.07085732 -0.04036766 0.066090435 0.07445207 0.28457314 0.01722669 -0.026702346 -0.026488515
0.058595523 -0.038149513 -0.012679503 -0.802518 -0.036361475 -0.01966504 -0.060639217 -0.040278144
-0.050182316 -0.05962221 0.011728436 -0.04886505 0.019626524 -0.017624926 -1.1528647 0.0043917955
-0.020778384 0.034082226 0.04961472 1.0001101 0.014994774 -0.064539865 0.015663093 0.013356872
-0.23879515 -0.7124778 0.41176248 -0.18717012 0.09469893 -0.054293547 -0.010531871 0.24880938
0.009391509 -0.026235197 -0.034249976 0.009351512 0.053029187 -0.005573012 0.038415223 -0.05098996
-0.08390128 0.0063158423 -1.2240456 0.013616786 0.021933973 0.019048959 0.81888145 0.0008449956
-0.030634021 0.03952947 -0.015816296 0.08573763 0.21560717 -0.0071976865 -0.17493987 -0.20715992
-0.67796385 0.0440557 0.2331095 1.0031252 -1.2555009 -0.13008663 0.044808537 -0.006175187
-0.062086865 0.042087846 0.6760654 -0.04591834 -0.038826127 0.24102753 0.04740431 -0.020304665
0.43603945 -0.37283304 -0.040023122 -0.048425637 -0.07723899 0.29997694 -0.3394947 0.21575858
0.42914975 -0.03285429 0.15685722 -0.032803077 -0.055092257 0.22520033 -0.6006291 0.047886048
-0.030489108 0.85604954 0.022946784 0.0006539896 0.036910582 -0.18605956 0.20671514 0.12638134
0.029697483 0.12449261 0.21637575 0.19889939 -0.03786053 -0.021546565 -0.027967084 -0.08543639
0.051825665 0.019616839 -0.30528152 -0.17460205 0.14382763 0.03282692 -0.14434808 0.16555464
-0.04290607 0.16239949 -0.0033668505 0.6339377 -0.67936623 -0.014066078 -0.026919074 -0.04942608
-0.032893777 0.04268443 -0.03954017 -0.05444423 -0.01994586 0.04530427 0.02159795 -0.031731047
0.4963355 0.50384057 0.04845229 0.05399925 0.019997936 0.014096606 0.00049465214 0.031524554
0.42993644 -0.18138699 -0.056326073 0.039403327 0.24939649 -0.020622669 0.092610724 0.06167857
-0.029116336 0.17369853 -0.8685077 0.4556079 -0.049174998 -0.2561001 -0.27567837 0.020535868
0.36280313 -0.15271309 0.03361033 0.003156558 -0.03406222 -0.053826444 -0.33354047 1.2087994
-1.1023723 -0.029341012 0.020014986 -0.010817945 -0.044804387 -0.021341167 0.15342939 -0.044507947
-0.025847765 0.83231515 -0.9371224 0.37790295 -0.16517915 0.026959948 -0.013847873 -0.059520885
0.26111853 -0.110163234 0.091091625 0.027552461 -0.039548293 0.02722694 0.05427049 0.054339
-0.033782084 0.041003264 0.15790644 0.049314205 0.6853499 0.02964899 -0.011731826 -0.8841199
-0.050328344 -0.46891487 0.0048851073 -0.0064095557 -0.05034995 0.04120703 -0.009277006 -0.053323276

linear2.bias f4 [256]
00000000: 2a73 453e 2589 63be fe81 9bbd fe7a 9fbd
00000010: 7c80 033c fd19 3b3e 9087 413e 660e 2e3e
00000020: 713a cfbc c8bd 48bd bb3d 603e 186b 3abd
00000030: 8cce 4f3e 0a63 52bd de91 953e 44b7 7abc
00000040: 230f 7a3d 784b fb3c 085b fdbd 59de 453d
00000050: fcc8 7c3e 4b6c e33c 4f85 943e 4307 10bd
00000060: 8c0a aa3d c04c 2c3e 4c75 2d3e d9ca 4dbd
00000070: 2552 513e e9d0 daba 787d 093f 5c94 fbbc
00000080: f5e2 80bd 34d5 7f3e 16e4 11bd d3ab 033e
00000090: 77b7 b53e 5e23 173e 296e 963e fe7c 273c
000000a0: c52b 093e e623 91bd 2614 7f3e f16e 86bb
000000b0: 0568 1ebd 5ec0 cf3d c4cc 58b9 cc83 8a3b
000000c0: 6ad4 a83e 8168 a43d f2d5 313e 19d9 213e
000000d0: 3af6 efbd f433 863e 9d1f 83bd 6da4 83bd
000000e0: 3a46 703d 30c3 d5bc 1a59 c13c defb a23b
000000f0: 2bcd 283d 5c8c 81bc 51cc 513e b70d afbd
00000100: 740c 1a3b 011b 283e d80b 293e 343f 2b3e
00000110: 2a66 d2bc d3a0 65bd a070 4f3e 9c68 e4bb
00000120: 1516 69bc b242 8b3e 988e 403e ce36 343e
00000130: 0079 bc3d 20c1 8abd af6a b03e 57e3 033d
00000140: 11b3 963e fd7b 573d 13ce ebbc 16af 493e
00000150: c874 31bd 3e5b 863e 9792 8f3e 4eaf 54bd
00000160: feb2 1ebb 38e4 84bd 1ef3 353e 68f5 723e
00000170: 6705 c53b ac25 ac3c 84a6 823c 1e19 9bbd
00000180: 57e6 e8bd 8377 a13e a58c e23c 321b 3e3e
00000190: f70e 343d dc7b 8a3e 54b7 f8bd abff 5f3e
000001a0: 7d0e 873d b51f bf3e 611e f23d c431 71bd
000001b0: 81b0 5fbe a024 a13d 29cf ab3e ef09 a3bc
000001c0: ff49 a3bd 714c 33bd 65a2 173e 1b0e cb3c
000001d0: 4a15 8e3e f647 9ebd 3422 043d b276 f63d
000001e0: 588c 4f3e e44d 7abe 7ca4 3f3e bb46 7d3c
000001f0: b325 1c3e 028d 16bd 588e 0abc 1b4d f13c
00000200: 5a8b e1bc d363 90bd f766 aa3e 7f44 643e
00000210: f109 3dbd 5453 74bc b5d2 a3bb f3ff d9bd
00000220: cdaf 863e 8167 283e c9f9 3dbc 64d8 393e
00000230: 622e 763e af32 bebd a6c7 2f3c 23e6 61bb
00000240: b3a5 46bd bfbc 973e b0c9 cd3b ef57 afbd
00000250: 84a0 863e 9bd5 c23e ee48 7c3b a700 cf3d
00000260: c6af a3bd adfe d43c 748f 77bd 6aa5 703e
00000270: f2b5 623c 37fd 8a3d 2fce 7e3e ee9e 683c
00000280: d806 bcbd bd30 793a 3d6b e2bd c5e7 283e
00000290: 4719 a5bd 8098 fe3d 7e23 08bd e532 02bd
000002a0: d8b6 673e 63b3 8f3e d95a 8cbd 2729 26bb
000002b0: 3eb0 84bd defa 7d3e e305 863e 5ba8 e03e
000002c0: 7a4c 793d 49b8 263e bc44 ae3e f548 09bd
000002d0: 7a0a d4bc 5262 8d3e 4d32 913e 7f4e afbd
000002e0: 3d2c b43d 8dbb b1bd 0c7e b43e aa5b 5abd
000002f0: cdc9 623e d26a 5b3c 7582 0ebd 0480 4a3e
00000300: 7dda 0dbd 1e05 96bd b576 603e fb67 8cbd
00000310: 8393 1bbe 4f23 313e f81f 3c3e b4ec 03be
00000320: ee72 9ebd 4539 643e 844a 70bd 9b93 b03e
00000330: d847 35bc de94 673e d0dd 903e 30ef 72bb
00000340: e591 643e bfa9 abbd 21aa 9d3e e5b5 903e
00000350: 690c 5b3c 75e2 423c 7127 903e 797e 993e
00000360: b9a5 383e 0b52 723c a631 013e 05fc 133d
00000370: 4f9c 3a3d 9841 3b3c 44e7 0b3d 008c 113e
00000380: 3550 f43d 5e6c 463c bc7a 0c3d 9599 853d
00000390: bfbf 4d3e af6b f83d 647d 603e e674 393e
000003a0: 2bcf b63e 7738 703e 0091 183e e618 12bd
000003b0: 88e8 64bb 9c6f 65bd 1532 963e 8464 793e
000003c0: 5dd0 9b3e 4b37 e2bd 4436 a53e 254d 87bd
000003d0: e6ee 9dbd 3023 703e fa95 973e d6e0 233d
000003e0: e4b6 083d d18d 163e 466d 87bd 13fa 92bd
000003f0: ff4c 2c3e 2b39 7f3c 7f94 f0bc 5682 9abd
0.19282213 -0.22220285 -0.075931534 -0.07787131 0.0080262385 0.18271632 0.18899369 0.1699768
-0.025296422 -0.049009115 0.21898548 -0.04551229 0.20293635 -0.051363982 0.2921285 -0.015302483
0.06104959 0.030675635 -0.123708785 0.04830775 0.24686044 0.027761599 0.29007956 -0.035163175
0.08302793 0.16826153 0.16939276 -0.05024228 0.20441492 -0.001669434 0.53707075 -0.030710392
-0.062932886 0.24983674 -0.03561791 0.12858514 0.35491535 0.14759585 0.2938092 0.010222672
0.13395603 -0.07086925 0.2491003 -0.0041025807 -0.03867342 0.10144113 -0.00020675646 0.004227137
0.3297456 0.08027745 0.1736677 0.15805472 -0.11716886 0.26211512 -0.06402514 -0.06427846
0.058660723 -0.02609405 0.023602057 0.0049738726 0.04121129 -0.015813999 0.20488097 -0.08547538
0.0023505958 0.16416551 0.16508424 0.16723329 -0.025683481 -0.056061577 0.20257807 -0.006970478
-0.014226456 0.27199322 0.18804395 0.17599031 0.092027664 -0.06775117 0.34456393 0.03219923
0.29433492 0.05260848 -0.028784787 0.19695696 -0.043324262 0.26241487 0.28041527 -0.051924996
-0.0024215574 -0.06488842 0.17768523 0.23726428 0.006012607 0.021014057 0.015948541 -0.0757315
-0.11372059 0.31536493 0.027654955 0.18565062 0.043959584 0.27047622 -0.12144342 0.21874873
0.0659456 0.37328878 0.118222006 -0.05888535 -0.21844675 0.07868314 0.33556488 -0.019902198
-0.07973098 -0.043774072 0.14808042 0.024787 0.27750617 -0.07728569 0.03225918 0.12034358
0.2026838 -0.24443775 0.1871509 0.015458758 0.15248756 -0.03675557 -0.008456789 0.029455712
-0.027532268 -0.0705029 0.3328168 0.22291754 -0.04615206 -0.014912445 -0.0049994835 -0.106445216
0.26306 0.16445734 -0.011595198 0.18148953 0.24041131 -0.09287011 0.010728752 -0.0034469448
-0.048497867 0.2963619 0.0062801465 -0.08561694 0.2629434 0.38053593 0.0038495618 0.10107546
-0.079925105 0.026000345 -0.060439542 0.235006 0.013837324 0.06786578 0.2488334 0.014198048
-0.09180993 0.0009505859 -0.1105561 0.16494663 -0.08061462 0.12431431 -0.033236973 -0.031786818
0.22628343 0.2806655 -0.06853265 -0.0025354119 -0.06478928 0.2480273 0.26176366 0.43878445
0.06086395 0.16281237 0.34036815 -0.033516843 -0.025883902 0.27614075 0.2835869 -0.08559894
0.087975 -0.086783506 0.35252416 -0.053310074 0.22147293 0.013392167 -0.034792382 0.19775397
-0.034632195 -0.07325195 0.21920283 -0.0685577 -0.1519299 0.17298625 0.1837157 -0.12883264
-0.07736765 0.22287472 -0.058664814 0.34487614 -0.011064492 0.22615382 0.2829423 -0.0037068836
0.2232128 -0.08381986 0.3079386 0.28263775 0.013369658 0.011894812 0.2815509 0.29979303
0.18031968 0.014790068 0.12616596 0.036129016 0.045559224 0.011429213 0.0341561 0.14213562
0.11929361 0.012110798 0.034296736 0.06523434 0.20092677 0.12129914 0.21922833 0.18111
0.35704932 0.2345904 0.14899063 -0.035668276 -0.0034928638 -0.056014642 0.29335085 0.2435475
0.30432406 -0.110457025 0.32267964 -0.06606511 -0.07711582 0.23450923 0.2960661 0.040009342
0.033377543 0.14702536 -0.06612639 -0.07176604 0.16826247 0.015577595 -0.029367683 -0.07544391

linear3.weight f4 [1, 256]
00000000: eb06 03c0 e9c2 2740 8aed 4f40 6a8e ddb8
00000010: 1f53 bb3c 5df8 f8bf 064a bf3f 1319 83bf
00000020: cd8e 1d3d 9f08 8c40 2bda fbbe 1e59 a13c
00000030: fe7c eabe 607e b939 1312 dbbe ed8d 8d3c
00000040: 284c 3140 bc9b 063f 8431 e83e 0c91 d8bf
00000050: 3d90 10c0 fded dd3e b4e7 00c0 f0c9 d73e
00000060: fd0b 4bc0 9c01 84bf d81e 5ebe b61a 143f
00000070: 8ee8 51bf 277f 443f 00e1 90c0 7d8d 1e3d
00000080: cd08 923b 4c70 cebe f65c 273d 22dd 68bf
00000090: f0f1 fdbf 4454 03c0 1de5 ccbe 76b3 233d
000000a0: d235 07c0 09c8 d63c 0e4e 27bf 7551 ae3f
000000b0: 009e fa3e 273a 0fc0 415e ef3e 8990 d93c
000000c0: 2c62 febf 9bb0 e2bf 2600 fabf a913 1cc0
000000d0: fbc1 d03e 13ae c5be b59c 13bb 7c74 853c
000000e0: 82f1 2bc0 f8b1 a43f bcd7 4ec0 716f 423c
000000f0: a206 8240 26e0 a8bf d897 32c0 7f1c b53c
00000100: 3091 623f 3c74 00c0 bd98 31c0 01d9 03c0
00000110: 177d 373d 052d 90bc d449 d7be 8063 f43e
00000120: de7c 0b3f dd35 fabe 5804 82bf 4930 19bf
00000130: aeb8 b4bf f9dd d63e d5eb 03bf 079b 083f
00000140: e3d8 babf a669 44c0 6d3e 943c c3fd ec3f
00000150: 6e8a f93e 6a38 d3be 3035 dbbe 378e 913f
00000160: a6db 1bbc a8cf f93e 7325 d9be 5a08 3fc0
00000170: c78a d5bf 90b1 00c0 8dde 173d 62ed e53c
00000180: 1fdf d83e 68eb 1fc0 3da4 fb3e db4b c3bf
00000190: f4a1 0f3d d7a6 c3bf 4ade 963e 7e04 03c0
000001a0: dc00 8b3f 272f d7bf 607b f93f de6b 21bd
000001b0: 3a61 6240 b438 aabf f567 68bf bc23 873c
000001c0: ae1d a73c 9205 c93e ca38 debf d5b9 c63e
000001d0: b15f a1be 566e ae3c 5588 193d 2a08 afbe
000001e0: d6dd babe 4a12 0240 0c36 b6be f949 d83b
000001f0: 345a 823f 9f56 0540 4fc1 d13e 15f4 06bc
00000200: a2fe 16c0 250f 743f c1e2 05bf 695d 14c0
00000210: 76f6 fb3e 014a 553b 1725 0a40 8e45 2440
00000220: c701 1abf 2726 07c0 fc70 49bf e2d4 08c0
00000230: aab0 e3bf 3418 0c3f 5e2d a13b bf04 ba3b
00000240: f9df d13e ce77 00c0 652b 163d 6c8b 83bb
00000250: ac73 37c0 805e 0cc0 bae4 8e40 c418 a83f
00000260: b335 a33e 4065 a7bf ba68 6f3c 4ce8 b4be
00000270: 34e4 053d 4f5f 68bf 5295 c4bf 9b72 013f
00000280: 3c5c 0a3f e5e6 fb3f 99cb a73e e866 21c0
00000290: 4385 fa3c c712 8dbf 28d4 f33e 7f12 bf3c
000002a0: e934 0bbf dfff f4bf 785d dc3e f4bb fabb
000002b0: 0cc6 db3e b203 bfbe d255 00bf fe9f febf
000002c0: ff9a d83e 0152 b5be f369 25c0 6e77 173b
000002d0: 8462 853c 68c6 07c0 0e62 f1be def2 fb3e
000002e0: 2aff 603f 7b81 cc3e 86fc 02bf b8d0 4d3c
000002f0: 38cb e3be 1690 27bf 3059 4d3c 5bd5 58bf
00000300: 5e6c 233d d9d7 5db8 f88e ffbf 059e c43e
00000310: 6cc0 c23e e9de 22bf d97a b3be 2ac3 bb3e
00000320: 70c9 cc3c 4f16 dcbe 8ea8 20bd cf9d fabf
00000330: 20cc ff3e 053e e1be bc1f 28bf c98b 59c0
00000340: 67a9 dfbe 768a 2e3b 33ec 3fc0 b1a1 0ebf
00000350: edbb f4be d7fa 153f 6cc5 09bf f0be 06c0
00000360: 92f2 2fc0 7e9d 133c a389 8840 9f00 363d
00000370: 879c 3ebc df1f b7bf 1711 b03b b00a dabe
00000380: 5064 0740 1259 21c0 3a31 ac3f 73a9 0e3f
00000390: b65a e2be 0c7d d53e e593 f3bf 9400 0cc0
000003a0: c940 09c0 17a4 f8be 64aa 16c0 e641 a23e
000003b0: 1dc3 0440 f937 193f 57a8 0fc0 7c30 e7be
000003c0: f151 10c0 391b 7540 ff61 04bf e38c f33a
000003d0: 439a eabb ad34 d0be f7de 05c0 51d7 16c0
000003e0: 7dd4 313f d7d4 0ac0 2276 f83f e5f1 c43e
000003f0: e55c dcbe a468 783a 7c56 c83e 3698 1a3c
-2.0472972 2.6212714 3.2488732 -0.00010564628 0.022866784 -1.9450794 1.4944465 -1.0242027
0.038466264 4.3760524 -0.49189886 0.019695815 -0.45798486 0.00035380106 -0.42787227 0.01727959
2.7702732 0.5258138 0.45350277 -1.6919265 -2.2588036 0.43345633 -2.014142 0.42146254
-3.1726067 -1.0312991 -0.21691453 0.5785326 -0.81995475 0.7675652 -4.527466 0.038709152
0.0044566155 -0.4032005 0.04086014 -0.9096242 -1.9839458 -2.0520182 -0.4001855 0.03996607
-2.11266 0.026218431 -0.65353477 1.3618609 0.4894867 -2.2379243 0.46751598 0.026558178
-1.987371 -1.7710146 -1.9531295 -2.4387 0.40772995 -0.3860937 -0.0022523825 0.016290896
-2.6866155 1.2866812 -3.2319174 0.01186739 4.0633097 -1.3193405 -2.7905178 0.022108315
0.8850279 -2.0070944 -2.7749474 -2.0601199 0.04479703 -0.017599592 -0.42048514 0.47732162
0.5448741 -0.4886922 -1.0157576 -0.598393 -1.411886 0.41966227 -0.51531726 0.5336155
-1.4597439 -3.0689483 0.018096173 1.8514942 0.48738426 -0.41253978 -0.42814016 1.1371526
-0.0095128175 0.48791242 -0.42411384 -2.9848847 -1.6682976 -2.0108376 0.037077475 0.028067295
0.42357728 -2.498743 0.4914874 -1.5257524 0.03506656 -1.528529 0.29466468 -2.0471492
1.0859637 -1.6811265 1.9490776 -0.03940951 3.5371842 -1.3298554 -0.90783626 0.016496532
0.020399895 0.39262062 -1.7361081 0.38813654 -0.3151832 0.021292847 0.037483532 -0.34185916
-0.36497372 2.0323663 -0.3558811 0.006600615 1.0183778 2.083412 0.40967795 -0.008236905
-2.3592916 0.9533561 -0.52299124 -2.3182013 0.49211472 0.003254533 2.1585138 2.5667453
-0.6015896 -2.1117036 -0.78688025 -2.1379933 -1.7788289 0.5472443 0.0049187383 0.0056768353
0.4099119 -2.0073123 0.036662478 -0.004014423 -2.866435 -2.1932678 4.4654207 1.3132558
0.31876907 -1.3077774 0.014612371 -0.35333478 0.032688335 -0.9077043 -1.5358069 0.505655
0.5404699 1.9679838 0.3277252 -2.521906 0.030581122 -1.1021355 0.476228 0.02332425
-0.5437761 -1.9140586 0.4304006 -0.0076518003 0.42924535 -0.37307507 -0.5013095 -1.9892576
0.42305753 -0.35414127 -2.5845916 0.0023111957 0.016282327 -2.1214848 -0.47145122 0.4920873
0.8788935 0.39942536 -0.5116657 0.012561969 -0.4449098 -0.6545423 0.012533471 -0.84700555
0.03989827 -5.289153e-05 -1.9965506 0.3840181 0.3803743 -0.63621384 -0.35054663 0.36672336
0.024998397 -0.4298577 -0.039223246 -1.9579409 0.49960423 -0.4399263 -0.6567342 -3.3991568
-0.4368393 0.0026632822 -2.9987915 -0.5571547 -0.47799626 0.58585876 -0.53816867 -2.105404
-2.7491803 0.009009717 4.2668014 0.044434186 -0.011633999 -1.4306601 0.005373131 -0.4258628
2.1154976 -2.5210614 1.3452523 0.5572731 -0.44209832 0.41696966 -1.9029509 -2.1875353
-2.1445792 -0.4856269 -2.3541498 0.31690902 2.0744088 0.5985103 -2.2446496 -0.45154178
-2.2550013 3.8297865 -0.5171203 0.0018581416 -0.0071595027 -0.40665188 -2.0917337 -2.3568919
0.69464856 -2.1692407 1.9411051 0.384658 -0.43039623 0.0009476042 0.39128482 0.009435704
