turtlebot3_rl_sim/src/models/td3/revamped/new_tracking_cp_gcp_nobonus_corrected_3/td3_critic1_model_ep3000.pt (torch_old, 647202 bytes, 5 tensors)

linear1.weight f4 [256, 372]
0	0x3d4e6852	0.050392456
1	0x3e465829	0.19369568
2	0xbe5021f6	-0.20325455
3	0x3e2d2446	0.16908368
4	0x3e081bb7	0.13291822
5	0xbcac71dc	-0.021050386
6	0x3e38fdee	0.18065616
7	0xbdc3a90c	-0.095537275
8	0x3d836a28	0.06416732
9	0x3e8c4156	0.27393597
10	0xbd02c096	-0.031921946
11	0x3e7a51c6	0.24445257
12	0xbdaca9c3	-0.08430817
13	0x3e6ad4d2	0.22932747
14	0xbe8629ce	-0.2620377
15	0x3f02a4ca	0.510327
16	0xbd787e03	-0.06066705
17	0x3e51e03a	0.20495692
18	0x3e40161e	0.18758437
19	0xbe4dcad9	-0.20096911
20	0x3d18de15	0.03732117
21	0xbdf664ae	-0.12030922
22	0x3e8a0fcb	0.26965174
23	0x3e284ad3	0.16434793
24	0x3e958fee	0.29211372
25	0x3ebd1a38	0.36934066
26	0x3d9398eb	0.07206901
27	0x3dfce6a4	0.12348679
28	0x3ebf3047	0.3734152
29	0x3ea5bc13	0.32370052
30	0x3e8f15f4	0.27946436
31	0x3e58c5bb	0.21169178
32	0x3e9e4daa	0.30918628
33	0x3e42d19f	0.19025277
34	0x3e8656ea	0.26238185
35	0x3e43811f	0.19092225
36	0x3ddc9c85	0.10772041
37	0x3e2de40e	0.16981527
38	0x3e36b98e	0.17844221
39	0x3de9f570	0.114237666
40	0x3e66a211	0.22522761
41	0x3e7cc548	0.24684632
42	0x3e7acf6b	0.24493186
43	0x3e4b3b26	0.19846782
44	0x3df03ae5	0.11729983
45	0x3df33e4a	0.11877115
46	0x3db2079d	0.08692858
47	0x3e05fe52	0.13085297
48	0x3d541d66	0.05178585
49	0x3df86418	0.12128466
50	0xbc5ae62d	-0.013360542
51	0x3ce68f1b	0.02814441
52	0x3d9f36b4	0.07774106
53	0x3d8f6753	0.070021294
54	0xbc823ea5	-0.015899012
55	0x3cc6d5b4	0.024271823
56	0xbc8ffa75	-0.017575482
57	0x3cfaae12	0.030600581
58	0xbdbf6651	-0.09345687
59	0x3d9dd703	0.07707026
60	0x3d5552c4	0.052080885
61	0xbde48f80	-0.11160183
62	0x3dcdddb4	0.10052052
63	0x3ce9dae3	0.028546756
64	0xbd62dae3	-0.055384528
65	0xbdc2d1e1	-0.095126875
66	0x3cf73f8b	0.030181667
67	0x3a7919e2	0.0009502453
68	0x3da2fab3	0.07957973
69	0xbe06702c	-0.13128728
70	0xbccd32a8	-0.025048569
71	0xbd9827bf	-0.07429456
72	0x3d6a9e23	0.057279717
73	0x3db1be24	0.086788446
74	0xbd743d58	-0.059628814
75	0x3dd313ea	0.10306533
76	0xbc51766b	-0.012784581
77	0xbd58953b	-0.052876692
78	0x3d5ad796	0.053428255
79	0xbd8f440e	-0.06995402
80	0xbd14732d	-0.036242653
81	0xbd25f789	-0.04051927
82	0xbc307717	-0.010770581
83	0xbd8677f0	-0.06565845
84	0xbc9536d2	-0.018214617
85	0xbc9dca4b	-0.0192615
86	0x3dfccbf5	0.12343589
87	0x3c74e1c2	0.014946403
88	0x3e00310a	0.12518707
89	0x3da512e2	0.08060242
90	0x3dc3a6c0	0.095532894
91	0x3e14a134	0.14514619
92	0x3a3781e2	0.000700025
93	0x3d2bee60	0.04197538
94	0xbc07ff35	-0.008300592
95	0x3a28eb15	0.00064437214
96	0xbc88c6e3	-0.0166964
97	0x3de321f2	0.11090459
98	0x3d8fb24a	0.07016428
99	0xbd8fb163	-0.07016256
100	0x3d00f6b1	0.031485263
101	0xbe385356	-0.1800054
102	0xbcb7beb8	-0.022429809
103	0xbd999616	-0.0749933
104	0x3daa4c68	0.083153546
105	0x3d282d04	0.041058555
106	0x3d46789d	0.04845487
107	0xbc1bfb9e	-0.009520439
108	0xbcfcf373	-0.030877804
109	0x3deb215e	0.11480974
110	0x3db6bbfb	0.08922573
111	0x3d61247e	0.054966442
112	0x3e019856	0.12655768
113	0xbc985f14	-0.018600024
114	0x3d394db1	0.045240108
115	0xbcb70ab6	-0.022343975
116	0xbda54a89	-0.08070857
117	0xbc9d4546	-0.019198071
118	0x3da64ebb	0.081204854
119	0x3cef94dd	0.029245788
120	0xbd1f5432	-0.038898654
121	0x3c5722ce	0.013130857
122	0xbcd1a48f	-0.025591163
123	0xbcd4e99f	-0.025990305
124	0xbd9e2060	-0.07721019
125	0x3d054795	0.03253897
126	0xbc52b825	-0.012861286
127	0x3daaa0ae	0.083314285
128	0xbd91e2d8	-0.07123345
129	0x3cb62844	0.022235997
130	0xbd377276	-0.044786893
131	0xbd52c344	-0.05145575
132	0x3d23bc16	0.039974295
133	0xbc58a9c6	-0.013224071
134	0xbc8803cb	-0.016603371
135	0x3c192dab	0.009349267
136	0x3c916208	0.01774694
137	0x3d800d60	0.06252551
138	0xbc212f21	-0.009837897
139	0xbd1597da	-0.03652177
140	0xbce77a27	-0.028256489
141	0xbdc0ad6c	-0.094080776
142	0xbd9b02e8	-0.07568914
143	0xbcf75790	-0.03019312
144	0xbd07acd0	-0.03312379
145	0xbe0d1118	-0.13776052
146	0xbde8ba5b	-0.113636695
147	0xbd958f06	-0.0730267
148	0xbe428aac	-0.18998212
149	0x3cb49891	0.022045406
150	0x3cd60dbc	0.026129596
151	0x3d2c6d10	0.042096198
152	0x3d43f097	0.047836866
153	0xbd78e2e8	-0.06076327
154	0x3c133b53	0.008986312
155	0xbd854cf2	-0.06508817
156	0xbcb6aa84	-0.022298105
157	0xbca9a782	-0.020709757
158	0xbcd8cf47	-0.026466025
159	0xbe0fae2b	-0.14031284
160	0xbdbadb31	-0.09123839
161	0xbb1b4276	-0.0023690737
162	0xbddccfdb	-0.10781833
163	0xbdae3040	-0.08505297
164	0xbc7a4aff	-0.0152766695
165	0x3d3df716	0.046378218
166	0xbcbc6fb3	-0.023002481
167	0xbcbeaf37	-0.023276908
168	0xbceed7df	-0.02915567
169	0xbdcfdbbd	-0.101493336
170	0x3cb91290	0.02259186
171	0x3daf0183	0.0854521
172	0x3d11331a	0.035449125
173	0x3d118678	0.03552863
174	0x3dfb327b	0.12265488
175	0x3d2aeb9d	0.041728605
176	0x3dcbb357	0.09946316
177	0xbb2933ee	-0.0025818306
178	0x3c114377	0.0088661825
179	0xbd856724	-0.06513813
180	0xbcbb50db	-0.022865703
181	0x3c3c80bb	0.011505301
182	0x3c94d5e9	0.018168407
183	0xbdcb9d67	-0.099421315
184	0xbc8f3723	-0.017482346
185	0xbd178fc0	-0.037002325
186	0x3cb0ccb1	0.02158198
187	0x3da9d3e6	0.082923695
188	0x3d04fd24	0.032467976
189	0x3c7944e0	0.015214175
190	0xbc5c5ce3	-0.01344988
191	0xbcd85aab	-0.026410421
192	0x39cc12c7	0.00038923902
193	0xbca934d6	-0.020655077
194	0xbb8cc25c	-0.0042956304
195	0xbd63c699	-0.05560932
196	0x3da97f39	0.08276219
197	0xbc7cf52b	-0.015439312
198	0x3bf3fc4a	0.0074458467
199	0x3c56b291	0.013104097
200	0x3d4a30ba	0.049362876
201	0x3cd7e144	0.026352532
202	0x3d3c485c	0.045967445
203	0xbc9ca36b	-0.019120893
204	0xbd230620	-0.039800763
205	0xbbcdd532	-0.0062815184
206	0x3c52f44f	0.0128756305
207	0xbce60cd7	-0.028082294
208	0xbd6ef0be	-0.05833506
209	0xbc19e7c3	-0.009393635
210	0xbd8aa7b5	-0.06770269
211	0x3bca2601	0.006169081
212	0xbd82aa35	-0.06380121
213	0xbdc4edf0	-0.096156955
214	0xbdcf8bbd	-0.10134075
215	0xbd6b7ad0	-0.05749017
216	0xbcca763a	-0.024714578
217	0x3d1c0c8e	0.03809791
218	0xbda43ba0	-0.08019185
219	0x3c5f6829	0.013635674
220	0xbbfe3847	-0.0077581736
221	0xbc974189	-0.018463867
222	0xbc3fe503	-0.0117123155
223	0x3c65232c	0.013985436
224	0x3d117f08	0.035521537
225	0x3da0133e	0.0781617
226	0x3d9aacea	0.07552512
227	0x3dd758e1	0.10514999
228	0x3d61b14f	0.055100735
229	0xbaa72bef	-0.0012754182
230	0x3ce1b3a8	0.027551487
231	0xbac9b2b4	-0.0015388341
232	0xba35c7db	-0.0006934383
233	0x3c65893d	0.014009771
234	0x3d8559bf	0.06511258
235	0x3d9e15ef	0.07719027
236	0x3d2ff7eb	0.042961042
237	0x3d293976	0.041314565
238	0x3d263fea	0.040588297
239	0x3c2f2ebc	0.010692295
240	0xbca95f24	-0.02067525
241	0x3c3cb736	0.01151829
242	0x3cc6c625	0.024264405
243	0x3cd7290d	0.026264692
244	0x3c0b86fb	0.008516069
245	0x3db32e30	0.08749044
246	0xbd3c0fa5	-0.045913357
247	0x3db52a5a	0.088459685
248	0x3d6f7ca6	0.058468483
249	0x3def6d93	0.116908215
250	0x3d76c750	0.060248673
251	0x3d8da75a	0.069166854
252	0xbcb97357	-0.022638006
253	0xbcb53805	-0.022121439
254	0xbda26764	-0.079298764
255	0x3ca6aca6	0.020345997

linear1.bias f4 [256]
0	0xbe2866f6	-0.16445526
1	0x3b5aed4c	0.00334056
2	0x3c6491ba	0.01395076
3	0xbd4269f9	-0.047464345
4	0xbd6ac9eb	-0.05732147
5	0x3cd62011	0.026138337
6	0xbc41ccf1	-0.011828647
7	0x3cf749eb	0.030186614
8	0xbd46c279	-0.048525307
9	0x3dab83d6	0.08374755
10	0x3e03925b	0.12848799
11	0x3b96ce74	0.004602248
12	0x3ecd832d	0.40139142
13	0xbd03cf14	-0.032179907
14	0x3dbcb2a5	0.09213761
15	0x3cb6f380	0.022332907
16	0xbb7c39fc	-0.003848671
17	0xbc62d594	-0.013844866
18	0x3ccf61d8	0.02531521
19	0xbd353d5e	-0.044247977
20	0x3cf25f53	0.02958647
21	0xbbaadc47	-0.0052142474
22	0x3d76bd4b	0.060239118
23	0xbce1b4e6	-0.02755208
24	0x3e58a9a0	0.21158457
25	0x3e638876	0.22220024
26	0x3be04812	0.006844529
27	0x3b7ee1ab	0.0038891833
28	0x3b0ab9b4	0.0021167817
29	0xbbd24c62	-0.006417797
30	0xbd4c92c1	-0.049944643
31	0x3d159d35	0.036526877
32	0x3d4d4350	0.050113022
33	0xbb81d6b5	-0.0039623627
34	0xbc9a705e	-0.018852409
35	0x3cc44c00	0.02396202
36	0xbc56d7aa	-0.013112942
37	0xbe1f8850	-0.15579343
38	0xbc0a9ccd	-0.008460236
39	0x3ce8cfaa	0.028419334
40	0xbe921cba	-0.28537542
41	0xbcf88014	-0.03033451
42	0x3e6778b8	0.22604644
43	0xbd4d9f81	-0.050200943
44	0xbd37cd90	-0.044873774
45	0x3d2c98ce	0.042137913
46	0xbd458d19	-0.048230264
47	0x3d37e770	0.04489845
48	0x3d4fc19a	0.050721742
49	0x3e5e8f6c	0.21734399
50	0xbd775ed1	-0.06039316
51	0xbb8394cd	-0.004015541
52	0xbd56ff82	-0.052489765
53	0x3cf1be63	0.029509729
54	0xbd6596ab	-0.05605189
55	0x3e2b1ff4	0.16711408
56	0x3df1af86	0.118010566
57	0x3d4606eb	0.04834644
58	0x3d285c6e	0.041103773
59	0x3e3431c8	0.17597115
60	0xbcc437b1	-0.023952337
61	0x3cc96ac4	0.024587043
62	0x3e8ecc18	0.27890086
63	0xbe7cb304	-0.24677664
64	0xbc83a6c5	-0.016070733
65	0x3c72296c	0.014780384
66	0x3cf8871b	0.03033786
67	0x3e30238a	0.17201057
68	0x3e63054b	0.22169988
69	0xbe65582e	-0.22396919
70	0x3da7f48f	0.08200943
71	0xbd3833e8	-0.044971377
72	0x3e5fe00f	0.21862815
73	0xbc0986ad	-0.008393926
74	0xbce050ab	-0.027382215
75	0xbe8b60e5	-0.27222362
76	0xbbc9f791	-0.0061635454
77	0xbd54fa1b	-0.05199633
78	0x3ca3fdae	0.020018425
79	0xbc4cb8d9	-0.012495243
80	0x3e01fcfa	0.12694159
81	0xbe4a24bc	-0.19740576
82	0xbc710c44	-0.014712397
83	0x3ab340b7	0.0013675903
84	0x3c5d3a09	0.013502606
85	0xbcdb34da	-0.0267586
86	0x3aa7fd40	0.0012816563
87	0x3d18de76	0.03732153
88	0x3dd3d97c	0.10344216
89	0x3cf5a983	0.029988056
90	0x3d369447	0.044575002
91	0x3e10afa2	0.14129499
92	0x3dc5d3bd	0.096595265
93	0x3d76dd2c	0.06026952
94	0x3e0660a2	0.131228
95	0x3cdae461	0.026720228
96	0xbe7db54a	-0.24776188
97	0xbb4721c9	-0.0030385128
98	0x3d8177b5	0.063216604
99	0xb96f7603	-0.00022836779
100	0x3cc148e8	0.023594335
101	0xbc334ec8	-0.010944076
102	0xbb01bb5d	-0.0019795515
103	0x3e7fc34a	0.2497684
104	0x3d1e139d	0.038592923
105	0xbd4154a1	-0.04719985
106	0x3e0eb04a	0.13934436
107	0x3d28feee	0.041258745
108	0xbca79087	-0.020454658
109	0x3c891d34	0.016737558
110	0x3d142d3d	0.036175955
111	0x3cecd492	0.028909955
112	0xbc319f88	-0.010841258
113	0x3e8addc7	0.27122328
114	0x3e6c3955	0.23068745
115	0xbe7887da	-0.24270573
116	0x3baa457e	0.0051962724
117	0xbc294f67	-0.010333872
118	0x3b2147fa	0.0024609552
119	0x3d5d36e9	0.054007445
120	0xbd698293	-0.05700929
121	0xbd52df42	-0.051482446
122	0xbd5bd75a	-0.053672172
123	0x3c00eb8c	0.007868659
124	0x3c3a514f	0.011371925
125	0xbcaf3d5f	-0.021391569
126	0x3c7839c3	0.01515049
127	0xbccb9e39	-0.02485572
128	0xbad7f27a	-0.0016475462
129	0xbe8dd9ac	-0.27705133
130	0x3d286696	0.04111346
131	0xbe8434d4	-0.25821555
132	0xbd6696eb	-0.05629627
133	0x3c5d0f11	0.013492362
134	0x3c223f0c	0.009902727
135	0xbcc9adfe	-0.024619099
136	0xbb69d883	-0.003568203
137	0x3b305f37	0.0026912221
138	0xbd51d1ba	-0.0512254
139	0xbc0b4015	-0.008499165
140	0xbdb2606e	-0.08709799
141	0x3dd30728	0.10304099
142	0xbd6fae43	-0.0585158
143	0x3e70724e	0.23481104
144	0x3e01e41b	0.12684672
145	0xbc870ddd	-0.016486103
146	0xbc0cbe1d	-0.008590248
147	0x3cfc1abb	0.030774465
148	0xbd57162a	-0.05251137
149	0xbc159a16	-0.009130975
150	0xbd3a5920	-0.045495152
151	0xbd131bce	-0.03591519
152	0xbae137eb	-0.0017182803
153	0x3afd62db	0.0019331829
154	0x3e868cbe	0.26279253
155	0x3dcc5b36	0.099783346
156	0xbd57bb02	-0.05266858
157	0x3cb48fdf	0.02204126
158	0x3c816ec4	0.015799887
159	0xbd5bb1dd	-0.05363642
160	0xbccf1361	-0.025277795
161	0xbc29809f	-0.010345607
162	0xbd17d5f6	-0.037069283
163	0x3c5f96b9	0.013646775
164	0x3ca4584e	0.020061638
165	0xbbfe5124	-0.0077611376
166	0x3dd86b90	0.10567391
167	0x3d073e4c	0.033018395
168	0x3c1feeb8	0.009761505
169	0x3cdcecb1	0.026968332
170	0xbd3a1910	-0.045434058
171	0xbc170be9	-0.009219148
172	0x3c9c438d	0.01907518
173	0x3d129ae5	0.03579225
174	0x3cef1b62	0.029187862
175	0xbd0c5ae5	-0.03426637
176	0xbdda0d96	-0.106471226
177	0xbd708376	-0.05871912
178	0x3b63c6e0	0.003475599
179	0xbe5b7292	-0.21430424
180	0x3e1c70a1	0.1527734
181	0xbd3d36b8	-0.046194762
182	0xbd69a813	-0.057045054
183	0xbe56f6b6	-0.2099255
184	0x3c8d38c4	0.017238982
185	0xbd4ec799	-0.05048332
186	0x3d1731e5	0.036912818
187	0xbc9cbfc6	-0.019134413
188	0x3cfd3cac	0.03091272
189	0xbb00d28d	-0.0019656748
190	0xbdabbc50	-0.08385527
191	0x3e5fc272	0.21851519
192	0xbcf6eb64	-0.03014154
193	0x3cf7f132	0.030266378
194	0x3af79f60	0.0018892102
195	0xbd2ef7d5	-0.04271682
196	0xbd465839	-0.04842398
197	0x3dee86d1	0.11646808
198	0x3cf73b13	0.030179536
199	0xbd526ba2	-0.051372178
200	0x3e77b414	0.24189788
201	0x3ce8912a	0.028389532
202	0xbe2ab870	-0.1667192
203	0x3d4a29a8	0.049356133
204	0xbc2b5497	-0.0104571795
205	0x3cbc0c47	0.022955073
206	0x39dc4581	0.00042013454
207	0x3e1b62d9	0.15174426
208	0xbc81e3f0	-0.01585576
209	0xbc8eef0d	-0.017447973
210	0x3e948e13	0.29014644
211	0x3b119915	0.0022216488
212	0x3b35e2ef	0.0027753671
213	0x3c93cb95	0.018041411
214	0xbab63b38	-0.0013903147
215	0xbd024b1d	-0.031809915
216	0x3bfb9f4b	0.0076789013
217	0x3d03f9dc	0.032220706
218	0x3d00109a	0.031265832
219	0xb9f4f37c	-0.00046720717
220	0x3b4f9ce0	0.0031679198
221	0xbd6aae93	-0.057295393
222	0xbd0c6f51	-0.034285847
223	0x3d4125c0	0.04715514
224	0xbbac252f	-0.005253456
225	0x3d59522f	0.053056892
226	0x3d446c2b	0.04795472
227	0xbd25f727	-0.040518906
228	0x3dd63f7b	0.10461327
229	0xbe7e7f26	-0.24853191
230	0x3bd051e8	0.0063574202
231	0x3ad76480	0.001643315
232	0x3cf89e8b	0.030349037
233	0xbcb18048	-0.021667615
234	0x3d28adae	0.04118126
235	0xbe8112ee	-0.25209755
236	0x39cfefb0	0.00039660698
237	0x3e5ea555	0.21742757
238	0xbca53a17	-0.020169301
239	0x3daea685	0.08527855
240	0xbcde5412	-0.027139697
241	0xbe03a728	-0.12856734
242	0xbe81e219	-0.2536781
243	0x3d4e33f0	0.0503425
244	0xbd118656	-0.035528503
245	0xbdbc1c46	-0.0918508
246	0x3dd8bd89	0.10583026
247	0xbe6472c9	-0.22309412
248	0xbe13d47e	-0.14436528
249	0x3d364df7	0.044507947
250	0xbe9af172	-0.30262333
251	0x3ce05942	0.027386311
252	0xbc5dc902	-0.0135366935
253	0x3cf14d4c	0.029455803
254	0xbd23149e	-0.039814584
255	0x3dd7521e	0.105137095

linear2.weight f4 [256, 256]
0	0xbdd0be59	-0.10192556
1	0x3f1a9463	0.6038267
2	0x3d199a4d	0.03750067
3	0xbbc1c778	-0.005913671
4	0x3d36c7d7	0.044624176
5	0x3dc37848	0.09544426
6	0x3d433ce9	0.04766551
7	0xbcd4a9d9	-0.025959896
8	0x3d328dd0	0.043592274
9	0x3ed8613f	0.42261693
10	0x3f506c88	0.81415606
11	0x3ec8e9a7	0.39240763
12	0x3e38868d	0.18020077
13	0xbe1154c0	-0.14192486
14	0xbefda4c6	-0.49539775
15	0x3d395652	0.045248337
16	0xbd756e24	-0.05991949
17	0xbcd0edfc	-0.025504105
18	0xbdbb8f12	-0.09158148
19	0xbc8d5274	-0.01725123
20	0x3cbb48f8	0.022861943
21	0x3c15ae65	0.009135817
22	0x3e237fe6	0.15966758
23	0x3e794b65	0.24345167
24	0xbe73b226	-0.23798427
25	0xbc236af7	-0.009974233
26	0xbd3424d7	-0.043980446
27	0x3e17181d	0.14755292
28	0x3cdc5e81	0.026900532
29	0xbd1998bd	-0.03749918
30	0x3d834774	0.06410113
31	0x3d21401e	0.039367788
32	0x3e87222c	0.2639326
33	0xbd2d6d4e	-0.04234057
34	0xbad13961	-0.0015962535
35	0x3cff3f6c	0.031158172
36	0x3e3b789f	0.18307732
37	0xbd008e51	-0.031385724
38	0xbd248666	-0.040167235
39	0xbccb17d9	-0.024791645
40	0xbe59bd75	-0.21263678
41	0x3cd563c9	0.026048558
42	0x3e42232b	0.18958728
43	0xbc47d7d0	-0.01219745
44	0x3cf57c34	0.029966451
45	0x3d10d154	0.03535588
46	0x3c6096fa	0.013707871
47	0xbce061c0	-0.02739036
48	0x3f899d41	1.0751115
49	0xbda54854	-0.08070436
50	0x3eb28c6d	0.3487276
51	0xbd444c00	-0.04792404
52	0x3d28d0d7	0.04121479
53	0xbc2bdd4e	-0.010489775
54	0x3ac79f90	0.0015230048
55	0x3f15eb15	0.5856183
56	0x3d53d1b5	0.051713664
57	0x3ecb7196	0.39735097
58	0xbd45dd91	-0.048307005
59	0x3f1d230c	0.613816
60	0xbd01b2c5	-0.03166463
61	0x3f3a6ffe	0.72827137
62	0x3e190df7	0.14946733
63	0xbe0f7553	-0.140096
64	0xbd65a713	-0.056067538
65	0xbce82303	-0.028337007
66	0xbd071a5c	-0.032984123
67	0x3f0b28b3	0.5435898
68	0x3e9ab5f5	0.30216947
69	0xbe9f0fae	-0.3106665
70	0x3f153d81	0.5829697
71	0xbcaf77f6	-0.021419507
72	0x3e0d6b3e	0.13810441
73	0x3e189175	0.14899237
74	0x3d66108c	0.056168124
75	0xbd360938	-0.044442385
76	0xbd58b9b1	-0.052911464
77	0x3f4c1baf	0.7972974
78	0xbc422b79	-0.011851185
79	0xbc8ee96f	-0.017445294
80	0x3f215675	0.6302255
81	0xb9f7e3f2	-0.00047281344
82	0xbd4f0b91	-0.05054814
83	0xbd573182	-0.05253745
84	0x3c178006	0.009246832
85	0x3d3773b7	0.04478809
86	0x3c0738c8	0.008253284
87	0x3f2b9384	0.67021966
88	0x3f531774	0.8245766
89	0xbb41fb08	-0.002959909
90	0x3d507ac1	0.050898317
91	0x3f151706	0.58238256
92	0x3eec13aa	0.46108752
93	0x3e870f62	0.26378924
94	0x3ef73641	0.4828358
95	0x3d06188c	0.032738253
96	0x3d401696	0.04689654
97	0xbd0e5074	-0.034744695
98	0x3ede87a5	0.43462864
99	0x3d39a4a8	0.045323044
100	0x3e2c6e9e	0.16839072
101	0xbc0cc2cc	-0.008591365
102	0xbd3a2400	-0.04544449
103	0x3ee31c09	0.44357327
104	0x3d16f4f5	0.036854703
105	0xbd1609cd	-0.03663044
106	0x3eb762f5	0.35817686
107	0x3d01782d	0.03160875
108	0x3d4a6cc0	0.04942012
109	0xb9ae8b3f	-0.00033291613
110	0xb8d6ab21	-0.000102361904
111	0x3ea58516	0.323281
112	0xbcaa1c16	-0.020765346
113	0x3dc44c02	0.0958481
114	0x3f3180b1	0.6933699
115	0xbe08c4ee	-0.13356373
116	0x3e12b7cd	0.14327927
117	0x3d4b002c	0.04956071
118	0x3f28efa0	0.6599064
119	0x3deabfc2	0.11462356
120	0xbd01d9d5	-0.03170188
121	0x3d0b458d	0.034001876
122	0xbd54936e	-0.051898412
123	0x3cf1eed3	0.029532826
124	0x3cf3a994	0.029743947
125	0x3e8ce5f4	0.2751919
126	0x3cb8a080	0.02253747
127	0x3d856735	0.06513826
128	0xbc402328	-0.011727132
129	0xbdd0f5f3	-0.10203161
130	0x3d8c317d	0.06845377
131	0x3d6c706c	0.0577244
132	0x3c037b05	0.008024936
133	0x3d7f33b4	0.062305167
134	0x3cb0485c	0.021518879
135	0x3d6e149e	0.05812513
136	0xbb19e165	-0.0023480293
137	0x3d8adffd	0.067810036
138	0xbc69fc72	-0.014281379
139	0xbd4109a1	-0.047128323
140	0x3d3b2817	0.04569253
141	0x3eddd652	0.43327576
142	0x3d49cef1	0.04926962
143	0x3f216ce0	0.63056755
144	0x3ed0106d	0.40637532
145	0x3e491820	0.19638109
146	0xbbbb91e0	-0.0057241768
147	0x3c4c1d90	0.01245822
148	0x3d3bedcf	0.04588109
149	0xbce7477b	-0.028232327
150	0xbaa7289f	-0.0012753195
151	0xbd0fe13c	-0.03512691
152	0x3d17f6c5	0.037100572
153	0x3d0a46dc	0.033758983
154	0x3e97e475	0.29666486
155	0x3eef3898	0.46722865
156	0xbd0893b5	-0.03334399
157	0xbd021215	-0.031755526
158	0x3cba5cf0	0.022749394
159	0xbde196d4	-0.11015096
160	0xbca712be	-0.02039468
161	0x3d2a4fa7	0.04157987
162	0xbcf36da3	-0.029715365
163	0x3da140e6	0.078737065
164	0x3e800032	0.2500015
165	0x3c82993c	0.015942208
166	0x3f21b476	0.63165987
167	0x3c12fe1d	0.008971718
168	0x3c88a210	0.01667884
169	0x3d65ee2b	0.056135338
170	0x3c4c8af1	0.012484298
171	0x3f5f8063	0.8730528
172	0xbd03a46d	-0.03213923
173	0x3dae07fe	0.08497618
174	0xbb42aad0	-0.0029703863
175	0x3d158435	0.036503036
176	0xbe100a4b	-0.14066426
177	0xbd0cce02	-0.03437615
178	0xbe0c2cbb	-0.13688938
179	0x3b277c36	0.0025556213
180	0xbdd32076	-0.10308926
181	0x3d510121	0.051026467
182	0xbd47c1f0	-0.048768938
183	0xbf348f82	-0.70531476
184	0x3bd82799	0.0065965173
185	0x3c16fe56	0.009215912
186	0xbc4bffe1	-0.012451143
187	0xbd006ebf	-0.031355616
188	0xbc056308	-0.008141287
189	0x3ca7f09e	0.020500477
190	0x3e02ebb3	0.12785225
191	0x3e6fa908	0.23404324
192	0xbd3c46e0	-0.04596603
193	0x3ee114f1	0.4396129
194	0xbd0c82e2	-0.034304507
195	0xbeeb1c19	-0.45919874
196	0xbd04fb64	-0.032466307
197	0x3d60d2f4	0.05488868
198	0x3c8bfacc	0.017087363
199	0xbd3aabf0	-0.04557413
200	0xbb8ced1c	-0.0043007266
201	0xbd0bf875	-0.034172494
202	0x3db3fdc8	0.08788639
203	0x3d78dc4c	0.060756966
204	0x3d06e53c	0.03293346
205	0x3bd2617a	0.0064203115
206	0xbbdada3a	-0.0066788467
207	0x3e8ac42e	0.27102798
208	0xbe254e74	-0.16143209
209	0x3d4ce401	0.05002213
210	0x3efb88ae	0.49127716
211	0xbd6190fb	-0.055069905
212	0x3d550221	0.052003983
213	0xb9e66b2a	-0.00043948862
214	0x3e9d23c5	0.30691352
215	0xbbff0e34	-0.0077836756
216	0x3c664d7a	0.014056558
217	0x3f06fb4b	0.5272719
218	0x3e02e2ad	0.12781782
219	0xbd87d5dd	-0.06632588
220	0x3ca040a7	0.019562079
221	0xbcfcbe04	-0.030852325
222	0x3cf38e28	0.029730871
223	0x3dabb95e	0.08384965
224	0xbd8ebdd5	-0.06969801
225	0x3f1f52e4	0.62235856
226	0xbefd3458	-0.49453998
227	0x3d2d4ed6	0.042311512
228	0x3ecfa4ca	0.40555412
229	0xbd03fd2c	-0.032223865
230	0xbbed01a0	-0.0072328597
231	0xbcae01a8	-0.021241024
232	0x3d5ce671	0.053930704
233	0x3cf1c314	0.029511966
234	0xbd675b96	-0.056483828
235	0xbe095dcc	-0.13414687
236	0x3cfc5b94	0.030805387
237	0x3ee51f6b	0.44750533
238	0xbc187556	-0.009305319
239	0xbe879598	-0.26481318
240	0x3d8cbc8d	0.06871901
241	0x3dacaf89	0.08431918
242	0xbda59504	-0.08085063
243	0x3dcbcac0	0.09950781
244	0x3d117cf6	0.035519563
245	0x3d83779a	0.064192966
246	0x3f41dbaa	0.75725806
247	0xbe5a1539	-0.21297158
248	0xbd10d8e7	-0.035363104
249	0x3d39655f	0.04526269
250	0xbdde06bd	-0.10841129
251	0xbcc61829	-0.024181442
252	0xbc85b48c	-0.016321443
253	0xbe3b7041	-0.1830454
254	0xbd24f796	-0.04027518
255	0x3f3bf119	0.7341476

linear2.bias f4 [256]
0	0x3e2f781a	0.17135659
1	0x3e87ec1a	0.2654732
2	0x3e8c8472	0.27444798
3	0xbcb76f08	-0.022391811
4	0xbdb4697f	-0.08809184
5	0xbd74b6d1	-0.05974466
6	0x3e899802	0.26873785
7	0xbbc081b1	-0.0058748354
8	0x3cae7d2e	0.021299925
9	0xbd5b42ea	-0.05353061
10	0xbcdbc9e7	-0.026829673
11	0xbe6fe540	-0.23427296
12	0xbdf5b51f	-0.11997437
13	0xbd61e23b	-0.05514739
14	0xbd986dba	-0.07442804
15	0x3a883b6c	0.0010393686
16	0xbda50b37	-0.0805878
17	0x3e8680d2	0.26270157
18	0xbd814c23	-0.0631335
19	0xbd841047	-0.06448417
20	0x3ea39765	0.31951442
21	0x3eba5589	0.36393383
22	0x3e8a872d	0.27056256
23	0xbe043fde	-0.12914988
24	0xbcc986b9	-0.024600374
25	0x3e32c231	0.1745689
26	0x3b589cdb	0.0033052478
27	0xbdb3c0f0	-0.08777034
28	0x3e234a73	0.15946369
29	0xbd9fd666	-0.07804565
30	0xbc8fc38d	-0.0175493
31	0xbcb99440	-0.022653699
32	0x3e82341e	0.25430387
33	0x3d34f944	0.04418303
34	0x3c642c2a	0.013926545
35	0x3e5bd477	0.21467768
36	0x3e88de37	0.26732036
37	0xbc63ec56	-0.013911327
38	0x3e4c4f3a	0.19952098
39	0x3e5473cf	0.20747302
40	0x3e501d39	0.20323648
41	0x3e95fe5d	0.29295626
42	0x3da92181	0.082583435
43	0x3d84556d	0.06461606
44	0x3e8983c1	0.26858333
45	0x3e928409	0.2861636
46	0xbda2a9d7	-0.07942551
47	0x3e8043a1	0.25051597
48	0x3df1ba76	0.11803143
49	0xbb338640	-0.0027393252
50	0x3e41120d	0.18854542
51	0x3cc08660	0.023501575
52	0xbd34e76a	-0.044166006
53	0xbda6b99b	-0.0814087
54	0x3e155a9f	0.1458535
55	0x3c1ddef7	0.0096356785
56	0x3c3460ff	0.011009454
57	0xbd51a9e2	-0.051187404
58	0xbd763ea3	-0.06011833
59	0x3e6921d2	0.22766808
60	0x3e210a23	0.15726523
61	0xbd468ee9	-0.048476133
62	0xbcba82e8	-0.0227675
63	0xbdd91855	-0.10600344
64	0x3e080e04	0.13286597
65	0x3e49d16c	0.19708794
66	0x3d88e47e	0.066842064
67	0x3df8eb86	0.121542975
68	0x3e47a2e5	0.19495733
69	0xbddf9a96	-0.10918157
70	0x3e2cc6b9	0.16872682
71	0x3ed7d37e	0.42153543
72	0x3e5b044f	0.21388362
73	0x3cd05159	0.025429415
74	0x3e69db8d	0.22837658
75	0x3db819ea	0.08989318
76	0xbd99206e	-0.074768886
77	0xbd2be8fe	-0.041970246
78	0x3db25cc2	0.087090984
79	0x3e6b941b	0.23005717
80	0x3e67d6e1	0.22640564
81	0x3ca0e70e	0.019641425
82	0x3e728755	0.23684438
83	0xbd14eefe	-0.036360733
84	0x3e6e7fa6	0.23290882
85	0xbe815aa0	-0.25264454
86	0xbdd63207	-0.10458761
87	0xbbd220a2	-0.0064125815
88	0x3b73fe2b	0.0037230353
89	0xbd001e8c	-0.03127913
90	0x3d858794	0.0652
91	0xbd5149ca	-0.05109576
92	0x3e8d5c2d	0.27609387
93	0x3e852c8f	0.26010558
94	0x3e7afe28	0.24511015
95	0xbce0f583	-0.02746082
96	0xbd81d261	-0.06338955
97	0xbe0710e0	-0.13190031
98	0x3e37935c	0.17927307
99	0x3c947838	0.018123731
100	0x3dc70e9c	0.097195834
101	0x3d6c35fa	0.057668664
102	0xbc31c508	-0.010850199
103	0xbb1af9ad	-0.0023647354
104	0xbcce4f74	-0.02518437
105	0x3e064689	0.13112845
106	0x3e8ab89d	0.27093974
107	0xbc596b0a	-0.013270149
108	0xbcc38e29	-0.023871498
109	0x3e83bace	0.25728458
110	0xbd8e0e35	-0.069363035
111	0x3d084e2c	0.033277676
112	0x3e804cf8	0.25058722
113	0x3e5c5be1	0.21519424
114	0x3d312b41	0.04325414
115	0x3c2c771a	0.010526443
116	0x3d024414	0.031803206
117	0x3c95a695	0.018267909
118	0xbe22aab4	-0.1588543
119	0xbd544c1e	-0.051830404
120	0x3c794739	0.015214735
121	0xbd2f5597	-0.042806234
122	0x3cac941e	0.021066722
123	0x3e1a98eb	0.15097396
124	0x3e839885	0.257023
125	0xbd5b704e	-0.0535739
126	0x3d23b9b6	0.03997203
127	0x3e8d5fc6	0.27612132
128	0x3d55f829	0.052238617
129	0x3c008c6e	0.007845981
130	0x3c153c7a	0.009108657
131	0xbd973d54	-0.07384744
132	0x3ca3d446	0.01999868
133	0x3dc281cb	0.09497412
134	0x3e3d75e8	0.18502009
135	0xbb8d89cf	-0.0043194066
136	0xbd9e9787	-0.07743745
137	0x3c1a26ed	0.009408695
138	0xbd245925	-0.040124077
139	0x3e4a8efe	0.1978111
140	0xbda1cfa5	-0.07900933
141	0x3e8fea4f	0.2810845
142	0x3e6324ce	0.22182009
143	0x3e817422	0.25283915
144	0xba990705	-0.0011675066
145	0xbe8242ed	-0.25441685
146	0xbd9a46f9	-0.07533068
147	0x3cf49fe3	0.029861396
148	0xbea676f2	-0.32512623
149	0x3e71d008	0.23614514
150	0xbd12316e	-0.03569167
151	0xbc9a2496	-0.018816274
152	0xbc970ebe	-0.018439647
153	0x3ebc95ec	0.3683313
154	0x3b96d1b5	0.0046026357
155	0x3ea7a92a	0.3274625
156	0xbd186b2e	-0.03721159
157	0x3e3fb2e2	0.18720582
158	0x3b8b8659	0.004257959
159	0x3e4834fd	0.19551463
160	0x3dedef56	0.11617915
161	0x3da98170	0.08276641
162	0x3eac8dd0	0.33701944
163	0xbd954107	-0.072877936
164	0xbb35cf68	-0.0027742032
165	0x3e05d19b	0.1306824
166	0x3c555b31	0.01302223
167	0x3df2c09d	0.11853144
168	0xbe4ea693	-0.2018073
169	0x3e9ea415	0.3098456
170	0x3e824bb9	0.25448397
171	0xbd1b9556	-0.037984215
172	0xbce49fcb	-0.027908226
173	0xbc25f300	-0.0101287365
174	0xbdac6572	-0.08417787
175	0xbd7e9cec	-0.06216137
176	0xbe0b9c2c	-0.13633794
177	0xbd86ff05	-0.0659161
178	0xbd6ef133	-0.058335494
179	0xbd4650a0	-0.048416734
180	0x3e84b397	0.25918266
181	0xbd1744d4	-0.036930874
182	0xbd4cf149	-0.050034795
183	0x3e46d7ae	0.19418213
184	0x3dab865e	0.08375238
185	0xbe29b4cf	-0.16572879
186	0x3e911e9c	0.28343666
187	0xbe3469d9	-0.17618503
188	0x3d1b88d5	0.03797229
189	0x3e32468e	0.17409727
190	0x3c957df5	0.018248538
191	0x3e214ac4	0.15751177
192	0x3d27c83b	0.04096244
193	0xbdab9637	-0.083782606
194	0x3d6bbded	0.057554174
195	0xbdc77327	-0.097387604
196	0x3e0fbd99	0.1403717
197	0x3e11cd5c	0.14238495
198	0x3de9132e	0.11380611
199	0x3d19733d	0.037463415
200	0xbb280bf7	-0.0025641897
201	0x3df1701b	0.117889605
202	0x3bd33851	0.0064459224
203	0x3e3e1b58	0.18565118
204	0xbca8d52c	-0.02060946
205	0x3e5c9314	0.21540481
206	0x3d055794	0.032554224
207	0x3d39adf1	0.0453319
208	0xbc7db0fc	-0.015484091
209	0x3db7d69c	0.0897648
210	0x3e01174e	0.12606546
211	0x3e6f8b15	0.233929
212	0x3de4695c	0.11152908
213	0xbd242587	-0.04007485
214	0x3e95848d	0.2920269
215	0x3e465d4d	0.19371529
216	0xbd402f65	-0.0469202
217	0x3e85378a	0.26018935
218	0xbccb8921	-0.024845662
219	0x3c6a01ea	0.014282683
220	0x3e8e2e3c	0.2776965
221	0x3d03cfee	0.03218072
222	0x3e6bba1f	0.23020218
223	0xbd290f57	-0.041274395
224	0x3e5afd64	0.21385723
225	0xbd3e5a20	-0.04647267
226	0x3e908f23	0.28234205
227	0xbd54b1aa	-0.051927246
228	0xbd58b1e2	-0.052904017
229	0xbd829b95	-0.06377331
230	0xbd1613f6	-0.03664013
231	0xbd83e47d	-0.06440065
232	0xbd8685ed	-0.06568513
233	0x3e013db7	0.12621199
234	0x3e919721	0.28435615
235	0x3e169800	0.14706421
236	0xbdb0078f	-0.08595192
237	0xbd883c6e	-0.06652151
238	0x3e7014b0	0.23445392
239	0xbd9159f1	-0.07097233
240	0x3e9c2926	0.30500144
241	0x3be1b742	0.006888301
242	0x3e4ecfee	0.20196506
243	0x3e6e07e0	0.23245192
244	0x3e284f64	0.16436535
245	0x3d53eccf	0.05173951
246	0xbd2799e7	-0.040918257
247	0x3eaa8337	0.33303234
248	0xbcc59c2c	-0.02412232
249	0x3c9e026d	0.019288266
250	0x3e40e330	0.18836665
251	0x3c90d958	0.017681763
252	0x3e9f562c	0.3112043
253	0xbd0f6cb8	-0.03501579
254	0x3dae59b1	0.08513201
255	0x3e97d567	0.29655

linear3.weight f4 [1, 256]
0	0xbee23780	-0.44182968
1	0xc012f812	-2.296391
2	0xbec59fe9	-0.38598564
3	0x3c26e4a6	0.01018635
4	0x3ebeb325	0.3724605
5	0x3eccc17e	0.39991373
6	0xbe855974	-0.2604481
7	0xbced42ba	-0.028962482
8	0x3cd9d869	0.02659245
9	0x3c706ce3	0.014674398
10	0x3eda2e69	0.42613533
11	0x4055283b	3.3305805
12	0x3ebd9831	0.37030175
13	0xbb9d3d8e	-0.0047985977
14	0x3ec64d88	0.38731027
15	0x3c77679b	0.015100385
16	0x3b6fd0a2	0.003659286
17	0xbedb0e9e	-0.4278459
18	0x3ea600b8	0.32422423
19	0x402cb422	2.6984944
20	0xbff7b06e	-1.9350717
21	0xc02ecf02	-2.7313848
22	0xbef0429d	-0.46925822
23	0x40119da4	2.2752466
24	0x3ec17760	0.37786388
25	0xbe99b736	-0.3002259
26	0x3fd145cc	1.6349425
27	0x40368154	2.8516436
28	0x3f832b23	1.0247539
29	0x3b4c8320	0.0031206086
30	0x3ce7891a	0.028263617
31	0x3c72e743	0.014825645
32	0x3ed27ca5	0.4111072
33	0x406fea18	3.748663
34	0xbb0ab375	-0.0021164094
35	0xbf1ca216	-0.61184824
36	0xbed11ce0	-0.40842342
37	0x3ed5d752	0.4176584
38	0xc0201834	-2.5014772
39	0xbf1ccb47	-0.61247677
40	0xbeb4e957	-0.35334274
41	0xbf8ca304	-1.0987248
42	0xbff454bc	-1.9088359
43	0xbf09a481	-0.5376664
44	0xbfbae1bf	-1.4600142
45	0xc0144868	-2.3169193
46	0xbb8ba7fd	-0.004261969
47	0xbeec5061	-0.46155074
48	0x3f0531bf	0.5202903
49	0x3ca4d2f6	0.020120125
50	0xbfe8b78f	-1.8181018
51	0x3bff97b3	0.0078000664
52	0x40573ce8	3.3630924
53	0x3ee44876	0.44586533
54	0xc00cae77	-2.1981485
55	0x3f01e1f6	0.50735414
56	0x3d207116	0.039170347
57	0x3d01e654	0.0317138
58	0x3ebe00b6	0.37109917
59	0xbe2991ef	-0.16559575
60	0xbe704e3e	-0.23467347
61	0x3c174c76	0.009234538
62	0x3ed5c4b1	0.41751626
63	0x405088b7	3.2583444
64	0xbe7444ab	-0.2385432
65	0xbef9cddf	-0.4878988
66	0xc018d7fd	-2.3881829
67	0xbefaafdb	-0.48962292
68	0xbeee4816	-0.46539372
69	0x3ebeafd4	0.3724352
70	0xbf0f00b6	-0.5586046
71	0xc00f9c2a	-2.2439065
72	0xbeddc379	-0.43313196
73	0x3d312b1f	0.043254014
74	0xbeb812a9	-0.35951737
75	0xbf8551d3	-1.0415596
76	0x3ce60982	0.028080706
77	0x3ec63373	0.38711128
78	0xc021df77	-2.5292642
79	0xbf00a2cf	-0.50248426
80	0x3f867f3f	1.0507582
81	0x3d30f2df	0.04320037
82	0xbf128a79	-0.5724254
83	0x3cd41ba9	0.025892096
84	0xc0014e24	-2.0203943
85	0x405e5cca	3.4744134
86	0x3f689735	0.90855724
87	0x3d1e427d	0.038637627
88	0xbafd8b7c	-0.0019343938
89	0x3ecbb789	0.39788464
90	0xc02b7ad4	-2.6793718
91	0x3d2ff74e	0.042960458
92	0xbeda15d5	-0.42594782
93	0xbed6fed7	-0.41991302
94	0xbf09ed69	-0.53877884
95	0xbcd6bd19	-0.026213216
96	0x40307274	2.7569857
97	0x406f759b	3.741553
98	0xbef886c7	-0.48540327
99	0x3fa04d84	1.2523656
100	0xc026bbb2	-2.605206
101	0x3cd8c889	0.02646281
102	0xbc1bc4fe	-0.009507416
103	0x3e8bb8d2	0.27289444
104	0x3ef01915	0.46894136
105	0xbe8dbbe7	-0.2768242
106	0xbedcc14c	-0.43116224
107	0x3c953c55	0.018217245
108	0xbc388208	-0.011261471
109	0xbf268a70	-0.6505499
110	0x3f62497c	0.8839338
111	0x3c1b835e	0.00949177
112	0xbeeb74f8	-0.45987678
113	0xbff9f30a	-1.9527295
114	0x3f091327	0.5354485
115	0x3eb0f327	0.3456051
116	0x3c1a818e	0.009430302
117	0x3c8c61ec	0.017136537
118	0x405944d5	3.3948262
119	0xc022d066	-2.5439696
120	0x3ed058b8	0.40692687
121	0xbd17fe95	-0.037108023
122	0x3ce8543a	0.028360475
123	0xc004d16d	-2.0752823
124	0xbebc5b79	-0.36788538
125	0xbfd7ffd4	-1.6874948
126	0x3ca5cf4e	0.020240452
127	0xbecdf40e	-0.4022526
128	0x3ef2a4f2	0.47391468
129	0xbce26fa2	-0.027641121
130	0xbd99f05b	-0.07516547
131	0x3f8d44c0	1.1036606
132	0x3cbda5a7	0.023150278
133	0xc0551d8e	-3.3299289
134	0xbf03fdf1	-0.5155936
135	0x3eb91238	0.36146712
136	0x403931ed	2.8936722
137	0x3beef772	0.0072926814
138	0x3f90f62e	1.1325128
139	0xbe5da713	-0.21645765
140	0x3ebc3736	0.36760873
141	0xc00c3f02	-2.1913457
142	0xbede4ee2	-0.43419558
143	0xbf02981c	-0.5101335
144	0x3e959de9	0.29222038
145	0x4019c6ca	2.4027581
146	0x3ebc94c9	0.36832264
147	0x3b1b36cd	0.0023683787
148	0x406dc414	3.7150927
149	0xc0295860	-2.646019
150	0xbb8cedc5	-0.0043008053
151	0xbc035584	-0.008015994
152	0x39b99a80	0.0003540106
153	0xc0147d68	-2.3201542
154	0x3e19145b	0.14949171
155	0xc01f7bcb	-2.4919307
156	0x3cc2fc10	0.023801833
157	0xbecc8946	-0.3994848
158	0xc0373526	-2.862619
159	0xbf24777e	-0.6424483
160	0x3fc9acd9	1.5755874
161	0xc000718e	-2.0069308
162	0xbfefd24f	-1.8736056
163	0x3f3f1391	0.7463923
164	0x3c505091	0.012714521
165	0xc031090b	-2.766177
166	0x3c9443e5	0.01809878
167	0x3f026523	0.5093557
168	0x406c845d	3.6955788
169	0xbe4cb42e	-0.19990608
170	0xbf15e635	-0.58554393
171	0xbab97e60	-0.0014152043
172	0x3b368570	0.002785053
173	0x3eba4fba	0.36388952
174	0x3e9cfcdf	0.30661675
175	0xbcf46ac3	-0.029836064
176	0x3e967afd	0.29390708
177	0x3d252b3e	0.040324442
178	0x3ca0817e	0.019592997
179	0x3eaec9a4	0.34138215
180	0xc01ab0c5	-2.4170392
181	0x3d9e9b98	0.07744521
182	0x3bfe7dab	0.0077664456
183	0xc00e03d3	-2.2189834
184	0x3f9035b7	1.1266392
185	0x4067fbd8	3.6247463
186	0xbefb1fdd	-0.49047747
187	0x4046ab2c	3.1041975
188	0x3b12361d	0.0022310086
189	0xbfd81f4b	-1.688455
190	0x3c707003	0.014675143
191	0xbf0559c6	-0.5209011
192	0x3fcf6d46	1.6205223
193	0x3c77aeb3	0.015117335
194	0x3f05be67	0.52243656
195	0x3ecbbce8	0.39792562
196	0xc01c7912	-2.4448895
197	0xc01d7590	-2.4603004
198	0xc00f95df	-2.2435224
199	0x3bfd9be3	0.0077395304
200	0x3c98680d	0.018604303
201	0xc03669a9	-2.850199
202	0x3cdad011	0.026710542
203	0xbebb2a1d	-0.36555567
204	0x3f07a15c	0.5298059
205	0xc01ad175	-2.4190342
206	0x3b1d950e	0.0024045142
207	0xbf815b03	-1.01059
208	0x3c32c867	0.010912037
209	0x3f0688f2	0.5255271
210	0x3f7b45bc	0.9815328
211	0xbf01ac17	-0.50653213
212	0x3f79a108	0.9751134
213	0xbc00c60c	-0.007859718
214	0xc010b578	-2.261076
215	0xbea36ae8	-0.319175
216	0x402e4e5b	2.7235324
217	0xbf249037	-0.64282554
218	0x3d0119a4	0.031518593
219	0x3c3602f7	0.011109105
220	0xbfd170b5	-1.636252
221	0x40890403	4.2817397
222	0xbf178e7b	-0.5920178
223	0x3cca68d8	0.024708197
224	0xbeda0e73	-0.4258915
225	0xbc1034d5	-0.008801659
226	0xbf9c7f40	-1.2226334
227	0x3c14c33d	0.009079752
228	0xbb3a4ca0	-0.002842702
229	0x3d2521de	0.0403155
230	0xbbf5865b	-0.007492823
231	0xbc3315bf	-0.010930478
232	0x3c778d1b	0.015109326
233	0xbf509119	-0.814714
234	0xbf2fc881	-0.6866532
235	0xbfca8cc1	-1.5824205
236	0x3ec83bf3	0.39108238
237	0x401f3ea1	2.4881976
238	0xbeb05eef	-0.3444743
239	0x4087d319	4.2445188
240	0xbf069ca9	-0.52582794
241	0xbbbe9fa8	-0.0058173724
242	0xc00811e1	-2.1260912
243	0xbff2228a	-1.891679
244	0xbf0ee8c4	-0.5582392
245	0x3ee9bb11	0.45650533
246	0xba65db6b	-0.00087683526
247	0xc0106d1c	-2.2566595
248	0xbd231302	-0.03981305
249	0x3997f5fe	0.00028984243
250	0xbebc2f0e	-0.3675465
251	0xc07aadde	-3.916862
252	0xc038bc7d	-2.8865044
253	0x3ed44210	0.41456652
254	0x3ef6379c	0.48089302
255	0xc002057c	-2.0315847
