turtlebot3_rl_sim/src/models/td3/revamped/new_tracking_cp_gcp_nobonus_corrected_3/td3_actor_model_ep1500.pt (torch_old, 646182 bytes, 6 tensors)

linear1.weight f4 [256, 370]
0.037769634 -0.009981646 -0.021383746 0.04711342 0.018436665 0.04803133 -0.05067927 -0.030136324
0.021784587 -0.014033834 0.031542435 0.045995828 0.012037076 0.03028757 0.035663355 -0.05313424
-0.032087076 -0.031161152 0.011726573 -0.03617149 0.0017222383 -0.0039606863 -0.035345964 0.008711319
-0.0053822584 -0.029029539 0.026514964 0.033560798 -0.03772568 0.01352086 -0.040842265 0.03160055
0.03765415 0.00518817 -0.021371452 -0.005019601 -0.026873339 -0.0377905 -0.03135785 -0.034065206
-0.020993708 -0.054291315 0.013283932 -0.053237803 0.041896515 -0.029073497 -0.025536332 0.014566923
0.019062886 0.002390777 0.00629095 0.031363435 0.017292626 -0.045648634 -0.016189942 -0.039261248
0.0005355866 0.0007982548 0.024685845 -0.04192185 0.035041228 -0.04398343 -0.017954987 0.0147239445
-0.031840462 -0.025135117 -0.015643908 -0.0101585975 -0.011284381 0.023726583 -0.03604185 0.0018117616
-0.052762456 -0.018153545 -0.033007223 -0.0030857308 -0.04055914 -0.05247412 0.02640395 0.040204488
-0.031715292 0.031613216 -0.049438003 -0.034130026 0.018754432 -0.05044234 0.018063018 0.041868202
-0.018913876 0.03932532 0.049414903 -0.04697931 -0.03708344 0.01571571 -0.04224297 -0.039755967
0.0026548537 0.023808539 0.041833185 0.0045341947 -0.026038501 0.012287602 0.036190856 0.022556094
-0.04390222 0.03224279 0.04146438 -0.039223995 0.04525524 0.041133575 0.02031384 0.017885322
-0.0064448053 0.023645744 -0.0066358196 -0.008740005 -0.03681969 -0.038464032 -0.04193675 0.018030236
-0.034209 -0.0062176553 -0.04268628 0.02381897 0.008775208 0.014700475 -0.0206819 -0.045495152
-0.04950804 -0.02795591 0.04531708 0.001976152 -0.03327321 0.036772 0.026109653 0.010046838
-0.020306392 0.022625757 0.037207115 -0.009547463 0.03547262 0.020969864 -0.0016314809 -0.025497962
-0.0133500565 0.020832028 0.019813534 0.0114514595 -0.03189187 -0.0026886612 -0.023528399 0.035672296
0.034254447 -0.0036065734 -0.03937375 -0.012802066 0.0109191155 -0.047468815 -0.0053894296 -0.020282922
-0.045127094 -0.014775168 0.01979826 -0.0026528516 0.033505663 0.02972803 0.0063550253 0.009252046
0.030895537 0.010168655 -0.017360428 -0.0244817 0.010716086 -0.04082736 -0.02937562 -0.008423728
0.01540828 0.046382513 0.009838594 -0.020729957 0.007570309 0.009377216 -0.04139882 -0.035556816
0.021811781 0.026929589 -0.034087557 -0.044914752 0.032851502 0.009442222 0.003249271 0.005785055
0.010884657 -0.03671389 0.04179295 0.0031361617 -0.040599372 0.011746131 -0.03284033 0.009690513
-0.021148307 8.7395245e-05 -0.026029188 -0.025420103 0.049081117 -0.04521054 -0.047339175 -0.0024881007
-0.023312703 -0.03137387 -0.014931444 0.01598207 -0.029859908 0.010942585 0.014563942 0.02501814
0.003418772 0.010296805 -0.03971946 0.012151815 0.015032026 -0.021369217 -0.011640519 0.021840094
0.0056904326 -0.028978875 0.036084313 0.025580661 0.026945608 -0.052529253 -0.015997717 0.012957969
0.0040068794 0.035851855 0.0070195245 0.00070899905 -0.05090726 0.033767924 -0.009864113 0.04847762
0.025465177 -0.039709773 -0.038853697 0.027330803 0.047258705 0.0005873333 0.020436402 -2.807522e-05
0.0073437183 0.044515397 -0.026557807 -0.042959716 -0.041594025 -0.04061204 0.007753221 -0.007988428
00000000: 55b4 1a3d 0f8a 23bc f72c afbc 00fa 403d
00000010: 7d08 973c 80bc 443d 1195 4fbd 74e0 f6bc
00000020: 9775 b23c 2bee 65bc a432 013d 1f66 3c3d
00000030: 2837 453c a31d f83c bd13 123d 4aa3 59bd
00000040: bd6d 03bd ac45 ffbc d020 403c 8e28 14bd
00000050: babc e13a a5c8 81bb eec6 10bd ecb9 0e3c
00000060: a85d b0bb 5bcf edbc e935 d93c 0c77 093d
00000070: 3e86 1abd 9986 5d3c 384a 27bd 946f 013d
00000080: 3d3b 1a3d 8601 aa3b 2f13 afbc 777b a4bb
00000090: 7a25 dcbc 36ca 1abd 1771 00bd f587 0bbd
000000a0: fffa abbc 9260 5ebd d9a4 593c e20f 5abd
000000b0: ae9b 2b3d 8b2b eebc 9231 d1bc 1aaa 6e3c
000000c0: c529 9c3c 95ae 1c3b 5024 ce3b f276 003d
000000d0: 44a9 8d3c 10fa 3abd c5a0 84bc 67d0 20bd
000000e0: 9c66 0c3a f941 513a f839 ca3c 3fb6 2bbd
000000f0: 6487 0f3d f827 34bd 5616 93bc b33c 713c
00000100: 256b 02bd 29e8 cdbc a727 80bc 3f70 26bc
00000110: 20e2 38bc 405e c23c 9ea0 13bd a278 ed3a
00000120: 721d 58bd beb6 94bc 9532 07bd f939 4abb
00000130: 5721 26bd 1aef 56bd 194d d83c 76ad 243d
00000140: e5e7 01bd dc7c 013d 817f 4abd edcb 0bbd
00000150: e5a2 993c a19c 4ebd e5f8 933c fe7d 2b3d
00000160: 46f1 9abc 9613 213d 4867 4a3d 616d 40bd
00000170: cee4 17bd 3cbe 803c f706 2dbd 27d7 22bd
00000180: 0efd 2d3b 200a c33c 4659 2b3d 9593 943b
00000190: b24e d5bc f051 493c dd3c 143d 8fc7 b83c
000001a0: d0d2 33bd 0411 043d 8ed6 293d 57a9 20bd
000001b0: 8f5d 393d ae7b 283d 3669 a63c 3d84 923c
000001c0: f22e d3bb b8b4 c13c 4a71 d9bb 3d32 0fbc
000001d0: 3ed0 16bd 768c 1dbd dfc5 2bbd 25b4 933c
000001e0: bd1e 0cbd 79bd cbbb cfd7 2ebd 0020 c33c
000001f0: e4c5 0f3c 43da 703c 176d a9bc 2059 3abd
00000200: f1c8 4abd cb03 e5bc 679e 393d 5482 013b
00000210: 7d49 08bd 3d9e 163d e9e3 d53c 7e9b 243c
00000220: 9759 a6bc a759 b93c 7d66 183d f66c 1cbc
00000230: bd4b 113d fec8 ab3c 6ad7 d5ba 1ae1 d0bc
00000240: 32ba 5abc eea7 aa3c fe4f a23c e79e 3b3c
00000250: 0da1 02bd 4034 30bb a1be c0bc 1d1d 123d
00000260: 644e 0c3d 435c 6cbb 5f46 21bd c2bf 51bc
00000270: 17e6 323c a96e 42bd d099 b0bb 5f28 a6bc
00000280: 30d7 38bd 8c13 72bc f62f a23c 77db 2dbb
00000290: 3c3d 093d 3388 f33c d13d d03b e595 173c
000002a0: a318 fd3c 6e9a 263c 7537 8ebc d98d c8bc
000002b0: 8692 2f3c 973a 27bd 24a5 f0bc ad03 0abc
000002c0: 0373 7c3c 97fb 3d3d 0e32 213c dfd1 a9bc
000002d0: 5b10 f83b e5a2 193c cf91 29bd 06a4 11bd
000002e0: 9fae b23c 719b dc3c 659f 0bbd 88f8 37bd
000002f0: 4c8f 063d 8db3 1a3c b9f1 543b 8f90 bd3b
00000300: 8f55 323c 4e61 16bd 162f 2b3d 1088 4d3b
00000310: 874b 26bd d872 403c 9583 06bd f5c4 1e3c
00000320: 373f adbc f747 b738 2a3b d5bc d23d d0bc
00000330: 4809 493d b02e 39bd b9e6 41bd 670f 23bb
00000340: 48fa bebc e381 00bd 04a3 74bc d4ec 823c
00000350: c49c f4bc 8748 333c 9a9d 6e3c d8f2 cc3c
00000360: 7a0d 603b eeb3 283c dfb0 22bd 6818 473c
00000370: e348 763c 7f0e afbc e0b7 3ebc ffe9 b23c
00000380: cf76 ba3b 1b65 edbc 25cd 133d 898e d13c
00000390: 09bd dc3c ea28 57bd a50d 83bc a94d 543c
000003a0: 244c 833b 65d9 123d 0a04 e63b 1fdc 393a
000003b0: 2284 50bd 3c50 0a3d 179d 21bc 7890 463d
000003c0: 599c d03c b7a6 22bd 0e25 1fbd d9e4 df3c
000003d0: 5892 413d 45f7 193a 3e6a a73c 1383 ebb7
000003e0: 93a3 f03b c755 363d c28f d9bc 87f6 2fbd
000003f0: 7f5e 2abd cf58 26bd bb0e fe3b e5e1 02bc

linear1.bias f4 [256]
0.042698197 0.04044365 -0.06325922 0.038265843 -0.09865988 0.003620468 0.04136678 0.012292631
0.025773259 0.02675897 -0.049930487 -0.008224279 0.002066723 -0.0068124915 -0.010933645 -0.00897116
0.002499416 -0.03358688 -0.0401203 0.014771442 0.016093828 -0.04622382 0.024802819 -0.08341157
0.008460049 0.02497679 -0.037876926 0.036078352 0.027334528 -0.03615137 0.0018405397 -0.038586967
-0.014145434 0.039294027 -0.04765359 0.042722784 -0.049501333 -0.010638415 0.007609611 -0.038272552
-0.029258644 -0.047472537 -0.004329397 -0.017508667 -0.022905901 0.022375045 -0.014460873 0.015722044
0.0013201858 0.030390015 -0.026910592 0.0049546873 0.046059903 -0.04172292 0.048789054 -0.05062339
-0.04190803 -0.030978613 -0.0029573292 -0.01699088 -0.037128143 0.0298439 -0.04380536 0.010627983
0.040209703 0.045627024 0.030801287 -0.025085943 0.0048670154 -0.05595727 -0.050268743 0.01645369
0.008971159 -0.040205237 -0.021321906 -0.04690108 -0.011756376 -0.032045353 -0.026569728 -0.045668006
0.0054996978 0.008364122 0.0044848346 -0.04256071 0.03801476 -0.045866936 0.027899284 -0.018815901
-0.017067678 0.01123353 0.036231093 -0.011283078 0.032144442 -0.012680993 -0.015625095 -0.043256998
0.0009929887 0.028991912 0.03857289 0.025177583 -0.022283033 0.00799625 0.028473351 0.016408987
-0.018785726 -0.0040783994 -0.018973108 0.017004661 0.028565366 0.015992131 -0.05095867 -0.055721086
-0.04340601 -0.020997806 0.008772414 -0.035138194 -0.05483074 0.015796706 0.011804804 -0.05915208
0.10953463 -0.04975987 -0.039039217 0.0063383617 -0.03706854 -0.036259405 0.04488569 -0.023311958
0.03489594 0.043030497 -0.02976993 -0.031552125 0.010126 -0.051983126 -0.052410044 -0.0151260905
0.00097432145 -0.012292632 0.01998229 -0.024917932 0.06313526 -0.038513206 -0.044766486 -0.028337933
-0.013711411 0.07153171 0.023813257 -0.05331976 0.02045801 -0.054556556 0.017356701 0.008527476
-0.04688171 -0.040807243 -0.038899146 -0.029250449 -0.014568414 -0.0054307804 -0.009661846 0.0061352327
-0.038712136 -0.0477199 0.0039803647 0.0055629346 0.0019657211 0.009116446 -0.003919964 -0.051478416
0.02437888 0.065926306 0.026783185 -0.032886524 0.027001115 0.008665498 -0.040615026 -0.03370129
-0.017332116 -0.053811498 0.025583927 0.02609885 -0.028450629 0.013104931 0.048692632 0.03765266
-0.02379066 0.032169774 -0.03953245 0.025690781 0.009698522 -0.042058196 0.02511686 0.032733038
0.005903147 -0.03786873 -0.014267596 0.049456965 -0.0070890947 -0.01842463 -0.04895744 0.018597597
0.00063625106 0.029251937 -0.046146333 -0.04509729 0.025605248 -0.01913404 -0.016764754 -0.05002362
-0.051167287 0.026496338 -0.019819869 -0.020365566 0.02099147 -0.029061949 0.018774623 -0.033122227
-0.016736815 0.02050028 0.015343647 -0.004782486 -0.02554043 0.023068322 -0.031416524 0.01252155
0.057526287 -0.005201302 0.042257868 -0.006955636 0.04302603 0.04044961 -0.005417835 0.017519869
0.025003612 -0.010371684 -0.005482003 -0.03477228 -0.052400358 -0.018719789 0.035095617 0.03604557
0.0105845835 -0.037901513 0.03925475 0.14525737 0.03476183 -0.01200001 -0.13913749 -0.017602574
-0.00056743796 -0.018482115 -0.03639426 0.006369554 -0.05004746 0.040369146 0.028802294 -0.046591878
00000000: 4ee4 2e3d 3ea8 253d 0d8e 81bd a5bc 1c3d
00000010: 310e cabd 6045 6d3b 3670 293d 0867 493c
00000020: 7122 d33c a135 db3c e983 4cbd 20bf 06bc
00000030: dc71 073b 523b dfbb 0823 33bc c6fb 12bc
00000040: 3ecd 233b 6592 09bd 2f55 24bd eb03 723c
00000050: 34d7 833c 3055 3dbd 482f cb3c afd3 aabd
00000060: 049c 0a3c 209c cc3c d624 1bbd e5c6 133d
00000070: a9ec df3c 7513 14bd 443e f13a 5e0d 1ebd
00000080: 40c2 67bc c6f2 203d 6930 43bd 16fe 2e3d
00000090: e9c1 4abd bf4c 2ebc 0b5a f93b aec3 1cbd
000000a0: d3af efbc 9072 42bd 9ddd 8dbb 566e 8fbc
000000b0: 28a5 bbbc df4b b73c 4ced 6cbc 84cb 803c
000000c0: 160a ad3a 7bf4 f83c 9a73 dcbc ee5a a23b
000000d0: 4fa9 3c3d a7e5 2abd 08d7 473d 795a 4fbd
000000e0: c1a7 2bbd dcc6 fdbc c0cf 41bb 7530 8bbc
000000f0: ae13 18bd 327b f43c 406d 33bd fe20 2e3c
00000100: eeb2 243d 67e3 3a3d fb52 fc3c 0981 cdbc
00000110: 7c7b 9f3b 7333 65bd 99e6 4dbd e4c9 863c
00000120: c5fb 123c 3fae 24bd 47ab aebc 591b 40bd
00000130: d19d 40bc fd41 03bd c2a8 d9bc 600e 3bbd
00000140: cf36 b43b ac09 093c 85f5 923b 2454 2ebd
00000150: 5db5 1b3d f8de 3bbd 0a8d e43c ce23 9abc
00000160: 84d1 8bbc d70c 383c 0e67 143d a9dc 38bc
00000170: e4a9 033d f1c3 4fbc 3300 80bc 402e 31bd
00000180: 2c27 823a 7280 ed3c 9bfe 1d3d 3841 ce3c
00000190: e88a b6bc b402 033c f240 e93c 246c 863c
000001a0: 86e4 99bc 18a4 85bb 7e6d 9bbc 5c4d 8b3c
000001b0: ea01 ea3c ee01 833c 0aba 50bd cb3b 64bd
000001c0: 80ca 31bd 9703 acbc 2cba 0f3c 11ed 0fbd
000001d0: 3396 60bd 1868 813c f068 413c 7449 72bd
000001e0: b153 e03d 01d1 4bbd 96e7 1fbd 08b2 cf3b
000001f0: 2ed5 17bd be84 14bd 0fda 373d b8f8 bebc
00000200: 0cef 0e3d bf40 303d 11e0 f3bc cd3c 01bd
00000210: 86e7 253c 42ec 54bd eaab 56bd 6cd3 77bc
00000220: 9b69 7f3a 0967 49bc e6b1 a33c b120 ccbc
00000230: 0f4d 813d 06c0 1dbd 105d 37bd f424 e8bc
00000240: d3a5 60bc 387f 923d 0514 c33c d265 5abd
00000250: 8e97 a73c b276 5fbd a42f 8e3c d4b6 0b3c
00000260: 0907 40bd 7f25 27bd b654 1fbd a39e efbc
00000270: 5bb0 6ebc b0f4 b1bb b84c 1ebc 100a c93b
00000280: 9e90 1ebd f175 43bd b86d 823b 4749 b63b
00000290: 54d3 003b 255d 153c 0b73 80bb 08db 52bd
000002a0: 38b6 c73c 5f04 873d 6968 db3c 05b4 06bd
000002b0: 7131 dd3c bcf9 0d3c f15b 26bd 5d0a 0abd
000002c0: 15fc 8dbc 7269 5cbd 6295 d13c 41cd d53c
000002d0: 4b11 e9bc 11b6 563c ed71 473d ad39 1a3d
000002e0: a1e4 c2bc 74c4 033d c7ec 21bd 7975 d23c
000002f0: 8de6 1e3c 3745 2cbd e0c1 cd3c 1413 063d
00000300: 306f c13b 3e1c 1bbd a3c2 69bc 6393 4a3d
00000310: a34b e8bb 40ef 96bc 9987 48bd fd59 983c
00000320: 16ca 263a c2a1 ef3c f003 3dbd f0b7 38bd
00000330: 19c2 d13c febe 9cbc 3d56 89bc 91e5 4cbd
00000340: ca94 51bd d90e d93c 475d a2bc b0d5 a6bc
00000350: 4ef6 ab3c 5313 eebc 3dcd 993c 2cab 07bd
00000360: a51b 89bc 34f0 a73c ec63 7b3c 66b6 9cbb
00000370: 2a3a d1bc c7f9 bc3c 9dae 00bd 3027 4d3c
00000380: afa0 6b3d af6f aabb 9616 2d3d 1bec e3bb
00000390: 103c 303d 7eae 253d 1888 b1bb d485 8f3c
000003a0: 60d4 cc3c ffed 29bc 60a2 b3bb 616d 0ebd
000003b0: c2a1 56bd 3e5a 99bc 6cc0 0f3d 85a4 133d
000003c0: f66a 2d3c 9e3e 1bbd 97c9 203d 59be 143e
000003d0: 6c62 0e3d b19b 44bc 0f7a 0ebe 4633 90bc
000003e0: 1ec0 14ba ce67 97bc 2612 15bd b1b7 d03b
000003f0: 91fe 4cbd 1e5a 253d caf2 eb3c 20d7 3ebd

linear2.weight f4 [256, 256]
-0.025521804 -0.026330192 0.049739007 0.066395916 0.1789569 -0.014357306 -0.005340348 -0.025713656
0.0071750553 -0.034396756 0.016131455 -0.057983637 0.045641184 0.00068162987 -0.033238936 -0.008176368
-0.04164171 0.049581796 0.042593893 0.025245758 0.056968313 0.069172 -0.039733615 -0.028889468
-0.011200934 -0.010290472 -0.0013077295 -0.022481589 0.07261716 0.06584457 -0.032717396 0.005287077
0.011674285 0.060524475 -0.035524774 0.08447402 0.028019238 0.01933744 -0.017695704 0.026510496
0.0012117566 -0.07024935 0.047532886 0.053987645 0.010844611 0.020448698 0.0342317 0.015287768
-0.04002121 0.010489961 -0.057328917 0.00090902403 0.0052588577 0.061069112 0.015287768 0.01834912
-0.03137985 -0.042714592 0.04223513 -0.04281368 0.036020983 -0.04640404 -0.018587912 0.04158881
-0.0552584 0.008420002 -0.052662615 0.06858192 0.2602002 -0.05918263 0.05319682 -0.001667104
6.9144226e-05 0.011044472 0.053532846 0.0060586785 0.03199096 0.0053398823 0.024553599 0.11958934
-0.034791637 -0.0037541417 -0.0011141307 0.024826579 -0.049202565 -0.033218637 -0.024124444 0.06553314
0.031295568 0.020557849 -0.028909706 -0.13483255 0.03960993 -0.023223668 0.051008586 0.070905015
0.05750103 0.065236606 -0.5048478 -0.023906514 0.03029465 -0.05266113 -0.002323722 -0.042919483
0.03356527 -0.03879734 0.022392184 0.009572981 0.036586486 0.035828948 -0.040697716 -0.028185014
-0.05014283 -0.030552438 0.036599148 -0.038742043 -0.0063859457 -0.13501425 0.028028924 -0.03223981
-0.20893498 0.03488849 -0.03349598 -0.053072087 0.010582348 -0.05697278 0.012735196 0.040216252
0.036133487 0.051978655 0.037662573 0.03268312 -0.012341805 -0.033973563 -0.028556427 0.0130008105
0.005873531 -0.027226869 0.045118153 0.00238477 0.072359495 -0.020353701 0.0145577965 -0.009078756
0.021308865 0.028473396 -0.08821101 0.019248778 0.02780131 -0.02284406 -0.016715951 0.045121875
-0.048267514 -0.07109724 0.081613 -0.04153069 -0.041822013 0.00991515 0.039724097 0.03130085
-0.055003595 -0.049058765 0.021062441 -0.028798942 -0.019830672 0.0058372095 -0.09255344 -0.002456352
-0.019123608 0.12311211 -0.053877804 0.037811358 0.01433819 0.002311475 0.00083135813 0.036035232
0.05775584 -0.03584366 0.009900577 0.07402234 0.061540738 0.032931972 -0.047833398 0.04949388
0.012032606 0.0065330947 0.05530907 0.016532544 -0.0052939686 -0.010904028 0.07032536 0.051778976
-0.02316816 0.062909044 0.00085718435 -0.039398704 -0.017635355 -0.009429105 -0.008776699 0.01317981
-0.03224279 0.010072356 -0.017864462 0.054140065 -0.015795805 0.037256293 -0.017703902 0.01235205
0.0045571057 0.020679293 -0.0113587 0.04921058 -0.053091023 0.054710038 0.12609655 0.044433855
-0.013367378 -0.037289076 0.010372676 0.034328952 0.028992657 -0.031474635 -0.036213953 0.015403811
-0.1793149 -0.051103212 0.023285136 0.013214269 -0.082852766 -0.063531905 0.06705306 0.039744787
0.015577036 -0.00640392 0.021841958 0.0021079779 -0.05535377 0.039163962 -0.17809735 0.0014660312
0.043292016 0.052649952 -0.04462015 -0.89133847 0.052017394 -0.0268454 0.41323844 0.05579112
0.028376494 -0.011497468 -0.034813985 0.076542124 0.07538281 0.094095714 0.008985875 -0.0010661908
00000000: 1a13 d1bc 6ab2 d7bc 21bb 4b3d 95fa 873d
00000010: 7a40 373e e83a 6bbc 16fe aebb 72a5 d2bc
00000020: ba1c eb3b 9de3 0cbd 1d26 843c 4080 6dbd
00000030: 40f2 3a3d 68af 323a 8d25 08bd 2cf6 05bc
00000040: 7f90 2abd 4816 4b3d ef76 2e3d 31d0 ce3c
00000050: 9b57 693d 0daa 8d3d b7bf 22bd 9ba9 ecbc
00000060: 1f84 37bc 5e99 28bc 1f68 abba 4f2b b8bc
00000070: 4eb8 943d 85d9 863d ad02 06bd 373f ad3b
00000080: 8045 3f3c 83e8 773d 6d82 11bd b700 ad3d
00000090: 9a88 e53c 8d69 9e3c 95f6 90bc 8a2c d93c
000000a0: ced3 9e3a e4de 8fbd d8b1 423d 2622 5d3d
000000b0: 98ad 313c 0784 a73c 8a36 0c3d 8c79 7a3c
000000c0: 48ed 23bd 16de 2b3c bad1 6abd 924b 6e3a
000000d0: 7f52 ac3b 9b23 7a3d 8c79 7a3c e550 963c
000000e0: 2888 00bd 7ff5 2ebd befe 2c3d 665d 2fbd
000000f0: bd8a 133d 2a12 3ebd ad45 98bc 0759 2a3d
00000100: a256 62bd 0cf4 093c c1b4 57bd ad74 8c3d
00000110: f638 853e 7c69 72bd e9e4 593d ba82 daba
00000120: 8601 9138 e0f3 343c 4245 5b3d e187 c63b
00000130: f408 033d 2efa ae3b a124 c93c 42eb f43d
00000140: ad81 0ebd 0c08 76bb 0608 92ba 1c61 cb3c
00000150: a188 49bd 4410 08bd a0a0 c5bc 3d36 863d
00000160: c82f 003d ef68 a83c 0cd4 ecbc 8b11 0abe
00000170: 063e 223d 903f bebc 61ee 503d a636 913d
00000180: 3386 6b3d c59a 853d b53d 01bf 98d7 c3bc
00000190: 7c2c f83c 32b3 57bd 9649 18bb 57cc 2fbd
000001a0: bd7b 093d f6e9 1ebd d06f b73c fed7 1c3c
000001b0: b6db 153d 60c1 123d a6b2 26bd 42e4 e6bc
000001c0: 9162 4dbd 1b49 fabc fde8 153d faaf 1ebd
000001d0: 3241 d1bb 2d41 0abe ea9c e53c e40d 04bd
000001e0: 0df3 55be 3ce7 0e3d 1533 09bd 1e62 59bd
000001f0: 9661 2d3c 4a5c 69bd 49a7 503c ccb9 243d
00000200: b500 143d 92e7 543d 1244 1a3d bcde 053d
00000210: 4835 4abc dd27 0bbd 2bef e9bc 5a01 553c
00000220: c076 c03b e20a dfbc d0cd 383d cd49 1c3b
00000230: 3731 943d cebc a6bc d383 6e3c 10bf 14bc
00000240: ee8f ae3c 0a41 e93c f9a7 b4bd 9daf 9d3c
00000250: 93bf e33c 7723 bbbc e4ef 88bc b7d1 383d
00000260: 28b4 45bd 6e9b 91bd b724 a73d 161c 2abd
00000270: 8f4d 2bbd 2773 223c bcb5 223d 5235 003d
00000280: 734b 61bd d8f1 48bd 248b ac3c c2eb ebbc
00000290: ef73 a2bc 1046 bf3b a88c bdbd c0fa 20bb
000002a0: 1da9 9cbc 3422 fc3d f9ae 5cbd 15e0 1a3d
000002b0: baea 6a3c 1e7c 173b 80ef 593a ae99 133d
000002c0: 6391 6c3d cdd0 12bd 0836 223c 0699 973d
000002d0: 2412 7c3d ade3 063d f4ec 43bd 18ba 4a3d
000002e0: 6824 453c 9213 d63b c38b 623d 426f 873c
000002f0: 0779 adbb cfa6 32bc be06 903d 3116 543d
00000300: 27cb bdbc 75d6 803d abb4 603a 8960 21bd
00000310: 0578 90bc 887c 1abc 25cc 0fbc 21f0 573c
00000320: 0411 04bd 8606 253c 7e58 92bc f9c1 5d3d
00000330: 3466 81bc 0e9a 183d c607 91bc 4160 4a3c
00000340: c653 953b 9f67 a93c d719 3abc 0891 493d
00000350: f975 59bd a217 603d 741f 013e 4600 363d
00000360: d902 5bbc 6ebc 18bd 28f2 293c 849c 0c3d
00000370: 0282 ed3c 8ceb 00bd 1555 14bd 4460 7c3c
00000380: 539e 37be 9a51 51bd 78c0 be3c a980 583c
00000390: b6ae a9bd 041d 82bd 1d53 893d 6ecb 223d
000003a0: d336 7f3c f9d7 d1bb e8ed b23c 0026 0a3b
000003b0: a2ba 62bd 646a 203d 275f 36be d827 c03a
000003c0: f852 313d 7aa7 573d 9ec3 36bd c22e 64bf
000003d0: 3110 553d e2ea dbbc fd93 d33e 3b85 643d
000003e0: d275 e83c e05f 3cbc 1c99 0ebd 1ec2 9c3d
000003f0: 4d62 9a3d 41b5 c03d 7e39 133c 6dbf 8bba

linear2.bias f4 [256]
-0.12299145 -0.019873513 -0.041301217 -0.052512117 -0.0423741 -0.0374135 0.069042236 -0.2045072
-0.17603767 -0.039574917 0.06018246 0.012085384 -0.13248105 -0.107732795 -0.18665493 -0.038055416
0.14469251 -0.052393652 0.008495253 -0.06600745 0.19303083 -0.009895126 -0.008075432 -0.054312922
-0.05508033 -0.0954463 -0.0141338585 0.052928414 -0.17840348 0.0150394775 -0.1374595 -0.06478212
-0.02316105 -0.007277188 0.005605997 0.07932989 0.0060100616 -0.10574587 -0.029938139 0.12943068
-0.05388377 -0.07720795 -0.06534953 -0.0668228 -0.08285575 0.09182646 -0.19229305 -0.05572034
0.016200596 0.00026846415 -0.055744182 -0.008067404 -0.048257086 -0.038061406 0.016533121 0.021487655
0.0020547092 -0.18984982 -0.023897067 -0.061127976 -0.061390948 -0.15631214 -0.021118777 0.10855385
0.06442531 -0.2021949 -0.013576554 0.15660182 -0.038782172 -0.008473647 0.0007579911 -0.13586105
-0.1806599 0.13976052 0.09351852 -0.08011151 -0.22080126 -0.04940373 -0.2121232 -0.04249021
-0.0007054601 -0.18354456 -0.21796925 -0.066760994 -0.010259739 -0.17169222 0.119655386 0.043875426
-0.0902075 -0.19264968 0.01595845 0.019037105 -0.016832927 -0.25751302 -0.09314948 0.12449637
-0.10458763 -0.19972475 -0.032871623 -0.045172963 -0.19757909 -0.12707564 -0.13610572 -0.05076644
-0.011590342 -0.04362282 -0.01154422 -0.26374823 0.1801745 0.0012854709 -0.11580483 -0.1610581
-0.042130467 -0.28299436 -0.059973735 -0.039378967 0.041963227 -0.039859742 -0.09945018 -0.00440576
-0.0018818731 -0.06273906 0.1159591 -0.047001664 0.009486566 -0.05494289 -0.09185703 -0.2198654
-0.18728597 0.036631934 0.12276549 -0.053482182 0.011708109 0.030203722 0.042390887 -0.018365141
-0.1614325 -0.114660695 -0.22144628 -0.009076601 -0.033029575 -0.0473578 0.004515587 0.014374904
0.10903991 -0.13924226 -0.037907474 -0.24545062 -0.02580716 -0.015606079 -0.10015304 -0.026361452
-0.22499493 -0.20332803 0.11339259 0.0040243817 0.08684158 -0.013909196 0.0017537121 -0.17510428
-0.23717113 -0.07905745 -0.06069923 -0.05582614 -0.037735365 -0.048004728 -0.087216236 0.03774578
-0.013230375 0.002011449 0.18665387 -0.010036594 0.07299569 -0.16073932 -0.031636316 -0.050067436
0.19359374 0.20084709 0.030101404 -0.005330257 0.04097541 -0.084682636 -0.04511841 0.024230016
-0.041433837 -0.02757146 -0.25071806 -0.031221502 -0.095636524 -0.08040769 -0.17526966 -0.008183132
0.001774805 0.045030415 -0.20225273 -0.1866772 -0.07432185 -0.04356199 -0.08563802 -0.01623304
-0.03379177 0.035483617 -0.15595526 0.042218998 -0.034147162 -0.00528949 -0.1961874 0.15832981
0.06496984 0.024316337 0.0065476107 0.0170183 -0.0536379 -0.1224992 0.037868805 -0.047314588
0.05650289 -0.08926624 -0.13898692 -0.041400984 -0.004607103 -0.082870655 -0.006490087 0.02701513
-0.005169916 0.09183398 -0.00068919687 -0.019522587 0.016586807 -0.10213943 0.16900684 0.03564996
0.04625154 0.003232193 -0.19282795 -0.035629086 -0.061911777 0.04559207 -0.12798621 -0.0085567
-0.18416646 0.03779804 0.094042115 -0.12483041 0.0008955952 -0.08603821 -0.03020934 -0.17469227
-0.071669444 -0.15191749 -0.11731505 0.053482424 -0.028321734 0.16666885 -0.06684593 -0.19298543
00000000: f1e2 fbbd c7cd a2bc 772b 29bd f216 57bd
00000010: 7790 2dbd e63e 19bd 0466 8d3d 566a 51be
00000020: 3843 34be 4f19 22bd e281 763d c601 463c
00000030: 1da9 07be 03a3 dcbd 7822 3fbe ffdf 1bbd
00000040: 462a 143e ba9a 56bd ac2f 0b3c ea2e 87bd
00000050: e0a9 453e 2b1f 22bc d14e 04bc 3a77 5ebd
00000060: ea9b 61bd 5a79 c3bd b391 67bc 77cb 583d
00000070: 67af 36be 2468 763c 2fc2 0cbe 7dac 84bd
00000080: 3ebc bdbc 7a75 eebb 83b2 b73b b677 a23d
00000090: 0df0 c43b 4a91 d8bd d440 f5bc 7a89 043e
000000a0: 3ab5 5cbd 341f 9ebd f9d5 85bd 64da 88bd
000000b0: 47b0 a9bd 830f bc3d 78e8 44be 033b 64bd
000000c0: 1db7 843c a6c0 8c39 0354 64bd 252d 04bc
000000d0: 39a9 45bd 47e6 1bbd 7870 873c e106 b03c
000000e0: 4da8 063b fe67 42be c8c3 c3bc 5461 7abd
000000f0: 1375 7bbd 4a10 20be 4901 adbc 7b51 de3d
00000100: 6bf1 833d 2e0c 4fbe 3270 5ebc 3a5c 203e
00000110: 0eda 1ebd 0dd5 0abc ecb3 463a 291f 0bbe
00000120: e9fe 38be 621d 0f3e a386 bf3d 8111 a4bd
00000130: ba19 62be 915b 4abd d336 59be 370a 2ebd
00000140: a0ee 38ba 1bf3 3bbe 5533 5fbe fdb9 88bd
00000150: 7718 28bc 16d0 2fbe e20d f53d b8b6 333d
00000160: b6be b8bd f545 45be 4cbb 823c b4f3 9b3c
00000170: 35e5 89bc bfd8 83be 28c5 bebd f4f7 fe3d
00000180: 0a32 d6bd a584 4cbe 65a4 06bd 4907 39bd
00000190: 2c52 4abe 1e20 02be 4c5f 0bbe 78f0 4fbd
000001a0: 6be5 3dbc d8ad 32bd f823 3dbc 020a 87be
000001b0: aa7f 383e 3f7d a83a 152b edbd 6aec 24be
000001c0: ff90 2cbd a3e4 90be 05a7 75bd d74b 21bd
000001d0: a2e1 2b3d f843 23bd 89ac cbbd 325e 90bb
000001e0: 2fa9 f6ba 567d 80bd f77b ed3d d184 40bd
000001f0: 8b6d 1b3c cc0b 61bd 8a1f bcbd 6524 61be
00000200: e5c7 3fbe 5e0b 163d 796c fb3d 2210 5bbd
00000210: 5ed3 3f3c cc6d f73c 11a2 2d3d 7e72 96bc
00000220: 904e 25be 3ad3 eabd d0c2 62be 06b6 14bc
00000230: 054a 07bd 41fa 41bd 7df7 933b b884 6b3c
00000240: 5150 df3d 8695 0ebe de44 1bbd 6857 7bbe
00000250: 8a69 d3bc a4b0 7fbc 091d cdbd f9f3 d7bc
00000260: 1265 66be 3935 50be 603a e83d f6de 833b
00000270: 00da b13d 65e3 63bc d0dc e53a 894e 33be
00000280: fddc 72be dfe8 a1bd c19f 78bd f3a9 64bd
00000290: 6690 1abd 9ba0 44bd 6d9e b2bd 529b 1a3d
000002a0: 37c4 58bc 84d2 033b 3122 3f3e 8770 24bc
000002b0: c47e 953d d998 24be 1595 01bd 8313 4dbd
000002c0: 703d 463e dcaa 4d3e 3897 f63c 70a9 aebb
000002d0: d5d5 273d 176e adbd 15ce 38bd 077e c63c
000002e0: 87b6 29bd 8bdd e1bc 1e5e 80be 3cc4 ffbc
000002f0: 15dd c3bd c9ac a4bd e479 33be 8b12 06bc
00000300: 93a0 e83a d071 383d 571b 4fbe 4f28 3fbe
00000310: 0e36 98bd 0f6e 32bd fc62 afbd 27fb 84bc
00000320: 3d69 0abd 4557 113d bcb2 1fbe d4ed 2c3d
00000330: e5dd 0bbd 7553 adbb 5ae5 48be 3621 223e
00000340: e80e 853d 0e33 c73c 578d d63b f669 8b3c
00000350: 6ab3 5bbd dce0 fabd 521c 1b3d f1cc 41bd
00000360: 936f 673d 38d1 b6bd 9652 0ebe 1494 29bd
00000370: 2ef7 96bb 17b8 a9bd ccaa d4bb d54e dd3c
00000380: 6668 a9bb 7413 bc3d 38ab 34ba d5ed 9fbc
00000390: 0ee1 873c 7a2e d1bd 2110 2d3e b105 123d
000003a0: 4172 3d3d 33d3 533b b174 45be ceef 11bd
000003b0: 3497 7dbd c0be 3a3d d10e 03be 6731 0cbc
000003c0: 2296 3cbe 1ed2 1a3d 2799 c03d 16a7 ffbd
000003d0: 60c6 6a3a cd34 b0bd 9479 f7bc 88e2 32be
000003e0: 6ec7 92bd 4290 1bbe df42 f0bd 6310 5b3d
000003f0: fb02 e8bc 3dab 2a3e 85e6 88bd f99d 45be

linear3.weight f4 [2, 256]
-1.7450945 -0.011186406 0.011997029 0.03200288 -0.043430597 0.02250245 -0.5872842 -1.2969388
-0.23852408 0.05938081 -3.6377814 -0.047931287 -1.4656677 -0.5275659 -1.6016781 -0.31239122
-0.8254895 -2.596231 0.02133755 0.0029468238 -0.3593974 -0.90453285 -1.3550602 -0.04217368
-0.049265895 -2.8134136 -0.0068112807 -1.9408412 -0.97174144 -0.0010206957 -1.4106884 0.017103381
-3.0073168 -1.803531 -1.8627304 -5.9356365 -0.07324626 -1.4427371 0.035625357 -0.72323865
0.054625098 -0.49148548 -1.7517704 -2.0991108 0.05722312 -0.2613516 -1.9370933 0.009521385
-2.8049102 -0.28814456 0.00769492 0.026859181 -0.03541749 -2.3321521 -0.36757922 -1.8027928
0.012150697 -1.7704147 -0.11001895 -0.034383345 -0.071297884 -1.4060869 -1.7008202 -0.56092364
-1.6556399 -2.3146892 -0.027189244 -0.6800495 -0.04798663 0.048802465 -1.9642085 -1.532139
-1.0275494 -0.2055261 0.019980367 0.035607476 -0.41090497 -0.012497709 -2.08266 -0.21029285
-0.021323023 -0.20854618 -0.21885593 0.034538552 0.035520304 -1.0907023 -0.06608095 -0.81883156
-0.89375466 -1.0934006 -2.7965825 -0.65613455 -0.025847394 -0.9580085 -0.04699943 -0.34684598
-0.054265983 -0.5374735 -0.06202875 -1.7545837 -0.4073214 -1.4727726 -0.7791944 0.03081805
-2.0097873 -0.0128719155 -0.011598051 -0.19093026 -0.45969874 0.031692192 -0.81231076 -3.0568438
0.050960902 -0.43855056 -0.052781083 0.011563777 -0.7348946 -2.3096135 -4.78168 -2.7643948
0.031356145 -3.9077559 -0.3606608 -0.033644993 -1.1891773 -0.94267595 -1.26871 -0.34254524
-0.4048262 -0.022327736 -0.12521087 -0.0064392174 -2.1819718 -2.072802 -0.053892802 -0.01924878
-0.6345696 -3.7822046 -0.49999836 -0.954468 0.0049455604 -0.015727634 -1.8752475 -0.8357599
-0.36553532 -1.7902511 0.029860279 -0.2805295 -0.023906516 -1.9881387 -0.15540585 -0.11358004
-0.6350846 -0.96781766 -0.6383793 -1.0588776 -1.2967896 -0.090436466 -0.45059848 -2.3358607
-0.7329551 0.010427004 -1.4851942 -0.06312213 0.0185406 -2.118995 -1.4459267 -0.3331754
-1.315768 -0.069073655 -2.3350217 0.013684401 -1.6162059 -1.188339 -0.038285963 -1.9341607
-0.2125176 -0.21061282 -0.1280685 -3.4539216 -1.3910036 -0.010423093 -2.7517586 -0.30763885
0.015247534 -0.06404898 -0.25093248 -0.021323396 -1.69362 -0.769148 -0.41543767 -2.4763846
-2.0782585 -0.4300211 -0.73829365 -0.14596859 -0.026545957 -0.0012740894 -0.13945735 -1.964273
-0.0829094 -0.57049453 -1.3567818 -2.1985471 0.05082828 -0.16491579 -0.31798914 -1.1583254
-5.050082 -2.3855963 -0.5548673 -0.29224485 -0.0490692 -0.3246412 -1.0819088 -0.019083377
-0.3487501 0.032408938 -0.69909763 -2.4233127 -0.0059295665 0.037873942 -3.6857915 -3.3155713
-0.04654941 -0.67829555 -0.06744943 -0.0029564276 -3.634671 -2.555063 -0.2402845 -2.0888588
-4.1416016 -0.10455203 -1.3514581 -0.0060564433 0.042410605 -0.49982613 -2.5856495 -1.6715662
-0.2944051 -1.6200281 -0.33573243 -2.6152399 -2.2048588 -2.2696757 0.05737064 -1.7009203
-0.013684961 -0.5630678 -0.04509729 -0.68415 -0.07568978 -0.5702843 -0.06607554 -0.2658936
00000000: 425f dfbf 3047 37bc 308f 443c 7415 033d
00000010: 48e4 31bd 0f57 b83c 4258 16bf 1702 a6bf
00000020: a83f 74be 4b39 733d 69d1 68c0 9953 44bd
00000030: 009b bbbf 8f0e 07bf ca03 cdbf bef1 9fbe
00000040: 4853 53bf a628 26c0 16cc ae3c 801f 413b
00000050: f002 b8be 778f 67bf 9d72 adbf 4fbe 2cbd
00000060: 09cb 49bd f80e 34c0 2a31 dfbb 7c6d f8bf
00000070: 0cc4 78bf ddc8 85ba 7091 b4bf 641c 8c3c
00000080: e177 40c0 1bda e6bf f36d eebf bcf0 bdc0
00000090: 2302 96bd 9cab b8bf e5eb 113d 2b26 39bf
000000a0: 91be 5f3d fca3 fbbe 033a e0bf d557 06c0
000000b0: ca62 6a3d e0cf 85be acf2 f7bf 95ff 1b3c
000000c0: a683 33c0 af87 93be ab25 fc3b c907 dc3c
000000d0: ee11 11bd fb41 15c0 5833 bcbe eac1 e6bf
000000e0: b813 473c f39c e2bf 9e51 e1bd 8dd5 0cbd
000000f0: a004 92bd a8fa b3bf 7ab4 d9bf b198 0fbf
00000100: 02ec d3bf de23 14c0 fabb debc b917 2ebf
00000110: a18d 44bd 18e5 473d 2f6b fbbf 211d c4bf
00000120: bd86 83bf 6f75 52be dead a33c 25d9 113d
00000130: 2362 d2be 31c3 4cbc 4d4a 05c0 0257 57be
00000140: 9fad aebc 218d 55be c51b 60be 4c78 0d3d
00000150: bd7d 113d 229c 8bbf 7355 87bd f29e 51bf
00000160: 1bcd 64bf 8df4 8bbf 35fb 32c0 6ff8 27bf
00000170: eabd d3bc 0c40 75bf 7982 40bd cc95 b1be
00000180: 0246 5ebd dd97 09bf dc11 7ebd 3396 e0bf
00000190: 6e8c d0be d083 bcbf 4979 47bf 2376 fc3c
000001a0: 5ba0 00c0 bae4 52bc c005 3ebc 3983 43be
000001b0: a25d ebbe accf 013d 99f3 4fbf 54a3 43c0
000001c0: 61bc 503d b389 e0be fa30 58bd ff75 3d3c
000001d0: 0d22 3cbf b5d0 13c0 8603 99c0 d8eb 30c0
000001e0: 4d6f 003d ac18 7ac0 88a8 b8be 55cf 09bd
000001f0: f636 98bf 3653 71bf 1765 a2bf 1762 afbe
00000200: 6145 cfbe a8e8 b6bc 4737 00be 1200 d3bb
00000210: 6da5 0bc0 caa8 04c0 b3be 5cbd 9eaf 9dbc
00000220: 2773 22bf a40f 72c0 c9ff ffbe 0458 74bf
00000230: 5e0e a23b 3dd7 80bc 1c08 f0bf 5cf4 55bf
00000240: 7227 bbbe f326 e5bf 8b9d f43c 90a1 8fbe
00000250: 99d7 c3bc 547b febf b622 1fbe a79c e8bd
00000260: e894 22bf e6c2 77bf d36c 23bf 4d89 87bf
00000270: 34fd a5bf c136 b9bd d8b4 e6be be7e 15c0
00000280: f2a2 3bbf 06d6 2a3c d81a bebf 2d46 81bd
00000290: 75e2 973c 9d9d 07c0 2014 b9bf f795 aabe
000002a0: 166b a8bf 7d76 8dbd ff70 15c0 8a34 603c
000002b0: d6df cebf 7e1b 98bf bed1 1cbd 9492 f7bf
000002c0: 379e 59be e3aa 57be 6424 03be 0d0d 5dc0
000002d0: 680c b2bf 9fc5 2abc d01c 30c0 d782 9dbe
000002e0: cbd0 793c 1d2c 83bd 397a 80be 67ae aebc
000002f0: 8ac8 d8bf e2e6 44bf 3fb4 d4be 167d 1ec0
00000300: 3002 05c0 ba2b dcbe d000 3dbf ca78 15be
00000310: e876 d9bc 59ff a6ba e8cd 0ebe 4c6d fbbf
00000320: 67cc a9bd ee0b 12bf 07ab adbf ffb4 0cc0
00000330: 5131 503d afdf 28be 79cf a2be 0244 94bf
00000340: 469a a1c0 9cad 18c0 c90b 0ebf 1ea1 95be
00000350: c9fc 48bd 5f37 a6be fd7b 8abf be54 9cbc
00000360: 608f b2be 3cbf 043d 10f8 32bf 8e17 1bc0
00000370: cf4c c2bb b521 1b3d 02e4 6bc0 5232 54c0
00000380: 98aa 3ebd c7a4 2dbf ed22 8abd a0c0 41bb
00000390: 739e 68c0 2786 23c0 240d 76be ddaf 05c0
000003a0: 0088 84c0 601f d6bd 94fc acbf 2175 c6bb
000003b0: beb6 2d3d 36e9 ffbe 487b 25c0 e2f5 d5bf
000003c0: 44bc 96be 155d cfbf 1fe5 abbe 1760 27c0
000003d0: 681c 0dc0 5e42 11c0 7afd 6a3d c2b7 d9bf
000003e0: e336 60bc 3625 10bf f0b7 38bd 7424 2fbf
000003f0: 3e03 9bbd 27fe 11bf 9d52 87bd 3523 88be

linear3.bias f4 [2]
-4.5045333 0.050192837
00000000: 2325 90c0 0197 4d3d
