turtlebot3_rl_sim/src/models/td3/revamped/new_tracking_cp_gcp_nobonus_corrected_3/td3_actor_model_ep3000.pt (torch_old, 646182 bytes, 6 tensors)

linear1.weight f4 [256, 370]
000000 55 b4 1a 3d 0f 8a 23 bc f7 2c af bc 00 fa 40 3d
       0.037769634 -0.009981646 -0.021383746 0.04711342
000010 7d 08 97 3c 80 bc 44 3d 11 95 4f bd 74 e0 f6 bc
       0.018436665 0.04803133 -0.05067927 -0.030136324
000020 97 75 b2 3c 2b ee 65 bc a4 32 01 3d 1f 66 3c 3d
       0.021784587 -0.014033834 0.031542435 0.045995828
000030 28 37 45 3c a3 1d f8 3c bd 13 12 3d 4a a3 59 bd
       0.012037076 0.03028757 0.035663355 -0.05313424
000040 bd 6d 03 bd ac 45 ff bc d0 20 40 3c 8e 28 14 bd
       -0.032087076 -0.031161152 0.011726573 -0.03617149
000050 ba bc e1 3a a5 c8 81 bb ee c6 10 bd ec b9 0e 3c
       0.0017222383 -0.0039606863 -0.035345964 0.008711319
000060 a8 5d b0 bb 5b cf ed bc e9 35 d9 3c 0c 77 09 3d
       -0.0053822584 -0.029029539 0.026514964 0.033560798
000070 3e 86 1a bd 99 86 5d 3c 38 4a 27 bd 94 6f 01 3d
       -0.03772568 0.01352086 -0.040842265 0.03160055
000080 3d 3b 1a 3d 86 01 aa 3b 2f 13 af bc 77 7b a4 bb
       0.03765415 0.00518817 -0.021371452 -0.005019601
000090 7a 25 dc bc 36 ca 1a bd 17 71 00 bd f5 87 0b bd
       -0.026873339 -0.0377905 -0.03135785 -0.034065206
0000a0 ff fa ab bc 92 60 5e bd d9 a4 59 3c e2 0f 5a bd
       -0.020993708 -0.054291315 0.013283932 -0.053237803
0000b0 ae 9b 2b 3d 8b 2b ee bc 92 31 d1 bc 1a aa 6e 3c
       0.041896515 -0.029073497 -0.025536332 0.014566923
0000c0 c5 29 9c 3c 95 ae 1c 3b 50 24 ce 3b f2 76 00 3d
       0.019062886 0.002390777 0.00629095 0.031363435
0000d0 44 a9 8d 3c 10 fa 3a bd c5 a0 84 bc 67 d0 20 bd
       0.017292626 -0.045648634 -0.016189942 -0.039261248
0000e0 9c 66 0c 3a f9 41 51 3a f8 39 ca 3c 3f b6 2b bd
       0.0005355866 0.0007982548 0.024685845 -0.04192185
0000f0 64 87 0f 3d f8 27 34 bd 56 16 93 bc b3 3c 71 3c
       0.035041228 -0.04398343 -0.017954987 0.0147239445
000100 25 6b 02 bd 29 e8 cd bc a7 27 80 bc 3f 70 26 bc
       -0.031840462 -0.025135117 -0.015643908 -0.0101585975
000110 20 e2 38 bc 40 5e c2 3c 9e a0 13 bd a2 78 ed 3a
       -0.011284381 0.023726583 -0.03604185 0.0018117616
000120 72 1d 58 bd be b6 94 bc 95 32 07 bd f9 39 4a bb
       -0.052762456 -0.018153545 -0.033007223 -0.0030857308
000130 57 21 26 bd 1a ef 56 bd 19 4d d8 3c 76 ad 24 3d
       -0.04055914 -0.05247412 0.02640395 0.040204488
000140 e5 e7 01 bd dc 7c 01 3d 81 7f 4a bd ed cb 0b bd
       -0.031715292 0.031613216 -0.049438003 -0.034130026
000150 e5 a2 99 3c a1 9c 4e bd e5 f8 93 3c fe 7d 2b 3d
       0.018754432 -0.05044234 0.018063018 0.041868202
000160 46 f1 9a bc 96 13 21 3d 48 67 4a 3d 61 6d 40 bd
       -0.018913876 0.03932532 0.049414903 -0.04697931
000170 ce e4 17 bd 3c be 80 3c f7 06 2d bd 27 d7 22 bd
       -0.03708344 0.01571571 -0.04224297 -0.039755967
000180 0e fd 2d 3b 20 0a c3 3c 46 59 2b 3d 95 93 94 3b
       0.0026548537 0.023808539 0.041833185 0.0045341947
000190 b2 4e d5 bc f0 51 49 3c dd 3c 14 3d 8f c7 b8 3c
       -0.026038501 0.012287602 0.036190856 0.022556094
0001a0 d0 d2 33 bd 04 11 04 3d 8e d6 29 3d 57 a9 20 bd
       -0.04390222 0.03224279 0.04146438 -0.039223995
0001b0 8f 5d 39 3d ae 7b 28 3d 36 69 a6 3c 3d 84 92 3c
       0.04525524 0.041133575 0.02031384 0.017885322
0001c0 f2 2e d3 bb b8 b4 c1 3c 4a 71 d9 bb 3d 32 0f bc
       -0.0064448053 0.023645744 -0.0066358196 -0.008740005
0001d0 3e d0 16 bd 76 8c 1d bd df c5 2b bd 25 b4 93 3c
       -0.03681969 -0.038464032 -0.04193675 0.018030236
0001e0 bd 1e 0c bd 79 bd cb bb cf d7 2e bd 00 20 c3 3c
       -0.034209 -0.0062176553 -0.04268628 0.02381897
0001f0 e4 c5 0f 3c 43 da 70 3c 17 6d a9 bc 20 59 3a bd
       0.008775208 0.014700475 -0.0206819 -0.045495152
000200 f1 c8 4a bd cb 03 e5 bc 67 9e 39 3d 54 82 01 3b
       -0.04950804 -0.02795591 0.04531708 0.001976152
000210 7d 49 08 bd 3d 9e 16 3d e9 e3 d5 3c 7e 9b 24 3c
       -0.03327321 0.036772 0.026109653 0.010046838
000220 97 59 a6 bc a7 59 b9 3c 7d 66 18 3d f6 6c 1c bc
       -0.020306392 0.022625757 0.037207115 -0.009547463
000230 bd 4b 11 3d fe c8 ab 3c 6a d7 d5 ba 1a e1 d0 bc
       0.03547262 0.020969864 -0.0016314809 -0.025497962
000240 32 ba 5a bc ee a7 aa 3c fe 4f a2 3c e7 9e 3b 3c
       -0.0133500565 0.020832028 0.019813534 0.0114514595
000250 0d a1 02 bd 40 34 30 bb a1 be c0 bc 1d 1d 12 3d
       -0.03189187 -0.0026886612 -0.023528399 0.035672296
000260 64 4e 0c 3d 43 5c 6c bb 5f 46 21 bd c2 bf 51 bc
       0.034254447 -0.0036065734 -0.03937375 -0.012802066
000270 17 e6 32 3c a9 6e 42 bd d0 99 b0 bb 5f 28 a6 bc
       0.0109191155 -0.047468815 -0.0053894296 -0.020282922
000280 30 d7 38 bd 8c 13 72 bc f6 2f a2 3c 77 db 2d bb
       -0.045127094 -0.014775168 0.01979826 -0.0026528516
000290 3c 3d 09 3d 33 88 f3 3c d1 3d d0 3b e5 95 17 3c
       0.033505663 0.02972803 0.0063550253 0.009252046
0002a0 a3 18 fd 3c 6e 9a 26 3c 75 37 8e bc d9 8d c8 bc
       0.030895537 0.010168655 -0.017360428 -0.0244817
0002b0 86 92 2f 3c 97 3a 27 bd 24 a5 f0 bc ad 03 0a bc
       0.010716086 -0.04082736 -0.02937562 -0.008423728
0002c0 03 73 7c 3c 97 fb 3d 3d 0e 32 21 3c df d1 a9 bc
       0.01540828 0.046382513 0.009838594 -0.020729957
0002d0 5b 10 f8 3b e5 a2 19 3c cf 91 29 bd 06 a4 11 bd
       0.007570309 0.009377216 -0.04139882 -0.035556816
0002e0 9f ae b2 3c 71 9b dc 3c 65 9f 0b bd 88 f8 37 bd
       0.021811781 0.026929589 -0.034087557 -0.044914752
0002f0 4c 8f 06 3d 8d b3 1a 3c b9 f1 54 3b 8f 90 bd 3b
       0.032851502 0.009442222 0.003249271 0.005785055
000300 8f 55 32 3c 4e 61 16 bd 16 2f 2b 3d 10 88 4d 3b
       0.010884657 -0.03671389 0.04179295 0.0031361617
000310 87 4b 26 bd d8 72 40 3c 95 83 06 bd f5 c4 1e 3c
       -0.040599372 0.011746131 -0.03284033 0.009690513
000320 37 3f ad bc f7 47 b7 38 2a 3b d5 bc d2 3d d0 bc
       -0.021148307 8.7395245e-05 -0.026029188 -0.025420103
000330 48 09 49 3d b0 2e 39 bd b9 e6 41 bd 67 0f 23 bb
       0.049081117 -0.04521054 -0.047339175 -0.0024881007
000340 48 fa be bc e3 81 00 bd 04 a3 74 bc d4 ec 82 3c
       -0.023312703 -0.03137387 -0.014931444 0.01598207
000350 c4 9c f4 bc 87 48 33 3c 9a 9d 6e 3c d8 f2 cc 3c
       -0.029859908 0.010942585 0.014563942 0.02501814
000360 7a 0d 60 3b ee b3 28 3c df b0 22 bd 68 18 47 3c
       0.003418772 0.010296805 -0.03971946 0.012151815
000370 e3 48 76 3c 7f 0e af bc e0 b7 3e bc ff e9 b2 3c
       0.015032026 -0.021369217 -0.011640519 0.021840094
000380 cf 76 ba 3b 1b 65 ed bc 25 cd 13 3d 89 8e d1 3c
       0.0056904326 -0.028978875 0.036084313 0.025580661
000390 09 bd dc 3c ea 28 57 bd a5 0d 83 bc a9 4d 54 3c
       0.026945608 -0.052529253 -0.015997717 0.012957969
0003a0 24 4c 83 3b 65 d9 12 3d 0a 04 e6 3b 1f dc 39 3a
       0.0040068794 0.035851855 0.0070195245 0.00070899905
0003b0 22 84 50 bd 3c 50 0a 3d 17 9d 21 bc 78 90 46 3d
       -0.05090726 0.033767924 -0.009864113 0.04847762
0003c0 59 9c d0 3c b7 a6 22 bd 0e 25 1f bd d9 e4 df 3c
       0.025465177 -0.039709773 -0.038853697 0.027330803
0003d0 58 92 41 3d 45 f7 19 3a 3e 6a a7 3c 13 83 eb b7
       0.047258705 0.0005873333 0.020436402 -2.807522e-05
0003e0 93 a3 f0 3b c7 55 36 3d c2 8f d9 bc 87 f6 2f bd
       0.0073437183 0.044515397 -0.026557807 -0.042959716
0003f0 7f 5e 2a bd cf 58 26 bd bb 0e fe 3b e5 e1 02 bc
       -0.041594025 -0.04061204 0.007753221 -0.007988428

linear1.bias f4 [256]
000000 4e e4 2e 3d 3e a8 25 3d ff 50 63 bd a5 bc 1c 3d
       0.042698197 0.04044365 -0.055497166 0.038265843
000010 51 f4 7d bd 60 45 6d 3b 36 70 29 3d 08 67 49 3c
       -0.062000576 0.003620468 0.04136678 0.012292631
000020 71 22 d3 3c a1 35 db 3c e9 83 4c bd 20 bf 06 bc
       0.025773259 0.02675897 -0.049930487 -0.008224279
000030 dc 71 07 3b 52 3b df bb 08 23 33 bc c6 fb 12 bc
       0.002066723 -0.0068124915 -0.010933645 -0.00897116
000040 3e cd 23 3b 65 92 09 bd 2f 55 24 bd eb 03 72 3c
       0.002499416 -0.03358688 -0.0401203 0.014771442
000050 34 d7 83 3c 30 55 3d bd 48 2f cb 3c e0 3a be bd
       0.016093828 -0.04622382 0.024802819 -0.09288573
000060 04 9c 0a 3c 20 9c cc 3c d6 24 1b bd e5 c6 13 3d
       0.008460049 0.02497679 -0.037876926 0.036078352
000070 a9 ec df 3c b8 10 3b bd 45 1f 8b bb 5e 0d 1e bd
       0.027334528 -0.04567024 -0.004245671 -0.038586967
000080 40 c2 67 bc c6 f2 20 3d 69 30 43 bd 16 fe 2e 3d
       -0.014145434 0.039294027 -0.04765359 0.042722784
000090 e9 c1 4a bd bf 4c 2e bc 0b 5a f9 3b ae c3 1c bd
       -0.049501333 -0.010638415 0.007609611 -0.038272552
0000a0 d3 af ef bc 90 72 42 bd 9d dd 8d bb 56 6e 8f bc
       -0.029258644 -0.047472537 -0.004329397 -0.017508667
0000b0 28 a5 bb bc df 4b b7 3c 4c ed 6c bc 84 cb 80 3c
       -0.022905901 0.022375045 -0.014460873 0.015722044
0000c0 16 0a ad 3a 7b f4 f8 3c 9a 73 dc bc ee 5a a2 3b
       0.0013201858 0.030390015 -0.026910592 0.0049546873
0000d0 57 38 37 3d 7a 4f 55 bd 08 d7 47 3d 79 5a 4f bd
       0.044731464 -0.052077748 0.048789054 -0.05062339
0000e0 c1 a7 2b bd dc c6 fd bc c0 cf 41 bb 75 30 8b bc
       -0.04190803 -0.030978613 -0.0029573292 -0.01699088
0000f0 ae 13 18 bd 32 7b f4 3c 40 6d 33 bd fe 20 2e 3c
       -0.037128143 0.0298439 -0.04380536 0.010627983
000100 ee b2 24 3d 67 e3 3a 3d fb 52 fc 3c 09 81 cd bc
       0.040209703 0.045627024 0.030801287 -0.025085943
000110 66 1e 2d bc 73 33 65 bd 99 e6 4d bd e4 c9 86 3c
       -0.01056633 -0.05595727 -0.050268743 0.01645369
000120 c5 fb 12 3c 3f ae 24 bd 47 ab ae bc 59 1b 40 bd
       0.008971159 -0.040205237 -0.021321906 -0.04690108
000130 d1 9d 40 bc fd 41 03 bd c2 a8 d9 bc 5c df 7b bd
       -0.011756376 -0.032045353 -0.026569728 -0.06149231
000140 cf 36 b4 3b ac 09 09 3c 85 f5 92 3b 24 54 2e bd
       0.0054996978 0.008364122 0.0044848346 -0.04256071
000150 5d b5 1b 3d f8 de 3b bd 0a 8d e4 3c ce 23 9a bc
       0.03801476 -0.045866936 0.027899284 -0.018815901
000160 84 d1 8b bc 7b c8 f7 3b 0e 67 14 3d b2 d3 3b 3d
       -0.017067678 0.007561741 0.036231093 0.045856185
000170 e4 a9 03 3d f1 c3 4f bc 33 00 80 bc 40 2e 31 bd
       0.032144442 -0.012680993 -0.015625095 -0.043256998
000180 2c 27 82 3a 72 80 ed 3c d8 54 02 3d 38 41 ce 3c
       0.0009929887 0.028991912 0.031819195 0.025177583
000190 e8 8a b6 bc b4 02 03 3c f2 40 e9 3c 24 6c 86 3c
       -0.022283033 0.00799625 0.028473351 0.016408987
0001a0 86 e4 99 bc 18 a4 85 bb 7e 6d 9b bc 19 45 51 3c
       -0.018785726 -0.0040783994 -0.018973108 0.012772822
0001b0 ea 01 ea 3c 72 60 5d 3d 0a ba 50 bd cb 3b 64 bd
       0.028565366 0.054047056 -0.05095867 -0.055721086
0001c0 80 ca 31 bd 97 03 ac bc 2c ba 0f 3c 11 ed 0f bd
       -0.04340601 -0.020997806 0.008772414 -0.035138194
0001d0 33 96 60 bd 61 27 47 3d f0 68 41 3c 74 49 72 bd
       -0.05483074 0.04862154 0.011804804 -0.05915208
0001e0 64 d4 4e 3d 01 d1 4b bd 96 e7 1f bd f8 b1 cf 3b
       0.05049552 -0.04975987 -0.039039217 0.006338354
0001f0 2e d5 17 bd be 84 14 bd 0f da 37 3d b8 f8 be bc
       -0.03706854 -0.036259405 0.04488569 -0.023311958
000200 0c ef 0e 3d bf 40 30 3d 11 e0 f3 bc cd 3c 01 bd
       0.03489594 0.043030497 -0.02976993 -0.031552125
000210 86 e7 25 3c 42 ec 54 bd ea ab 56 bd 6c d3 77 bc
       0.010126 -0.051983126 -0.052410044 -0.0151260905
000220 9b 69 7f 3a 09 67 49 bc e6 b1 a3 3c b1 20 cc bc
       0.00097432145 -0.012292632 0.01998229 -0.024917932
000230 2a b9 d6 3d 06 c0 1d bd 10 5d 37 bd f4 24 e8 bc
       0.10484536 -0.038513206 -0.044766486 -0.028337933
000240 d3 a5 60 bc 58 3a ce 3d 03 ff 3b bd d2 65 5a bd
       -0.013711411 0.10069722 -0.045897495 -0.05331976
000250 8e 97 a7 3c b2 76 5f bd a4 2f 8e 3c d4 b6 0b 3c
       0.02045801 -0.054556556 0.017356701 0.008527476
000260 09 07 40 bd a8 d6 39 bd b6 54 1f bd a3 9e ef bc
       -0.04688171 -0.045370728 -0.038899146 -0.029250449
000270 5b b0 6e bc b0 f4 b1 bb 88 a1 39 bc 10 0a c9 3b
       -0.014568414 -0.0054307804 -0.011330016 0.0061352327
000280 9e 90 1e bd f1 75 43 bd b8 6d 82 3b 47 49 b6 3b
       -0.038712136 -0.0477199 0.0039803647 0.0055629346
000290 54 d3 00 3b 25 5d 15 3c 0b 73 80 bb a2 41 59 bd
       0.0019657211 0.009116446 -0.003919964 -0.053041108
0002a0 38 b6 c7 3c 61 58 22 3e 69 68 db 3c 05 b4 06 bd
       0.02437888 0.15854026 0.026783185 -0.032886524
0002b0 71 31 dd 3c bc f9 0d 3c f1 5b 26 bd 5d 0a 0a bd
       0.027001115 0.008665498 -0.040615026 -0.03370129
0002c0 15 fc 8d bc 72 69 5c bd 62 95 d1 3c 41 cd d5 3c
       -0.017332116 -0.053811498 0.025583927 0.02609885
0002d0 4b 11 e9 bc 11 b6 56 3c ed 71 47 3d ad 39 1a 3d
       -0.028450629 0.013104931 0.048692632 0.03765266
0002e0 a1 e4 c2 bc 74 c4 03 3d f2 0e 50 bd 17 96 2a 3d
       -0.02379066 0.032169774 -0.050795503 0.041647043
0002f0 8d e6 1e 3c 37 45 2c bd e0 c1 cd 3c 14 13 06 3d
       0.009698522 -0.042058196 0.02511686 0.032733038
000300 30 6f c1 3b 3e 1c 1b bd a3 c2 69 bc 23 3e 54 3d
       0.005903147 -0.03786873 -0.014267596 0.05181707
000310 a3 4b e8 bb 40 ef 96 bc 99 87 48 bd fd 59 98 3c
       -0.0070890947 -0.01842463 -0.04895744 0.018597597
000320 16 ca 26 3a c2 a1 ef 3c f0 03 3d bd f0 b7 38 bd
       0.00063625106 0.029251937 -0.046146333 -0.04509729
000330 19 c2 d1 3c fe be 9c bc 3d 56 89 bc 91 e5 4c bd
       0.025605248 -0.01913404 -0.016764754 -0.05002362
000340 ca 94 51 bd d9 0e d9 3c 74 6e f0 bc b0 d5 a6 bc
       -0.051167287 0.026496338 -0.029349543 -0.020365566
000350 4e f6 ab 3c 53 13 ee bc 84 ee cc 3b 2c ab 07 bd
       0.02099147 -0.029061949 0.006254019 -0.033122227
000360 a5 1b 89 bc 34 f0 a7 3c ec 63 7b 3c 66 b6 9c bb
       -0.016736815 0.02050028 0.015343647 -0.004782486
000370 2a 3a d1 bc c7 f9 bc 3c 9d ae 00 bd 30 27 4d 3c
       -0.02554043 0.023068322 -0.031416524 0.01252155
000380 1b 44 a1 3d af 6f aa bb 96 16 2d 3d 1b ec e3 bb
       0.07874318 -0.005201302 0.042257868 -0.006955636
000390 10 3c 30 3d 7e ae 25 3d 18 88 b1 bb d4 85 8f 3c
       0.04302603 0.04044961 -0.005417835 0.017519869
0003a0 60 d4 cc 3c ff ed 29 bc 60 a2 b3 bb 61 6d 0e bd
       0.025003612 -0.010371684 -0.005482003 -0.03477228
0003b0 c2 a1 56 bd 3e 5a 99 bc 6c c0 0f 3d 85 a4 13 3d
       -0.052400358 -0.018719789 0.035095617 0.03604557
0003c0 f6 6a 2d 3c 9e 3e 1b bd 33 6b fc 3c 90 a8 38 3e
       0.0105845835 -0.037901513 0.030812835 0.18033051
0003d0 6c 62 0e 3d b1 9b 44 bc 6a c8 f4 bd 46 33 90 bc
       0.03476183 -0.01200001 -0.119522884 -0.017602574
0003e0 1e c0 14 ba ce 67 97 bc 26 12 15 bd b1 b7 d0 3b
       -0.00056743796 -0.018482115 -0.03639426 0.006369554
0003f0 91 fe 4c bd 1e 5a 25 3d ca f2 eb 3c 20 d7 3e bd
       -0.05004746 0.040369146 0.028802294 -0.046591878

linear2.weight f4 [256, 256]
000000 1a 13 d1 bc 6a b2 d7 bc c8 6b b8 3d 95 fa 87 3d
       -0.025521804 -0.026330192 0.09004933 0.066395916
000010 d7 e6 75 3e e8 3a 6b bc 16 fe ae bb 72 a5 d2 bc
       0.2401384 -0.014357306 -0.005340348 -0.025713656
000020 ba 1c eb 3b 9d e3 0c bd 1d 26 84 3c 40 80 6d bd
       0.0071750553 -0.034396756 0.016131455 -0.057983637
000030 40 f2 3a 3d 68 af 32 3a 8d 25 08 bd 2c f6 05 bc
       0.045641184 0.00068162987 -0.033238936 -0.008176368
000040 7f 90 2a bd 48 16 4b 3d ef 76 2e 3d 31 d0 ce 3c
       -0.04164171 0.049581796 0.042593893 0.025245758
000050 9b 57 69 3d 0d aa 8d 3d b7 bf 22 bd 4e 05 1d bd
       0.056968313 0.069172 -0.039733615 -0.038335137
000060 1f 84 37 bc 5e 99 28 bc 1f 68 ab ba 4f 2b b8 bc
       -0.011200934 -0.010290472 -0.0013077295 -0.022481589
000070 4e b8 94 3d 1a 25 67 3d e4 e2 06 bd 37 3f ad 3b
       0.07261716 0.056431867 -0.032931224 0.005287077
000080 80 45 3f 3c 83 e8 77 3d 6d 82 11 bd b7 00 ad 3d
       0.011674285 0.060524475 -0.035524774 0.08447402
000090 9a 88 e5 3c 8d 69 9e 3c 95 f6 90 bc 8a 2c d9 3c
       0.028019238 0.01933744 -0.017695704 0.026510496
0000a0 ce d3 9e 3a e4 de 8f bd d8 b1 42 3d 26 22 5d 3d
       0.0012117566 -0.07024935 0.047532886 0.053987645
0000b0 98 ad 31 3c 07 84 a7 3c 8a 36 0c 3d 8c 79 7a 3c
       0.010844611 0.020448698 0.0342317 0.015287768
0000c0 48 ed 23 bd 16 de 2b 3c ba d1 6a bd 92 4b 6e 3a
       -0.04002121 0.010489961 -0.057328917 0.00090902403
0000d0 7f 52 ac 3b d1 ae 52 3d 8c 79 7a 3c e5 50 96 3c
       0.0052588577 0.05143625 0.015287768 0.01834912
0000e0 28 88 00 bd 7f f5 2e bd be fe 2c 3d 66 5d 2f bd
       -0.03137985 -0.042714592 0.04223513 -0.04281368
0000f0 bd 8a 13 3d 2a 12 3e bd ad 45 98 bc 07 59 2a 3d
       0.036020983 -0.04640404 -0.018587912 0.04158881
000100 a2 56 62 bd 0c f4 09 3c c1 b4 57 bd ad 74 8c 3d
       -0.0552584 0.008420002 -0.052662615 0.06858192
000110 e9 37 48 3e 7c 69 72 bd e9 e4 59 3d ba 82 da ba
       0.19552578 -0.05918263 0.05319682 -0.001667104
000120 86 01 91 38 e0 f3 34 3c 42 45 5b 3d e1 87 c6 3b
       6.9144226e-05 0.011044472 0.053532846 0.0060586785
000130 f4 08 03 3d 2e fa ae 3b a1 24 c9 3c 82 aa e0 3d
       0.03199096 0.0053398823 0.024553599 0.10970022
000140 ad 81 0e bd 0c 08 76 bb 06 08 92 ba 1c 61 cb 3c
       -0.034791637 -0.0037541417 -0.0011141307 0.024826579
000150 a1 88 49 bd 44 10 08 bd a0 a0 c5 bc 3d 36 86 3d
       -0.049202565 -0.033218637 -0.024124444 0.06553314
000160 c8 2f 00 3d be 9b a5 3c 0c d4 ec bc 6f 33 2c be
       0.031295568 0.020215865 -0.028909706 -0.16816495
000170 06 3e 22 3d 90 3f be bc 61 ee 50 3d a6 36 91 3d
       0.03960993 -0.023223668 0.051008586 0.070905015
000180 33 86 6b 3d c5 9a 85 3d 82 80 c1 be 98 d7 c3 bc
       0.05750103 0.065236606 -0.37793356 -0.023906514
000190 7c 2c f8 3c 32 b3 57 bd 96 49 18 bb 57 cc 2f bd
       0.03029465 -0.05266113 -0.002323722 -0.042919483
0001a0 bd 7b 09 3d f6 e9 1e bd d0 6f b7 3c a0 12 b3 3c
       0.03356527 -0.03879734 0.022392184 0.021859467
0001b0 b6 db 15 3d 39 53 28 bc a6 b2 26 bd 42 e4 e6 bc
       0.036586486 -0.010273748 -0.040697716 -0.028185014
0001c0 91 62 4d bd 1b 49 fa bc fd e8 15 3d fa af 1e bd
       -0.05014283 -0.030552438 0.036599148 -0.038742043
0001d0 32 41 d1 bb 3a 18 f2 be ea 9c e5 3c e4 0d 04 bd
       -0.0063859457 -0.47284108 0.028028924 -0.03223981
0001e0 cb b2 d0 be 3c e7 0e 3d 15 33 09 bd 1e 62 59 bd
       -0.40761408 0.03488849 -0.03349598 -0.053072087
0001f0 96 61 2d 3c 4a 5c 69 bd 49 a7 50 3c cc b9 24 3d
       0.010582348 -0.05697278 0.012735196 0.040216252
000200 b5 00 14 3d 92 e7 54 3d 12 44 1a 3d bc de 05 3d
       0.036133487 0.051978655 0.037662573 0.03268312
000210 48 35 4a bc dd 27 0b bd 2b ef e9 bc 5a 01 55 3c
       -0.012341805 -0.033973563 -0.028556427 0.0130008105
000220 c0 76 c0 3b e2 0a df bc d0 cd 38 3d cd 49 1c 3b
       0.005873531 -0.027226869 0.045118153 0.00238477
000230 f6 81 0c 3d ce bc a6 bc d3 83 6e 3c 10 bf 14 bc
       0.034303628 -0.020353701 0.0145577965 -0.009078756
000240 ee 8f ae 3c da 64 99 3c c2 01 f5 bd 9d af 9d 3c
       0.021308865 0.018724848 -0.11963226 0.019248778
000250 93 bf e3 3c 77 23 bb bc e4 ef 88 bc b7 d1 38 3d
       0.02780131 -0.02284406 -0.016715951 0.045121875
000260 28 b4 45 bd 06 2e 94 bd b7 24 a7 3d 16 1c 2a bd
       -0.048267514 -0.07235341 0.081613 -0.04153069
000270 8f 4d 2b bd 27 73 22 3c 77 ad 24 3d 52 35 00 3d
       -0.041822013 0.00991515 0.04020449 0.03130085
000280 73 4b 61 bd d8 f1 48 bd 24 8b ac 3c c2 eb eb bc
       -0.055003595 -0.049058765 0.021062441 -0.028798942
000290 ef 73 a2 bc 10 46 bf 3b a8 8c bd bd 0d e1 08 bd
       -0.019830672 0.0058372095 -0.09255344 -0.03341775
0002a0 1d a9 9c bc d1 51 e7 3c f9 ae 5c bd 15 e0 1a 3d
       -0.019123608 0.028237255 -0.053877804 0.037811358
0002b0 ba ea 6a 3c 1e 7c 17 3b 80 ef 59 3a ae 99 13 3d
       0.01433819 0.002311475 0.00083135813 0.036035232
0002c0 63 91 6c 3d cd d0 12 bd 08 36 22 3c 06 99 97 3d
       0.05775584 -0.03584366 0.009900577 0.07402234
0002d0 24 12 7c 3d ad e3 06 3d f4 ec 43 bd 18 ba 4a 3d
       0.061540738 0.032931972 -0.047833398 0.04949388
0002e0 68 24 45 3c 92 13 d6 3b 7d 6d 1b 3d 1f b1 b7 3d
       0.012032606 0.0065330947 0.037946213 0.0896933
0002f0 07 79 ad bb cf a6 32 bc be 06 90 3d 31 16 54 3d
       -0.0052939686 -0.010904028 0.07032536 0.051778976
000300 27 cb bd bc 75 d6 80 3d ab b4 60 3a 27 0e 21 bd
       -0.02316816 0.062909044 0.00085718435 -0.039320137
000310 05 78 90 bc 88 7c 1a bc 25 cc 0f bc 21 f0 57 3c
       -0.017635355 -0.009429105 -0.008776699 0.01317981
000320 04 11 04 bd 86 06 25 3c 7e 58 92 bc f9 c1 5d 3d
       -0.03224279 0.010072356 -0.017864462 0.054140065
000330 34 66 81 bc 0e 9a 18 3d c6 07 91 bc 41 60 4a 3c
       -0.015795805 0.037256293 -0.017703902 0.01235205
000340 c6 53 95 3b 9f 67 a9 3c 0a e1 ef ba 08 91 49 3d
       0.0045571057 0.020679293 -0.001830132 0.04921058
000350 f9 75 59 bd a2 17 60 3d 64 c4 97 bc 46 00 36 3d
       -0.053091023 0.054710038 -0.018526264 0.044433855
000360 d9 02 5b bc 6e bc 18 bd 28 f2 29 3c 84 9c 0c 3d
       -0.013367378 -0.037289076 0.010372676 0.034328952
000370 02 82 ed 3c 8c eb 00 bd 15 55 14 bd 44 60 7c 3c
       0.028992657 -0.031474635 -0.036213953 0.015403811
000380 6a 54 57 be 9a 51 51 bd 78 c0 be 3c a9 80 58 3c
       -0.21028295 -0.051103212 0.023285136 0.013214269
000390 b6 ae a9 bd 04 1d 82 bd 1d 53 89 3d 6e cb 22 3d
       -0.082852766 -0.063531905 0.06705306 0.039744787
0003a0 d3 36 7f 3c f9 d7 d1 bb e8 ed b2 3c 00 26 0a 3b
       0.015577036 -0.00640392 0.021841958 0.0021079779
0003b0 a2 ba 62 bd 64 6a 20 3d 27 5f 36 be d8 27 c0 3a
       -0.05535377 0.039163962 -0.17809735 0.0014660312
0003c0 f8 52 31 3d 7a a7 57 3d e7 0d 36 bd b1 66 5e bf
       0.043292016 0.052649952 -0.044446852 -0.86875445
0003d0 31 10 55 3d e2 ea db bc 67 31 da 3e 3b 85 64 3d
       0.052017394 -0.0268454 0.42615816 0.05579112
0003e0 d2 75 e8 3c e0 5f 3c bc 1c 99 0e bd 1e c2 9c 3d
       0.028376494 -0.011497468 -0.034813985 0.076542124
0003f0 4d 62 9a 3d 41 b5 c0 3d 7e 39 13 3c 6d bf 8b ba
       0.07538281 0.094095714 0.008985875 -0.0010661908

linear2.bias f4 [256]
000000 2f 81 02 be c7 cd a2 bc 77 2b 29 bd ac b5 7d bd
       -0.12744592 -0.019873513 -0.041301217 -0.061940834
000010 77 90 2d bd e6 3e 19 bd 77 dd b5 bd 48 23 4f be
       -0.0423741 -0.0374135 -0.08880132 -0.20228302
000020 ff 76 21 be 4f 19 22 bd 26 c9 88 3c 86 ca ba bd
       -0.1576805 -0.039574917 0.016697478 -0.091206595
000030 27 77 f2 bd 93 14 cb bd 2e 54 69 be b3 7d 79 3d
       -0.11839133 -0.099160336 -0.22786018 0.06091089
000040 7d 15 6c bc ae e7 bf bd ac 2f 0b 3c 8e 7d d8 bb
       -0.01440942 -0.09370361 0.008495253 -0.006606764
000050 7a 31 4d 3e 40 d4 5f bd 44 59 a2 bc 3a 77 5e bd
       0.20038405 -0.054645777 -0.019817956 -0.054312922
000060 ea 9b 61 bd 33 43 91 bd b3 91 67 bc af 57 54 3d
       -0.05508033 -0.07092895 -0.0141338585 0.051841434
000070 7f a9 1a be 24 68 76 3c 05 cd 0b be 7d ac 84 bd
       -0.1510372 0.0150394775 -0.13652427 -0.06478212
000080 c3 f0 29 3b 42 e6 d4 3c ad 26 9d 3d 92 c6 b3 bb
       0.0025930859 0.025988702 0.076733924 -0.005486318
000090 51 17 93 bd 31 7c bc bd d4 40 f5 bc 7a a2 99 3d
       -0.071821816 -0.09203375 -0.029938139 0.07501693
0000a0 3a b5 5c bd 2e fb 03 be 2c 83 a2 bd 1a 80 10 bd
       -0.05388377 -0.12888786 -0.07935175 -0.035278417
0000b0 47 b0 a9 bd d3 d7 b9 3d e5 29 90 be 03 3b 64 bd
       -0.08285575 0.09074368 -0.28156963 -0.05572034
0000c0 20 f5 34 3d 84 ff e3 bc a3 ea 62 bd 25 2d 04 bc
       0.044179082 -0.0278318 -0.05539955 -0.008067404
0000d0 39 a9 45 bd 92 ee 54 bd 64 3b 07 bd 0b b5 bd 3d
       -0.048257086 -0.05198533 -0.033015624 0.09263047
0000e0 4d a8 06 3b f8 91 4d be c6 a2 43 bd 54 61 7a bd
       0.0020547092 -0.20075214 -0.047762655 -0.061127976
0000f0 ce 66 75 bd 96 db 59 be 65 2b 28 bd 53 e0 23 3e
       -0.059912495 -0.21275172 -0.04105701 0.16003542
000100 b8 35 75 3d 70 8f 4f be 32 70 5e bc 6b a6 ad 3d
       0.059865683 -0.20269561 -0.013576554 0.08479007
000110 0e da 1e bd 36 ec 01 bb 04 a1 8c bd 7e 7d e6 bd
       -0.038782172 -0.001982463 -0.06866649 -0.112544045
000120 1f 59 35 be 57 62 35 3e 29 70 01 3e 21 77 ce bd
       -0.17709778 0.17713295 0.12640442 -0.10081316
000130 2f 04 6c be 91 5b 4a bd ad 0e 5b be 83 8c 4c bd
       -0.23048471 -0.04940373 -0.21392317 -0.04993869
000140 a0 ee 38 ba 31 f6 17 be 67 e2 6d be fd b9 88 bd
       -0.0007054601 -0.14840008 -0.23230897 -0.066760994
000150 77 18 28 bc 0e 2b 4b be 57 d4 4d 3e 4c c7 04 3d
       -0.010259739 -0.19840643 0.20100532 0.032416627
000160 d9 fc db bd 2b 88 38 be 99 58 9b 3c 16 a4 23 3d
       -0.10741586 -0.18020694 0.018963145 0.039951406
000170 35 e5 89 bc 61 30 6f be 61 5d cb bd cc 18 26 3e
       -0.016832927 -0.23358299 -0.0992992 0.16220397
000180 0a 32 d6 bd 4a f1 5a be 17 98 26 bd e5 b8 35 3d
       -0.10458763 -0.21381107 -0.040672388 0.044365782
000190 ec 10 50 be f3 bd 05 be 83 87 0c be 78 f0 4f bd
       -0.20318955 -0.13060741 -0.13723569 -0.05076644
0001a0 4d 3f 49 bd d8 ad 32 bd f8 23 3d bc f6 e7 79 be
       -0.049132634 -0.04362282 -0.01154422 -0.24404892
0001b0 06 b1 0a 3e 3f 7d a8 3a 75 02 1b be aa 0b 20 be
       0.13544092 0.0012854709 -0.15137656 -0.1562945
0001c0 ff 90 2c bd 36 f3 92 be 28 dc 41 bd d7 4b 21 bd
       -0.042130467 -0.2870118 -0.047329098 -0.039378967
0001d0 8c 40 86 3d 53 84 98 bd ae 63 71 bd 7f cc 8c bc
       0.0655528 -0.07447114 -0.058932953 -0.017187355
0001e0 a6 cc c3 ba 52 66 ae bd 80 18 1d 3e d1 84 40 bd
       -0.0014938309 -0.0851561 0.15341377 -0.047001664
0001f0 08 44 99 bc eb fe 6d bd cc 67 9a bd 84 89 9b be
       -0.018709198 -0.058104437 -0.07539329 -0.30378354
000200 35 ad 3f be 5e 0b 16 3d a6 a5 1e 3e 22 10 5b bd
       -0.18718417 0.036631934 0.15492877 -0.053482182
000210 6d 6d 88 bd 75 c7 c7 3d 74 a5 9c bc 7e 72 96 bc
       -0.06661496 0.0975484 -0.019121863 -0.018365141
000220 ac c0 77 be 89 35 00 be 8e 79 6d be ec e3 62 3d
       -0.24194592 -0.12520422 -0.231909 0.055393144
000230 05 4a 07 bd 41 fa 41 bd af 83 9e 3d 37 2e 04 bc
       -0.033029575 -0.0473578 0.077399604 -0.008067659
000240 1a 43 0e 3e d3 2a c9 bd de 44 1b bd 73 63 bc be
       0.13892785 -0.09822621 -0.037907474 -0.36794624
000250 8a 69 d3 bc 8f a7 89 bd 09 1d cd bd 8e dc 21 be
       -0.02580716 -0.067214124 -0.10015304 -0.15806791
000260 60 b1 bd be cc c2 65 be 4f b6 3e 3e e9 46 03 be
       -0.3704939 -0.2243759 0.18624233 -0.12820019
000270 d2 31 52 bd 77 54 11 be 97 e0 c0 bc 38 af 35 be
       -0.051317044 -0.14192377 -0.023544593 -0.17742622
000280 38 b9 7a be df e8 a1 bd 59 a4 25 bd f3 a9 64 bd
       -0.24484718 -0.07905745 -0.040439937 -0.05582614
000290 00 4e 33 bd ea e3 ec bd 7d ac 7e bd c3 4a 3e 3e
       -0.04377556 -0.11566909 -0.062176216 0.18583207
0002a0 4e 18 47 bd 84 d2 03 3b 8f ae 53 3e 87 70 24 bc
       -0.048607163 0.002011449 0.20672058 -0.010036594
0002b0 7b 3e 1f 3c 56 c6 32 be 15 95 01 bd 9f 13 ec bc
       0.009719486 -0.17458472 -0.031636316 -0.02881795
0002c0 ca e3 8a 3e 04 f3 73 3e 43 44 1a 3d e4 96 96 bd
       0.27126914 0.23823172 0.037662756 -0.07352999
0002d0 d5 d7 90 3c 5c 29 7d bd 35 4c 89 bd 35 54 83 3c
       0.017681042 -0.06180702 -0.067039885 0.016031364
0002e0 87 b6 29 bd 8b dd e1 bc c7 98 8b be 3c c4 ff bc
       -0.041433837 -0.02757146 -0.27264997 -0.031221502
0002f0 2a 8c 47 be 93 2f a6 bd e1 76 5e be c7 66 ae bd
       -0.19487062 -0.08114543 -0.21725036 -0.08515697
000300 71 f8 73 bd e9 b3 44 3d 6f e5 48 be 9e ff 3d be
       -0.059563104 0.04802314 -0.19618772 -0.18554541
000310 0e 36 98 bd 6c 7f e9 bd b6 3e 08 bd d0 4c e9 3d
       -0.07432185 -0.11401257 -0.03326293 0.11391604
000320 3d 69 0a bd 01 52 2e bc 56 6f 25 be 73 1d 45 3d
       -0.03379177 -0.010639668 -0.16155753 0.048123788
000330 e5 dd 0b bd 64 97 0b bc ac a5 5b be 33 ee de 3d
       -0.034147162 -0.008519981 -0.21449918 0.10885277
000340 dc 10 4f 3d 9b 6a 33 bd 9e 83 0d 3d 52 78 59 bd
       0.050553188 -0.04380284 0.034549348 -0.053093262
000350 6a b3 5b bd b1 41 10 be 43 ec 9c 3c 8b ea 63 bd
       -0.0536379 -0.1408756 0.019155627 -0.0556436
000360 ba 7e 67 3d 38 d1 b6 bd df c0 90 bd 13 f6 59 bb
       0.05651734 -0.08926624 -0.07068037 -0.0033258244
000370 c8 2d e3 bc 17 b8 a9 bd fb e5 ab bd f8 f9 e3 bc
       -0.027731791 -0.082870655 -0.08393475 -0.027829155
000380 66 68 a9 bb 64 f2 b8 3d 38 ab 34 ba d5 ed 9f bc
       -0.005169916 0.09030607 -0.00068919687 -0.019522587
000390 68 52 85 bd 20 0e de bd 0f a3 5a 3e e3 b3 02 3d
       -0.06509858 -0.10842538 0.21351264 0.031909835
0003a0 d9 c3 48 bc f2 0f 34 bd b3 4c 50 be ce ef 11 bd
       -0.012253725 -0.04396052 -0.20341758 -0.035629086
0003b0 34 97 7d bd 96 c6 ee 3c ac e0 f3 bd be 03 c1 bb
       -0.061911777 0.029147428 -0.11908087 -0.0058903387
0003c0 10 85 42 be da 77 ce bc 51 32 ae 3d 3a 2e ef bd
       -0.18996072 -0.025203634 0.08505691 -0.11678739
0003d0 86 d9 20 bd 91 63 8c bd 94 79 f7 bc 9b 8a 19 be
       -0.039269947 -0.06854928 -0.03020934 -0.1499428
0003e0 07 2c a5 bd ae cf 82 be 30 d9 e1 bd 6d 0c 10 3e
       -0.08065038 -0.25549072 -0.11027753 0.1406724
0003f0 fb 02 e8 bc da 9f 2b 3e 85 e6 88 bd 0a 22 9f be
       -0.028321734 0.16760197 -0.06684593 -0.31080657

linear3.weight f4 [2, 256]
000000 4a 66 df bf 30 47 37 bc 30 8f 44 3c 74 15 03 3d
       -1.7453091 -0.011186406 0.011997029 0.03200288
000010 48 e4 31 bd 0f 57 b8 3c 87 98 2e bf 5f 0f a6 bf
       -0.043430597 0.02250245 -0.6820149 -1.2973441
000020 c7 24 d0 be 4b 39 73 3d 03 ad 6a c0 66 8a 9b be
       -0.4065306 0.05938081 -3.6668098 -0.30379027
000030 00 9b bb bf 3d 43 08 bf 92 84 d8 bf 8f a2 a6 be
       -1.4656677 -0.532276 -1.6915457 -0.32545897
000040 3a eb 53 bf 3c 8b 47 c0 16 cc ae 3c db 26 59 bc
       -0.827808 -3.1178732 0.02133755 -0.013253893
000050 1d fa 65 bf 84 e9 7b bf 74 ce 18 c0 4f be 2c bd
       -0.8983477 -0.9840319 -2.387601 -0.04217368
000060 09 cb 49 bd 70 2d 34 c0 2a 31 df bb 74 65 fc bf
       -0.049265895 -2.8152733 -0.0068112807 -1.9718461
000070 cd 6e 81 bf dd c8 85 ba 70 91 b4 bf 64 1c 8c 3c
       -1.0111939 -0.0010206957 -1.4106884 0.017103381
000080 bf 0a 8b c0 93 f8 e6 bf 79 4a f7 bf fd 6d e8 c0
       -4.345062 -1.8044609 -1.9319602 -7.2634263
000090 cf d1 af bd b0 73 ba bf e5 eb 11 3d 4e db 89 bf
       -0.0858494 -1.4566555 0.035625357 -1.0770051
0000a0 91 be 5f 3d 94 ac fb be 03 3a e0 bf 35 10 07 c0
       0.054625098 -0.49155104 -1.7517704 -2.1103642
0000b0 ca 62 6a 3d a4 8a bc be 04 f5 f7 bf 95 ff 1b 3c
       0.05722312 -0.36824524 -1.9371648 0.009521385
0000c0 a6 e8 62 c0 85 8b 96 be ab 25 fc 3b c9 07 dc 3c
       -3.5454497 -0.2940332 0.00769492 0.026859181
0000d0 ee 11 11 bd 16 68 15 c0 e0 c3 bc be 1f 52 18 c0
       -0.03541749 -2.334478 -0.3686819 -2.3800123
0000e0 b8 13 47 3c 33 a3 e2 bf f4 09 9f be 8d d5 0c bd
       0.012150697 -1.7706054 -0.3106228 -0.034383345
0000f0 c6 a0 a0 bd a8 fa b3 bf 42 b5 d9 bf ea b4 7f bf
       -0.07843165 -1.4060869 -1.700844 -0.9988543
000100 72 28 d9 bf 16 87 14 c0 fa bb de bc f8 9d 31 bf
       -1.6965468 -2.320745 -0.027189244 -0.69381666
000110 a1 8d 44 bd 3f 1c 34 3d 25 f4 00 c0 c2 22 c8 bf
       -0.04798663 0.04397225 -2.0149014 -1.5635607
000120 15 89 83 bf e3 82 64 be 93 cd 98 bd 5d d8 11 3d
       -1.0276209 -0.22315554 -0.07461085 0.03560673
000130 5a 7e d5 be 31 c3 4c bc 85 62 05 c0 92 71 57 be
       -0.4169796 -0.012497709 -2.0841382 -0.21039417
000140 9f ad ae bc b4 48 84 be cd c9 8f be 4c 78 0d 3d
       -0.021323023 -0.25836718 -0.2808365 0.034538552
000150 bd 7d 11 3d 2d 9a 8c bf e2 92 54 be 5a 77 52 bf
       0.035520304 -1.0984551 -0.20759156 -0.82213366
000160 3b d0 64 bf 97 3f 8d bf 6e 75 6d c0 47 20 28 bf
       -0.89380234 -1.1035031 -3.7102923 -0.6567425
000170 ea bd d3 bc 85 af 77 bf 19 c4 40 bd d9 92 04 bf
       -0.025847394 -0.96752197 -0.047062013 -0.5178657
000180 02 46 5e bd 6d 99 09 bf a4 12 7e bd b1 a6 e0 bf
       -0.054265983 -0.53749734 -0.062029496 -1.755087
000190 fa f6 d0 be 60 85 bc bf 11 ac 47 bf 23 76 fc 3c
       -0.40813428 -1.4728203 -0.7799693 0.03081805
0001a0 38 70 01 c0 ba e4 52 bc c0 05 3e bc fe 98 4c be
       -2.0224743 -0.0128719155 -0.011598051 -0.19980237
0001b0 6e 67 ec be ac cf 01 3d 99 f3 4f bf 70 8c 48 c0
       -0.4617266 0.031692192 -0.81231076 -3.1335716
0001c0 61 bc 50 3d 3d a5 00 bf f5 59 82 bd ff 75 3d 3c
       0.050960902 -0.50252134 -0.06364814 0.011563777
0001d0 33 11 7b bf b6 64 14 c0 0e 62 99 c0 a0 ec 30 c0
       -0.9807312 -2.318647 -4.7932196 -2.7644424
0001e0 f3 26 cb be f4 3e 7a c0 13 ef 3f bf 55 cf 09 bd
       -0.39678153 -3.9100924 -0.74974173 -0.033644993
0001f0 b2 00 01 c0 a2 ee 8d bf bf c0 a3 bf 5f ba af be
       -2.0156674 -1.108845 -1.2793196 -0.34321877
000200 9a 7d db be a8 e8 b6 bc c6 f1 03 be 12 00 d3 bb
       -0.42869264 -0.022327736 -0.12885198 -0.0064392174
000210 8e c4 13 c0 49 73 35 c0 64 4d 82 bd 9e af 9d bc
       -2.3088717 -2.8351614 -0.06362417 -0.01924878
000220 27 73 22 bf b4 1d 72 c0 0f 9c 00 bf a4 7a 75 bf
       -0.6345696 -3.783063 -0.50238127 -0.9589026
000230 5e 0e a2 3b 3d d7 80 bc 4c a9 f1 bf 26 ce 6c bf
       0.0049455604 -0.015727634 -1.887979 -0.9250206
000240 e0 9e be be 7b 3a e5 bf 8b 9d f4 3c 3d c8 8f be
       -0.37230587 -1.7908472 0.029860279 -0.28082457
000250 99 d7 c3 bc bc a4 fe bf b6 22 1f be d3 76 ec bd
       -0.023906516 -1.9894023 -0.15540585 -0.115461014
000260 4f 07 25 bf 54 b8 78 bf d0 10 7c bf 4d 89 87 bf
       -0.6446428 -0.9715626 -0.98463154 -1.0588776
000270 50 b5 ba bf 41 0f cb be c4 1a f9 be 0e f7 15 c0
       -1.4586582 -0.39660075 -0.48653233 -2.343204
000280 7a 4a 5a bf 06 d6 2a 3c d8 1a be bf 2d 46 81 bd
       -0.8526989 0.010427004 -1.4851942 -0.06312213
000290 75 e2 97 3c bd a0 07 c0 18 26 b9 bf 39 c2 06 bf
       0.0185406 -2.1191857 -1.446475 -0.5264011
0002a0 e0 bd bd bf 7d 76 8d bd ce 21 35 c0 8a 34 60 3c
       -1.482357 -0.069073655 -2.8301883 0.013684401
0002b0 63 f9 e3 bf 6e 3f 98 bf be d1 1c bd 7c af f7 bf
       -1.7810482 -1.1894357 -0.038285963 -1.9350429
0002c0 c7 e7 28 bf 4c 72 83 be ea 00 65 be 32 44 5d c0
       -0.65978664 -0.2567314 -0.2236363 -3.4572873
0002d0 10 da f5 bf 9f c5 2a bc b8 1a 31 c0 45 fa a8 be
       -1.9207172 -0.010423093 -2.7672558 -0.3300344
0002e0 cb d0 79 3c 1d 2c 83 bd d6 b1 90 be 67 ae ae bc
       0.015247534 -0.06404898 -0.28260678 -0.021323396
0002f0 e2 ca d8 bf f9 25 45 bf e7 21 22 bf 6e 7f 1e c0
       -1.6936915 -0.77011067 -0.6333298 -2.4765277
000300 d5 5d 05 c0 8a 08 df be f8 9a 3e bf a7 d1 25 be
       -2.083852 -0.43561202 -0.74455214 -0.16193257
000310 e8 76 d9 bc b6 75 bf be a3 0a 00 c0 64 cd fb bf
       -0.026545957 -0.37394494 -2.0006492 -1.9672055
000320 67 cc a9 bd c6 7e 12 bf 27 ae ad bf de 1e 3c c0
       -0.0829094 -0.5722469 -1.3568772 -2.939384
000330 51 31 50 3d 47 01 29 be b0 52 b3 be ae cd bc bf
       0.05082828 -0.16504394 -0.35024023 -1.4750268
000340 5f df bf c0 46 a6 1a c0 be 59 17 bf 26 a8 95 be
       -5.996017 -2.4163985 -0.5912131 -0.2922985
000350 c9 fc 48 bd d2 2b f2 be a5 92 8a bf be 54 9c bc
       -0.0490692 -0.47299057 -1.0826002 -0.019083377
000360 d8 ad b2 be 3c bf 04 3d 20 1f 33 bf be 28 1b c0
       -0.34898257 0.032408938 -0.6996937 -2.4243617
000370 9e f5 b1 bc b5 21 1b 3d d3 5d 6c c0 02 37 54 c0
       -0.021723565 0.037873942 -3.6932266 -3.3158574
000380 98 aa 3e bd 66 b6 2f bf ed 22 8a bd a0 c0 41 bb
       -0.04654941 -0.6863769 -0.06744943 -0.0029564276
000390 f3 28 6d c0 2f 8d 23 c0 7a dc a5 be 25 ef 05 c0
       -3.7056243 -2.5554922 -0.32394773 -2.0927212
0003a0 2d b1 84 c0 d2 7d d6 bd 4a 6f b7 bf 21 75 c6 bb
       -4.146628 -0.10473217 -1.4330838 -0.0060564433
0003b0 be b6 2d 3d 27 98 00 bf 70 30 3a c0 28 7f e4 bf
       0.042410605 -0.50232166 -2.9092064 -1.7851305
0003c0 11 bc 9a be 8a 2a d1 bf 87 f5 ab be 1f 67 27 c0
       -0.30221608 -1.6341107 -0.3358576 -2.615669
0003d0 56 80 12 c0 46 46 11 c0 7a fd 6a 3d 82 72 e8 bf
       -2.289083 -2.2699142 0.05737064 -1.8159945
0003e0 e3 36 60 bc c6 26 10 bf 15 fa 85 bd ac c9 36 bf
       -0.013684961 -0.56309164 -0.0654184 -0.71401477
0003f0 3e 03 9b bd 69 bb a1 bf 9d 52 87 bd 9d 33 88 be
       -0.07568978 -1.2635318 -0.06607554 -0.26601878

linear3.bias f4 [2]
000000 22 aa ed c0 18 ea 67 3d
       -7.427018 0.056619734
