turtlebot3_rl_sim/src/models/td3/stage_1_improve_more_buffer_add_sn/td3_actor_model_ep3000.pt (torch_old, 343032 bytes, 6 tensors)

linear1.weight f4 [256, 74]
00000000: a471 4e3e de1a 863e 47a3 803e c3c4 773e
00000010: 482a 4b3e 7b9e 1d3e 6818 853d 035c 613c
00000020: 3d3e a13d ee6e 393e 273f 023e be81 7e3e
00000030: 9cad 0d3e d31b 8f3e fbf4 3b3e 6774 813e
00000040: 18a8 2e3e 8c14 413e 5a6a 673e 0845 a03c
00000050: 1cdc d43d c835 d73d 9bba 4e3e 3faa 143e
00000060: 055a 37bd 4f1a 3bbd 72a7 22bd 14be 0bbe
00000070: 4b08 37be d604 49be 5118 fbbd 45e9 47bd
00000080: 1afc 2cbe 807c bd3c 6e4b 87bd 2999 2bbe
00000090: 5af8 22be 873b 6dbd a7ab 9fbd b315 04be
000000a0: c859 68be 64ab babe c8b3 abbe d35f 47be
000000b0: 176d 99be 2795 89be f66b 4bbe 15d0 6cbe
000000c0: 2e83 86be 33b4 f0bd ca1e 79be 76f9 77be
000000d0: ca79 76be f2fb 8bbe c045 a0bb 5920 3f3e
000000e0: 0a69 3c3e 08e2 563e 0bba 743e c270 953e
000000f0: e022 943e 43c1 443e ca62 3d3e 5f84 b63c
00000100: 0883 94be a6ae 81be e882 3cbe f591 fbbd
00000110: f348 f63d 2031 583e a180 423e 9b9e 8e3d
00000120: a96d fcbd 2a37 a93e 9d23 133d 90b7 c33d
00000130: 577a acbb c441 ffbd 6b63 60bd d341 793d
00000140: 9fbc b83d f7ad 3f3b e524 153c 17aa 3c3d
00000150: 0bbe e0bd 9036 cc3d 7dfd 03bc 69fa 4bbd
00000160: 0494 833d 4b15 e0bd fef7 9fbd 8b79 61bd
00000170: 7f37 a4bd 00c5 cd3a b4b3 8b3c 2cc9 8039
00000180: df0c 353c 54c6 febd 8ef8 1bbc 6c71 ffbd
00000190: c2fd 683d 3071 c93d a413 823d 069a 9bbc
000001a0: 9777 a1bd eac3 d2bd 070c bb3d 1f50 2fbd
000001b0: 80d7 cc3d 2462 f7bd c4d1 003d bc89 f6bd
000001c0: 90df b4bc 6305 62bd 6ca4 833a 1603 2a3d
000001d0: 6a2a ddbd 0769 b83d 5c34 72bd 16e8 a13d
000001e0: c8f3 bdbd ce32 a43d d776 b73d d1e8 40bd
000001f0: 5ca4 70bd 6d9e 04bd ac87 8d3b 8b11 eabd
00000200: 0d9e 8fbc 38b1 b3bd ed69 133d 4aa3 59bd
00000210: ae00 97bd 6a18 803d 16a4 a43d 3aeb d3bb
00000220: ba87 6e3b 663e 97bc fc96 79bd beaa 96bd
00000230: 234a 7b3d 2b81 733d 7c9e febc ff1e a6bb
00000240: 8fa1 363c 7cf9 0c3d 5a02 723d a8a2 31bc
00000250: c565 5fbe fae6 d6be 469f 6abe 0682 52be
00000260: 4268 a8bd 5984 84be e7ab 5cbd 97c5 e5bd
00000270: 17ea 2abe e55e c33c 1ba1 9bbd fb8c 62bd
00000280: a4ed 9bbd b11a 89be 7603 aebe ab87 27be
00000290: 3065 59be 7b1b 863d c307 e2bd ceeb a3bd
000002a0: d39d 4dbd f070 d23d 7bef c03d 7f15 00be
000002b0: f51f 18bc 2737 ed37 ef74 d1bc ea47 6a3c
000002c0: d48d 8ebd 2e0a 2c3d 0f97 a93d 465a e4bc
000002d0: f381 1e3e a38c c83d ea9a 873d 1959 013e
000002e0: 2381 8f3d 1290 e83d 70e9 183e cde0 ff3c
000002f0: 2cba 46bd 70ea 123e 1c4e a8bc b0c2 173e
00000300: 6f2b 013e 4eb1 783d eadf 103e 44c6 433d
00000310: d16c c7ba 59f2 f73d e849 a83d 5822 1b3e
00000320: 2e60 9cbb 06aa 9a3d 3e9e 1b3e 4d10 713a
00000330: 79c6 50bd 18a2 1e3e 6b26 8cbd 91d1 e0bb
00000340: f8d8 ea3d e665 803d 23fe 013d 9531 d43d
00000350: 68b4 37bd d211 893d 5c7d b8bc 5fbf 7abd
00000360: ae9c adbd 6898 b1bd 1879 83be 38f9 4ebe
00000370: 650c 00bf d9a3 fcbc 0ed9 29bd 5c28 d23c
00000380: 6e7b 38bc 29af 25be f51e b1bc 78d2 52bd
00000390: 8f8d bdbd a24d 4c3d c256 90bd 20a1 08be
000003a0: 855b 1fbe 671e efbd f0ca 953d 64e6 d4bd
000003b0: 05d9 48bd a765 72bd a88f aabd 150f a83d
000003c0: c746 963d e891 403e 1676 c83d c8df f33d
000003d0: 57e8 173d 478b 9a3d 4e0b 303e 69a5 bb3d
000003e0: cb6c 3b3e 22a3 c93d 159f 6d3d 0f04 4e3e
000003f0: b33e 4a3c 67e6 003c fca2 273e f326 e03d
0.20160538 0.26192373 0.2512457 0.24196152 0.19840348 0.15392487 0.06498796 0.013754847
0.07873199 0.18108723 0.12719403 0.2485418 0.13835758 0.27950916 0.18355171 0.2528412
0.1705631 0.18855494 0.22599164 0.019564167 0.10393545 0.10508305 0.20188372 0.14518069
-0.044763584 -0.045679387 -0.03971047 -0.13646728 -0.17874257 -0.19630751 -0.12260497 -0.048806448
-0.16893044 0.023130655 -0.06606184 -0.16757645 -0.15915051 -0.057918098 -0.07796412 -0.12898903
-0.22690499 -0.36458886 -0.335356 -0.19470148 -0.2996604 -0.26871607 -0.19865403 -0.23126252
-0.26271957 -0.1175312 -0.24328151 -0.24216256 -0.24069896 -0.27340657 -0.0048911273 0.18664683
0.18399444 0.20984662 0.23899095 0.2918759 0.28932858 0.19214348 0.18494716 0.022279916
-0.2900622 -0.2532856 -0.18409312 -0.122836985 0.12025633 0.2111249 0.1899438 0.06963845
-0.123256035 0.330499 0.035922635 0.09556496 -0.0052636075 -0.12463716 -0.054782312 0.06085379
0.090203516 0.0029247978 0.009103035 0.046060648 -0.10973748 0.099713445 -0.008056042 -0.049799357
0.06424716 -0.10941561 -0.07810973 -0.055047553 -0.080183975 0.0015698969 0.017053463 0.00024563947
0.011050432 -0.12440172 -0.009519709 -0.124728054 0.056882627 0.09836042 0.063514024 -0.018994343
-0.07884138 -0.10291274 0.091331534 -0.04280102 0.10002041 -0.12079266 0.031450048 -0.120379895
-0.02207926 -0.05518092 0.0010043508 0.04150685 -0.107991055 0.090044074 -0.059131965 0.07905595
-0.09275013 0.08017503 0.08958214 -0.04709703 -0.058750495 -0.03237765 0.004319152 -0.11429127
-0.01753142 -0.08774036 0.03598969 -0.05313424 -0.073731765 0.062546566 0.080391094 -0.00646725
0.0036396817 -0.018462371 -0.060935006 -0.07356785 0.06135 0.059449356 -0.03108143 -0.005069613
0.011146917 0.034417614 0.059084274 -0.010842003 -0.21816166 -0.41973096 -0.2291232 -0.20557413
-0.082230106 -0.25882223 -0.053874876 -0.11219328 -0.1669086 0.02384896 -0.07599088 -0.05531023
-0.07613686 -0.26778176 -0.33987015 -0.16360347 -0.21230006 0.0654821 -0.11036637 -0.080039605
-0.05019934 0.10275447 0.09420677 -0.125082 -0.009284963 2.8278284e-05 -0.025568454 0.014299372
-0.06960645 0.042001896 0.08280765 -0.027875077 0.15479259 0.09792449 0.066213444 0.12631644
0.07007053 0.11355604 0.149328 0.031235123 -0.04851739 0.14347243 -0.020545058 0.14820361
0.12614225 0.060715966 0.14147916 0.047796503 -0.0015214925 0.12106771 0.082172215 0.1514982
-0.0047722077 0.07551961 0.15197083 0.00091958494 -0.05097053 0.15491521 -0.06843265 -0.0068609198
0.11467165 0.062694356 0.031736504 0.103610195 -0.044849783 0.06692852 -0.022520714 -0.061217662
-0.0847715 -0.08671647 -0.25678325 -0.20212257 -0.5001891 -0.030839847 -0.041466765 0.02565401
-0.011259897 -0.161801 -0.021621207 -0.05147025 -0.09255516 0.049878724 -0.07047798 -0.13342714
-0.15562256 -0.11675721 0.07314098 -0.10395506 -0.04903509 -0.059178974 -0.083281815 0.08206002
0.073377185 0.18805659 0.09788148 0.11907917 0.03708681 0.07546096 0.17191812 0.09162409
0.1830322 0.09845568 0.05801304 0.20118736 0.01234405 0.007867432 0.16370767 0.10944929

linear1.bias f4 [256]
00000000: 31ae dcbc 4868 35bd 9e40 a6bb d77f d53d
00000010: a3c7 e4bd 409e c83c 0b24 af3b daa2 d1bd
00000020: b8f3 c33d 610a 5d3d d266 debd 51c3 a53d
00000030: f2a8 603c e96f 93bd ac5b f3bc d698 bcbd
00000040: d833 bebc 742a c93d 16e1 1ebe ff19 2bbd
00000050: 499a 4ebd 715c c1bd 77ad d1bd ad26 b43c
00000060: 9b11 193e 9176 b73d 51b3 e93c a877 34bc
00000070: b7d5 25bd 3597 963c 40ef 8e3d 1532 9e3b
00000080: e064 37bd 94ce 863d 8640 00be bd45 813c
00000090: 7552 163d 2d76 923d fd0c 903d 3ffb acbd
000000a0: d14f cdbd e3f3 e6bd 3bb9 6cbd 047b 833d
000000b0: d52d c7bd 780e da3d 2143 5f3d 5ba3 afbd
000000c0: 535a f73c dc06 d23d 9ad2 913c cfc7 b93d
000000d0: a1aa cd3d 93e4 e1bd 0858 3fbe 800f c7bd
000000e0: fae8 e33d 4c11 d4bc 6a17 dcbc fafa 913d
000000f0: 51c7 503d ceb6 89bd b730 be3d 28a9 b2bd
00000100: be4b 91bd 0bb3 c73d 357c 0ebd fc2b 76bd
00000110: 21fb d13c 0f8a a03d 0e3a cbbd 249f ac3d
00000120: 89b9 cebd faa8 d7bd d1f6 c6bc d0e5 b4bd
00000130: 9c7e 9b3d c898 483d c867 cc3d ba18 983c
00000140: c51e 09be 606a 503b 2251 653d 2533 03be
00000150: 21aa 523c 5fc6 2dbe 05f0 d6bd fe5c d73b
00000160: ef97 b53d 170e a4bc f92b dd3d 9c81 7bbd
00000170: 5025 653c e056 ca3d 5ab7 d8bd 8715 b13d
00000180: f4b9 f2bc 94ba dc3d 1083 b9bd 0ab4 d1ba
00000190: 3197 4bbd b920 c9bd 2d01 193d dac1 c13d
000001a0: 5bc1 1c3e 10d5 3cbd 536f e7bd 70e7 a5bb
000001b0: f2bb 613d faa8 2b3e 3bde 0f3d d3b5 6ebd
000001c0: def2 97bd d4d6 1b3e 8efa a33d 2125 4bbd
000001d0: 85aa f43d 8b41 1abe 669f a43c 6f8b 753d
000001e0: 043c f33b c7b0 53bb 374d dcbd 6932 4bbd
000001f0: d0fd da3b 0630 84bd 47a7 bbbd 905d b9bc
00000200: dc99 3e3d 902d 9bbc d3c3 093e 2c44 f9bd
00000210: 6884 293d 4480 7fbd 38d4 a3bd a42c 2a3e
00000220: 6dd2 8cbd ae1a 9bbd 29c8 9abd 15d9 973d
00000230: d734 29bd 1024 34bd 1eee b13d 6669 9b3d
00000240: 709e a8bc 4b1a f43c 1acc 18bd ba93 73bd
00000250: 4257 f23d 4a35 633d dbee e23b 6539 a8bd
00000260: dee7 9dbd 5190 e9bd 09a1 d03d d4a1 023e
00000270: 2162 5e3d a6f4 9bbd 5b39 6dbd 0058 7d3b
00000280: 81e2 b6bd a40a ecbd 88fe e03d 0e0f ab3d
00000290: 1d33 06bd 2c39 d0bd 1d64 02be 2df6 85bd
000002a0: f4e1 fcbb 5dfb 07be 6911 be3a 8d3f 0cbe
000002b0: 5408 8d3d d247 dfbd f52e 9e3d b029 373c
000002c0: e292 59bc cbaa c23b 33e2 e4bd fc7d 1cbd
000002d0: 5622 aa3d 50c3 d1bd 756e a1bd 9477 44bd
000002e0: 69fa 41bd a88b b9bc 3f89 a6bd d3b9 7e3d
000002f0: 1857 c43d e629 10be 0903 49bd 3a3e 5bbd
00000300: 9f60 26be 9e8c 273c 9133 d93d d450 833d
00000310: 8a11 d9bd 9dab 0a3d 5a7f b33c 72cc 783d
00000320: 4489 71bb 5f0c b33d 1051 183c 01a8 e3bd
00000330: 9366 d8bd a48f 773d c431 8bbd 4c39 8c3d
00000340: dfee 83bd c60c 99bd b21f 48bd 7161 d53c
00000350: 2848 26bc 17da b43c b1b5 48bd 1025 993d
00000360: 20a7 d4bd b1b1 d13b 8399 92bc 86dc ab3d
00000370: 158f 82bc 0ac1 d3bd 542a d23c 1680 9ebd
00000380: b858 c83d 736a f93c f99b db3d 9fe5 adbd
00000390: 8488 233e 9245 ef3c 21e8 943d b82a bfbd
000003a0: d983 523d c832 d8bd 0683 233d b0fb 4d3d
000003b0: 0bc5 63bc f847 b7bd b1fe 64bd 303f 2c3e
000003c0: 13dc 11bd 8eef bcbd 23d7 703d 720b dbbd
000003d0: 88e4 4b3d f080 e13d 3c18 8b3c d576 85bd
000003e0: 86ec 0ebd 947c 833d 97bc a2bb 4d87 183d
000003f0: a9a6 5a3c b574 983c 5c13 043c bcae 0d3d
-0.02693853 -0.044288903 -0.005073621 0.10424774 -0.1117089 0.024489522 0.005344873 -0.102361396
0.0956797 0.053964976 -0.10859455 0.08093894 0.013712155 -0.071990795 -0.029706798 -0.09208839
-0.02321808 0.098225504 -0.15515551 -0.04177284 -0.050440107 -0.0944146 -0.10238164 0.021991098
0.14948122 0.089581616 0.028527888 -0.011014856 -0.040487017 0.018382648 0.06979227 0.0048277476
-0.044773936 0.065823704 -0.12524614 0.015780324 0.03669973 0.071514465 0.07033727 -0.08446359
-0.100249894 -0.112769864 -0.057793837 0.06419948 -0.09725539 0.10647291 0.05450738 -0.085760795
0.030194437 0.102552146 0.017800618 0.090713136 0.100423105 -0.11029925 -0.18685925 -0.09719753
0.11128421 -0.025887154 -0.026866633 0.07127948 0.050971333 -0.0672432 0.09286635 -0.0872367
-0.07094525 0.097509466 -0.03478642 -0.06010054 0.025632443 0.078388326 -0.099231824 0.08428791
-0.10093982 -0.105302766 -0.024287613 -0.08832896 0.07592508 0.04897383 0.09980732 0.018566478
-0.13390644 0.0031801686 0.055985577 -0.12812479 0.012857945 -0.16970204 -0.10494999 0.006572365
0.0886687 -0.02002625 0.10799403 -0.061402902 0.013985947 0.09879851 -0.105818465 0.08646684
-0.029629685 0.107777745 -0.09058201 -0.001599909 -0.049704734 -0.098206945 0.037354637 0.094608024
0.15308134 -0.04610163 -0.1130053 -0.00506299 0.05511088 0.16763678 0.035124045 -0.05827887
-0.0741937 0.15218669 0.08006774 -0.049595956 0.119465865 -0.15064065 0.020095538 0.059947427
0.007422926 -0.0032301412 -0.10756915 -0.04960862 0.006683089 -0.06454472 -0.09162765 -0.022627622
0.04653345 -0.018942624 0.13453607 -0.12171206 0.041386038 -0.062378183 -0.07999462 0.16618592
-0.06876073 -0.07573448 -0.07557709 0.07414452 -0.041310158 -0.043979704 0.086879954 0.075884625
-0.020583361 0.029797694 -0.03730402 -0.059467055 0.11833049 0.055470742 0.0069254464 -0.08214072
-0.07710241 -0.11404479 0.10186965 0.12757045 0.0542928 -0.07615022 -0.057916027 0.0038657188
-0.08929921 -0.11525467 0.10986048 0.08352481 -0.03276359 -0.10167155 -0.12733503 -0.06541095
-0.0077173654 -0.13279481 0.0014501038 -0.13696118 0.06886354 -0.109023705 0.077238 0.011179373
-0.0132796485 0.0059407703 -0.111759566 -0.038206086 0.0830733 -0.10242331 -0.07882396 -0.0479656
-0.04735795 -0.022649601 -0.08131646 0.062188935 0.09586924 -0.14078483 -0.04907516 -0.05352614
-0.16247796 0.010226397 0.10605539 0.06411901 -0.105990484 0.03385507 0.021911312 0.06074185
-0.0036855498 0.08742594 0.009296671 -0.111160286 -0.105664395 0.06043972 -0.067966014 0.06846866
-0.064420454 -0.074731395 -0.048858352 0.02604744 -0.010149039 0.02207665 -0.0490014 0.07477772
-0.10383439 0.0063993563 -0.017895466 0.08391671 -0.015937367 -0.10339554 0.02565495 -0.07739274
0.09782547 0.030446267 0.10723109 -0.084910624 0.15970045 0.029207978 0.072708376 -0.0933432
0.05139527 -0.10556561 0.039919876 0.050288856 -0.013901959 -0.08949274 -0.055906955 0.16820979
-0.03561027 -0.09225379 0.05879892 -0.106955424 0.04977849 0.11010921 0.01697933 -0.06516806
-0.034893535 0.06420246 -0.0049663293 0.037238408 0.013345399 0.018610338 0.008061256 0.034590468

linear2.weight f4 [256, 256]
00000000: 015a 2a3b bcbb 0f3d c91b 483e 6864 ad3e
00000010: 72cf 64bb fd41 1cbe 57cb f63e 5c6a 02bc
00000020: fce9 80bd f2c2 643d e2c1 e63e 9fdb 373d
00000030: 763d 263d c811 6cbe 1bf9 7e3e aa2e 553e
00000040: ee45 313d 9a38 e9bd 7a81 eebd 7d3c 86bc
00000050: 70f7 3cbe ce89 5c3d cc7b 0d3d 81f4 c8be
00000060: 150c 83be 4e2f 963e c0fd d0bd ba2c e03c
00000070: 1d1b e5be ee4a 143c b4e3 d33e 447a d3bc
00000080: ddd5 07bc 8b82 ecbc abf3 e2be f506 0bbe
00000090: a978 513d 7716 b93c 6154 593d 9ff6 3f3d
000000a0: 9887 483d be9f 1cbd 9653 273d 1e83 1abc
000000b0: 700e 0e3c 78b4 c9bc 86d0 14bd 77bf a1be
000000c0: 7168 583e 2b31 c63e b1b4 0a3e f0f8 29bc
000000d0: d547 113f 08d9 4fbc 4b4c f4bd ac2f cebc
000000e0: 5421 74bd 8001 70bc 48cc 903c 3a1f 393d
000000f0: c91b c83e b969 983d 0e96 a1bd 2056 c73c
00000100: d37f 77bd 6f79 9bbe c6b4 293d 00d2 363b
00000110: 1c35 0ebe 1479 b3bd 6b68 813e 98ef 2d3c
00000120: 5b10 f83c 2225 d83d f0e7 9e3c c01b 033b
00000130: 7eb0 2d3d ee29 26bd eb0c 7d3e 23bb e7bd
00000140: 4cdc 8e3d 15c5 923e 0543 04bb 7004 3fbd
00000150: a675 2cbe 9466 0f3e 96c1 163d 0c02 dcbe
00000160: b7c3 323d 358a 943c 660c 4e3d dcbe 76bc
00000170: ad97 9b3c 66b1 08be 4e67 15bd c009 663e
00000180: 5f87 2bbd 0238 b43e ea21 edbd 1f8d 29bd
00000190: 2453 063d cd75 04be 2142 db3b cf1b fa3c
000001a0: 759f 853d ea77 673d 4c79 f9bc 5492 43bd
000001b0: 5835 83bc c019 703e b98f 873d a38d 763c
000001c0: ebe7 7ebd 8c3d a2be f095 463d 1393 f93d
000001d0: 807a d3be 1947 41be 327e 64bd 4edc 80be
000001e0: d635 c03d 4466 25be d663 71bd 53e2 713c
000001f0: e5cb 0ebb 09ae 32bd 6174 43bd f148 573d
00000200: 13b1 2a3f 5075 513d 790a bdbe a381 f8b8
00000210: 082c 203c a49e 08be 1099 c63c 1ab2 5cbe
00000220: 9ecb 29bd 1e15 24be 7a72 83be 708b 0d3d
00000230: 223d 5c3d e7c4 24bc 5f1b bd3d 4329 633d
00000240: 9890 67bd be9f 1cbd ae88 03be b893 ffbc
00000250: d7c8 a13e ce55 9abc 1607 a1bc f99c 3bbe
00000260: 60ed ffbb 0534 5c3e be87 a0bb dbe4 f83e
00000270: 1576 9b3e 357a 1f3e 2b75 75bc c809 223d
00000280: ceb3 373d 0e4d 73bd 83fc 86be 445f 78bc
00000290: aa85 ecbc e29f 59bd e7a5 253a 6159 54bc
000002a0: 55af 063d a7d4 31bd 6d18 43be b8dc 4b3c
000002b0: 8e6c 2abd fcc6 86bc adb6 1abd 50d3 bf3c
000002c0: 65e1 993e a835 02be 4ea6 5a3d b4c0 313d
000002d0: 03bf 67bc c031 cfba eae2 b7be 0a91 7cbe
000002e0: 95df 033e 5349 fe3d 7bc6 6fbd 56c5 ac3e
000002f0: 3a7a 68bd 476c 2c3d 7e88 233e 405f c6bd
00000300: f104 5a3e cf18 80bc 26d2 a73c ed0e 05bd
00000310: 107d fabc ce82 84bd 8ed5 9ebd 57fa a2be
00000320: 047a ffbc 8d3e 083d b67e 083d 3258 363d
00000330: 589a ce3c 22fd 593c 24ca 563d 14bd 0b3e
00000340: 02ec ec3d 208f 67bb 601c 7e3c b028 9f3b
00000350: 00fe 783d 797e 49bd 440c f1bc 42f9 ef3c
00000360: 20db d8be 6f20 b23e 51ec fa3e e0d1 42bd
00000370: 2b8f 793d 2838 493d 775b 6fbe 7a35 7f3d
00000380: 2dda 923c 8aae 54bc 9587 963d a299 dbbc
00000390: 6bbe bebe ce96 a4bc d95d 30bf c27e 00bd
000003a0: c76f 3a3e ce7c d2bd 6e37 2a3d 16b1 a6bd
000003b0: 9804 9ebc 5ee5 ac3c 43f4 f43d cae7 dfbd
000003c0: 3b0f 513e 42f8 05bd 9e80 90bd 19d0 d73b
000003d0: 8415 7dbd c64e 5cbd 2174 dbbc 6955 5a3c
000003e0: 2e73 763d 6d52 99bd a229 dd3c ce64 24bc
000003f0: 696c 523d ee06 973d 0350 6dbc 7331 f63c
0.0025993588 0.035091147 0.19541849 0.33865666 -0.0034913686 -0.15259548 0.4820201 -0.007959928
-0.06294629 0.055849977 0.45069796 0.04488718 0.040585957 -0.23053658 0.24899714 0.20818582
0.04327958 -0.11387749 -0.116457894 -0.016386265 -0.18453765 0.05384236 0.03454189 -0.39249042
-0.25595155 0.29332966 -0.10204649 0.027365077 -0.44747248 0.009051068 0.4138466 -0.025815137
-0.008290735 -0.028870841 -0.4432653 -0.13576873 0.05114046 0.02259372 0.053058986 0.046866056
0.048957437 -0.03823828 0.040851198 -0.009430675 0.008670434 -0.024622187 -0.036331676 -0.3159139
0.21133591 0.38709387 0.13545491 -0.010374293 0.5675023 -0.012686022 -0.11928614 -0.025169216
-0.059602097 -0.014648795 0.017675534 0.045195796 0.39083698 0.0744204 -0.07889949 0.02433306
-0.060424637 -0.30366084 0.041432165 0.0027896166 -0.13887447 -0.08763328 0.25274977 0.010616206
0.030281236 0.105539575 0.019397706 0.0020005554 0.042404644 -0.04056733 0.24711959 -0.1131499
0.06975612 0.28665987 -0.0020181548 -0.04663509 -0.16841754 0.14003974 0.03680571 -0.42970312
0.04364368 0.018132308 0.050304793 -0.015060153 0.018993223 -0.13348922 -0.036475472 0.22464657
-0.041877147 0.3519898 -0.11578734 -0.04139435 0.032794133 -0.12935562 0.006691233 0.030530838
0.06524555 0.056510843 -0.030453347 -0.04774697 -0.016016647 0.23447323 0.0661921 0.015048417
-0.062232893 -0.31687582 0.048482835 0.12186255 -0.41304398 -0.18874778 -0.05578441 -0.2516808
0.093852684 -0.16152292 -0.0589331 0.014763433 -0.002178901 -0.043623004 -0.04771841 0.052559797
0.66676444 0.05113727 -0.36922053 -0.00011849708 0.009776123 -0.13341767 0.024242908 -0.21552315
-0.04145395 -0.1602368 -0.25673276 0.034556806 0.05376924 -0.010056711 0.09233736 0.055459272
-0.05653438 -0.03823828 -0.12845108 -0.031198367 0.3159854 -0.018839743 -0.0196567 -0.18321599
-0.0078102797 0.21504219 -0.004898994 0.48612103 0.30363527 0.15573962 -0.014981548 0.03956011
0.04484921 -0.059399657 -0.26364526 -0.015159432 -0.02887233 -0.05313099 0.0006318972 -0.012960763
0.032882053 -0.04341569 -0.19052286 0.01244276 -0.041607432 -0.016452305 -0.03777187 0.023416191
0.30054775 -0.1271578 0.053381257 0.043396667 -0.014144662 -0.0015807673 -0.3591531 -0.24664703
0.12878259 0.12416329 -0.058538895 0.33744305 -0.05675719 0.04209545 0.15970036 -0.09686136
0.21290947 -0.01563683 0.020485949 -0.032484937 -0.030577213 -0.064702615 -0.07755576 -0.3183162
-0.031186111 0.033262778 0.033323966 0.044517703 0.025220081 0.0133049805 0.05243887 0.13646346
0.115684524 -0.0035333112 0.015509695 0.0048571452 0.06078911 -0.04919288 -0.029424794 0.02929366
-0.4235468 0.3479037 0.4900842 -0.047563434 0.06092755 0.04912582 -0.23374735 0.06230686
0.0179263 -0.0129810665 0.07350079 -0.026806656 -0.37254652 -0.02009144 -0.688932 -0.031370886
0.18206702 -0.10277711 0.041556768 -0.08139245 -0.0192893 0.021105465 0.11960652 -0.10932882
0.20415966 -0.03270746 -0.07055782 0.0065860865 -0.061788097 -0.05378606 -0.026788773 0.013326027
0.060168438 -0.074864246 0.026997391 -0.010033799 0.05137292 0.073743686 -0.014484408 0.030052876

linear2.bias f4 [256]
00000000: 3e66 4e3a bcbb 76bc 46da 8ebd 411a c5bc
00000010: f333 84be 3bc7 9fbe aff0 a1bc d417 74be
00000020: ec7e 033d 3538 11bd a606 99bd 6dcb 03bc
00000030: 5be5 61bc a4eb 8c3d 78dc b1bd 2780 a4bd
00000040: e6d3 95be 2865 b5bc ed71 01bd ad22 fbbd
00000050: b130 c1bc 8b36 dfbd a679 2b3e a448 063e
00000060: f32d e8bd cc57 cb3d 2f71 30bd 3632 553d
00000070: d743 403e 353c 5fbd c24a d8bd 25e8 02bd
00000080: 7f6c 34bb 4ffa b3bd 5a4c 713d d6e3 10bd
00000090: 6717 bcbd f516 63bd c654 99bd 4674 9abd
000000a0: af18 2cbd a935 febd 1c95 7ebd c022 6dbe
000000b0: ec41 4ebd c887 36bd bc86 aebd 7726 aebd
000000c0: 81cc 2bbe 015d 953e b6dd 1dbd fadc 48be
000000d0: 0e8d f7bd 4714 aabe 76e1 93bd 2b44 60bd
000000e0: cc82 69bd 7567 86bc 980d 3bbd 60c3 babc
000000f0: a06e 3abe 2a93 eebe d9e8 7cbe 27df 3b3e
00000100: 75ef 00bd bfae 15bd a956 c63b 08dc 8bbd
00000110: aa7c 0dbd 1510 bd3d 9cb1 1a3e a235 dbbc
00000120: a5ef 1cbc e0b2 b7bd 1654 90bd 8681 9dbd
00000130: 1cf6 97be a9d7 4ebe f16b 4dbd 83e5 6b3c
00000140: 11bd 24be b5e1 d53d 4473 7dbd 6c46 c4bd
00000150: 1a90 f33d 4fc1 b83c 6312 34be 8086 abbd
00000160: cff5 a9be 7700 8bbe e446 073c 9e0b 97bd
00000170: 8213 dcbc bad1 20bd 56ba 19be c1db 25bd
00000180: f2f9 dfbd be2c 22bd 8d78 8fbd 3637 26bc
00000190: 74ac 873c 6b76 61bc ac79 073d ef1b a0be
000001a0: d542 f6bb 32b7 f1bd 660b 13ba c6fd 1aba
000001b0: 1471 1c3d df9a 2ebd 148d fabb 7a03 39be
000001c0: 1942 1cbd 7cd4 f5bb a9e0 f4bd 2c4b 63be
000001d0: de45 1fbd 9174 a23c 2eff 16bf cb92 62bd
000001e0: 239a 203e 9f11 ad3d bf84 2dbc 684a dbbc
000001f0: 9d87 133c 2c4b 27be 2298 6e3c 0ca9 1dbe
00000200: ebba 68bd 5068 78bd 2bf9 29bd 53ed 4bbd
00000210: d4e5 47bd f734 4abf 0144 09bd b0e0 38bd
00000220: 5b12 12be 867e 11bd 2a98 eb3b 54a2 4b3e
00000230: 481f 3dbd 226d c3bd 4a3e 793e e8bf 3dbe
00000240: 464f 1cbc 8584 bebe e72e 90bd 5997 473e
00000250: 07df 353d 06a8 89bd deeb 94bd 05d9 84bb
00000260: 4601 10bc 5fd4 623d 2bdb 64bd 7733 48bd
00000270: 512d 23ba 0bc8 efbc 0203 adbd a78a 483e
00000280: 776f 26bd e448 76bc 6741 c0be 02ad 20be
00000290: 592f 45bc f183 bf3c 064d 2c3d 42bc dcba
000002a0: cf75 0bbe 8214 003d fb85 67bd 855a 173d
000002b0: f094 a7bd 3bfd 95be 6559 06bd a174 79bd
000002c0: 3674 58bd 5af7 5ebc 8f38 a2bc 14a3 55be
000002d0: e750 2fbd 7f8e a2bd 8a0f d1bd e398 01bf
000002e0: ddc2 81be 71d8 37bb 68b6 f2bd 4cd4 6ebd
000002f0: c588 01bc 6c71 1e3c a08d 913d 2f1f 8cbc
00000300: 11cc 6b3e 36b0 af3c c750 cc3c e765 74bb
00000310: e78b 21bd 99cd 1ebc 6f60 aabd 365e fa3d
00000320: 9f09 a8ba d83c b0bd d181 4dbd 786f 8dbe
00000330: 7dc8 903c 6d1b 1e3d d04d c5bd 9221 5cbd
00000340: d0e3 c53c 5bbf ea3e 9513 88bd 1b5b c6bc
00000350: 453f 8ebd 8a2d 1d3e bd50 8cbe fe03 9ebd
00000360: 0e7c 66be ca3f 5bbd 9da3 86be 2f6d a0ba
00000370: a215 103e 18da 4dbd 6b67 84bd 4564 8cbd
00000380: 63c3 b0bd 9668 97bd 811a 8a3d 7581 8abd
00000390: 910d 463e e2dd dcbc aca7 77bc dd56 c8bc
000003a0: 791e c0bd 710e 4ebb 5127 0f3d a059 3cbd
000003b0: 2920 cdbd 00ed 873d 354e 05bd 1a9d 53bd
000003c0: cfb9 06bf 4eaa 0e3d 04f2 043c ff6e a1bd
000003d0: c7dd f03c 2aa4 d0bd 80ad 90be 8bfd 64bd
000003e0: 5ee5 02be 7dba 0abc 5531 02be deec 98bd
000003f0: 4fcb 2ebd 766c 9abd 2ca3 7ebd a0e7 35bd
0.00078735116 -0.015059408 -0.06975226 -0.02406037 -0.25820884 -0.31206688 -0.019768087 -0.23837215
0.032103464 -0.035453994 -0.07471971 -0.008044106 -0.013787593 0.068808824 -0.08684629 -0.080322556
-0.29263228 -0.022142962 -0.03160279 -0.12262473 -0.023582788 -0.10899075 0.16745624 0.13113648
-0.11336889 0.09928855 -0.04307669 0.052049838 0.18775879 -0.054500777 -0.10561134 -0.03195967
-0.002753049 -0.08787977 0.058910705 -0.03537353 -0.09184151 -0.055441815 -0.074868724 -0.07541709
-0.042015728 -0.124125786 -0.06215392 -0.23157787 -0.050355837 -0.044563085 -0.08521792 -0.0850343
-0.16777231 0.2917252 -0.03854152 -0.19615546 -0.12087451 -0.33218595 -0.07220738 -0.05475251
-0.057009503 -0.016406754 -0.04566726 -0.02279824 -0.18206263 -0.46596652 -0.246982 0.18346845
-0.031478364 -0.036543604 0.006052811 -0.06829077 -0.034542717 0.09231583 0.15106815 -0.026758973
-0.00957862 -0.089696646 -0.07047288 -0.0769072 -0.29679954 -0.20199455 -0.05015177 0.014397982
-0.16087748 0.10443441 -0.061877504 -0.095837444 0.118927196 0.022553114 -0.17585139 -0.08375263
-0.3319535 -0.27148792 0.008256648 -0.07375263 -0.02686477 -0.03926251 -0.15012488 -0.040492777
-0.10936345 -0.03959345 -0.07005415 -0.010144999 0.016561724 -0.013761143 0.03307502 -0.31271312
-0.007515291 -0.1180252 -0.00056093035 -0.0005912449 0.038193777 -0.042628165 -0.0076462124 -0.18067732
-0.038148973 -0.0075021368 -0.11956913 -0.22196645 -0.03888499 0.019830974 -0.58983123 -0.055315774
0.15683798 0.084506266 -0.010590731 -0.026768878 0.009004501 -0.1633727 0.0145626385 -0.15396518
-0.056818884 -0.060646355 -0.04149739 -0.049786877 -0.048803166 -0.7898707 -0.03351212 -0.045136154
-0.14264815 -0.035521053 0.00718977 0.19886142 -0.04617241 -0.095423 0.24340168 -0.18530238
-0.009540385 -0.3721048 -0.07040196 0.19491328 0.04440215 -0.06721501 -0.072715506 -0.004054191
-0.008789366 0.055378314 -0.055873077 -0.048877206 -0.0006224709 -0.029270193 -0.08447839 0.19584142
-0.040633645 -0.015032027 -0.37549898 -0.15690997 -0.012035214 0.023378344 0.042065643 -0.0016840773
-0.13619159 0.031269558 -0.056524258 0.03695156 -0.081827044 -0.29294762 -0.032800097 -0.06090224
-0.052845202 -0.013608778 -0.01980236 -0.2086299 -0.042801764 -0.07937335 -0.10208042 -0.5062391
-0.2534398 -0.0028052593 -0.118511975 -0.05830793 -0.007906144 0.009670597 0.07107091 -0.017104713
0.23027064 0.021446329 0.024940861 -0.0037292184 -0.039440062 -0.009692573 -0.083191745 0.122250006
-0.001282025 -0.08605355 -0.05017263 -0.27624106 0.017673725 0.038600374 -0.09633982 -0.053742953
0.024156481 0.45849118 -0.0664436 -0.024213364 -0.069456615 0.15349403 -0.27405348 -0.07715605
-0.2250826 -0.05352763 -0.26296702 -0.001223957 0.14070752 -0.05025682 -0.06465038 -0.068550624
-0.08631017 -0.07392995 0.067433365 -0.06762973 0.19341113 -0.02696127 -0.01511566 -0.024455482
-0.09380812 -0.0031441713 0.034949604 -0.04598391 -0.100159 0.06637001 -0.032545287 -0.051663496
-0.5262727 0.034830384 0.008114342 -0.07882499 0.029402627 -0.10187562 -0.2825737 -0.05590586
-0.12782809 -0.008467314 -0.12714131 -0.07467054 -0.04267436 -0.075402185 -0.06216733 -0.044410348

linear3.weight f4 [2, 256]
00000000: bb7c 3bbf 0171 5b3c 4a28 32bf 6f7e 333d
00000010: f04d ec3e 8c48 56bd 5dc8 033d b334 46be
00000020: 6552 1c3d 3b6e 6c3d 889f 4abc e970 fb3e
00000030: 953e 053d 0fc8 c03f 281e 45bd b0cf 4c3d
00000040: ca4f d0be f5be 9fba f282 de3c 2c06 ffbe
00000050: ab12 623d ff46 a43e eeea 3e3f df80 aa3f
00000060: 492d dc3d 1a05 ee3f 1003 c63c 82ee 62be
00000070: d05b 79bf 5b3c 18be 0cdb 893e b717 3ebc
00000080: 7a9f c93e 4e5e 58bd 0ed0 cebf a20c 66bd
00000090: 56e9 19bf 68d0 cabd b74d b5ba 3ec2 293c
000000a0: 7089 c6bc 2133 28bd 264e 24bd d470 30bf
000000b0: 6730 f83f c378 7a3c 6e0a 31bf 49e5 4e3c
000000c0: 6e72 b7bf 051b 96bf c6d2 9d3b 6c47 86bd
000000d0: 3a1b c93f 8186 4dbf a5da 173d 6e56 a9bc
000000e0: 6bc5 e3be c7c9 2bbd a4c8 81bc e579 0b3d
000000f0: 3515 0cbf 4930 863f 8299 893f 5169 9e3d
00000100: 84a2 0bbd 5bc0 febe 2cd0 833d 78b5 d73e
00000110: 1d30 23bf 1f1a acbd b415 773f 0374 673b
00000120: 288f 05c0 aa97 b53e c418 0abd 30bc 493c
00000130: 7d73 9abf 6302 54bd bc29 86bd cede 98bb
00000140: 7444 b03d ab68 bd3f 794a 5abd 0ddf cc3f
00000150: 7cd3 883e 774c 30bd fc36 95bf 6698 e2be
00000160: b171 4bbf c4da 8bbf 83d3 6e3b 9028 463c
00000170: 9f52 39bc ba86 a93f fa10 ee3d eccf a73e
00000180: f413 a23e 5096 c1be 95c0 19bc 6865 4f3d
00000190: 59f5 563d 3f02 303c ec7a 8cbc db22 77bf
000001a0: 5eb7 4a3f 8854 fd3e 447d 0c3d 765e 94bd
000001b0: 3dd9 72bf 9264 d53a 9fba b0ba 500b c13e
000001c0: 22b4 88be b474 093c ffa3 1940 c7e2 6bbe
000001d0: 186d c23c a794 d33f cbc6 90bf 6912 c8bc
000001e0: 759f 14c0 8e09 f0be f8cd c2bc 4809 96bd
000001f0: 7e75 223b 3692 f33f a8e7 323d 1c6c bbbe
00000200: 38b7 9f3f 2e65 07bf f1eb 033f 8b0c 95be
00000210: 71d8 68bd df31 9abf 169a 3bbe c62e 313f
00000220: 1812 4dbd 33d1 6b3c 6475 793d 3bff 493f
00000230: e3c7 653d 40c4 303f d75c 9cbf afe2 80bf
00000240: e7e4 a73b 2319 9cbf 184b ea3f 3454 a93f
00000250: 4ba5 faba d935 0e3f 701f 47bd 1bd6 ef3c
00000260: a9e2 503d 6f97 8abf c7e8 2a3d 9ef2 013f
00000270: bf06 1440 bc18 8d3c 3bc6 b2bf 163d 62bf
00000280: a842 c1bc 6929 59bd 57db cdbf 46f6 113d
00000290: 3cbb 743d 0b8b 3bc0 b88c b73c 16e2 223d
000002a0: 68d6 b8be a55d 17bd 7ed5 2b3d a502 093c
000002b0: 0bee b43f b1ca f43f 7a4c 62bd 341b 52bd
000002c0: 5239 dc3e 1eb4 afbd 31dc 4c3d 3f65 de3f
000002d0: ca0a e8bc e245 eabc b176 ee3e 87db 783f
000002e0: cca2 21bf 221f 2040 add0 073d 327b 58bd
000002f0: 2698 d23e ae04 3fbf bd5f 02bf 5f90 f7be
00000300: ee44 1a3f 6136 debc 190c d2bf f5eb d5bd
00000310: de59 243c 2f8d 44bf 63a4 d53e c285 e33f
00000320: 857e 113d 98e5 c93c 9264 553a 8bdd 39bf
00000330: fa4e ecbb 212e 563d 3e3a 163e 28d0 383c
00000340: 39e4 d03c 3dd6 1bc0 f0c8 31bc 0a7a 2ebf
00000350: cdeb 013c 12ac 15c0 a9c7 48bf 6233 ebba
00000360: 668c acbf 7cd7 01bc b8ab 4fbf ae69 2b3d
00000370: f3f2 123f ce46 10bc 4f44 913e 3d41 993c
00000380: a23e e63d b756 273a 9dc3 a83f c614 2c3d
00000390: 4a11 323f 8dbc 983e b839 49bd cbc0 523e
000003a0: 5f50 b03d bc55 07bd 2b2d 70be 02e2 dd3c
000003b0: 876d 313d 62b2 eebf e11a 54bd f59f 073c
000003c0: 3a93 8d3f 8a66 953f 1d74 903d 2c49 743a
000003d0: bef3 0b3f cd08 923d b9cf 843f 5824 32bd
000003e0: 1774 6a3d 05b7 92bc 74f0 043e 18cb 433c
000003f0: 549d 09bc 56a4 253d a592 8a3b 0956 d0bb
-0.732372 0.013393641 -0.69592726 0.04382175 0.46153212 -0.05231528 0.032173503 -0.1935604
0.038164515 0.05772231 -0.012367137 0.4910958 0.032530386 1.5061053 -0.048124462 0.050002754
-0.40685874 -0.0012187647 0.027162049 -0.49809396 0.055193584 0.32085416 0.74577224 1.3320578
0.10750825 1.8595307 0.024171382 -0.22161296 -0.9740572 -0.14866774 0.26924932 -0.011602334
0.39379483 -0.05282431 -1.6157243 -0.05616439 -0.6012167 -0.099030316 -0.0013832365 0.010361252
-0.024235457 -0.041064385 -0.04011359 -0.6892216 1.9389771 0.015287581 -0.6915654 0.012627908
-1.4331796 -1.1726996 0.004816386 -0.065565914 1.5711434 -0.8028336 0.03707375 -0.020671096
-0.44486555 -0.041940477 -0.015842743 0.034051795 -0.5471986 1.0483485 1.0749972 0.07734931
-0.034090534 -0.4975613 0.0643619 0.42130637 -0.6374529 -0.0840342 0.9651749 0.003531695
-2.0868626 0.35467273 -0.033715025 0.012312934 -1.2066494 -0.05176009 -0.06550929 -0.0046652323
0.086068064 1.4797567 -0.05329368 1.600557 0.2672385 -0.043041673 -1.1657405 -0.44256896
-0.79470354 -1.0926137 0.0036441989 0.012094632 -0.011311202 1.324424 0.11624332 0.3277582
0.31655848 -0.37809992 -0.009384294 0.050633818 0.052480076 0.010742723 -0.017148457 -0.9653756
0.79186046 0.49478555 0.03429915 -0.072445795 -0.9486273 0.0016280583 -0.0013483352 0.37703943
-0.2669993 0.008389641 2.4006345 -0.23035727 0.02373366 1.652974 -1.1310667 -0.024422841
-2.3222325 -0.4688229 -0.023779854 -0.07325989 0.002478927 1.9028995 0.043677956 -0.36605918
1.2477789 -0.5288876 0.51531893 -0.29111132 -0.05684704 -1.204647 -0.18320498 0.69211996
-0.050066084 0.014393139 0.060902968 0.78905076 0.05609883 0.69049454 -1.2215832 -1.0069178
0.005123723 -1.2195171 1.8304167 1.3228822 -0.0019122747 0.55550915 -0.048613966 0.029276898
0.05099741 -1.0827464 0.0417259 0.5076083 2.3129117 0.017223708 -1.3966745 -0.8837446
-0.023591354 -0.053018007 -1.6082562 0.035635255 0.059748873 -2.9303615 0.022405967 0.039766394
-0.3610108 -0.03695454 0.04195165 0.008362447 1.4135145 1.9124357 -0.055248715 -0.051295474
0.43012482 -0.085792765 0.05001468 1.7374648 -0.028325457 -0.028597776 0.4657493 0.9720997
-0.63139033 2.5019002 0.033157993 -0.052851863 0.41131705 -0.74616516 -0.50927335 -0.48352334
0.6026143 -0.02712554 -1.6409942 -0.10445396 0.010031192 -0.7677793 0.4172698 1.7775195
0.03552105 0.024645612 0.00081402913 -0.7260367 -0.007211563 0.052290086 0.14670655 0.011280097
0.02549945 -2.434951 -0.01085113 -0.68154967 0.007929754 -2.3386273 -0.7842966 -0.001794439
-1.3480346 -0.007924911 -0.81121397 0.04184883 0.5740196 -0.008805944 0.28372428 0.018707866
0.11242415 0.0006383466 1.3184696 0.042012 0.6955763 0.29831353 -0.04912731 0.20581357
0.086090796 -0.033040747 -0.2345473 0.027085308 0.043317344 -1.8648188 -0.051783446 0.008277883
1.1060555 1.1671917 0.07053397 0.0009318765 0.54668796 0.07130585 1.0375892 -0.04349169
0.05723962 -0.017909536 0.1298235 0.011950277 -0.008399326 0.040439926 0.004228907 -0.0063579124

linear3.bias f4 [2]
00000000: 0ae2 88bc 77e8 0d3e
-0.016709346 0.1385821
