turtlebot3_rl_sim/src/models/td3/stage_1_improve_more_buffer_add_sn/td3_actor_model_ep1500.pt (torch_old, 343032 bytes, 6 tensors)

linear1.weight f4 [256, 74]
00000000: 1592 203e 7dc8 583e 5d74 383e fe80 363e
00000010: 7596 163e 9bed fb3d 1198 2f3d a508 a5bc
00000020: 0afc ac3c 53dd c63d 57bf 133d 5576 203e
00000030: 4a5f 493d bcea 453e ec74 d23d 4326 393e
00000040: 3e60 c73d 96e2 da3d 0c5f 083e 5980 c7bd
00000050: 60d3 04bd 6bba c2bc 49ce c13d 5fea 533d
00000060: 441d 03be 4730 e5bd 0412 a4bd 34cc 1ebe
00000070: bb76 34be 563f 35be 1ec0 b9bd 9916 f4bb
00000080: d8c6 fbbd a422 903d 48d9 7ebc 2c8f efbd
00000090: a399 dbbd 2223 d8ba 074f 61bc 845f 4ebd
000000a0: ee08 06be 742d 7fbe 6598 5bbe 885d a5bd
000000b0: 6f85 3dbe 092d 1abe 617a 9ebd bfbb bebd
000000c0: c389 37be d1da babd 90a3 7dbe f801 77be
000000d0: 1897 55be 8770 4abe 4dfa 203d b4af 123e
000000e0: 7133 dd3d 4a69 193e 685a 1c3e b972 1c3e
000000f0: 1d01 cd3d c2fc 7b3d ee28 163e 6063 f43d
00000100: 9f8b 06be 7484 ccbd d6a2 cfbd 69c9 cdbd
00000110: e03c be3d f5fe 153e c610 033e c10d 3a3c
00000120: 1895 d6bd 8e5e 373e 9d23 133d 90b7 c33d
00000130: 577a acbb c441 ffbd 6b63 60bd d341 793d
00000140: 9fbc b83d f7ad 3f3b e524 153c 17aa 3c3d
00000150: 0bbe e0bd 9036 cc3d 7dfd 03bc 69fa 4bbd
00000160: 0494 833d 4b15 e0bd fef7 9fbd 8b79 61bd
00000170: 7f37 a4bd 00c5 cd3a b4b3 8b3c 2cc9 8039
00000180: df0c 353c 54c6 febd 8ef8 1bbc 6c71 ffbd
00000190: c2fd 683d 3071 c93d a413 823d 069a 9bbc
000001a0: 9777 a1bd eac3 d2bd 070c bb3d 1f50 2fbd
000001b0: 80d7 cc3d 2462 f7bd c4d1 003d bc89 f6bd
000001c0: 90df b4bc 6305 62bd 6ca4 833a 1603 2a3d
000001d0: 6a2a ddbd 0769 b83d 5c34 72bd 16e8 a13d
000001e0: c8f3 bdbd ce32 a43d d776 b73d d1e8 40bd
000001f0: 5ca4 70bd 6d9e 04bd ac87 8d3b 8b11 eabd
00000200: 0d9e 8fbc 38b1 b3bd ed69 133d 4aa3 59bd
00000210: ae00 97bd 6a18 803d 16a4 a43d 3aeb d3bb
00000220: ba87 6e3b 663e 97bc fc96 79bd beaa 96bd
00000230: 234a 7b3d 2b81 733d 7c9e febc ff1e a6bb
00000240: 8fa1 363c 7cf9 0c3d 5a02 723d a8a2 31bc
00000250: 53d4 26be d953 bdbe e4b1 59be 952a 51be
00000260: c8a3 c3bd 1d10 81be c3c8 48bd 4934 9fbd
00000270: cb28 debd ef36 993d 836a 0bbc 4a2c 093d
00000280: 3fc5 1b3a 1282 60be 3756 a4be b001 31be
00000290: b4f7 72be 096f 213d e436 07be b355 b6bd
000002a0: 2587 49bd e3c0 c13d bbb2 b93d 1c45 07be
000002b0: eb70 b2bc e8a7 8fbc c3e6 2ebd c013 283b
000002c0: 7a54 94bd fd1c 443d 805d ae3d 219c d4bc
000002d0: 467d 213e f2f6 c23d 1d1b 7a3d 5a70 f53d
000002e0: 9444 713d b071 d23d 3021 133e 0407 083d
000002f0: 81e0 22bd 495e 1d3e 8c4e 2ebc 9866 223e
00000300: cc50 0a3e 69fe 8b3d 30a8 163e 8413 5b3d
00000310: cb24 c93b d1e7 023e 881a b13d fea1 1c3e
00000320: bca1 e1bb 33a5 953d 9113 1a3e 4145 0bbb
00000330: 65ab 59bd 665e 243e 3241 58bd 7886 833c
00000340: acd4 133e 6b76 cb3d c266 953d c329 113e
00000350: d55a 32bc 12da b53d c00f a1bc 203c a1bd
00000360: 39bc e5bd 9323 f1bd ab36 87be c8fc 44be
00000370: 8d22 d5be d8e1 1abe c8f0 13be ad62 7ebd
00000380: 28bc 79bd cd2c 4abe a035 82bd 085b 02be
00000390: 7b39 2cbe bd24 a4bc 6a01 06be d385 15be
000003a0: ebe1 22be b94b 08be 74c8 423d 5672 17be
000003b0: 0485 dfbd fc33 eabd 69f4 f3bd 2cfd 743d
000003c0: 3d21 4e3d 7093 1b3e 1974 873d ae0a f33d
000003d0: cba2 713d 7122 af3d eeec 243e b4e3 983d
000003e0: c3a6 2c3e 86f7 af3d ef74 3a3d 1aac 3a3e
000003f0: a8a8 32bc fa2b 8fbc 0539 103e 4ac4 b73d
0.15680726 0.2117023 0.18013139 0.17822644 0.14705832 0.12301179 0.04286963 -0.020145724
0.021116275 0.09710183 0.036071148 0.1567014 0.04916314 0.19327825 0.10276207 0.18081002
0.097351536 0.10687749 0.13317508 -0.09741277 -0.032428145 -0.023770532 0.09463174 0.051737186
-0.12804133 -0.11190849 -0.08011249 -0.15507585 -0.17623417 -0.17699942 -0.090698466 -0.007448983
-0.12293786 0.07037857 -0.015554734 -0.1169723 -0.10722663 -0.0016489963 -0.013751752 -0.05038406
-0.13089344 -0.24919683 -0.21444853 -0.0807448 -0.18507932 -0.15056242 -0.07738186 -0.093131535
-0.17923646 -0.09123767 -0.24769425 -0.24121845 -0.20858419 -0.19769488 0.039301205 0.14324838
0.10800827 0.14981571 0.15268862 0.15278138 0.10009978 0.061520346 0.14664051 0.11933017
-0.13139199 -0.09986201 -0.1013848 -0.100481816 0.09288955 0.1464804 0.12799367 0.011355818
-0.10477656 0.17907164 0.035922635 0.09556496 -0.0052636075 -0.12463716 -0.054782312 0.06085379
0.090203516 0.0029247978 0.009103035 0.046060648 -0.10973748 0.099713445 -0.008056042 -0.049799357
0.06424716 -0.10941561 -0.07810973 -0.055047553 -0.080183975 0.0015698969 0.017053463 0.00024563947
0.011050432 -0.12440172 -0.009519709 -0.124728054 0.056882627 0.09836042 0.063514024 -0.018994343
-0.07884138 -0.10291274 0.091331534 -0.04280102 0.10002041 -0.12079266 0.031450048 -0.120379895
-0.02207926 -0.05518092 0.0010043508 0.04150685 -0.107991055 0.090044074 -0.059131965 0.07905595
-0.09275013 0.08017503 0.08958214 -0.04709703 -0.058750495 -0.03237765 0.004319152 -0.11429127
-0.01753142 -0.08774036 0.03598969 -0.05313424 -0.073731765 0.062546566 0.080391094 -0.00646725
0.0036396817 -0.018462371 -0.060935006 -0.07356785 0.06135 0.059449356 -0.03108143 -0.005069613
0.011146917 0.034417614 0.059084274 -0.010842003 -0.16291933 -0.36978033 -0.21259266 -0.204264
-0.09552723 -0.25207606 -0.049019586 -0.077736445 -0.108476244 0.07481181 -0.008509281 0.033489503
0.0005942173 -0.21924618 -0.32097027 -0.172858 -0.23727304 0.039412532 -0.13204533 -0.089030646
-0.04920115 0.09460618 0.09067293 -0.13209957 -0.02178236 -0.017536119 -0.04270054 0.0025646538
-0.07242675 0.047879208 0.085139275 -0.025953354 0.15770444 0.09519757 0.061061013 0.1198432
0.05890329 0.102755904 0.14368129 0.033209816 -0.039764885 0.15367998 -0.010638844 0.15859449
0.13507384 0.06835634 0.14712596 0.05348541 0.0061384193 0.12783743 0.086476386 0.1529617
-0.0068857353 0.073069 0.15046526 -0.0021250995 -0.05314197 0.16051635 -0.05279655 0.01605533
0.14436597 0.09934696 0.0729499 0.14176087 -0.010885914 0.08879484 -0.01966083 -0.07872796
-0.11217541 -0.11774363 -0.26408896 -0.19237053 -0.41627923 -0.15125215 -0.1444732 -0.062105823
-0.060970455 -0.19743653 -0.063578844 -0.12730038 -0.16818802 -0.02003705 -0.13086477 -0.14601831
-0.15906493 -0.13310136 0.04755445 -0.1478971 -0.109140426 -0.114356965 -0.11911852 0.059811756
0.050324667 0.15192962 0.06613941 0.11867271 0.058993142 0.08551491 0.16106007 0.07465306
0.1686049 0.08592133 0.045521673 0.18229714 -0.010904469 -0.017477024 0.14084251 0.08972986

linear1.bias f4 [256]
00000000: 0cea 5fbd 4868 35bd 3ae2 4cba fee6 b03d
00000010: a3c7 e4bd 409e c83c 743c fbbc daa2 d1bd
00000020: b8f3 c33d 610a 5d3d ea59 88bd 46af 9c3d
00000030: f2a8 603c 9dee a2bd cb5d 6fbc 6ac9 8fbd
00000040: 9c46 70bc e468 8a3d 16e1 1ebe ff19 2bbd
00000050: 499a 4ebd 715c c1bd 77ad d1bd e9c3 ba3b
00000060: 9fe8 133e e7f9 8d3d 340d f93c a877 34bc
00000070: 5352 e1bc 3597 963c 1a13 f13d 1532 9e3b
00000080: e064 37bd 94ce 863d af0e f5bd 111f 1f3d
00000090: 7552 163d 2d76 923d fd0c 903d 3ffb acbd
000000a0: d14f cdbd e3f3 e6bd 3bb9 6cbd 047b 833d
000000b0: d52d c7bd 780e da3d 2143 5f3d 793e 18bd
000000c0: 535a f73c ca5f c23d 3a54 973d cfc7 b93d
000000d0: fb9b a43d 93e4 e1bd 0858 3fbe 800f c7bd
000000e0: fae8 e33d 4c11 d4bc 6a17 dcbc fafa 913d
000000f0: 51c7 503d 4c18 82bd b730 be3d 28a9 b2bd
00000100: be4b 91bd b169 b03d 357c 0ebd fc2b 76bd
00000110: 21fb d13c 5659 b23d 95e8 25bd 249f ac3d
00000120: 89b9 cebd b41d a1bd d1f6 c6bc d0e5 b4bd
00000130: 0fc7 3e3d c898 483d 21ee df3d c330 5f3d
00000140: c51e 09be b163 383d 2251 653d 2533 03be
00000150: 21aa 523c 5fc6 2dbe 05f0 d6bd 93c4 1ebd
00000160: ef97 b53d 170e a4bc f92b dd3d 9c81 7bbd
00000170: faf5 683c 0435 de3d 5ab7 d8bd 6a2c cd3d
00000180: f4b9 f2bc aab3 ad3d 1083 b9bd 0ab4 d1ba
00000190: 3197 4bbd b920 c9bd 6733 363d ef27 f53d
000001a0: 969b 2c3e 10d5 3cbd 536f e7bd 70e7 a5bb
000001b0: f2bb 613d 7ace 383e 8aba 4d3d d3b5 6ebd
000001c0: def2 97bd aa9e 073e 8efa a33d 2125 4bbd
000001d0: ab75 f03d 5359 07be 669f a43c 9b91 213d
000001e0: e558 893d cdaf e6bb 374d dcbd 6932 4bbd
000001f0: d0fd da3b 3e0e 98bd 47a7 bbbd 905d b9bc
00000200: 85e6 f43c 902d 9bbc 8290 b93d 2c44 f9bd
00000210: 6884 293d 4480 7fbd 2023 71bd 8643 0e3e
00000220: 6dd2 8cbd ae1a 9bbd 3b87 88bd 15d9 973d
00000230: d734 29bd 1024 34bd 67d5 c93d 1296 923d
00000240: 709e a8bc 4b1a f43c 2405 4abd ba93 73bd
00000250: 4c2f db3d 4a35 633d a641 eb3b 0b3f 90bd
00000260: dee7 9dbd 36c9 65bd 09a1 d03d e4e2 063e
00000270: e34c 853d a6f4 9bbd 5b39 6dbd 0058 7d3b
00000280: 81e2 b6bd 4bf2 92bd 742c 663d 0e0f ab3d
00000290: 1d33 06bd 2c39 d0bd 1d64 02be 2df6 85bd
000002a0: f4e1 fcbb 5dfb 07be 33dc 5ebc 8d3f 0cbe
000002b0: 5408 8d3d d247 dfbd f52e 9e3d b029 373c
000002c0: e292 59bc afc5 03bc 33e2 e4bd fc7d 1cbd
000002d0: 5622 aa3d 50c3 d1bd 243b e7bd 24ad 4cbd
000002e0: 5842 26bc a88b b9bc 3f89 a6bd d3b9 7e3d
000002f0: 1857 c43d e629 10be 0903 49bd 3a3e 5bbd
00000300: b71f 21be 9e8c 273c 10dc f53d d450 833d
00000310: 8a11 d9bd dcf3 193c a052 dabc 214d d93c
00000320: 4489 71bb 5f0c b33d 1051 183c 01a8 e3bd
00000330: 9366 d8bd a48f 773d c431 8bbd 4c39 8c3d
00000340: de42 85bd c60c 99bd b21f 48bd 7161 d53c
00000350: 2848 26bc 17da b43c b1b5 48bd ec93 a93d
00000360: c81c e2bd 235e 863c 1c6e 56bc 86dc ab3d
00000370: 158f 82bc 0ac1 d3bd d97a 513d 1680 9ebd
00000380: b858 c83d 736a f93c f99b db3d 9fe5 adbd
00000390: 9798 da3d 9245 ef3c 7636 183d b82a bfbd
000003a0: d983 523d 5d74 94bd 0683 233d b0fb 4d3d
000003b0: 0bc5 63bc f847 b7bd ac35 58bd dfe7 123e
000003c0: 664f a1bc 8eef bcbd 23d7 703d 720b dbbd
000003d0: 88e4 4b3d f080 e13d 3c18 8b3c d576 85bd
000003e0: 86ec 0ebd 947c 833d 97bc a2bb 4d87 183d
000003f0: a9a6 5a3c 23c5 15bc 5c13 043c bcae 0d3d
-0.054666564 -0.044288903 -0.0007815693 0.08637808 -0.1117089 0.024489522 -0.030668475 -0.102361396
0.0956797 0.053964976 -0.06657775 0.07650618 0.013712155 -0.07955668 -0.014609764 -0.070208386
-0.014665272 0.067582875 -0.15515551 -0.04177284 -0.050440107 -0.0944146 -0.10238164 0.005699624
0.14444207 0.06932431 0.030401804 -0.011014856 -0.027505076 0.018382648 0.117712215 0.0048277476
-0.044773936 0.065823704 -0.11965691 0.038847987 0.03669973 0.071514465 0.07033727 -0.08446359
-0.100249894 -0.112769864 -0.057793837 0.06419948 -0.09725539 0.10647291 0.05450738 -0.037168954
0.030194437 0.094909266 0.07389112 0.090713136 0.080375634 -0.11029925 -0.18685925 -0.09719753
0.11128421 -0.025887154 -0.026866633 0.07127948 0.050971333 -0.063522905 0.09286635 -0.0872367
-0.07094525 0.08613909 -0.03478642 -0.06010054 0.025632443 0.08708446 -0.04050501 0.08428791
-0.10093982 -0.078669935 -0.024287613 -0.08832896 0.046576556 0.04897383 0.10934091 0.054489862
-0.13390644 0.045016948 0.055985577 -0.12812479 0.012857945 -0.16970204 -0.10494999 -0.038761687
0.0886687 -0.02002625 0.10799403 -0.061402902 0.014218802 0.10849956 -0.105818465 0.10018237
-0.029629685 0.08481534 -0.09058201 -0.001599909 -0.049704734 -0.098206945 0.044482615 0.11970507
0.16856226 -0.04610163 -0.1130053 -0.00506299 0.05511088 0.18047515 0.050226726 -0.05827887
-0.0741937 0.1324412 0.08006774 -0.049595956 0.117411934 -0.13217668 0.020095538 0.0394455
0.067064084 -0.00704 -0.10756915 -0.04960862 0.006683089 -0.074245915 -0.09162765 -0.022627622
0.029895077 -0.018942624 0.09060766 -0.12171206 0.041386038 -0.062378183 -0.05887139 0.13892946
-0.06876073 -0.07573448 -0.06666418 0.07414452 -0.041310158 -0.043979704 0.098551564 0.0715753
-0.020583361 0.029797694 -0.04932131 -0.059467055 0.107023805 0.055470742 0.0071794568 -0.070432745
-0.07710241 -0.056100093 0.10186965 0.1317249 0.065088056 -0.07615022 -0.057916027 0.0038657188
-0.08929921 -0.0717512 0.056194738 0.08352481 -0.03276359 -0.10167155 -0.12733503 -0.06541095
-0.0077173654 -0.13279481 -0.013602304 -0.13696118 0.06886354 -0.109023705 0.077238 0.011179373
-0.0132796485 -0.008042737 -0.111759566 -0.038206086 0.0830733 -0.10242331 -0.11290577 -0.049969807
-0.0101476535 -0.022649601 -0.08131646 0.062188935 0.09586924 -0.14078483 -0.04907516 -0.05352614
-0.15734755 0.010226397 0.12004864 0.06411901 -0.105990484 0.0093965195 -0.026650727 0.026526036
-0.0036855498 0.08742594 0.009296671 -0.111160286 -0.105664395 0.06043972 -0.067966014 0.06846866
-0.065068945 -0.074731395 -0.048858352 0.02604744 -0.010149039 0.02207665 -0.0490014 0.08280167
-0.11040646 0.01640231 -0.013087776 0.08391671 -0.015937367 -0.10339554 0.051142547 -0.07739274
0.09782547 0.030446267 0.10723109 -0.084910624 0.106736355 0.029207978 0.037161313 -0.0933432
0.05139527 -0.07248757 0.039919876 0.050288856 -0.013901959 -0.08949274 -0.05278556 0.14346264
-0.01969118 -0.09225379 0.05879892 -0.106955424 0.04977849 0.11010921 0.01697933 -0.06516806
-0.034893535 0.06420246 -0.0049663293 0.037238408 0.013345399 -0.009141239 0.008061256 0.034590468

linear2.weight f4 [256, 256]
00000000: 9db2 65bd bcbb 0f3d 7144 5e3e e42a 773e
00000010: 72cf 64bb fd41 1cbe 6be4 a63e 5c6a 02bc
00000020: fce9 80bd f2c2 643d e735 ec3e 3371 1f3e
00000030: 763d 263d de95 9abe fc99 853e 9d1a 5a3e
00000040: ee45 313d f4f6 8abd 7a81 eebd 7d3c 86bc
00000050: 70f7 3cbe ce89 5c3d cc7b 0d3d 6f2b acbe
00000060: bb3c 6ebe 0628 ae3e 1ddc 41be ba2c e03c
00000070: 3241 00bf ee4a 143c a309 be3e 447a d3bc
00000080: ddd5 07bc 8b82 ecbc abf3 e2be 6c9e 1fbe
00000090: a978 513d 7716 b93c 6154 593d 9ff6 3f3d
000000a0: 9887 483d be9f 1cbd 9653 273d 1e83 1abc
000000b0: 700e 0e3c 78b4 c9bc 86d0 14bd c5b9 b6be
000000c0: 7168 583e 82e9 e23e 8c21 063e f0f8 29bc
000000d0: acbc 003f 08d9 4fbc 4b4c f4bd ac2f cebc
000000e0: 5421 74bd 8001 70bc 48cc 903c 3a1f 393d
000000f0: c91b c83e c6ab 0d3d 0e96 a1bd 2056 c73c
00000100: d37f 77bd c162 88be c6b4 293d 00d2 363b
00000110: 1c35 0ebe 0e38 e4bd 272a 4f3e 98ef 2d3c
00000120: 5b10 f83c 78ec 04be f0e7 9e3c c01b 033b
00000130: af72 363d ee29 26bd 6c27 833e 057b 30bd
00000140: 4cdc 8e3d c49a 2b3e 0543 04bb 7004 3fbd
00000150: a675 2cbe 9466 0f3e 96c1 163d b366 72be
00000160: b7c3 323d 358a 943c 660c 4e3d dcbe 76bc
00000170: 535f 993d 63ed 05be 4e67 15bd 1994 813e
00000180: 5f87 2bbd 4cb7 b63e ea21 edbd 1f8d 29bd
00000190: 2453 063d cd75 04be 2142 db3b 27f6 f4bc
000001a0: cca9 273e ea77 673d 4c79 f9bc 5492 43bd
000001b0: 5835 83bc 2182 4a3e 4ad7 b63c a38d 763c
000001c0: ebe7 7ebd 7e2e 82be f095 463d 1393 f93d
000001d0: 780c efbe 7798 e1bd 327e 64bd 1c3b 99bc
000001e0: fa45 ff3d 3ba3 0ebe d663 71bd 53e2 713c
000001f0: e5cb 0ebb 58a9 b13d 6174 43bd f148 573d
00000200: 59f8 fc3e 5075 513d 6d93 b3be a381 f8b8
00000210: 082c 203c a49e 08be 7638 d53c a4b4 60be
00000220: 9ecb 29bd 1e15 24be 9fd3 a8be 708b 0d3d
00000230: 223d 5c3d e7c4 24bc 16ea a93d da59 3dbe
00000240: 9890 67bd be9f 1cbd 3ada 3fbd b893 ffbc
00000250: c7df b83e ce55 9abc 28e6 febc ff2f 5cbe
00000260: 60ed ffbb f9d6 5a3e be87 a0bb a3e5 f83e
00000270: cb3f a03e 357a 1f3e 2b75 75bc c809 223d
00000280: ceb3 373d 679c 803c 1939 23be 445f 78bc
00000290: aa85 ecbc e29f 59bd e7a5 253a 6159 54bc
000002a0: 55af 063d a7d4 31bd cb56 54bd b8dc 4b3c
000002b0: 8e6c 2abd fcc6 86bc adb6 1abd 50d3 bf3c
000002c0: 65e1 993e e363 01bd 4ea6 5a3d b4c0 313d
000002d0: 03bf 67bc c031 cfba 514d a8be e2fb 8dbe
000002e0: 39a9 263e 5349 fe3d 7bc6 6fbd 56c5 ac3e
000002f0: 3a7a 68bd 476c 2c3d 7e88 233e 405f c6bd
00000300: 7786 5e3e cf18 80bc 2c16 433e ed0e 05bd
00000310: 107d fabc 73f3 b63d e547 3ebe 5218 bdbe
00000320: 047a ffbc 8d3e 083d b67e 083d 3258 363d
00000330: 589a ce3c 22fd 593c 24ca 563d 14bd 0b3e
00000340: 32fd ec3d 208f 67bb 601c 7e3c b028 9f3b
00000350: 00fe 783d 797e 49bd 440c f1bc 81ba 553d
00000360: 09f8 d2be 674b b23e 4221 ad3e e0d1 42bd
00000370: 2b8f 793d 2838 493d e8a5 69be 7a35 7f3d
00000380: 2dda 923c 8aae 54bc 9587 963d a299 dbbc
00000390: 0456 94bb ce96 a4bc 0e0e e1be c27e 00bd
000003a0: c76f 3a3e 7b3b 8f3b 6e37 2a3d 16b1 a6bd
000003b0: 9804 9ebc 5ee5 ac3c b871 023e a1ff 40bd
000003c0: 5a58 683e 42f8 05bd 9e80 90bd 19d0 d73b
000003d0: 8415 7dbd c64e 5cbd 2174 dbbc 6955 5a3c
000003e0: 2e73 763d 6d52 99bd a229 dd3c ce64 24bc
000003f0: 696c 523d c4f1 833d 0350 6dbc 7331 f63c
-0.056078542 0.035091147 0.21705796 0.24137455 -0.0034913686 -0.15259548 0.32596144 -0.007959928
-0.06294629 0.055849977 0.46134874 0.15570526 0.040585957 -0.30192465 0.26094043 0.21299215
0.04327958 -0.06785384 -0.116457894 -0.016386265 -0.18453765 0.05384236 0.03454189 -0.33626887
-0.23265354 0.3401491 -0.18931623 0.027365077 -0.5009948 0.009051068 0.37116727 -0.025815137
-0.008290735 -0.028870841 -0.4432653 -0.15587777 0.05114046 0.02259372 0.053058986 0.046866056
0.048957437 -0.03823828 0.040851198 -0.009430675 0.008670434 -0.024622187 -0.036331676 -0.35688606
0.21133591 0.44318777 0.13098735 -0.010374293 0.5028789 -0.012686022 -0.11928614 -0.025169216
-0.059602097 -0.014648795 0.017675534 0.045195796 0.39083698 0.034587644 -0.07889949 0.02433306
-0.060424637 -0.26637843 0.041432165 0.0027896166 -0.13887447 -0.11143504 0.20230924 0.010616206
0.030281236 -0.1298083 0.019397706 0.0020005554 0.044542965 -0.04056733 0.25616014 -0.04308607
0.06975612 0.16758257 -0.0020181548 -0.04663509 -0.16841754 0.14003974 0.03680571 -0.23671989
0.04364368 0.018132308 0.050304793 -0.015060153 0.07488885 -0.13078837 -0.036475472 0.25308302
-0.041877147 0.3568672 -0.11578734 -0.04139435 0.032794133 -0.12935562 0.006691233 -0.02990253
0.16373366 0.056510843 -0.030453347 -0.04774697 -0.016016647 0.19776203 0.022319455 0.015048417
-0.062232893 -0.25426096 0.048482835 0.12186255 -0.466892 -0.110154085 -0.05578441 -0.018704943
0.12464519 -0.13929455 -0.0589331 0.014763433 -0.002178901 0.08674878 -0.04771841 0.052559797
0.49408224 0.05113727 -0.35073414 -0.00011849708 0.009776123 -0.13341767 0.0260279 -0.21943909
-0.04145395 -0.1602368 -0.32973954 0.034556806 0.05376924 -0.010056711 0.082966015 -0.18491307
-0.05653438 -0.03823828 -0.046838976 -0.031198367 0.3610823 -0.018839743 -0.031115606 -0.21502684
-0.0078102797 0.21371068 -0.004898994 0.486127 0.3129867 0.15573962 -0.014981548 0.03956011
0.04484921 0.015699578 -0.1593975 -0.015159432 -0.02887233 -0.05313099 0.0006318972 -0.012960763
0.032882053 -0.04341569 -0.051840585 0.01244276 -0.041607432 -0.016452305 -0.03777187 0.023416191
0.30054775 -0.0315894 0.053381257 0.043396667 -0.014144662 -0.0015807673 -0.32871488 -0.27731234
0.16275491 0.12416329 -0.058538895 0.33744305 -0.05675719 0.04209545 0.15970036 -0.09686136
0.21730982 -0.01563683 0.19051427 -0.032484937 -0.030577213 0.08933153 -0.18582113 -0.36932617
-0.031186111 0.033262778 0.033323966 0.044517703 0.025220081 0.0133049805 0.05243887 0.13646346
0.11571731 -0.0035333112 0.015509695 0.0048571452 0.06078911 -0.04919288 -0.029424794 0.052179817
-0.4120486 0.34823152 0.33814436 -0.047563434 0.06092755 0.04912582 -0.22817194 0.06230686
0.0179263 -0.0129810665 0.07350079 -0.026806656 -0.0045268554 -0.02009144 -0.43956035 -0.031370886
0.18206702 0.0043711043 0.041556768 -0.08139245 -0.0192893 0.021105465 0.12738693 -0.047118787
0.22689953 -0.03270746 -0.07055782 0.0065860865 -0.061788097 -0.05378606 -0.026788773 0.013326027
0.060168438 -0.074864246 0.026997391 -0.010033799 0.05137292 0.064425975 -0.014484408 0.030052876

linear2.bias f4 [256]
00000000: 32bd 39bd 5879 c13a 00b0 8c3c 411a c5bc
00000010: dc6a e7bd 41c2 84be aff0 a1bc 9300 11be
00000020: 3d45 103d 2e4a 11bd 8569 88bd c67b 9fbc
00000030: 5be5 61bc 3734 debd 20f6 75bd 2780 a4bd
00000040: c7d3 5dbe 2865 b5bc ed71 01bd 8b68 083b
00000050: b130 c1bc 444a e4bd 0c2d 893c a8ac 71bb
00000060: 7a99 c0bd 0bff 273d 47f5 2abd 419f 4d3c
00000070: e75f 5c3e 14f7 a93c c24a d8bd 25e8 02bd
00000080: d6c6 ddbd 34a1 a6bd b130 f43d d6e3 10bd
00000090: 2872 a33c d279 5fbd 85ff 88bd 4674 9abd
000000a0: 1538 04bd dee7 f3bd 7236 58bd 8ebf 67be
000000b0: d551 c53b c887 36bd 2f1d e1bd 7726 aebd
000000c0: f27e 15bd 4074 583e b6dd 1dbd 3235 91bd
000000d0: c505 d1bd e92b 92be 76e1 93bd 2b44 60bd
000000e0: 5393 60bd 7567 86bc 980d 3bbd 5af7 5ebc
000000f0: c7a4 1fbe 56e7 75be 44b0 33bd 9f06 653d
00000100: 75ef 00bd 1eac 09bd a956 c63b bb17 e9bd
00000110: c7e6 f03c befc 0a3d e3f5 8d3d a235 dbbc
00000120: b48b 1abc 2bc2 2abc 53c7 69bd 8681 9dbd
00000130: 6e23 2dbe 7767 60be 96e8 24bd 70f2 a43d
00000140: 107c 91bd 20a2 83bd 4473 7dbd 8df9 6dbd
00000150: 791e da3d 4fc1 b83c 3968 0ebd 5c27 0a3b
00000160: 92c7 9abe 5676 96bd e446 073c a58b 87bd
00000170: a4f5 b1bc 43f5 1bbd 84c4 10be 8a9d 22bd
00000180: a26e debd d927 8ebc 8d78 8fbd 3637 26bc
00000190: 00cd e63d 6b76 61bc ac79 073d c242 8cbe
000001a0: 4e0c 023c 1270 ecbd 660b 13ba 1de5 923b
000001b0: cf7a 073e 7dad 08bd e06f 213c ae61 47be
000001c0: d422 073e fc50 8d3a 8809 3dbe 99d4 353d
000001d0: 1a43 1fbd dac0 0cbd f43c c1be cb92 62bd
000001e0: 51dd 843d 0816 a13d bf84 2dbc 17a7 753b
000001f0: 6dce 953c ebd3 30bd 37e3 bf3c afd7 39be
00000200: 4b78 9cbd c479 61bd c227 90bd dea9 1fbd
00000210: 9a24 61bd a34a 0dbf 0551 fa3c c45c 053d
00000220: e586 953c 867e 11bd 2a98 eb3b 1153 f93d
00000230: 481f 3dbd 96da 06be f7d6 563e 6dfd 62bd
00000240: 464f 1cbc 7558 6dbe b880 3abe c655 e93d
00000250: 07df 353d 1d64 c8bc deeb 94bd 05d9 84bb
00000260: 4601 10bc b6d6 573d 2bdb 64bd e156 80bd
00000270: 3519 3dbd 8ecd 9ebc f627 883c acc2 013e
00000280: 776f 26bd 6051 b4bb e74d d0bd 507b 19be
00000290: 592f 45bc e902 f63d e152 533d 42bc dcba
000002a0: bc53 debc 8214 003d fb85 67bd a7b5 323d
000002b0: 93a5 45be cad8 e2bd 6559 06bd 6ec4 c33c
000002c0: 7b4b 23bc e6d9 14bc 8f38 a2bc b8f3 27be
000002d0: e750 2fbd 7f8e a2bd 466e a9bd bf82 95be
000002e0: 9588 1fbe 95fe 35bd d070 72bd 4cd4 6ebd
000002f0: 7232 9fbc 73aa 593d 27c1 283e 30a2 20ba
00000300: 4887 353e 36b0 af3c c9bc f03d dc8b 3b3c
00000310: 4426 f5bc f50f 153d 376b bbbd 4d0b 613c
00000320: 9f09 a8ba c623 9dbd d181 4dbd d358 febd
00000330: 7dc8 903c 50f6 443d b998 78bd 9221 5cbd
00000340: fcfd 053d 7c54 ba3e 9513 88bd d02e 7a3d
00000350: dcf2 7ebd b9bb 203d e865 60be 0e63 9dbd
00000360: 3e0b 54be ca3f 5bbd a4b3 72be 2f6d a0ba
00000370: 2b04 13bb 18da 4dbd 6627 a6bd 5cd0 71bd
00000380: ad66 67bd 550c 84bd 775e 083e 7581 8abd
00000390: 5d3a a53d 3b82 0dbd aca7 77bc 3c9c c7bb
000003a0: 95dc 8cbd 710e 4ebb cbc9 8c3d a059 3cbd
000003b0: a038 b5bd 8536 243e 354e 05bd 8f70 3abd
000003c0: 7999 9ebe 880b 66bc ea3e e43b ff6e a1bd
000003d0: 2708 2c3d 2aa4 d0bd 1a14 89be 8bfd 64bd
000003e0: 7caf a2bd 7dba 0abc 6985 d2bd d0df 98bd
000003f0: 4c10 febc c691 93bd fa04 57bd a0e7 35bd
-0.045346446 0.0014760895 0.017173767 -0.02406037 -0.11299679 -0.25929454 -0.019768087 -0.14160375
0.03522228 -0.035471134 -0.06660751 -0.0194682 -0.013787593 -0.10849803 -0.060049176 -0.080322556
-0.21662818 -0.022142962 -0.03160279 0.0020814266 -0.023582788 -0.111469775 0.016745113 -0.0036876593
-0.09404273 0.041014712 -0.04173782 0.012550176 0.21520959 0.020747699 -0.10561134 -0.03195967
-0.108289406 -0.08136216 0.1192335 -0.03537353 0.019951895 -0.054559536 -0.066893615 -0.07541709
-0.032280046 -0.119094595 -0.052786298 -0.22631666 0.006021718 -0.044563085 -0.109918945 -0.0850343
-0.036498018 0.21138096 -0.03854152 -0.07090224 -0.102061786 -0.28549126 -0.07220738 -0.05475251
-0.054828 -0.016406754 -0.04566726 -0.013608778 -0.15590201 -0.24014029 -0.043869272 0.055914517
-0.031478364 -0.03361141 0.006052811 -0.11381479 0.029406918 0.03393244 0.06931665 -0.026758973
-0.009432722 -0.01042227 -0.057074856 -0.0769072 -0.16908047 -0.21914469 -0.040260874 0.08054054
-0.07103741 -0.06427407 -0.061877504 -0.05809932 0.106503434 0.022553114 -0.034767363 0.002108059
-0.30230385 -0.073467895 0.008256648 -0.06618432 -0.021723576 -0.038075697 -0.14137465 -0.039701022
-0.10860945 -0.017352985 -0.07005415 -0.010144999 0.112695694 -0.013761143 0.03307502 -0.27394682
0.007937504 -0.11544813 -0.00056093035 0.004482879 0.13230442 -0.033368576 0.009853333 -0.19470856
0.1319688 0.0010781582 -0.18460667 0.044392202 -0.038882352 -0.034363605 -0.37741816 -0.055315774
0.06487525 0.0786553 -0.010590731 0.0037483627 0.018286908 -0.04317085 0.023423774 -0.18148683
-0.076401316 -0.055047765 -0.07038833 -0.038980357 -0.054966547 -0.5519201 0.030556211 0.03255917
0.0182528 -0.035521053 0.00718977 0.12174047 -0.04617241 -0.13169321 0.2098044 -0.055417467
-0.009540385 -0.23178275 -0.18213165 0.11393313 0.04440215 -0.0244618 -0.072715506 -0.004054191
-0.008789366 0.052695 -0.055873077 -0.06266571 -0.046166617 -0.019385125 0.016620617 0.12671918
-0.040633645 -0.0055028647 -0.10171109 -0.14988446 -0.012035214 0.12012274 0.05159271 -0.0016840773
-0.027139537 0.031269558 -0.056524258 0.04363027 -0.19301443 -0.110765055 -0.032800097 0.023897376
-0.009966726 -0.009085154 -0.01980236 -0.16401565 -0.042801764 -0.07937335 -0.08272986 -0.29201314
-0.15579446 -0.04443224 -0.059189618 -0.05830793 -0.019433234 0.05314107 0.16479932 -0.00061276834
0.17727387 0.021446329 0.11754758 0.011446919 -0.029925473 0.03639217 -0.09151309 0.0137356045
-0.001282025 -0.07672839 -0.05017263 -0.124192856 0.017673725 0.048086464 -0.060692523 -0.053742953
0.03271292 0.3639258 -0.0664436 0.0610798 -0.062243327 0.039241526 -0.21913874 -0.07684909
-0.20707414 -0.05352763 -0.2370134 -0.001223957 -0.0022432904 -0.05025682 -0.081129834 -0.059036598
-0.056494404 -0.06447665 0.13317285 -0.06762973 0.080677725 -0.034548026 -0.01511566 -0.0060916226
-0.0687801 -0.0031441713 0.068744265 -0.04598391 -0.08848691 0.16036423 -0.032545287 -0.0455175
-0.30976465 -0.014040835 0.0069655078 -0.07882499 0.041999962 -0.10187562 -0.2677315 -0.05590586
-0.07943627 -0.008467314 -0.10279352 -0.07464564 -0.03101363 -0.072055385 -0.05249498 -0.044410348

linear3.weight f4 [2, 256]
00000000: 6d61 f7be fc7c 8e3c 628f 2a3e 6f7e 333d
00000010: 54b1 8d3e c042 7ebe 5dc8 033d 6d90 72be
00000020: 1e46 203d e26b 6c3d 889f 4abc 1bc8 693d
00000030: 953e 053d b007 aa3f 840b 39bd b0cf 4c3d
00000040: 1f1c 4fbf f5be 9fba f282 de3c 4afd 34bd
00000050: ab12 623d 02f0 673e 94b0 a23d 8008 213f
00000060: 50d9 003e 578b a83f 78a9 c63c 70cf 0b3e
00000070: b748 82bf 8f77 1abf 0cdb 893e b717 3ebc
00000080: 3539 893e 6d2a 6cbe bace cebf a20c 66bd
00000090: 4981 62be 1466 74ba 5f7f 24bc 3ec2 293c
000000a0: cd9b 06bd 8581 c3bd b825 44bd d3ca 36bf
000000b0: 8430 cc3f c378 7a3c 4b5a 80be 49e5 4e3c
000000c0: f994 9fbf 7ded 8fbf c6d2 9d3b 36a4 09be
000000d0: a8a0 393f 56ba 52bf a5da 173d 6e56 a9bc
000000e0: a35f 37bf c7c9 2bbd a4c8 81bc f1d2 d93c
000000f0: 8647 56bf 24ab 683f 368d 8d3f 39f6 f9be
00000100: 84a2 0bbd 0965 3ebf 2cd0 833d 28cc 1e3e
00000110: 733f 8abe fa2c 4c3e 3cdf 613d 0374 673b
00000120: b848 11c0 3e99 333e 7268 58bd 30bc 493c
00000130: 962d 8fbf cedd bcbd 2167 8cbd 932e 923c
00000140: 9c29 443e dc1f 6d3f 794a 5abd ff3c c93f
00000150: 8c21 ca3e 774c 30bd fcda 6dbf 2c06 b43d
00000160: 1191 41bf e3dd 93bf 83d3 6e3b 905b 4a3c
00000170: fa2b 5dbc 0d97 273f 5ddb ee3d a9e6 023e
00000180: 9425 853e 2a4a 023b 95c0 19bc 6865 4f3d
00000190: c70d 8c3e 3f02 303c ec7a 8cbc 5223 76bf
000001a0: 2d20 033f 1ef7 a33e 447d 0c3d 9cb5 03bd
000001b0: b122 51be cb59 f8bb 03f8 4b3c 784c 7b3e
000001c0: 9d82 84be 6ce4 893c 352d c43f a7f7 18be
000001d0: 186d c23c a5c2 123f ff85 50bf 6912 c8bc
000001e0: b2ea d8bf fd2f 95be f8cd c2bc 5eeb 873e
000001f0: 106c 413c c6b4 bf3f 84f3 0a3d a830 ddbe
00000200: d7ec 193f 3cd0 49bf 3e69 113f 503a c2bc
00000210: b970 bbbe 7648 46bf 151d 60be cc6d f53e
00000220: 6196 01be 33d1 6b3c 6475 793d 9f52 1a3f
00000230: e3c7 653d 9eae 003f f17d 92bf d0de c4be
00000240: e7e4 a73b 2a5c 9bbf b2cb d93f 5cf6 1d3f
00000250: 4ba5 faba ada5 e83e 701f 47bd 1bd6 ef3c
00000260: a9e2 503d 8bea aabf c7e8 2a3d acec bf3e
00000270: 133e 123f e422 8d3c 1ce0 9bbf 0f34 50bf
00000280: a842 c1bc 6929 59bd 2f23 a7bf c6a6 d8bb
00000290: 3cbb 743d 3b54 1bc0 2eb2 a13c 16e2 223d
000002a0: 15a7 403d a55d 17bd 7ed5 2b3d 3367 6cba
000002b0: 33b0 b03f c60c d03f 7a4c 62bd 93ef 89be
000002c0: 959a ce3e d839 bdbd 31dc 4c3d e628 a43f
000002d0: ca0a e8bc e245 eabc 3e8f 553e 8e5c 673f
000002e0: b271 3dbf 7c97 e33f 9808 ae3f 327b 58bd
000002f0: 2d16 a13e 9cef 373d ec4d 5bbe d718 de3d
00000300: 747f 043f 6136 debc cf7c b8bf 68ec 81be
00000310: de59 243c 7691 59be cfab 913e 4a6e 3bbd
00000320: 857e 113d 9433 0b3d 9264 553a 747c 1fbf
00000330: fa4e ecbb b12f 563d 3244 b23e 28d0 383c
00000340: 43ea fe3c 8f23 06c0 f0c8 31bc 8d23 b4be
00000350: a1a2 cd3b 9167 04c0 c49d 3bbf cfb1 2cbb
00000360: 82f8 8bbf 7cd7 01bc e776 48bf ae69 2b3d
00000370: 6045 d63e ce46 10bc 63a7 df3e 8a0a e73c
00000380: 508f bc3d 5f54 273a c1a7 3a3f c614 2c3d
00000390: 1549 083f 46a4 01bd b839 49bd 4d6a bb3e
000003a0: 4b37 6b3d bc55 07bd 7113 50bf 02e2 dd3c
000003b0: ca8f 563d 736c c7bf e11a 54bd 1c2e 72ba
000003c0: 3958 7f3f 80f4 393f eb05 fa3c 2c49 743a
000003d0: 80f4 f9be cd08 923d 51c5 633f 5824 32bd
000003e0: 41f7 dfbc 05b7 92bc 440c f13d 18cb 433c
000003f0: dde2 89bb 7ff7 363d 1627 a4bb 0956 d0bb
-0.48316517 0.017393582 0.16656259 0.04382175 0.27674353 -0.2483015 0.032173503 -0.23687907
0.03912937 0.057720073 -0.012367137 0.0570756 0.032530386 1.3283596 -0.045176998 0.050002754
-0.80902284 -0.0012187647 0.027162049 -0.044186868 0.055193584 0.2265015 0.07943836 0.62903595
0.12582898 1.3167523 0.02425073 0.1365335 -1.0178441 -0.6033868 0.26924932 -0.011602334
0.26801458 -0.23063059 -1.6156838 -0.05616439 -0.22119631 -0.0009323072 -0.010040133 0.010361252
-0.032863427 -0.09546188 -0.047887534 -0.71403235 1.5952306 0.015287581 -0.25068888 0.012627908
-1.2467338 -1.1244351 0.004816386 -0.13441548 0.72510767 -0.82315576 0.03707375 -0.020671096
-0.71630305 -0.041940477 -0.015842743 0.026589843 -0.83702886 0.9088614 1.1058719 -0.48820665
-0.034090534 -0.7437292 0.0643619 0.15507567 -0.27001533 0.19939032 0.055144534 0.003531695
-2.2700634 0.17538926 -0.05283398 0.012312934 -1.1185787 -0.092219934 -0.06855608 0.017844474
0.19156498 0.9262674 -0.05329368 1.572174 0.3947872 -0.043041673 -0.9291227 0.0879024
-0.7561198 -1.155209 0.0036441989 0.012350932 -0.013499254 0.6546486 0.11662934 0.12783302
0.26005232 0.001988063 -0.009384294 0.050633818 0.2735426 0.010742723 -0.017148457 -0.96147645
0.5122097 0.32024473 0.03429915 -0.032155618 -0.2042339 -0.0075790635 0.012449267 0.2454089
-0.258809 0.016832553 1.5326296 -0.14938222 0.02373366 0.57328254 -0.8145446 -0.024422841
-1.6946623 -0.29138175 -0.023779854 0.26546758 0.011805549 1.4977043 0.03392364 -0.43201184
0.60127014 -0.78833365 0.5680121 -0.023709446 -0.36609438 -0.77454317 -0.21886094 0.4793533
-0.12655021 0.014393139 0.060902968 0.6028232 0.05609883 0.50266445 -1.1444684 -0.38451242
0.005123723 -1.2137501 1.7015288 0.6170404 -0.0019122747 0.454389 -0.048613966 0.029276898
0.05099741 -1.3352827 0.0417259 0.37485254 0.5712597 0.017228551 -1.2177768 -0.81329435
-0.023591354 -0.053018007 -1.3057612 -0.006611678 0.059748873 -2.427016 0.019738283 0.039766394
0.04703434 -0.03695454 0.04195165 -0.00090180634 1.3803772 1.6253898 -0.055248715 -0.26940593
0.40352312 -0.092395484 0.05001468 1.2824981 -0.028325457 -0.028597776 0.20855424 0.903756
-0.7400161 1.7780604 1.3596373 -0.052851863 0.3146223 0.044906244 -0.21416444 0.108445816
0.5175698 -0.02712554 -1.4413089 -0.25375676 0.010031192 -0.21246895 0.28451392 -0.045759477
0.03552105 0.033984736 0.00081402913 -0.62299275 -0.007211563 0.052291576 0.34817654 0.011280097
0.031117564 -2.0959203 -0.01085113 -0.35183373 0.0062754904 -2.0688212 -0.73287606 -0.00263511
-1.0935214 -0.007924911 -0.7830643 0.04184883 0.41849804 -0.008805944 0.43682393 0.028203268
0.09207022 0.00063831167 0.7291222 0.042012 0.53236514 -0.031650804 -0.04912731 0.3660454
0.05742578 -0.033040747 -0.81279665 0.027085308 0.05238322 -1.5579971 -0.051783446 -0.0009238438
0.9974399 0.726387 0.0305204 0.0009318765 -0.4881935 0.07130585 0.88972956 -0.04349169
-0.02733958 -0.017909536 0.117699176 0.011950277 -0.0042079524 0.044669624 -0.005009542 -0.0063579124

linear3.bias f4 [2]
00000000: 9e8f a4bd e4c5 183d
-0.08035205 0.0372981
