turtlebot3_rl_sim/src/models/td3/stage_1_improve_more_buffer_add_sn/td3_critic2_model_ep3000.pt (torch_old, 344052 bytes, 5 tensors)

linear1.weight f4 [256, 76]
0	0x3d8dd8ec	0.0692614
1	0x3d1825a5	0.037145276
2	0x3d06d664	0.032919303
3	0xbcbe0f20	-0.023200572
4	0xbd3f3fd0	-0.046691716
5	0x3d7a8ddb	0.06117044
6	0xbda29d57	-0.079401664
7	0x3dbd72df	0.092504255
8	0xbc674203	-0.0141148595
9	0x3d9f6f45	0.07784895
10	0xbdf00f24	-0.11721638
11	0x3b651432	0.0034954664
12	0x3d97e275	0.0741624
13	0x3d5e18b1	0.054222766
14	0xbdf89914	-0.12138572
15	0xbcfa37ec	-0.030544244
16	0xbd8c8e75	-0.06863109
17	0x3d90c23d	0.07068298
18	0xbdc23281	-0.09482289
19	0x3dc863a8	0.09784633
20	0xbde49a53	-0.111622475
21	0xbcfca694	-0.03084115
22	0x3d78984b	0.060692113
23	0xbdb91678	-0.09037489
24	0xbd9f41f6	-0.07776253
25	0x3daab46e	0.083351955
26	0x3d95548d	0.072915174
27	0x3d9e8cb5	0.077416815
28	0x3cfbfab3	0.030759191
29	0xbdb88cf8	-0.09011263
30	0xbcba1460	-0.022714794
31	0xbdf751bc	-0.120761365
32	0xbdd0ecd2	-0.1020142
33	0xbdeadfcb	-0.11468466
34	0x3cdcd2e9	0.026956039
35	0x3d201036	0.03907796
36	0xbe04a4ad	-0.12953444
37	0x3d476430	0.04867953
38	0xbd6ebe6b	-0.058287065
39	0x3c640772	0.013917791
40	0x3b8faa8c	0.0043843444
41	0xbdc79951	-0.0974604
42	0x3db54c27	0.088524155
43	0xbdf2f554	-0.11863199
44	0x3d99558d	0.07487021
45	0xbd576382	-0.052585132
46	0xbd805a6f	-0.06267249
47	0xbd3c55b8	-0.045980185
48	0x3dc6cb10	0.097067
49	0xbd36e1a0	-0.044648767
50	0xbdc87669	-0.0978821
51	0xbc61b293	-0.013775486
52	0xbcf7822c	-0.030213438
53	0xbdaa790f	-0.08323871
54	0xbd7c69a4	-0.061624184
55	0x3da1465e	0.078747496
56	0xbdee9373	-0.116492175
57	0xbd802743	-0.062574886
58	0xbdf1279c	-0.11775133
59	0xbdcecdd9	-0.10097856
60	0x38d91db1	0.00010352897
61	0xbd9f3f9e	-0.07775806
62	0xbceb2233	-0.02870283
63	0xb9cba3b1	-0.00038841137
64	0xbd6ae223	-0.057344567
65	0x3da513ce	0.08060418
66	0x3caef25e	0.021355804
67	0xbd4185d9	-0.047246788
68	0x3d68cafa	0.0568342
69	0x3dcef5b0	0.10105455
70	0x3d02d94c	0.03194551
71	0xbd4ad891	-0.04952294
72	0x3cda5249	0.026650565
73	0x3bc12e58	0.005895417
74	0x3ce292ca	0.027657885
75	0x3d1cc53d	0.03827404
76	0xbf1277be	-0.5721396
77	0xbf288a87	-0.65836376
78	0xbf0fe45d	-0.5620783
79	0xbed0c68a	-0.40776473
80	0xbedcc02a	-0.4311536
81	0xbec52dc9	-0.38511494
82	0xbef2296c	-0.47297227
83	0xbeb7fba8	-0.35934186
84	0xbe8001c3	-0.25001344
85	0xbe440039	-0.1914071
86	0xbe500bd2	-0.20317009
87	0xbe65f14b	-0.22455327
88	0xbe8127b5	-0.25225607
89	0xbe5e2b72	-0.2169626
90	0xbb5fb2da	-0.0034133703
91	0xbaa923a7	-0.0012904302
92	0xbd8bccb5	-0.06826154
93	0xbddffdda	-0.1093709
94	0xbd897325	-0.06711415
95	0xbe2b1487	-0.1670705
96	0xbc924d8e	-0.017859247
97	0xbdcf2b99	-0.101157375
98	0x3bee1032	0.007265114
99	0x3d3b8f47	0.045790937
100	0xbc1b4a56	-0.009478172
101	0x3c4b1580	0.012395263
102	0x3da6ef96	0.08151166
103	0x3dd34ef9	0.10317797
104	0x3dca4420	0.09876275
105	0x3d80c544	0.062876254
106	0x3e2704ae	0.16310379
107	0x3ceed76a	0.029155452
108	0x3de8d45a	0.11368628
109	0x3df5b85b	0.11998054
110	0x3cd51d79	0.02601503
111	0xbcd60d52	-0.026129398
112	0x3d88d234	0.06680718
113	0x3cd03d09	0.025419729
114	0x3e051aa4	0.12998444
115	0x3d9b1aad	0.075734474
116	0xbc7adfe4	-0.015312169
117	0x3d2cb4ee	0.042164735
118	0x3e17a00d	0.14807148
119	0x3cb9c3e7	0.022676421
120	0x3cbf09e7	0.023320151
121	0x3e04199c	0.12900394
122	0x3d8a4b8c	0.06752691
123	0x3ccca198	0.024979398
124	0x3bd8ff39	0.006622222
125	0x3de9b6ea	0.11411841
126	0x3b72a7fb	0.0037026394
127	0x3e2e1226	0.1699911
128	0x3e0e1c1c	0.1387791
129	0x3e294c46	0.16533002
130	0x3dbfbc07	0.09362035
131	0xbde6829b	-0.1125538
132	0x3d89c2d4	0.06726614
133	0x3a7fe5d3	0.00097617245
134	0xbdfec8ac	-0.12440619
135	0xbd64bd7b	-0.055844765
136	0xbe010acd	-0.12601776
137	0xbd90bbfe	-0.07067107
138	0xbdbb9718	-0.09159678
139	0x3d4e2a90	0.05033356
140	0xbdfc77b4	-0.12327519
141	0x3cc2b430	0.02376756
142	0xbe485279	-0.19562711
143	0xbe1f5d4e	-0.15562937
144	0xbeaf5d67	-0.34250948
145	0xbec63381	-0.3871117
146	0xbee5f78b	-0.44915423
147	0xbefee274	-0.49782145
148	0xbe1852f5	-0.14875396
149	0x3c7bcfbb	0.015369351
150	0xbe0de7c5	-0.13857944
151	0x3d9b5abd	0.07585666
152	0x3e70225d	0.23450609
153	0x3e65c22c	0.22437352
154	0x3d2c9fff	0.04214477
155	0x3e01c535	0.12672885
156	0x3db03bb3	0.08605137
157	0x3dda557a	0.106608346
158	0x3dba2e2d	0.090908386
159	0x3e8a534a	0.2701667
160	0x3d15e6e4	0.036597148
161	0x3cccffa9	0.025024252
162	0xbbc2eb1d	-0.005948438
163	0x3c9525ab	0.018206438
164	0xbda71679	-0.08158583
165	0xbd1fb566	-0.038991354
166	0xbc0fdcb3	-0.008780646
167	0xbd1a6f7e	-0.037703983
168	0xbd8a322f	-0.06747853
169	0xbd825c8e	-0.0636531
170	0xbd9e5274	-0.077305704
171	0xbc3ba770	-0.011453494
172	0xbd6ae5a9	-0.057347927
173	0xbcb80c02	-0.022466663
174	0xbd03ebc9	-0.032207284
175	0xbe300df3	-0.17192821
176	0xbd3f6cb3	-0.046734523
177	0xbb9e6d48	-0.0048348047
178	0xbdeb1693	-0.11478915
179	0xbe0b4335	-0.13599856
180	0xba5f994a	-0.0008529617
181	0xbc465cc5	-0.012107079
182	0xbe52b54d	-0.20576973
183	0xbe286a2f	-0.16446756
184	0x3aecd681	0.0018069298
185	0x3c97d6e4	0.018535085
186	0xbd84a8b5	-0.06477491
187	0xbdbe1ec2	-0.0928321
188	0xbde72134	-0.1128563
189	0xbe1c9217	-0.15290104
190	0xbd922fd5	-0.071380295
191	0x3d304412	0.043033667
192	0x3da85add	0.08220456
193	0xbd58eb6e	-0.0529589
194	0x3d1aa779	0.03775737
195	0xbd207063	-0.03916968
196	0xbdcfb4e6	-0.101419255
197	0xbdc17f91	-0.094481595
198	0xbdb49575	-0.08817569
199	0xbe6f2814	-0.23355132
200	0xbe7a8dc3	-0.2446814
201	0xbe336c33	-0.17521743
202	0xbe587510	-0.21138406
203	0xbe01c3f3	-0.12672405
204	0xbe3ceed5	-0.18450482
205	0xbd4f9cad	-0.050686527
206	0x3b868a79	0.0041058627
207	0x3c677709	0.014127501
208	0x3c8bf664	0.017085262
209	0x3d494a81	0.049143318
210	0x3dad20b9	0.08453507
211	0x3d416684	0.047216907
212	0x3d8b5281	0.06802846
213	0x3db9938b	0.09061345
214	0x3d84919c	0.06473085
215	0x3e81d580	0.253582
216	0x3e9113ea	0.28335506
217	0x3e267900	0.16257095
218	0x3e8077c6	0.2509138
219	0x3ea71ab4	0.3263756
220	0x3ed131c9	0.40858296
221	0x3e428d6c	0.1899926
222	0x3e96f3b9	0.2948282
223	0x3e7cc998	0.24686277
224	0xbe59d8e1	-0.21274139
225	0xbea6a563	-0.32548055
226	0xbe94a301	-0.29030612
227	0xbddc719a	-0.10763855
228	0x3edd1526	0.43180197
229	0x3e67270c	0.22573489
230	0xbd710a9d	-0.058848012
231	0xbe06342b	-0.13105838
232	0x3b4c2354	0.0031148987
233	0xbd7be74c	-0.06149988
234	0xbe040fd3	-0.12896661
235	0xbd114723	-0.035468232
236	0xbdf47c9b	-0.11937829
237	0xbe6d0b29	-0.23148789
238	0xbe98e62c	-0.29863107
239	0xbe8136db	-0.25237164
240	0xbd9e9629	-0.077434845
241	0xbd988ae9	-0.0744837
242	0xbe4e1493	-0.20125036
243	0xbe1b0f26	-0.15142497
244	0xbd2670f9	-0.040635083
245	0xbde0fc6d	-0.109856464
246	0xbdd83440	-0.10556841
247	0xbbc3600f	-0.005962379
248	0xbde94d12	-0.11391653
249	0xbd7f5b2b	-0.062342804
250	0xbdca6b4a	-0.09883745
251	0x3c8b3283	0.01699186
252	0x3de08111	0.109621175
253	0xbd99bf6b	-0.07507213
254	0x3c98100e	0.018562343
255	0x3d5b65d3	0.053563904

linear1.bias f4 [256]
0	0x3dab1b8e	0.08354865
1	0x3dbe4d9f	0.09292149
2	0xbce37752	-0.027766857
3	0x3d3ce551	0.04611713
4	0xbd6b5950	-0.057458222
5	0xbda8f58f	-0.082499616
6	0xbc261560	-0.010136932
7	0x3e991979	0.29902247
8	0x3e117813	0.14205961
9	0xbde2e1b3	-0.11078205
10	0x3de47465	0.11155013
11	0x3e2a4476	0.16627678
12	0x3df28c05	0.11843113
13	0x3d5f821e	0.05456745
14	0xbd873ec1	-0.06603766
15	0x3dc6c8b8	0.09706253
16	0x3e0ef82d	0.13961859
17	0xbe92442e	-0.28567642
18	0x3e44ba9b	0.1921181
19	0x3eb1a2c2	0.34694487
20	0x3d6a564a	0.057211198
21	0xbe545af7	-0.20737825
22	0xbcfff63c	-0.031245343
23	0xbd817b6b	-0.06322368
24	0x3ea82eff	0.32848355
25	0x3d783034	0.060592845
26	0x3e06989b	0.13144152
27	0xbd0561a6	-0.032563828
28	0x3d766dd6	0.06016334
29	0xbdda73e2	-0.10666634
30	0xbc69dadb	-0.014273371
31	0x3d910b4c	0.07082233
32	0x3e68e624	0.22744042
33	0xbdd65212	-0.104648724
34	0xbded94c3	-0.1160064
35	0x3e1d28f5	0.15347655
36	0x3dd1a24a	0.10236032
37	0xbd4940c0	-0.049134016
38	0x3dbb970b	0.091596685
39	0xbd87f6ad	-0.066388465
40	0x3dc66e6e	0.096890315
41	0x3e04d6ac	0.12972516
42	0xbd5705de	-0.05249583
43	0x3d0f4f7a	0.034987904
44	0xbdcae15b	-0.099062644
45	0xbe318be4	-0.1733852
46	0x3e0d7615	0.13814576
47	0x3c8c9fa5	0.017165968
48	0x3d1f1d4e	0.038846307
49	0x3e4b2c58	0.19841135
50	0x3d22ca36	0.039743625
51	0xbcd62618	-0.026141211
52	0x3e63f749	0.222623
53	0xbdc437b1	-0.09580935
54	0x3e7b8746	0.24563321
55	0x3da1468a	0.078747824
56	0xbdaf0e97	-0.08547705
57	0x3cf332a0	0.029687226
58	0xbb17b560	-0.002314888
59	0x3d400432	0.046879
60	0x3d941b83	0.0723181
61	0xbdd7435d	-0.105108954
62	0x3db4b2bc	0.088231534
63	0x38b68453	8.7030836e-05
64	0xbd836c8a	-0.064171866
65	0xbe59c8ca	-0.21268001
66	0x3ea717a2	0.32635218
67	0xbe2c14c7	-0.16804801
68	0x3e2201a3	0.15820937
69	0xbc92a968	-0.017903045
70	0x3e6f854a	0.2339069
71	0x3d503996	0.05083617
72	0xbde20286	-0.110356376
73	0xba403ea7	-0.00073335547
74	0x3e708761	0.23489143
75	0x3e16de4d	0.14733239
76	0x3d843459	0.06455297
77	0x3e0afdac	0.1357333
78	0xbd0bfec8	-0.034178525
79	0x3e7f9a83	0.24961285
80	0x3e66924b	0.22516744
81	0xbd88b09d	-0.06674311
82	0x3a20e7d6	0.0006138062
83	0x3e86e976	0.26349992
84	0x3e15e8c9	0.14639582
85	0x3d804556	0.06263225
86	0x3d4d93cd	0.050189782
87	0xbd1d1d9c	-0.038358316
88	0x3d741e3f	0.059599157
89	0x3da7761f	0.08176827
90	0x3e068f8a	0.13140693
91	0xba0180d3	-0.0004940156
92	0x3c846700	0.016162395
93	0xbd04e00d	-0.032440234
94	0x3e512289	0.2042333
95	0x3cef050e	0.029177215
96	0xbd8300ca	-0.06396635
97	0x3ddd3df1	0.1080283
98	0xbdfa1140	-0.122103214
99	0xbd528e16	-0.051405035
100	0x3e650960	0.22366858
101	0x3e4a81db	0.19776098
102	0xbdfded24	-0.123987466
103	0xbe61be22	-0.22045186
104	0x3dc7eff1	0.09762562
105	0x3ddbc4dc	0.10730907
106	0xbd927c25	-0.07152585
107	0x3d8eebec	0.06978592
108	0xbd701aa9	-0.058619175
109	0x3ea020b8	0.31274962
110	0x3e159e11	0.14611079
111	0x3d5611ca	0.05226306
112	0xbdc569f1	-0.09639347
113	0x3ced0bee	0.028936353
114	0x3e0954e4	0.1341129
115	0x3ebedf7a	0.37279874
116	0xbd86606d	-0.065613605
117	0xbda9da77	-0.08293622
118	0xbda23e07	-0.07921987
119	0xba7ac37b	-0.0009565872
120	0x3d76fce5	0.060299773
121	0x3e7954f7	0.24348818
122	0x3e6e0d5a	0.2324728
123	0xbc3c47c7	-0.011491722
124	0x3dc1876b	0.09449657
125	0x3bf86bc3	0.0075812056
126	0x3df11be3	0.11772897
127	0x3d6c4bfc	0.05768965
128	0x3e1aea81	0.15128519
129	0x3df3ebe5	0.11910228
130	0x3d7c4b45	0.06159522
131	0x3df98f9a	0.12185593
132	0xbc136f91	-0.0089987675
133	0xbd85b16d	-0.06527982
134	0x3d2ccd1d	0.0421878
135	0x3e8776e6	0.264579
136	0xbd36d840	-0.044639826
137	0x3cad1748	0.021129265
138	0xbdde935a	-0.10867949
139	0x3d2c9169	0.04213086
140	0x3d94a1a9	0.07257397
141	0x3da24a86	0.079243705
142	0xbdd9cbea	-0.10634597
143	0x3e03df2c	0.12878102
144	0xbde5271f	-0.111891024
145	0xbd299dc3	-0.04141022
146	0x3e65ca59	0.22440471
147	0xbddd0d82	-0.10793592
148	0xbd982b17	-0.07430094
149	0x3e8b001c	0.2714852
150	0x3e8d5550	0.2760415
151	0x3d0dcb19	0.034617517
152	0xbe00ce78	-0.12578762
153	0x3d8265ac	0.063670486
154	0x3d502b82	0.050822742
155	0x3d8e0e0c	0.06936273
156	0x3deb7d9a	0.11498566
157	0xbd0d460d	-0.034490634
158	0xbcfe1434	-0.031015493
159	0xbdba8513	-0.09107413
160	0x3dba714e	0.091036424
161	0xbd9db44e	-0.07700406
162	0xbdf957b4	-0.12174931
163	0x3d428938	0.047494143
164	0xbcb6b9c8	-0.022305384
165	0xbe03389d	-0.12814565
166	0x3e3a88de	0.18216273
167	0xbba841df	-0.0051348056
168	0x3e7de7b7	0.24795423
169	0xbc92db89	-0.017926948
170	0x3e380b03	0.1797295
171	0x3e7c10c6	0.24615774
172	0xbbd46dff	-0.006482839
173	0x3e15f318	0.14643514
174	0x3e86214c	0.26197278
175	0x3ddd76f9	0.10813708
176	0xbb8ec2f9	-0.0043567386
177	0xbd59f971	-0.0532164
178	0x3cfe91fc	0.03107547
179	0x3bedfa80	0.007262528
180	0x3d6094a2	0.054829247
181	0x3e5ab390	0.2135756
182	0x3d326492	0.043552943
183	0x3d18790c	0.037224814
184	0x3d5c71e3	0.05381955
185	0xbd8a3fbb	-0.06750437
186	0x3da2757e	0.07932566
187	0x3d610cb2	0.054943748
188	0x3e81d541	0.25358012
189	0x3e0b5fc8	0.13610756
190	0xbe1eae6f	-0.15496229
191	0xbce35e18	-0.027754828
192	0x3c91f732	0.017818067
193	0x3d8b0f43	0.0679002
194	0x3c9b4698	0.01895456
195	0x3ed832d8	0.4222629
196	0x3ed60d99	0.4180725
197	0x3e5abc63	0.21360926
198	0xbe3867b0	-0.18008304
199	0x3d2b8056	0.041870438
200	0x3d8ecf47	0.06973129
201	0x3e24e762	0.1610389
202	0x3dc22265	0.094792165
203	0x3dad116b	0.08450588
204	0x3deb9fda	0.11505099
205	0xbdb4eff8	-0.08834833
206	0xbc3dd8e3	-0.011587354
207	0x3e70a8ab	0.23501842
208	0x3e76e201	0.24109651
209	0x3e60339e	0.2189469
210	0x3e7b1ba8	0.24522269
211	0x3dcb0838	0.09913677
212	0xbca39c07	-0.01997186
213	0xbda683c7	-0.08130603
214	0xbdcf0fd5	-0.101104416
215	0x3de190b1	0.11013926
216	0x3d4ebfc3	0.050475847
217	0x3e940896	0.289128
218	0x3e1b827f	0.15186499
219	0xbdd32272	-0.10309304
220	0xbad52700	-0.0016262233
221	0x3db79044	0.08963063
222	0x3e7fc059	0.24975719
223	0x3cccc1b6	0.024994712
224	0x3e91b16b	0.28455672
225	0x3d7cd6a2	0.061728127
226	0x3d926b3d	0.0714936
227	0x3e059bbd	0.1304769
228	0x3c00fc98	0.007872723
229	0x3dae1cd6	0.08501594
230	0x3e13ed19	0.14445914
231	0x3e279882	0.16366771
232	0x3dc53728	0.09629661
233	0x3e95395c	0.29145324
234	0xbdbd9989	-0.092578
235	0x3c927f99	0.017883109
236	0xbe37a82a	-0.17935243
237	0x3dcbe401	0.09955598
238	0xbcf9c4c8	-0.03048934
239	0xbde4d5dc	-0.11173603
240	0xbd073d85	-0.033017654
241	0x3d67dd79	0.056607697
242	0x3ca36dee	0.01994988
243	0xbe051aa5	-0.12998445
244	0x3e8d571d	0.27605525
245	0x3e15aef5	0.14617522
246	0x3e262b1b	0.16227381
247	0xbb3a2978	-0.0028406065
248	0xbd75b8ca	-0.05999068
249	0x3e69df28	0.22839034
250	0xbd7ac4b7	-0.06122276
251	0xbddf84c2	-0.109139934
252	0x3e770e01	0.24126436
253	0x3e5f786b	0.2182328
254	0x3d7fd4a3	0.062458646
255	0x3dda7c79	0.106682725

linear2.weight f4 [256, 256]
0	0xbce6040a	-0.028078098
1	0x3e9da31d	0.30788508
2	0x3d188569	0.037236605
3	0x3e4fc6b8	0.20290649
4	0x3d152e78	0.03642127
5	0x3c810d25	0.015753338
6	0xbd9415a1	-0.07230688
7	0x401bf798	2.436987
8	0x3ef23e58	0.4731319
9	0x3d68cafb	0.056834202
10	0x3be44f40	0.006967455
11	0x3f7a8212	0.9785472
12	0x3f474a27	0.7784752
13	0x3d779761	0.0604471
14	0x3ef8ae75	0.485706
15	0x3eaa79d6	0.33296078
16	0xbca72fd5	-0.02040855
17	0xc0216b17	-2.5221612
18	0x3f130651	0.57431513
19	0x3fef0a6e	1.8675058
20	0xbde6dbab	-0.11272367
21	0xc04f89c4	-3.2427835
22	0xbea77c37	-0.32711956
23	0x3d6ac8fc	0.05732058
24	0xbdd84a81	-0.105610855
25	0xbf1f918d	-0.6233147
26	0x3db0134e	0.08597432
27	0x3e64814d	0.2231495
28	0xbd9fb4d9	-0.07798166
29	0xbd545e11	-0.05184752
30	0xbd371147	-0.04469421
31	0x3e8818f7	0.26581547
32	0x3ed07b66	0.40719146
33	0xbcf8f79b	-0.030391505
34	0xbd1a5505	-0.037678737
35	0x3f99389b	1.19704
36	0x3e91b27a	0.2845648
37	0x3e508190	0.20361924
38	0x3f2b7f7f	0.6699142
39	0xbd52a31a	-0.051425077
40	0xbf01e00b	-0.5073249
41	0x3fb92487	1.4464272
42	0x3d8f3aa5	0.069936074
43	0x3f0de2e3	0.55424327
44	0xbf86df13	-1.0536827
45	0x3cb9fdcd	0.02270403
46	0x3f7eb882	0.99500287
47	0x3ef1ade2	0.47202975
48	0x3cbc6311	0.022996457
49	0x3d847f01	0.064695366
50	0x3e388272	0.18018511
51	0x3d63aa10	0.055582106
52	0x3e85506d	0.26037923
53	0xbef4d054	-0.47815192
54	0x39a569ee	0.00031550176
55	0x3e1eccb5	0.15507777
56	0xbea3cc7e	-0.31991953
57	0x3ea2add7	0.31773254
58	0xbc860410	-0.016359359
59	0x3f3224a3	0.69587153
60	0x401b13ff	2.4230955
61	0xc0210500	-2.5159302
62	0x3e5d02b5	0.21583064
63	0x3e97d30c	0.29653203
64	0x3d7cb67c	0.06169747
65	0x3e423410	0.18965173
66	0x3feee326	1.866307
67	0x3e595aa1	0.21225978
68	0x3f271201	0.65261847
69	0xbd424014	-0.04742439
70	0x3f4022b8	0.75052977
71	0x3d1796c2	0.03700901
72	0xbe07081f	-0.13186692
73	0x3faf2b30	1.3685055
74	0x3f3e3efa	0.74314845
75	0x3f4dd180	0.80397797
76	0x3e377cac	0.17918652
77	0x3f5a3629	0.8523889
78	0xbd50207a	-0.050812222
79	0x3ea5267a	0.32255918
80	0xbe977ede	-0.2958898
81	0x3cf1ed43	0.02953208
82	0xbea649f7	-0.32478306
83	0x3ebc26c6	0.36748332
84	0x3e74cd2e	0.23906395
85	0xbefc96f4	-0.49333918
86	0x3e930230	0.28712606
87	0x3e554c94	0.20829993
88	0x3f0b0812	0.5430919
89	0x3f455453	0.77081794
90	0xbfca911e	-1.5825536
91	0x3fc6aa02	1.5520632
92	0xbd8f455f	-0.06995653
93	0x3c8a2d14	0.016867198
94	0x3ef3be57	0.47606155
95	0x3ec820be	0.3908748
96	0x3c13d77e	0.009023545
97	0xb919b0f5	-0.00014657139
98	0xbe8cff32	-0.2753845
99	0x3e7a69ab	0.24454372
100	0xbecf3895	-0.40472856
101	0x3f8d9c01	1.1063234
102	0xbcad590c	-0.021160625
103	0xc01aa854	-2.416524
104	0x3d4b8eb2	0.04969663
105	0x3e3cd5c0	0.18440914
106	0x3d67e7a3	0.05661739
107	0x3d21320e	0.039354376
108	0x3e2a4cb3	0.16630821
109	0xbce070d6	-0.027397554
110	0x3dba8765	0.09107856
111	0x3f329e78	0.69773054
112	0xbcc93b48	-0.0245644
113	0x3f40d0e0	0.7531872
114	0x3e96eda6	0.29478186
115	0x3da649c7	0.08119541
116	0xbf061955	-0.52382404
117	0xbd12e46a	-0.035862364
118	0x3d2d7777	0.04235026
119	0xbe635e4a	-0.22203937
120	0xbbc916fe	-0.006136774
121	0x3fe51667	1.7897462
122	0x3f1eea95	0.62076694
123	0xbf308b73	-0.6896278
124	0x3d2df9e4	0.042474642
125	0x3d45fa78	0.04833457
126	0x3e2bb707	0.16769038
127	0x3eb632cb	0.35585627
128	0x3ef1f571	0.4725757
129	0x3ee7bd9c	0.45261848
130	0x3de1f401	0.11032868
131	0x3ee3bc86	0.4447977
132	0x3d1630f7	0.03666779
133	0xbc983ea6	-0.01858456
134	0x3ce7c8bb	0.028293958
135	0x3de6cc3d	0.11269424
136	0xbedcb21a	-0.4310463
137	0x3e3e6f63	0.18597178
138	0xbb912f9e	-0.0044307252
139	0x3e31e377	0.17371927
140	0xbe8235c7	-0.25431654
141	0x3d7111bb	0.0588548
142	0x3c599921	0.013281138
143	0x3f47500b	0.7785651
144	0x3d1857e9	0.037193213
145	0x3e939787	0.28826544
146	0x3e8de26c	0.2771181
147	0x3b76b980	0.0037647188
148	0x3dbef85a	0.09324713
149	0x3f867674	1.0504899
150	0x3e6644ab	0.22487132
151	0x3fa7dee7	1.3114899
152	0x3ddb2d67	0.10702019
153	0x3e301d97	0.17198788
154	0x3f2119f0	0.629302
155	0xbf01bf45	-0.5068248
156	0xbef9a69c	-0.48759925
157	0x3cc05dc1	0.023482205
158	0xbc82916d	-0.015938485
159	0x3ee22a66	0.44172972
160	0x3f4ec4a4	0.807688
161	0xbd63becb	-0.055601876
162	0xbcd9c73a	-0.026584256
163	0x3e12c385	0.14332397
164	0x3d00299a	0.031289674
165	0xbd588559	-0.052861545
166	0x3d401a4a	0.04690007
167	0x3c98059e	0.018557366
168	0x3e1512ae	0.14557907
169	0x3dfcf096	0.123505756
170	0x3f21bc31	0.6317778
171	0x3e983c44	0.2973348
172	0x4006fc5f	2.1091535
173	0xbde4a32a	-0.111639336
174	0xbfb78b66	-1.4339416
175	0xbcb817c7	-0.022472275
176	0x3f588a36	0.84585893
177	0x3f0fbd4e	0.5614823
178	0xb8d8bc0a	-0.000103347076
179	0xbd053366	-0.03251972
180	0xbacf6951	-0.0015824233
181	0x3f032f7a	0.5124432
182	0xbb451340	-0.0030071288
183	0x3f1f5463	0.6223814
184	0x3e5595cf	0.20857929
185	0x3e1e1815	0.15438874
186	0x3daf6aaf	0.0856527
187	0xbd444246	-0.047914766
188	0xbf59bf5d	-0.8505762
189	0x3e201f0a	0.1563684
190	0x3edf42c5	0.4360563
191	0xbd310724	-0.0432197
192	0x3f05195d	0.51991826
193	0x3eaa14c7	0.33218977
194	0x3e12afdd	0.14324899
195	0x3f835904	1.026154
196	0xbfe1ef40	-1.7651138
197	0xbe9d1bd3	-0.3068529
198	0xbf417dc8	-0.7558255
199	0x3d91de9e	0.07122539
200	0x4019f7cd	2.4057496
201	0x3eef5cd6	0.46750516
202	0x3f4ad2d0	0.79227924
203	0x3ef3358d	0.47501794
204	0x3e08c0c2	0.13354781
205	0x3d8012f3	0.06253614
206	0x3e8dd5d8	0.27702212
207	0x3e22a990	0.15884995
208	0x3e9e44e3	0.3091193
209	0x3eeb6962	0.45978838
210	0x3ea6a3f9	0.32546976
211	0xbd6fb6db	-0.058523994
212	0x3e87e7d4	0.26544058
213	0x3bb91358	0.005648058
214	0xbd3e53f8	-0.046466798
215	0xbd7c076a	-0.061530508
216	0x3fa708ba	1.3049538
217	0xbe5a67b2	-0.21328619
218	0x3eead13f	0.45862767
219	0x3bea0be0	0.007142529
220	0x3c3d4ad8	0.011553489
221	0x3dac84c9	0.08423764
222	0x3ec8ec95	0.39242998
223	0xbcf2e7eb	-0.029651603
224	0x3c1d695d	0.00960764
225	0x3b82ae40	0.0039880574
226	0xbe8dcdfd	-0.2769622
227	0x3da0d78d	0.07853613
228	0x3d6fba08	0.058527023
229	0xbe32025b	-0.17383711
230	0x3f81a67e	1.0128934
231	0x3e1388ab	0.14407603
232	0xbefb819c	-0.49122322
233	0xbf78eab8	-0.9723315
234	0x3ca1b538	0.019739732
235	0x3eeccc3c	0.46249568
236	0xc09214b2	-4.5650263
237	0x3f5abfe8	0.85449076
238	0xbd4d6bb4	-0.05015154
239	0x3b8254e0	0.003977403
240	0xbef4e56c	-0.47831285
241	0x3f0b9337	0.5452151
242	0xbb2ae416	-0.0026075891
243	0x3b73ab5c	0.0037180996
244	0x3edb4f5a	0.42833978
245	0x3e21f05b	0.15814345
246	0x3ef5d344	0.48012745
247	0xbeba9b88	-0.36446786
248	0xbd6128f0	-0.05497068
249	0xbda005f2	-0.07813634
250	0x3cffe4f4	0.031237103
251	0x3c8780b5	0.016540864
252	0x3bb3ff19	0.0054930565
253	0xbdaa2ad3	-0.08308949
254	0x3d2dd087	0.042435195
255	0x3d5704fa	0.05249498

linear2.bias f4 [256]
0	0x3e810dad	0.25205746
1	0xbc2ebecf	-0.0106656095
2	0xbc38d0f0	-0.011280283
3	0x3e51212c	0.2042281
4	0x3e510724	0.2041288
5	0xbb95a056	-0.0045662327
6	0x3bad512e	0.0052892184
7	0x3d978350	0.07398093
8	0x3c778933	0.015108394
9	0xbdb97820	-0.09056115
10	0xbd7411b4	-0.059587196
11	0xba4525f9	-0.0007520612
12	0x3e876ed2	0.26451737
13	0xbd75bf33	-0.059996795
14	0xbd2bbd47	-0.041928556
15	0xbd888285	-0.066655196
16	0x3d334ad0	0.04377252
17	0x3e35828a	0.17725578
18	0xbe7249cb	-0.23660962
19	0x3d83e289	0.064396925
20	0x3d4ecdb7	0.050489154
21	0xbc81a3ed	-0.015825236
22	0x3c1c6b65	0.009547089
23	0xbd837e25	-0.064205445
24	0xbcf08f44	-0.02936519
25	0xbdae066f	-0.08497321
26	0xbc410bf9	-0.01178264
27	0xbd8f6375	-0.07001392
28	0xbd837b05	-0.064199485
29	0x3c7ee4cb	0.015557478
30	0x3b4fc3f0	0.0031702481
31	0x3d109bf5	0.035304982
32	0xbd3b61f8	-0.045747727
33	0x3e296ddb	0.16545813
34	0x3e4a0577	0.19728647
35	0xbd0a6b95	-0.033794004
36	0xbd59057a	-0.05298374
37	0x3ea85fbc	0.3288554
38	0x3cc7aff8	0.0243759
39	0x3d453adb	0.048151832
40	0x3e35a0c5	0.1773711
41	0x3cebefaa	0.028800804
42	0xbdacf9af	-0.08446061
43	0x3e27840b	0.16358964
44	0xbca6fb28	-0.020383433
45	0xbd12ba26	-0.035822056
46	0x3d5f59c9	0.054528985
47	0xbd2a6c8f	-0.041607436
48	0x3e8b8c14	0.2725531
49	0xbd87d065	-0.06631545
50	0x3e5c81d3	0.21533899
51	0x3e28fd27	0.1650282
52	0x3e90c86e	0.28277916
53	0xbe448f8d	-0.19195385
54	0xbcaa5457	-0.02079217
55	0x3d453408	0.048145324
56	0x3c99d5ad	0.018778646
57	0xbb9cef6e	-0.0047892844
58	0xbd99c15e	-0.07507585
59	0x3cc31380	0.02381301
60	0x3d2ae416	0.041721426
61	0xbda5b719	-0.08091564
62	0xbd64d5b3	-0.055867862
63	0xbca464cf	-0.0200676
64	0xbd89b975	-0.06724826
65	0xbc29b4f7	-0.010358087
66	0xbda3599f	-0.07976078
67	0x3bc5e3d0	0.0060391203
68	0xbd83726d	-0.06418309
69	0x3d1706ed	0.03687184
70	0xbcabe2c7	-0.02098216
71	0xbe8cd647	-0.2750723
72	0x3e8b4986	0.2720453
73	0xbd83e47d	-0.06440065
74	0xbd80c2ed	-0.06287179
75	0x3e39056d	0.18068476
76	0xbd5ff92a	-0.05468098
77	0xbd265bb0	-0.040614784
78	0xbceba0c3	-0.02876318
79	0xbd610dbb	-0.054944735
80	0x3d471577	0.048604455
81	0xbdb4b3f5	-0.088233866
82	0xbc64677e	-0.01394069
83	0x3efc893c	0.49323452
84	0x3eb7a91c	0.35871208
85	0xbc937416	-0.01799969
86	0x3e6c85b9	0.23097886
87	0x3b3d0ddf	0.002884738
88	0x3e16bce5	0.14720495
89	0xbd9031b6	-0.070407316
90	0x3d1ecb35	0.038768012
91	0x3e75630c	0.23963565
92	0x3c461a80	0.012091279
93	0xbd3ec398	-0.04657325
94	0x3e932fe9	0.2874749
95	0xbd14ca46	-0.036325715
96	0x3e562a8a	0.20914665
97	0xbc08c4ed	-0.008347732
98	0x3c2800e5	0.0102541195
99	0xbc446691	-0.011987344
100	0xbc03a535	-0.008034994
101	0xbca8f0df	-0.020622669
102	0x3e7dacfb	0.24773018
103	0xbd839275	-0.06424419
104	0xbcb072c0	-0.021539092
105	0xbcfc97bc	-0.030834071
106	0x3e662994	0.22476798
107	0xbc7df4f4	-0.015500296
108	0x3e34563f	0.17611025
109	0x3d7e728a	0.06212095
110	0xbaa157c2	-0.0012309479
111	0x3e327cd7	0.17430435
112	0x3e260ae5	0.16215093
113	0x3c53ef21	0.012935431
114	0xbd25e9df	-0.04050624
115	0x3e24bdeb	0.16088073
116	0xbd3dce48	-0.046339303
117	0xbca3409f	-0.019928275
118	0xbd612143	-0.05496336
119	0xbdac3d67	-0.08410149
120	0x3cdaa451	0.02668968
121	0x3c94a58d	0.018145347
122	0xbd12924e	-0.03578406
123	0x3d44de8a	0.048063792
124	0xbd3c6ad0	-0.0460003
125	0xbd2ea827	-0.04264083
126	0xbd8954ad	-0.06705604
127	0xbd4d25a1	-0.050084714
128	0x3cb4402f	0.022003261
129	0x3c72714b	0.014797519
130	0x3c50b491	0.012738363
131	0x3c94bab8	0.01815544
132	0x3e9559e6	0.2917015
133	0xbd1ef6f6	-0.03880974
134	0xbd602cbb	-0.05473016
135	0xbdae2a5f	-0.085041754
136	0x3ce2e1b2	0.02769551
137	0x3b627132	0.0034552333
138	0xbc6f20db	-0.014595236
139	0xbd31d4a8	-0.043415695
140	0xbcdd70ba	-0.027031291
141	0x3c2652ea	0.010151604
142	0xbcc3c2e6	-0.023896646
143	0xbd164146	-0.036683343
144	0xbbf6c134	-0.007530356
145	0xbd004e4a	-0.031324662
146	0xba3d0c26	-0.0007211588
147	0x3e66075f	0.2246375
148	0xbd73d1b7	-0.05952617
149	0xbcc9b911	-0.02462438
150	0xbd40d957	-0.04708227
151	0xbd48eeb9	-0.04905579
152	0x3d360eaf	0.044447597
153	0x3e29ad78	0.1657008
154	0x3e344a2e	0.17606422
155	0xbd899585	-0.06717972
156	0x3e31ced7	0.1736406
157	0x3d3557df	0.044273254
158	0x3d3335c7	0.043752458
159	0xbd5cbab2	-0.053888984
160	0xbc347eb0	-0.011016533
161	0x3e2f7342	0.17133811
162	0x3e45f155	0.19330342
163	0xbda76977	-0.08174413
164	0xbbdb447a	-0.0066915127
165	0xbdaed577	-0.08536809
166	0x3d625a50	0.05526191
167	0xbd14e40e	-0.036350302
168	0x3be20c6a	0.0068984525
169	0x3e505f70	0.20348907
170	0xbc1ae89b	-0.0094548715
171	0xbcde2532	-0.027117345
172	0x3ca238a0	0.019802392
173	0xbd09ffc5	-0.033691186
174	0x3e59a953	0.21255998
175	0xbaeaa829	-0.0017902899
176	0x3b00ffdc	0.0019683754
177	0x3c4802c8	0.012207694
178	0xbc9c5c8e	-0.019087102
179	0x3d0aef9c	0.033919916
180	0x3d95af99	0.07308883
181	0x3cfb2313	0.030656373
182	0xbe1b5f3f	-0.15173052
183	0xbd493121	-0.04911912
184	0x3cf7bfe3	0.030242866
185	0xbd347618	-0.044057935
186	0x3bf0d273	0.0073493063
187	0x3e24d5ce	0.16097185
188	0x3e2d2e49	0.16912188
189	0xbd4c2561	-0.049840335
190	0xbc141cd6	-0.009040078
191	0xbac32ed9	-0.0014891281
192	0x3cd4c5f9	0.025973307
193	0xbcb79938	-0.022411928
194	0xbda663bf	-0.08124494
195	0x3c3cf9c7	0.011534161
196	0x3a6bca2a	0.00089946634
197	0x3b3a578f	0.0028433537
198	0xbc8c913d	-0.017159099
199	0x3e48b04e	0.19598505
200	0x3d34c36f	0.044131692
201	0xbb9dd906	-0.004817131
202	0xbb3ab938	-0.0028491747
203	0x3ca9cdf6	0.020728093
204	0xbb0703b5	-0.0020601575
205	0x3e549933	0.20761566
206	0xbc4ed671	-0.012624369
207	0xbd022fc5	-0.031783838
208	0x3d2a022e	0.041505985
209	0x3a9ee755	0.0012123386
210	0x3b462bb0	0.0030238442
211	0xbd7c723c	-0.06163238
212	0xbd5b78d2	-0.05358202
213	0xbd9e0a3e	-0.07716797
214	0x3c8937c4	0.016750224
215	0xbd487411	-0.048938815
216	0x3bac685e	0.005261465
217	0x3ceee4b2	0.029161785
218	0xbd44d581	-0.048055176
219	0x3d3dff7f	0.04638624
220	0x3e25f790	0.16207719
221	0xbd68b83b	-0.05681632
222	0x3d05da61	0.032678965
223	0xbcc7c6a1	-0.024386706
224	0x3c9fce95	0.019507686
225	0x3e87aeae	0.26500458
226	0xbc861998	-0.016369626
227	0xbc6c6e3b	-0.014430578
228	0xbd86c6c5	-0.06580881
229	0x3e47a096	0.19494852
230	0x3d2eccde	0.042675845
231	0x3c5a4119	0.013321185
232	0xbc2e5163	-0.010639521
233	0xbc3aed16	-0.011409065
234	0x3e86c03f	0.26318547
235	0x3e15237c	0.14564317
236	0x3d00015e	0.031251304
237	0x3c7fb3d3	0.015606838
238	0xbce8e973	-0.02843163
239	0xbd531142	-0.05153013
240	0xbc920676	-0.017825346
241	0x3e32696b	0.17423026
242	0x3c58aad9	0.013224327
243	0xbdbabd20	-0.09118104
244	0x3d38fa59	0.045160625
245	0x3d036a9c	0.032084092
246	0xbd855a73	-0.065113924
247	0xbd0c7c7d	-0.03429841
248	0x3e75ec10	0.24015832
249	0xbcca5d21	-0.02470261
250	0x3d68b18a	0.05680994
251	0xbd9dc7d6	-0.07704131
252	0xbbeeac5e	-0.0072837314
253	0xbc00b0f5	-0.00785469
254	0x3e4a2343	0.19740014
255	0x3e1e6153	0.15466814

linear3.weight f4 [1, 256]
0	0xbf5c9bff	-0.8617553
1	0xbd1f4835	-0.03888722
2	0x3b8b36b4	0.0042484645
3	0xc04c6101	-3.1934206
4	0x3f5197ce	0.8187226
5	0xbe69b55a	-0.22823086
6	0xbe50e9b1	-0.20401646
7	0xbf6d07d0	-0.92590046
8	0xbe45e7b8	-0.19326675
9	0xbe38a9df	-0.1803355
10	0x3d2a7cf6	0.04162308
11	0x3be2c65b	0.0069206185
12	0x3f5883d0	0.8457613
13	0xbb7d6571	-0.00386652
14	0x3c428618	0.011872791
15	0xbbe5a64a	-0.0070083486
16	0xbd70d9bc	-0.058801398
17	0x3f643d38	0.8915591
18	0xc0a94760	-5.289963
19	0xbf5ba518	-0.8579879
20	0xbf69b654	-0.91293836
21	0xbe43ea58	-0.19132364
22	0xbe57f8b9	-0.21090974
23	0x3cc838b0	0.024441093
24	0xbe448058	-0.19189584
25	0xbe462d40	-0.19353199
26	0x3d429f18	0.047515005
27	0xbe321d4f	-0.17393993
28	0x3d50a1d1	0.05093557
29	0x3cbbc9df	0.022923408
30	0xbe3817c7	-0.1797782
31	0x3c31a04f	0.010841443
32	0x3c378fd7	0.011203728
33	0x3f637d11	0.8886271
34	0xc07baf6d	-3.9325821
35	0x3cbcf9c7	0.023068322
36	0xbcc6fd10	-0.024290591
37	0xc084c599	-4.149121
38	0xbe4367e0	-0.19082594
39	0xbf62a988	-0.88539934
40	0x3f58a322	0.8462392
41	0xbe33afa7	-0.17547475
42	0xbe28d3f6	-0.16487107
43	0x3f6e926b	0.93192166
44	0xbff20b5d	-1.8909718
45	0x3a1649dd	0.00057330524
46	0x3d31f3e7	0.043445494
47	0xbe528ae1	-0.2056079
48	0xc03e4a08	-2.9732685
49	0xbe63548a	-0.22200218
50	0xbf7b6653	-0.9820301
51	0x3f5ca258	0.86185217
52	0xc03e427f	-2.9728086
53	0xc0e8be3b	-7.2732215
54	0xbcbd520f	-0.023110418
55	0x3d03965c	0.032125816
56	0x3c91fddd	0.017821247
57	0xbe32206f	-0.17395185
58	0xbe4aa1e0	-0.19788313
59	0xbe387c8f	-0.18016265
60	0x3d1758f5	0.03695007
61	0x3f6b532f	0.91923803
62	0xbad0e501	-0.0015937389
63	0xbe523361	-0.20527412
64	0xbe2af226	-0.16693935
65	0xbd289ed6	-0.041167103
66	0xbe3f8b97	-0.18705593
67	0x3c852bd4	0.01625625
68	0xbe486d08	-0.19572842
69	0x3ca27fa6	0.019836258
70	0x3c02e695	0.007989545
71	0x40955c51	4.667519
72	0x3fea0080	1.8281403
73	0x3c08e42d	0.008355183
74	0x3bd9b541	0.0066439216
75	0x3f58f520	0.8474903
76	0xbe558f89	-0.20855536
77	0xbf668176	-0.9004129
78	0x3b2d0246	0.002639906
79	0xbbd70d92	-0.006562897
80	0xbf3b329d	-0.73124105
81	0xbf822bb7	-1.0169591
82	0xbf69a5d6	-0.9126867
83	0xc08bded4	-4.3709507
84	0xc06b078f	-3.6723363
85	0xbe325e27	-0.17418729
86	0xc05fe076	-3.498075
87	0xbf6487ab	-0.8926951
88	0x3f5cb37a	0.8621136
89	0xbe348fdf	-0.17633007
90	0xbe28bbbe	-0.16477868
91	0x3f608e3e	0.87717044
92	0x3d24106e	0.04005473
93	0x3d360eaf	0.044447597
94	0xc060f26c	-3.5147963
95	0xbe2fdd86	-0.17174348
96	0x3f6186e7	0.8809647
97	0xbe17d915	-0.14828904
98	0xbf485054	-0.7824757
99	0x3d00fa64	0.03148879
100	0xbe327fbf	-0.17431544
101	0xbc167efd	-0.00918555
102	0x3f572ce1	0.84052855
103	0xbc6240c2	-0.013809385
104	0x3bf5c34c	0.007500088
105	0xbc99b34d	-0.018762255
106	0x3f678e0d	0.9045113
107	0x3be45fbb	0.00696942
108	0x3f5cffa6	0.8632759
109	0xbf81141e	-1.0084264
110	0xbf6d0a77	-0.92594093
111	0x3f564b2b	0.8370845
112	0x3f5c5af8	0.8607631
113	0x3d0aff3c	0.033934817
114	0x3d011364	0.031512633
115	0x3f57d490	0.8430872
116	0x3c8b8ca4	0.017034836
117	0xbbe1f9ab	-0.006896218
118	0x3c1b4cad	0.00947873
119	0xbe45e498	-0.19325483
120	0x3cfe9ceb	0.031080684
121	0x3c9eb16d	0.019371713
122	0xbe33223f	-0.17493533
123	0xbf6ae070	-0.91748714
124	0x3cf3eaa3	0.02977497
125	0x3c1ab776	0.009443155
126	0xbe6867c2	-0.2269583
127	0xbe479e00	-0.19493866
128	0xbc2776be	-0.010221181
129	0xbd168d0d	-0.03675561
130	0xbe64006a	-0.22265783
131	0xbf5835db	-0.84457177
132	0xc027e629	-2.6234229
133	0x3d218286	0.039431117
134	0x3c379eaf	0.011207267
135	0xbe429040	-0.1900034
136	0xbd4ebbe0	-0.05047214
137	0x3c91425d	0.01773184
138	0xbbf936e3	-0.00760542
139	0xbd1e760d	-0.0386868
140	0xbe46b210	-0.19403863
141	0x400d215c	2.205161
142	0xc0a3b4ad	-5.115805
143	0x3ce82f82	0.028342966
144	0x3b656aea	0.0035006353
145	0x3cd8ce02	0.02646542
146	0xbf72bad9	-0.94816357
147	0x3f64d678	0.89389753
148	0xbf776070	-0.96631527
149	0x39c00640	0.0003662575
150	0xc063db02	-3.5602422
151	0xbe3e2d97	-0.18572079
152	0x3cf240db	0.029571941
153	0x3f53f650	0.8279772
154	0x3f530f74	0.82445455
155	0xbb15a5ce	-0.0022834423
156	0x3f67f8a7	0.9061379
157	0x3c987875	0.018612126
158	0x3d1951a5	0.037431378
159	0x3c059d1d	0.0081551345
160	0xbada5569	-0.0016657534
161	0x3f5b84c6	0.8574947
162	0x3f5929e6	0.84829557
163	0xbe5863c1	-0.21131803
164	0xbe29a0a6	-0.16565189
165	0xbe1e9b8d	-0.15489025
166	0xbf6918aa	-0.9105326
167	0x3c1ed495	0.009694238
168	0xbe46f860	-0.19430685
169	0xbfe80d7b	-1.8129114
170	0xc05fd7f5	-3.497556
171	0xbe2c9356	-0.16853079
172	0xbcb58294	-0.022156991
173	0xbe596271	-0.21228959
174	0x3f60b57e	0.87776935
175	0xbf76a595	-0.9634641
176	0xbc0f080c	-0.008729946
177	0xbe390f6f	-0.18072294
178	0x3d355bc7	0.04427698
179	0xbe3d2ee7	-0.18474923
180	0xbf435203	-0.76297015
181	0xba9b961e	-0.00118703
182	0xc0d26613	-6.57496
183	0xbe54a529	-0.20766129
184	0xbe51d029	-0.20489563
185	0xbc4f15b9	-0.012639456
186	0xbaa3f44f	-0.0012508723
187	0x3f61da26	0.88223493
188	0x3f70c936	0.94057024
189	0xba60cf3b	-0.00085758016
190	0x3d15c765	0.03656711
191	0xbe375157	-0.17902122
192	0x3d1bfecd	0.038084794
193	0x3d044ebc	0.03230165
194	0xbe3c54ef	-0.18391775
195	0xbc31315f	-0.010814994
196	0xbe627452	-0.22114685
197	0x3d51edd9	0.05125222
198	0xbf5f5b36	-0.8724855
199	0xbf43a2c0	-0.7642021
200	0x3d1654cd	0.036701966
201	0x3cf4127b	0.029793968
202	0xbe377d17	-0.17918812
203	0xbe3607a7	-0.17776357
204	0x3d4c3a78	0.049860448
205	0x3f53c900	0.82728577
206	0x3d322457	0.043491688
207	0xbe318b37	-0.17338262
208	0x3c0c24e8	0.008553721
209	0x3d00eac4	0.03147389
210	0x3c18f705	0.009336238
211	0xbe2fa9f6	-0.17154679
212	0xbe469e88	-0.19396412
213	0xbe4b10d0	-0.19830632
214	0x3cefd16a	0.029274661
215	0xbe2b65c6	-0.16738042
216	0xbb591f42	-0.0033130203
217	0x3befa73a	0.007313636
218	0xbd860825	-0.06544522
219	0x3d2a137f	0.0415225
220	0x3f5cfe37	0.863254
221	0xbe4e9660	-0.20174551
222	0x3f899449	1.0748378
223	0x3bf7f5cc	0.007567143
224	0x3c69ef2a	0.014278213
225	0x3f54237d	0.8286665
226	0xbf579534	-0.8421204
227	0xbd369b4f	-0.044581708
228	0x3b5388ca	0.0032277578
229	0x3f63276c	0.8873203
230	0xbbf28b14	-0.0074018333
231	0x3ca265de	0.019823965
232	0xc048a286	-3.1349196
233	0xbf623b94	-0.8837216
234	0xc043a580	-3.0569763
235	0x3f5b3e95	0.8564237
236	0x3b3713a0	0.0027935281
237	0xbbb25018	-0.005441677
238	0xbc866f44	-0.016410477
239	0xbe5e7991	-0.21726061
240	0xbe6e5042	-0.23272803
241	0x3f60e744	0.87852883
242	0x3d10be55	0.035337765
243	0xbe24db8e	-0.16099378
244	0xc0344618	-2.8167782
245	0x3cb611cf	0.022225289
246	0xc0274618	-2.6136532
247	0xbc2aff6e	-0.010436876
248	0xc01714c9	-2.3606436
249	0xbe4632b8	-0.19355285
250	0xbf509a41	-0.8148537
251	0xbe31dd3f	-0.17369555
252	0xbf72df90	-0.9487238
253	0xbd076174	-0.033051923
254	0xc022e942	-2.545487
255	0x3f5df7c7	0.86706203
