turtlebot3_rl_sim/src/models/td3/stage_1_improve_more_buffer_add_sn/td3_critic2_model_ep1500.pt (torch_old, 344052 bytes, 5 tensors)

linear1.weight f4 [256, 76]
0	0x3d8dd8ec	0.0692614
1	0x3d1825a5	0.037145276
2	0x3d06d664	0.032919303
3	0xbcbe0f20	-0.023200572
4	0xbd3f3fd0	-0.046691716
5	0x3d7a8ddb	0.06117044
6	0xbda29d57	-0.079401664
7	0x3dbd72df	0.092504255
8	0xbc674203	-0.0141148595
9	0x3d9f6f45	0.07784895
10	0xbdf00f24	-0.11721638
11	0x3b651432	0.0034954664
12	0x3d97e275	0.0741624
13	0x3d5e18b1	0.054222766
14	0xbdf89914	-0.12138572
15	0xbcfa37ec	-0.030544244
16	0xbd8c8e75	-0.06863109
17	0x3d90c23d	0.07068298
18	0xbdc23281	-0.09482289
19	0x3dc863a8	0.09784633
20	0xbde49a53	-0.111622475
21	0xbcfca694	-0.03084115
22	0x3d78984b	0.060692113
23	0xbdb91678	-0.09037489
24	0xbd9f41f6	-0.07776253
25	0x3daab46e	0.083351955
26	0x3d95548d	0.072915174
27	0x3d9e8cb5	0.077416815
28	0x3cfbfab3	0.030759191
29	0xbdb88cf8	-0.09011263
30	0xbcba1460	-0.022714794
31	0xbdf751bc	-0.120761365
32	0xbdd0ecd2	-0.1020142
33	0xbdeadfcb	-0.11468466
34	0x3cdcd2e9	0.026956039
35	0x3d201036	0.03907796
36	0xbe04a4ad	-0.12953444
37	0x3d476430	0.04867953
38	0xbd6ebe6b	-0.058287065
39	0x3c640772	0.013917791
40	0x3b8faa8c	0.0043843444
41	0xbdc79951	-0.0974604
42	0x3db54c27	0.088524155
43	0xbdf2f554	-0.11863199
44	0x3d99558d	0.07487021
45	0xbd576382	-0.052585132
46	0xbd805a6f	-0.06267249
47	0xbd3c55b8	-0.045980185
48	0x3dc6cb10	0.097067
49	0xbd36e1a0	-0.044648767
50	0xbdc87669	-0.0978821
51	0xbc61b293	-0.013775486
52	0xbcf7822c	-0.030213438
53	0xbdaa790f	-0.08323871
54	0xbd7c69a4	-0.061624184
55	0x3da1465e	0.078747496
56	0xbdee9373	-0.116492175
57	0xbd802743	-0.062574886
58	0xbdf1279c	-0.11775133
59	0xbdcecdd9	-0.10097856
60	0x38d91db1	0.00010352897
61	0xbd9f3f9e	-0.07775806
62	0xbceb2233	-0.02870283
63	0xb9cba3b1	-0.00038841137
64	0xbd6ae223	-0.057344567
65	0x3da513ce	0.08060418
66	0x3caef25e	0.021355804
67	0xbd4185d9	-0.047246788
68	0x3d68cafa	0.0568342
69	0x3dcef5b0	0.10105455
70	0x3d02d94c	0.03194551
71	0xbd4ad891	-0.04952294
72	0x3cda5249	0.026650565
73	0x3bc12e58	0.005895417
74	0x3ce292ca	0.027657885
75	0x3d1cc53d	0.03827404
76	0xbf1277be	-0.5721396
77	0xbf288a87	-0.65836376
78	0xbf0fe45d	-0.5620783
79	0xbed0c68a	-0.40776473
80	0xbedcc02a	-0.4311536
81	0xbec52dc9	-0.38511494
82	0xbef2296c	-0.47297227
83	0xbeb7fba8	-0.35934186
84	0xbe8001c3	-0.25001344
85	0xbe440039	-0.1914071
86	0xbe500bd2	-0.20317009
87	0xbe65f14b	-0.22455327
88	0xbe8127b5	-0.25225607
89	0xbe5e2b72	-0.2169626
90	0xbb5fb2da	-0.0034133703
91	0xbaa923a7	-0.0012904302
92	0xbd8bccb5	-0.06826154
93	0xbddffdda	-0.1093709
94	0xbd897325	-0.06711415
95	0xbe2b1487	-0.1670705
96	0xbc924d8e	-0.017859247
97	0xbdcf2b99	-0.101157375
98	0x3bee1032	0.007265114
99	0x3d3b8f47	0.045790937
100	0xbc1b4a56	-0.009478172
101	0x3c4b1580	0.012395263
102	0x3da6ef96	0.08151166
103	0x3dd34ef9	0.10317797
104	0x3dca4420	0.09876275
105	0x3d80c544	0.062876254
106	0x3e2704ae	0.16310379
107	0x3ceed76a	0.029155452
108	0x3de8d45a	0.11368628
109	0x3df5b85b	0.11998054
110	0x3cd51d79	0.02601503
111	0xbcd60d52	-0.026129398
112	0x3d88d234	0.06680718
113	0x3cd03d09	0.025419729
114	0x3e051aa4	0.12998444
115	0x3d9b1aad	0.075734474
116	0xbc7adfe4	-0.015312169
117	0x3d2cb4ee	0.042164735
118	0x3e17a00d	0.14807148
119	0x3cb9c3e7	0.022676421
120	0x3cbf09e7	0.023320151
121	0x3e04199c	0.12900394
122	0x3d8a4b8c	0.06752691
123	0x3ccca198	0.024979398
124	0x3bd8ff39	0.006622222
125	0x3de9b6ea	0.11411841
126	0x3b72a7fb	0.0037026394
127	0x3e2e1226	0.1699911
128	0x3e0e1c1c	0.1387791
129	0x3e294c46	0.16533002
130	0x3dbfbc07	0.09362035
131	0xbde6829b	-0.1125538
132	0x3d89c2d4	0.06726614
133	0x3a7fe5d3	0.00097617245
134	0xbdfec8ac	-0.12440619
135	0xbd64bd7b	-0.055844765
136	0xbe010acd	-0.12601776
137	0xbd90bbfe	-0.07067107
138	0xbdbb9718	-0.09159678
139	0x3d4e2a90	0.05033356
140	0xbdfc77b4	-0.12327519
141	0x3cc2b430	0.02376756
142	0xbe485279	-0.19562711
143	0xbe1f5d4e	-0.15562937
144	0xbeaf5d67	-0.34250948
145	0xbec63381	-0.3871117
146	0xbee5f78b	-0.44915423
147	0xbefee274	-0.49782145
148	0xbe1852f5	-0.14875396
149	0x3c7bcfbb	0.015369351
150	0xbe0de7c5	-0.13857944
151	0x3d9b5abd	0.07585666
152	0x3e354dc8	0.17705452
153	0x3e4a2348	0.19740021
154	0x3d3a5bf1	0.04549784
155	0x3df97265	0.12180022
156	0x3d31b87f	0.04338884
157	0x3d8dcd8d	0.06923971
158	0x3daa7cc5	0.08324579
159	0x3e81c4db	0.253455
160	0xbb1d4d21	-0.0024002271
161	0xbd81ce11	-0.06338132
162	0xbda58fa8	-0.08084041
163	0xbd08ae30	-0.033369243
164	0xbdd18558	-0.102305114
165	0xbd8e887b	-0.06959625
166	0xbd118ab5	-0.035532672
167	0xbdafda2a	-0.08586533
168	0xbe0c4913	-0.1369975
169	0xbdd93e3f	-0.106075756
170	0xbdb08f8d	-0.0862113
171	0x3b0b4659	0.0021251647
172	0xbd254f41	-0.040358786
173	0xbaed8165	-0.0018120228
174	0x3a96fb93	0.0011519067
175	0xbe035c8d	-0.12828274
176	0x3c374077	0.011184803
177	0x3d7d0d36	0.061780177
178	0xbd7c2ce6	-0.061566256
179	0xbd934a59	-0.07191915
180	0x3d6093a1	0.05482829
181	0x3d747f65	0.059691805
182	0xbe18e7fc	-0.14932245
183	0xbdda2c48	-0.10652977
184	0x3d22a9b4	0.039712623
185	0x3d53e8c6	0.051735662
186	0xbd328eb5	-0.043593127
187	0xbd902ee2	-0.07040192
188	0xbd9f169d	-0.07767985
189	0xbdfeddfb	-0.12444683
190	0xbd32559d	-0.04353868
191	0x3d832bce	0.064048395
192	0x3de78263	0.11304166
193	0x3b51a9af	0.0031992008
194	0x3dfe26e8	0.124097645
195	0x3dace757	0.08442562
196	0x3cfcc5b0	0.030855983
197	0x3d996211	0.07489408
198	0x3d91c64f	0.071179025
199	0xbd9af2e9	-0.07565863
200	0xbdbb1429	-0.091347046
201	0xbd22f5e7	-0.039785292
202	0xbda0e704	-0.07856563
203	0xb992209d	-0.0002787159
204	0xbd53a246	-0.051668428
205	0x3d884d84	0.0665541
206	0x3dff921e	0.124790415
207	0x3e0d8ceb	0.13823287
208	0x3db48f7e	0.088164315
209	0x3d8c3524	0.06846073
210	0x3dcc3716	0.09971444
211	0x3d896ada	0.067098334
212	0x3c90a060	0.017654598
213	0x3d16c2c2	0.03680683
214	0x3ca6ab3d	0.020345325
215	0x3e42fcf6	0.1904181
216	0x3e63538e	0.22199842
217	0x3e069413	0.13142423
218	0x3e4f3749	0.20235933
219	0x3e851be4	0.2599784
220	0x3e613ab1	0.21995045
221	0x3e1aab89	0.15104498
222	0x3e81250a	0.2522357
223	0x3e711c4b	0.23545949
224	0xbe48728a	-0.19574943
225	0xbddd4d5c	-0.10805771
226	0xb9a22767	-0.00030928405
227	0xbe0e0301	-0.13868333
228	0x3eb15a36	0.34639138
229	0x3e1a65be	0.15077874
230	0x3cd07b24	0.025449343
231	0xbd42e27d	-0.047579277
232	0x3d96c939	0.07362599
233	0x3be59803	0.0070066466
234	0xbdaf1fa9	-0.085509606
235	0x3bff67b3	0.0077943443
236	0xbda9f09c	-0.08297846
237	0xbe38e284	-0.18055159
238	0xbea1ba50	-0.31587458
239	0xbe8efd47	-0.2792761
240	0xbdf4337e	-0.11923884
241	0xbdf0cdd0	-0.117580056
242	0xbe6d0cd2	-0.23149422
243	0xbe2a23c0	-0.166152
244	0xbd3f0fc3	-0.04664589
245	0xbe03bb51	-0.12864424
246	0xbdb615aa	-0.08890851
247	0x3b029cfd	0.0019929998
248	0xbdbc99aa	-0.092089966
249	0xbd6e6be6	-0.05820837
250	0xbdddc80a	-0.1082917
251	0xbc2158f1	-0.009847865
252	0x3db25af4	0.08708754
253	0xbdd6ac88	-0.104821265
254	0xbccc7252	-0.024956856
255	0x3cb7a324	0.022416659

linear1.bias f4 [256]
0	0x3dab1b8e	0.08354865
1	0x3dbe4d9f	0.09292149
2	0xbbeaa889	-0.0071612042
3	0x3b05752d	0.0020364032
4	0xbbaf2fc3	-0.00534627
5	0xbda8f58f	-0.082499616
6	0x3df63050	0.12020934
7	0x3e944b0a	0.289635
8	0x3d4b8ba7	0.04969373
9	0xbde2e1b3	-0.11078205
10	0x3de47465	0.11155013
11	0x3e3c3e18	0.18383062
12	0x3aabd29e	0.0013109033
13	0x3d054737	0.03253862
14	0xbdce3b84	-0.100699455
15	0x3e023d42	0.1271868
16	0x3e07662e	0.13222572
17	0xbe1480c3	-0.14502244
18	0x3dbe49dc	0.09291431
19	0x3ea5861c	0.3232888
20	0x3d6a564a	0.057211198
21	0xbca4066a	-0.02002259
22	0xbcfff63c	-0.031245343
23	0xbd817b6b	-0.06322368
24	0x3e8c5b4d	0.27413407
25	0x3c9559d9	0.01823132
26	0x3e571755	0.21004994
27	0xbd86066d	-0.06544194
28	0x3e129c17	0.14317356
29	0xbdda73e2	-0.10666634
30	0xbb9b7166	-0.0047437428
31	0x3dae5b85	0.0851355
32	0x3e704bab	0.23466365
33	0xbdd65212	-0.104648724
34	0xbded94c3	-0.1160064
35	0x3e146915	0.1449321
36	0x3daef2c6	0.08542399
37	0xbc682514	-0.014168996
38	0x3da2c469	0.079476185
39	0xbd87f6ad	-0.066388465
40	0x3dc2c764	0.09510687
41	0x3e1ca3fb	0.15296929
42	0xbdd78df1	-0.1052512
43	0xbd2f69b4	-0.042825416
44	0x3d4c3fb9	0.04986546
45	0xbdafbbb0	-0.085807204
46	0x3e0c999e	0.13730475
47	0x3d7b5480	0.061359882
48	0xbc7d293d	-0.0154517265
49	0x3e96da40	0.29463387
50	0x3d2b1d83	0.04177619
51	0xbcd62618	-0.026141211
52	0x3e73e499	0.23817672
53	0xbdc437b1	-0.09580935
54	0x3e38f5a9	0.18062462
55	0x3e3c62ba	0.18397036
56	0x3d31ba3c	0.043390498
57	0xbd823509	-0.06357772
58	0xbb17b560	-0.002314888
59	0x3d7ac09f	0.061218854
60	0x3d354302	0.044253357
61	0x3d39d2cd	0.04536705
62	0x3e138fd1	0.1441033
63	0x3c780ca7	0.015139735
64	0xbd836c8a	-0.064171866
65	0xbe28435b	-0.16431944
66	0x3e4a21ef	0.19739507
67	0xbe1c39c8	-0.15256417
68	0x3e3bd527	0.1834303
69	0xbc92a968	-0.017903045
70	0x3e6bc4a0	0.23024225
71	0x3d503996	0.05083617
72	0x3c0e1fd4	0.008674581
73	0xbb2d576d	-0.0026449815
74	0x3e40fe0e	0.18846914
75	0x3e559773	0.20858555
76	0x3e556bae	0.20841858
77	0x3e0afdac	0.1357333
78	0xbd0bfec8	-0.034178525
79	0x3e55add6	0.20867094
80	0x3e2fa7a4	0.17153794
81	0xbd88b09d	-0.06674311
82	0x3a20e7d6	0.0006138062
83	0x3e5efb27	0.21775495
84	0x3da3bb38	0.079946935
85	0x3d804556	0.06263225
86	0x3c9f3341	0.01943362
87	0xbdc3608c	-0.09539899
88	0x3d67e9c8	0.056619436
89	0xbcd353e3	-0.025796836
90	0x3da30c58	0.07961339
91	0x3c76b1b6	0.015057018
92	0xbcf72f9b	-0.030174067
93	0xbd04e00d	-0.032440234
94	0x3db3e71a	0.087843135
95	0x3e1f8d4e	0.15581247
96	0xbdd94b1f	-0.10610031
97	0x3ddd3df1	0.1080283
98	0xbd4d1984	-0.05007316
99	0xbd781b47	-0.06057289
100	0x3e58f80f	0.21188377
101	0x3e26fc87	0.16307269
102	0xbdfded24	-0.123987466
103	0xbbf75e89	-0.0075491113
104	0x3dc7eff1	0.09762562
105	0x3d8a22c0	0.06744909
106	0xbd927c25	-0.07152585
107	0x3d8eebec	0.06978592
108	0xbdbb192f	-0.09135663
109	0x3e8d5482	0.27603537
110	0x3d8a9aa2	0.06767775
111	0x3d575ef2	0.05258078
112	0xbdc569f1	-0.09639347
113	0x3ca22cbf	0.019796727
114	0x3e1638bf	0.14670084
115	0x3eb5aa68	0.35481572
116	0xbd86606d	-0.065613605
117	0xbda9da77	-0.08293622
118	0xbda23e07	-0.07921987
119	0xb9bed3cd	-0.00036397428
120	0xbc20d2be	-0.00981587
121	0x3e6445df	0.22292279
122	0x3e63124f	0.22174953
123	0xbd6e42cf	-0.058169182
124	0x3dc1876b	0.09449657
125	0x3bf86bc3	0.0075812056
126	0x3e1db021	0.15399219
127	0x3d8614b1	0.06546915
128	0x3e147baa	0.14500299
129	0x3df996a3	0.12186935
130	0xbc910b41	-0.017705562
131	0x3dc03ef6	0.09387009
132	0x3df14bb7	0.117820196
133	0xbd85b16d	-0.06527982
134	0x3d8e0086	0.069336936
135	0x3e805b47	0.2506964
136	0xbd36d840	-0.044639826
137	0xbc9def79	-0.019279229
138	0xbdde935a	-0.10867949
139	0x3d938af2	0.07204236
140	0x3d882a38	0.066486776
141	0x3da24a86	0.079243705
142	0xbdd9cbea	-0.10634597
143	0x3dd11793	0.102095746
144	0x3d1996e0	0.0374974
145	0xbdbe2753	-0.09284844
146	0x3e3e56b3	0.1858776
147	0xbddd0d82	-0.10793592
148	0x3ce30248	0.027711049
149	0x3e5f06b4	0.21779901
150	0x3e759926	0.23984203
151	0x3cd05131	0.02542934
152	0xbd08dc5f	-0.033413287
153	0x3de2e380	0.110785484
154	0x3c50f96f	0.012754782
155	0x3d8e0e0c	0.06936273
156	0x3deb7d9a	0.11498566
157	0xbd0d460d	-0.034490634
158	0xbcfe1434	-0.031015493
159	0xbd5204f6	-0.051274262
160	0x3c5d7acc	0.013518047
161	0xbd9db44e	-0.07700406
162	0xbde5d39b	-0.11222001
163	0x3d428938	0.047494143
164	0xbcb6b9c8	-0.022305384
165	0xbe03389d	-0.12814565
166	0x3e419715	0.1890529
167	0xbba841df	-0.0051348056
168	0x3e7abaf7	0.24485384
169	0xbcbb7fee	-0.02288815
170	0x3da48773	0.080336474
171	0x3e7cde4c	0.24694175
172	0xbccd06ef	-0.02502772
173	0x3df38d8b	0.118922316
174	0x3e507006	0.20355234
175	0x3ddd76f9	0.10813708
176	0xbc1b36d6	-0.009473523
177	0xbd787493	-0.06065805
178	0x3cfe91fc	0.03107547
179	0x3bedfa80	0.007262528
180	0x3d6094a2	0.054829247
181	0x3de6e779	0.11274619
182	0x3d326492	0.043552943
183	0xbdbeeca0	-0.093224764
184	0x3c4e57e2	0.012594195
185	0x3cf68df6	0.03009699
186	0x3da2757e	0.07932566
187	0x3d610cb2	0.054943748
188	0x3df443cc	0.11926994
189	0x3d933ee8	0.07189733
190	0xbe45215a	-0.19251004
191	0xbce35e18	-0.027754828
192	0xbc3a5282	-0.01137221
193	0xbcff4596	-0.03116111
194	0x3e0b61fb	0.13611595
195	0x3e7b2bb3	0.24528389
196	0x3eaca7e8	0.33721852
197	0x3e3f367a	0.18673125
198	0xbdedd01a	-0.11611958
199	0x3d2b8056	0.041870438
200	0xbb3c4afd	-0.002873122
201	0x3e0e2779	0.13882245
202	0x3dd49ec4	0.10381845
203	0x3de232b0	0.11044824
204	0x3d9db817	0.07701128
205	0xbdb4eff8	-0.08834833
206	0xbb884668	-0.0041587837
207	0x3e4165ad	0.18886442
208	0x3e294e56	0.16533789
209	0x3e57c0c4	0.21069628
210	0x3e85c2e1	0.26125243
211	0x3dcb0838	0.09913677
212	0xbca39c07	-0.01997186
213	0xbda683c7	-0.08130603
214	0xbdcf0fd5	-0.101104416
215	0x3d8c1297	0.06839483
216	0x3d8e0eaa	0.06936391
217	0x3ea3f6a6	0.32024115
218	0x3dac7452	0.08420624
219	0xbdd32272	-0.10309304
220	0xbad52700	-0.0016262233
221	0x3cd6918a	0.026192445
222	0x3e80a57c	0.25126255
223	0x3dfdd093	0.12393298
224	0x3e908442	0.28225905
225	0x3d7cd6a2	0.061728127
226	0x3d926b3d	0.0714936
227	0x3e6201da	0.22071019
228	0x3c00fc98	0.007872723
229	0x3d9205f6	0.07130043
230	0x3e0ba458	0.13636911
231	0x3e0d25c7	0.13783942
232	0x3dc53728	0.09629661
233	0x3e65f8d6	0.22458205
234	0xbdbd9989	-0.092578
235	0xbdadce19	-0.08486576
236	0x3d25fbcf	0.040523347
237	0x3d45cf1e	0.048293225
238	0xbcf9c4c8	-0.03048934
239	0xbde4d5dc	-0.11173603
240	0xbd073d85	-0.033017654
241	0xbc8328e8	-0.016010717
242	0x3ca36dee	0.01994988
243	0xbe051aa5	-0.12998445
244	0x3e6ab547	0.22920714
245	0x3e74e236	0.23914418
246	0x3e221a20	0.15830278
247	0xbb3a2978	-0.0028406065
248	0xbd75b8ca	-0.05999068
249	0x3e13a123	0.14416938
250	0xbd7ac4b7	-0.06122276
251	0xbddf84c2	-0.109139934
252	0x3e3abaf5	0.18235381
253	0x3e393198	0.18085325
254	0x3d7fd4a3	0.062458646
255	0x3dda7c79	0.106682725

linear2.weight f4 [256, 256]
0	0xbce6040a	-0.028078098
1	0x3e9da31d	0.30788508
2	0x3e5b04df	0.21388577
3	0x3e72b226	0.2370077
4	0xbde072be	-0.10959385
5	0x3c810d25	0.015753338
6	0xbe60e804	-0.21963507
7	0x40152c98	2.3308468
8	0x3ee97bbf	0.45602223
9	0x3d68cafb	0.056834202
10	0x3be44f40	0.006967455
11	0x3f68a30f	0.9087381
12	0x3ef47fa6	0.47753638
13	0x3e493ecb	0.1965286
14	0x3f082f12	0.53196824
15	0x3eed86b1	0.46391824
16	0x3dc06c54	0.09395662
17	0xbf2bf46f	-0.6716985
18	0x3eabcbc8	0.3355391
19	0x4003c183	2.058686
20	0xbde6dbab	-0.11272367
21	0xbf88e86e	-1.0695932
22	0xbea77c37	-0.32711956
23	0x3d6ac8fc	0.05732058
24	0xbea1fa32	-0.31636196
25	0xbf4be388	-0.7964406
26	0xbe1fecd6	-0.1561769
27	0x3e2c7845	0.16842754
28	0xbe78a32a	-0.24280992
29	0xbd545e11	-0.05184752
30	0xbd5e197a	-0.054223515
31	0x3f210ca2	0.629099
32	0x3eb5e63b	0.35527214
33	0xbcf8f79b	-0.030391505
34	0xbd1a5505	-0.037678737
35	0x3fa0ede3	1.2572597
36	0x3e8e1191	0.27747777
37	0x3f01b212	0.5066234
38	0x3ef0bedb	0.4702061
39	0xbd52a31a	-0.051425077
40	0xbe5f0381	-0.2177868
41	0x3fca2ac9	1.5794307
42	0x3cbbeee7	0.022941066
43	0x3edfbcc6	0.4369871
44	0xbed20ff3	-0.41027793
45	0xbb11ebcf	-0.0022265797
46	0x3f8ca39c	1.098743
47	0x3eba60db	0.3640202
48	0x3d5b606f	0.053558763
49	0xbdb29105	-0.087190665
50	0xbdcb4a79	-0.09926314
51	0x3d63aa10	0.055582106
52	0xbc9f3331	-0.01943359
53	0xbef4d054	-0.47815192
54	0x3e0f8157	0.14014183
55	0xbd8aa885	-0.06770424
56	0xbf057139	-0.5212589
57	0x3cfa5053	0.03055588
58	0xbc860410	-0.016359359
59	0x3e4ba9b9	0.19888963
60	0x400b6cbb	2.1785114
61	0xbeb4d471	-0.3531833
62	0x3dcfca7b	0.10146042
63	0x3e17a278	0.1480807
64	0x3d7cb67c	0.06169747
65	0x3e35c930	0.17752528
66	0x3f28c3e1	0.6592389
67	0x3e823fec	0.25439394
68	0xbbbf5b80	-0.005839765
69	0xbd424014	-0.04742439
70	0x3efe59d5	0.4967791
71	0x3d1796c2	0.03700901
72	0xbe84ce7e	-0.2593879
73	0x3fc67688	1.5504923
74	0x3ed64546	0.41849726
75	0x3f854042	1.0410235
76	0xbd0a43e8	-0.033756167
77	0x3f5a3629	0.8523889
78	0xbd50207a	-0.050812222
79	0x3ebd382c	0.36956918
80	0xbed137fc	-0.40863025
81	0x3cf1ed43	0.02953208
82	0xbea649f7	-0.32478306
83	0xbda2afbc	-0.07943675
84	0x3f31d606	0.694672
85	0xbefc96f4	-0.49333918
86	0x3eb9cf6d	0.36291066
87	0x3e5ba7b7	0.21450697
88	0x3ee24f7c	0.44201267
89	0x3f2d5b12	0.6771709
90	0xbfd79b3d	-1.684425
91	0x3faa84f0	1.3321819
92	0xbe3fd371	-0.18733002
93	0x3c8a2d14	0.016867198
94	0x3ef9f3b6	0.4881875
95	0xbca2c469	-0.019869046
96	0x3e228803	0.15872197
97	0xb919b0f5	-0.00014657139
98	0x3d9d6f8b	0.07687291
99	0x3e436844	0.19082743
100	0xbe8c59c0	-0.27412224
101	0x3f86ecfc	1.0541072
102	0xbcad590c	-0.021160625
103	0xbe8d9beb	-0.27658018
104	0x3d4b8eb2	0.04969663
105	0x3e88b2d7	0.26698944
106	0x3d67e7a3	0.05661739
107	0x3d21320e	0.039354376
108	0x3dea68e2	0.11445786
109	0x3e73079a	0.23733369
110	0x3dd76ba5	0.105185784
111	0x3e674800	0.2258606
112	0xbcc93b48	-0.0245644
113	0x3e30ad56	0.17253622
114	0x3ed049a4	0.40681183
115	0xbc84a8f4	-0.016193844
116	0xbf061955	-0.52382404
117	0xbd12e46a	-0.035862364
118	0x3d2d7777	0.04235026
119	0xbe325824	-0.17416435
120	0x3df93b3d	0.12169502
121	0x3fe6ac44	1.8021321
122	0x3f6cdfe4	0.9252913
123	0xbf5922b8	-0.848186
124	0x3d2df9e4	0.042474642
125	0x3d45fa78	0.04833457
126	0x3d3df07f	0.046371933
127	0x3e856b6a	0.26058513
128	0x3ebddbe0	0.37081814
129	0x3ec7080e	0.38873333
130	0x3e092094	0.13391334
131	0x3e4f483b	0.20242397
132	0xbd4e7957	-0.050408687
133	0xbc983ea6	-0.01858456
134	0xbe3df9a3	-0.1855226
135	0xbb1e0397	-0.0024111026
136	0xbedcb21a	-0.4310463
137	0x3e8f003b	0.27929863
138	0xbb912f9e	-0.0044307252
139	0x3eaa1339	0.3321779
140	0xbdc41319	-0.09573955
141	0x3d7111bb	0.0588548
142	0x3c599921	0.013281138
143	0x3f22d2e5	0.6360305
144	0xbe100f4b	-0.14068334
145	0x3e9a9dc3	0.30198488
146	0x3eb6a058	0.35669208
147	0x3b76b980	0.0037647188
148	0x3dc432dc	0.09580013
149	0xbe6dfd71	-0.23241211
150	0x3e0054c7	0.1253234
151	0x3f89a678	1.0753927
152	0x3dc76c7e	0.0973749
153	0x3e41365a	0.1886839
154	0x3f839532	1.0279906
155	0xbf01bf45	-0.5068248
156	0xbef9a69c	-0.48759925
157	0x3cc05dc1	0.023482205
158	0xbc82916d	-0.015938485
159	0x3e2b4662	0.16726068
160	0x3f0e723a	0.55643046
161	0xbd63becb	-0.055601876
162	0xbc8bb6d4	-0.017054953
163	0x3e12c385	0.14332397
164	0x3d00299a	0.031289674
165	0xbd588559	-0.052861545
166	0x3dba4767	0.0909565
167	0x3c98059e	0.018557366
168	0x3cccc469	0.024996
169	0x3e4717f0	0.19442725
170	0x3f110215	0.566438
171	0x3daaad32	0.08333816
172	0x3fa4d5fb	1.2877802
173	0x3d229caa	0.039700188
174	0xbfc93434	-1.5719056
175	0xbcb817c7	-0.022472275
176	0x3f89c7b5	1.0764071
177	0x3e79e4af	0.24403642
178	0xb8d8bc0a	-0.000103347076
179	0xbd053366	-0.03251972
180	0xbacf6951	-0.0015824233
181	0x3e43df97	0.19128262
182	0xbb451340	-0.0030071288
183	0x3f2bec4a	0.67157423
184	0x3e785e9b	0.24254839
185	0xbe541290	-0.20710206
186	0x3daf6aaf	0.0856527
187	0xbd444246	-0.047914766
188	0xbe050264	-0.12989193
189	0x3e4a96cc	0.19784087
190	0x3ecfb8e6	0.40570754
191	0xbd310724	-0.0432197
192	0x3f611a80	0.8793106
193	0x3eb8e8e4	0.3611518
194	0xbda7f785	-0.082015075
195	0x3ebd95c9	0.3702834
196	0xbfe1129a	-1.7583802
197	0xbd305147	-0.043046262
198	0xbf42e5d1	-0.7613192
199	0x3d91de9e	0.07122539
200	0x3ebe1d72	0.3713184
201	0x3ed8183b	0.42205986
202	0x3f4308ae	0.7618512
203	0x3f3b000d	0.7304695
204	0x3e11c47d	0.1423511
205	0x3d8012f3	0.06253614
206	0xbcbe0a23	-0.023198193
207	0x3c906296	0.017625134
208	0xbc9f9873	-0.019481873
209	0x3eb21ed3	0.34789142
210	0x3f39d73a	0.72594035
211	0xbd6fb6db	-0.058523994
212	0x3e87e7d4	0.26544058
213	0x3bb91358	0.005648058
214	0xbd3e53f8	-0.046466798
215	0x3e6b32de	0.22968623
216	0x3f846976	1.0344684
217	0xbb8ec7db	-0.0043573207
218	0x3f00411d	0.50099355
219	0x3bea0be0	0.007142529
220	0x3c3d4ad8	0.011553489
221	0xbdbe2f92	-0.09286417
222	0x3f0684d9	0.5254646
223	0xbdc03547	-0.09385162
224	0xbde70739	-0.112806745
225	0x3b82ae40	0.0039880574
226	0xbe8dcdfd	-0.2769622
227	0xbd7c7e52	-0.061643906
228	0x3d6fba08	0.058527023
229	0xbd96ed8d	-0.07369528
230	0x3f31efa8	0.6950631
231	0x3d3d486e	0.046211652
232	0xbefb819c	-0.49122322
233	0x3ba41088	0.0050068535
234	0x3ca1b538	0.019739732
235	0x3efbb3b9	0.49160555
236	0xbf348272	-0.70511544
237	0x3f99fa33	1.202948
238	0xbd4d6bb4	-0.05015154
239	0x3b8254e0	0.003977403
240	0xbef4e56c	-0.47831285
241	0x3edfe189	0.43726757
242	0xbb2ae416	-0.0026075891
243	0x3b73ab5c	0.0037180996
244	0xbe8f3b2a	-0.27974826
245	0xbdb0d74a	-0.08634813
246	0x3f058428	0.5215478
247	0xbeba9b88	-0.36446786
248	0xbd6128f0	-0.05497068
249	0xbe42139a	-0.1895279
250	0x3cffe4f4	0.031237103
251	0x3c8780b5	0.016540864
252	0xbe0630bf	-0.13104533
253	0xbe97e7af	-0.29668948
254	0x3d2dd087	0.042435195
255	0x3d5704fa	0.05249498

linear2.bias f4 [256]
0	0x3e3d53e6	0.18489036
1	0xba94e72e	-0.0011360401
2	0xbc38d0f0	-0.011280283
3	0x3e5307a4	0.20608383
4	0x3dd7c0c0	0.10534811
5	0xbb95a056	-0.0045662327
6	0x3bad512e	0.0052892184
7	0x3e1cc26b	0.1530854
8	0x3c778933	0.015108394
9	0xbdb97820	-0.09056115
10	0xbd7411b4	-0.059587196
11	0x3c0fac1c	0.008769061
12	0x3e2c5d0e	0.16832373
13	0xbd26deb6	-0.040739737
14	0xbd1ca536	-0.038243495
15	0xbd888285	-0.066655196
16	0x3d334ad0	0.04377252
17	0x3db3bd5b	0.08776351
18	0xbd26b705	-0.040701885
19	0x3e130d89	0.14360632
20	0x3e0d3690	0.13790345
21	0xbc81a3ed	-0.015825236
22	0x3c1c6b65	0.009547089
23	0xbd837e25	-0.064205445
24	0xbcf08f44	-0.02936519
25	0xbdae066f	-0.08497321
26	0xbc410bf9	-0.01178264
27	0xbd8f6375	-0.07001392
28	0xbd837b05	-0.064199485
29	0x3c7ee4cb	0.015557478
30	0x3b4fc3f0	0.0031702481
31	0x3d37602f	0.044769462
32	0xbd3b61f8	-0.045747727
33	0x3d909fe2	0.07061745
34	0x3e23b0b7	0.1598538
35	0xbd0a6b95	-0.033794004
36	0xbd59057a	-0.05298374
37	0x3e79abe8	0.24381983
38	0x3cc7aff8	0.0243759
39	0x3e0171b7	0.12641035
40	0x3da53535	0.08066789
41	0x3cebefaa	0.028800804
42	0xbdacf9af	-0.08446061
43	0x3d80cd54	0.06289163
44	0x3dde3ac5	0.10851053
45	0xbd12ba26	-0.035822056
46	0x3d5f59c9	0.054528985
47	0xbd2a6c8f	-0.041607436
48	0x3e469964	0.19394451
49	0xbd87d065	-0.06631545
50	0x3e16a590	0.14711595
51	0x3d95f1ee	0.07321535
52	0x3e833713	0.25627956
53	0x3b8b7532	0.004255914
54	0xbcaa5457	-0.02079217
55	0x3d453408	0.048145324
56	0x3c99d5ad	0.018778646
57	0xbb9cef6e	-0.0047892844
58	0xbd99c15e	-0.07507585
59	0x3cc31380	0.02381301
60	0x3d2ae416	0.041721426
61	0xbd81c96d	-0.06337247
62	0xbd64d5b3	-0.055867862
63	0xbca464cf	-0.0200676
64	0xbd89b975	-0.06724826
65	0xbc29b4f7	-0.010358087
66	0xbda3599f	-0.07976078
67	0x3c7f1473	0.01556884
68	0xbd83726d	-0.06418309
69	0x3d170a08	0.0368748
70	0xbc3bc080	-0.01145947
71	0xbe00a853	-0.1256421
72	0x3e2a5419	0.16633643
73	0xbd60c513	-0.054875445
74	0xbd80c2ed	-0.06287179
75	0x3dbdacd7	0.09261482
76	0xbd5ff92a	-0.05468098
77	0x3d10a2c6	0.035311483
78	0xbceba0c3	-0.02876318
79	0xbd610dbb	-0.054944735
80	0x3df56614	0.119823605
81	0x3d56efe2	0.052474864
82	0x3d9ae21a	0.07562657
83	0x3e86747d	0.26260749
84	0x3e89a3fe	0.2688293
85	0xbc937416	-0.01799969
86	0x3e4da8dc	0.20083946
87	0x3da23b3f	0.079214565
88	0x3d667123	0.05626024
89	0xbd9031b6	-0.070407316
90	0x3d1ecb35	0.038768012
91	0x3e1f117d	0.15534015
92	0x3c461a80	0.012091279
93	0xbd3ec398	-0.04657325
94	0x3e4fd42c	0.20295781
95	0xbd14ca46	-0.036325715
96	0x3de0322f	0.10947072
97	0xbc08c4ed	-0.008347732
98	0x3db679c5	0.089099444
99	0xbc446691	-0.011987344
100	0xbc03a535	-0.008034994
101	0xbca8f0df	-0.020622669
102	0x3e268bd8	0.16264284
103	0xbd839275	-0.06424419
104	0xbcb072c0	-0.021539092
105	0xbcfc97bc	-0.030834071
106	0x3e029897	0.12753521
107	0xbc0ee5ad	-0.008721751
108	0x3db94e9f	0.09048199
109	0x3e0f4aea	0.13993421
110	0x3db79ec5	0.0896583
111	0x3da5d1a3	0.08096626
112	0x3d85966d	0.06522832
113	0x3c53ef21	0.012935431
114	0xbd25e9df	-0.04050624
115	0x3d9fd924	0.07805088
116	0xbd3dce48	-0.046339303
117	0xbc45f8e9	-0.012083271
118	0xbd3a1910	-0.045434058
119	0xbdac3d67	-0.08410149
120	0x3cdaa451	0.02668968
121	0x3cfc13b3	0.030771112
122	0xbd12924e	-0.03578406
123	0x3e02d3a2	0.12776044
124	0xbd3c6ad0	-0.0460003
125	0xbd0215fd	-0.03175925
126	0xbd8954ad	-0.06705604
127	0xbd4d25a1	-0.050084714
128	0x3cb4402f	0.022003261
129	0x3c72714b	0.014797519
130	0x3c50b491	0.012738363
131	0x3dbf8126	0.09350805
132	0x3e69498b	0.2278196
133	0xbd1172ce	-0.035509877
134	0xbd602cbb	-0.05473016
135	0xbdae2a5f	-0.085041754
136	0x3ce2e1b2	0.02769551
137	0x3b627132	0.0034552333
138	0xbc6f20db	-0.014595236
139	0xbd31d4a8	-0.043415695
140	0xbcdd70ba	-0.027031291
141	0x3d1f205d	0.038849223
142	0x3de7ffdd	0.11328099
143	0xbd164146	-0.036683343
144	0xbbf6c134	-0.007530356
145	0xbd004e4a	-0.031324662
146	0x3d9a1bed	0.07524858
147	0x3e0d8d27	0.13823377
148	0x3caef202	0.021355633
149	0xbcc9b911	-0.02462438
150	0x3ddb0c1b	0.10695668
151	0xbd48eeb9	-0.04905579
152	0x3d360eaf	0.044447597
153	0x3d8ec303	0.06970789
154	0x3dba3580	0.090922356
155	0xbd6c233b	-0.057650786
156	0x3db56c12	0.088585034
157	0x3d3557df	0.044273254
158	0x3d3335c7	0.043752458
159	0xbd5cbab2	-0.053888984
160	0xbbbb0c08	-0.0057082213
161	0x3da4e4fd	0.080514885
162	0x3dbd83a4	0.09253624
163	0xbda76977	-0.08174413
164	0xbbdb447a	-0.0066915127
165	0xbdaed577	-0.08536809
166	0x3dfca1a7	0.1233552
167	0xbd14e40e	-0.036350302
168	0x3be20c6a	0.0068984525
169	0x3d25605e	0.040375106
170	0x3db8df91	0.09027017
171	0xbcde2532	-0.027117345
172	0x3ca238a0	0.019802392
173	0xbd09ffc5	-0.033691186
174	0x3df1a87f	0.11799716
175	0x3d9c2ba5	0.07625512
176	0x3b00ffdc	0.0019683754
177	0x3c4802c8	0.012207694
178	0xbc9c5c8e	-0.019087102
179	0x3d0aef9c	0.033919916
180	0x3e18d2b7	0.14924131
181	0x3d2f902e	0.04286211
182	0x3c8da2c5	0.017289529
183	0xbd493121	-0.04911912
184	0x3cf7bfe3	0.030242866
185	0xbd267a67	-0.040644076
186	0x3c81fdc4	0.015868075
187	0x3d98a791	0.07453836
188	0x3d8b945a	0.06815405
189	0xbd251df7	-0.04031178
190	0xbc141cd6	-0.009040078
191	0xbac32ed9	-0.0014891281
192	0x3cd4c5f9	0.025973307
193	0xbc2006d7	-0.009767256
194	0xbda663bf	-0.08124494
195	0x3c3cf9c7	0.011534161
196	0x3a6bca2a	0.00089946634
197	0x3b3a578f	0.0028433537
198	0x3d6c342a	0.057666935
199	0x3e10408f	0.14087127
200	0x3d34c36f	0.044131692
201	0xbb9dd906	-0.004817131
202	0xbb3ab938	-0.0028491747
203	0x3cf7dfeb	0.03025814
204	0xbb0703b5	-0.0020601575
205	0x3dde2405	0.10846714
206	0xbb4ad319	-0.0030948578
207	0xbcb64ec0	-0.022254348
208	0x3d2a022e	0.041505985
209	0x3a9ee755	0.0012123386
210	0x3b462bb0	0.0030238442
211	0xbd7c723c	-0.06163238
212	0xbd5b78d2	-0.05358202
213	0xbd9e0a3e	-0.07716797
214	0x3cea1aea	0.028577287
215	0xbd487411	-0.048938815
216	0x3bac685e	0.005261465
217	0x3ceee4b2	0.029161785
218	0xbd44d581	-0.048055176
219	0x3d3dff7f	0.04638624
220	0x3d9953c9	0.07486684
221	0xbd68b83b	-0.05681632
222	0x3cf7cad3	0.030248081
223	0xbcc7c6a1	-0.024386706
224	0x3c9fce95	0.019507686
225	0x3e2ab4c2	0.16670516
226	0x3d67e8b3	0.056618404
227	0xbc6c6e3b	-0.014430578
228	0xbd86c6c5	-0.06580881
229	0x3dd1c93b	0.1024346
230	0x3d2eccde	0.042675845
231	0x3c5a4119	0.013321185
232	0x3dde7284	0.10861686
233	0x3d80abb6	0.06282751
234	0x3e82d9e3	0.2555686
235	0x3d78c909	0.060738597
236	0x3d26cf8e	0.040725283
237	0x3c7fb3d3	0.015606838
238	0xbce8e973	-0.02843163
239	0xbd531142	-0.05153013
240	0xbc920676	-0.017825346
241	0x3d93c739	0.07215733
242	0x3c58aad9	0.013224327
243	0xbdbabd20	-0.09118104
244	0x3e051912	0.12997845
245	0x3d036a9c	0.032084092
246	0x3d03a536	0.03213998
247	0xbd0c7c7d	-0.03429841
248	0x3e0711ac	0.13190335
249	0xbcca5d21	-0.02470261
250	0x3e06ca20	0.13163042
251	0xbd9dc7d6	-0.07704131
252	0x3da50ab5	0.08058683
253	0xbb70bbcc	-0.003673303
254	0x3df0b7d4	0.117538124
255	0x3d8b6807	0.06806951

linear3.weight f4 [1, 256]
0	0xbf3bc2bb	-0.7334401
1	0xbd464bb9	-0.04841206
2	0x3b8b36b4	0.0042484645
3	0xc00d1b6c	-2.2047987
4	0x3f386fb5	0.7204545
5	0xbe69b55a	-0.22823086
6	0xbe50e9b1	-0.20401646
7	0xbf31524d	-0.69266206
8	0xbe45e7b8	-0.19326675
9	0xbe38a9df	-0.1803355
10	0x3d2a7cf6	0.04162308
11	0xbb2ab2df	-0.0026046557
12	0x3f3f4489	0.7471395
13	0xbcac7b24	-0.021054812
14	0x3c976c7d	0.018484348
15	0xbbe5a64a	-0.0070083486
16	0xbd70d9bc	-0.058801398
17	0x3f490c5d	0.7853449
18	0xbfe96b3a	-1.8235848
19	0xbf1d5678	-0.61460066
20	0xbf22a427	-0.63531727
21	0xbe43ea58	-0.19132364
22	0xbe57f8b9	-0.21090974
23	0x3cc838b0	0.024441093
24	0xbe448058	-0.19189584
25	0xbe462d40	-0.19353199
26	0x3d429f18	0.047515005
27	0xbe321d4f	-0.17393993
28	0x3d50a1d1	0.05093557
29	0x3cbbc9df	0.022923408
30	0xbe3817c7	-0.1797782
31	0x3ca403ee	0.020021405
32	0x3c378fd7	0.011203728
33	0x3f4ab2c5	0.7917903
34	0xc0381373	-2.876187
35	0x3cbcf9c7	0.023068322
36	0xbcc6fd10	-0.024290591
37	0xc0487715	-3.1322682
38	0xbe4367e0	-0.19082594
39	0xbf252b6a	-0.6451937
40	0x3f3ff07a	0.74976313
41	0xbe33afa7	-0.17547475
42	0xbe28d3f6	-0.16487107
43	0x3f559344	0.83427835
44	0xbf9afd29	-1.2108508
45	0x3a1649dd	0.00057330524
46	0x3d31f3e7	0.043445494
47	0xbe528ae1	-0.2056079
48	0xbfe4c06c	-1.7871222
49	0xbe63548a	-0.22200218
50	0xbf46ae59	-0.77609783
51	0x3f437f0e	0.76365745
52	0xbfee3878	-1.8610983
53	0xbff2c4c9	-1.8966304
54	0xbcbd520f	-0.023110418
55	0x3d03965c	0.032125816
56	0x3c91fddd	0.017821247
57	0xbe32206f	-0.17395185
58	0xbe4aa1e0	-0.19788313
59	0xbe387c8f	-0.18016265
60	0x3d1758f5	0.03695007
61	0x3c38570f	0.011251225
62	0xbad0e501	-0.0015937389
63	0xbe523361	-0.20527412
64	0xbe2af226	-0.16693935
65	0xbd289ed6	-0.041167103
66	0xbe3f8b97	-0.18705593
67	0x3cd33d01	0.025785925
68	0xbe486d08	-0.19572842
69	0x3ca28642	0.01983941
70	0xbac9ab01	-0.0015386046
71	0x407424d0	3.8147469
72	0x3f3c9b42	0.73674405
73	0xba99e6dd	-0.0011741776
74	0x3bd9b541	0.0066439216
75	0x3f394153	0.723653
76	0xbe558f89	-0.20855536
77	0xbf2e27f4	-0.68029714
78	0x3b2d0246	0.002639906
79	0xbbd70d92	-0.006562897
80	0xbf109d77	-0.5649027
81	0xbf3d6e81	-0.7399674
82	0xbf2e1b98	-0.68010855
83	0xc031c88e	-2.777866
84	0xc02cca2c	-2.6998396
85	0xbe325e27	-0.17418729
86	0xc0154ea5	-2.332925
87	0xbf1fc4b1	-0.624095
88	0x3f42bb86	0.7606739
89	0xbe348fdf	-0.17633007
90	0xbe28bbbe	-0.16477868
91	0x3f44b5d7	0.76839966
92	0x3d24106e	0.04005473
93	0x3d360eaf	0.044447597
94	0xbff477a6	-1.9099014
95	0xbe2fdd86	-0.17174348
96	0x3f48262a	0.78183234
97	0xbe17d915	-0.14828904
98	0xbf1d00e7	-0.613295
99	0x3d00fa64	0.03148879
100	0xbe327fbf	-0.17431544
101	0xbc167efd	-0.00918555
102	0x3f39e2f7	0.72611946
103	0xbc6240c2	-0.013809385
104	0x3bf5c34c	0.007500088
105	0xbc99b34d	-0.018762255
106	0x3f4f9175	0.81081325
107	0x3d55e3e9	0.052219305
108	0x3f42e1a7	0.7612557
109	0xbf35770f	-0.70884794
110	0xbf346206	-0.7046207
111	0x3f3d0f85	0.73851806
112	0x3f436690	0.7632837
113	0x3d0aff3c	0.033934817
114	0x3d011364	0.031512633
115	0x3f3c7cd8	0.73627996
116	0x3c8b8ca4	0.017034836
117	0x3adc7079	0.0016818187
118	0x3c9bb6ed	0.019008124
119	0xbe45e498	-0.19325483
120	0x3cfe9ceb	0.031080684
121	0x3cf9fe1b	0.030516675
122	0xbe33223f	-0.17493533
123	0xbf37891a	-0.71693575
124	0x3cf3eaa3	0.02977497
125	0x3b523e51	0.00320806
126	0xbe6867c2	-0.2269583
127	0xbe479e00	-0.19493866
128	0xbc2776be	-0.010221181
129	0xbd168d0d	-0.03675561
130	0xbe64006a	-0.22265783
131	0xbf261f08	-0.648911
132	0xbff5b77f	-1.9196624
133	0x3d3af23f	0.04564118
134	0x3c379eaf	0.011207267
135	0xbe429040	-0.1900034
136	0xbd4ebbe0	-0.05047214
137	0x3c91425d	0.01773184
138	0xbbf936e3	-0.00760542
139	0xbd1e760d	-0.0386868
140	0xbe46b210	-0.19403863
141	0x3d2c8f6e	0.042128973
142	0xbfb82f3e	-1.4389417
143	0x3ce82f82	0.028342966
144	0x3b656aea	0.0035006353
145	0x3cd8ce02	0.02646542
146	0xbf3a7ca5	-0.7284644
147	0x3f47c3d4	0.78033185
148	0xbf3ba052	-0.73291504
149	0x39c00640	0.0003662575
150	0xbfc65c88	-1.5496988
151	0xbe3e2d97	-0.18572079
152	0x3cf240db	0.029571941
153	0x3f3a1db6	0.72701585
154	0x3f38df7b	0.72216004
155	0x3bed6b5a	0.0072454633
156	0x3f4c5919	0.7982345
157	0x3c987875	0.018612126
158	0x3d1951a5	0.037431378
159	0x3c059d1d	0.0081551345
160	0xbb5ed112	-0.0033999127
161	0x3f4126cb	0.7544982
162	0x3f40a337	0.75249046
163	0xbe5863c1	-0.21131803
164	0xbe29a0a6	-0.16565189
165	0xbe1e9b8d	-0.15489025
166	0xbf31d65b	-0.69467705
167	0x3c1ed495	0.009694238
168	0xbe46f860	-0.19430685
169	0x3c6fbde2	0.014632674
170	0xbf9a3721	-1.2048074
171	0xbe2c9356	-0.16853079
172	0xbcb58294	-0.022156991
173	0xbe596271	-0.21228959
174	0x3f479b13	0.77971
175	0xbf3ad9ee	-0.72988784
176	0xbc0f080c	-0.008729946
177	0xbe390f6f	-0.18072294
178	0x3d355bc7	0.04427698
179	0xbe3d2ee7	-0.18474923
180	0xbf18d8df	-0.5970592
181	0x3cab8ff6	0.02094267
182	0xbfe39718	-1.7780485
183	0xbe54a529	-0.20766129
184	0xbe51d029	-0.20489563
185	0xbbb3a4b7	-0.005482282
186	0x3bda5311	0.0066627343
187	0x3f45251c	0.7700975
188	0x3f58012d	0.84376794
189	0x3c0e0a24	0.00866941
190	0x3d15c765	0.03656711
191	0xbe375157	-0.17902122
192	0x3d1bfecd	0.038084794
193	0x3d302adf	0.043009635
194	0xbe3c54ef	-0.18391775
195	0xbc31315f	-0.010814994
196	0xbe627452	-0.22114685
197	0x3d51edd9	0.05125222
198	0xbf1aff9c	-0.6054628
199	0xbf09beb6	-0.53806627
200	0x3d1654cd	0.036701966
201	0x3cf4127b	0.029793968
202	0xbe377d17	-0.17918812
203	0xbe3fc94f	-0.18729137
204	0x3d4c3a78	0.049860448
205	0x3f3b8513	0.7324993
206	0x3d589a71	0.05288166
207	0xbe3b4cdf	-0.18291043
208	0x3c0c24e8	0.008553721
209	0x3d00eac4	0.03147389
210	0x3c18f705	0.009336238
211	0xbe2fa9f6	-0.17154679
212	0xbe469e88	-0.19396412
213	0xbe4b10d0	-0.19830632
214	0x3d2e3166	0.04252758
215	0xbe2b65c6	-0.16738042
216	0xbb591f42	-0.0033130203
217	0x3befa73a	0.007313636
218	0xbd860825	-0.06544522
219	0x3d2a137f	0.0415225
220	0x3f41ff96	0.7578062
221	0xbe4e9660	-0.20174551
222	0x3d269fe6	0.040679835
223	0x3bf7f5cc	0.007567143
224	0x3c69ef2a	0.014278213
225	0x3f3b3140	0.73122025
226	0xbf1e720f	-0.6189279
227	0xbd369b4f	-0.044581708
228	0x3b5388ca	0.0032277578
229	0x3f48c17f	0.7842025
230	0xbbf28b14	-0.0074018333
231	0x3ca265de	0.019823965
232	0xbfb5abfa	-1.4193108
233	0xbf296846	-0.66174734
234	0xbfeca6b5	-1.8488375
235	0x3f381011	0.71899515
236	0xbbd97dca	-0.0066373097
237	0xbbb25018	-0.005441677
238	0xbc866f44	-0.016410477
239	0xbe5e7991	-0.21726061
240	0xbe6e5042	-0.23272803
241	0x3f49eee6	0.78880155
242	0x3d10be55	0.035337765
243	0xbe24db8e	-0.16099378
244	0xbfb24e80	-1.3930206
245	0x3cb611cf	0.022225289
246	0xbfb0000d	-1.3750015
247	0xbc2aff6e	-0.010436876
248	0xbfe5ae8b	-1.7943891
249	0xbe4632b8	-0.19355285
250	0xbf222b3e	-0.6334723
251	0xbe31dd3f	-0.17369555
252	0xbf33d31b	-0.70243996
253	0xbd1e3536	-0.038624965
254	0xbfde90f8	-1.7387991
255	0x3f432c1f	0.762392
