turtlebot3_rl_sim/src/models/td3/stage_1_improve_more_buffer_add_sn/td3_critic1_model_ep3000.pt (torch_old, 344052 bytes, 5 tensors)

linear1.weight f4 [256, 76]
0	0xbe8a7b92	-0.27047402
1	0xbe3c8619	-0.18410529
2	0xbd1f28ba	-0.0388572
3	0xbe67cacf	-0.22635959
4	0xbd433c82	-0.047665127
5	0xbd92ae26	-0.071621224
6	0xbe05b3ee	-0.13056919
7	0xbdacbd56	-0.084345505
8	0x3d135bf7	0.035976376
9	0x3dac81a6	0.08423166
10	0x3ca604da	0.020265985
11	0x3e221e77	0.15831934
12	0x3cb6a429	0.022295075
13	0xbda8da76	-0.08244793
14	0xbde2d427	-0.11075621
15	0xbe3b2674	-0.18276387
16	0xbea628c2	-0.3245297
17	0xbedd6929	-0.43244293
18	0xbeb763c9	-0.35818318
19	0xbe9f7ec4	-0.31151402
20	0xbe74ccda	-0.2390627
21	0xbe971f09	-0.29515865
22	0xbe430578	-0.19045055
23	0xbe35b831	-0.17746045
24	0xbdb9ceba	-0.09072633
25	0xbe35c9e4	-0.17752796
26	0xbdb8f624	-0.090313226
27	0xbe11cdc2	-0.14238647
28	0xbdb988bb	-0.090592824
29	0xbe1e4fc7	-0.1546012
30	0x3b4b2e11	0.00310028
31	0x3aaabd7e	0.0013026444
32	0xbbe95424	-0.007120626
33	0xbb31ed5d	-0.0027149536
34	0x3e0d924d	0.1382534
35	0x3e071e86	0.13195238
36	0x3d8a99f6	0.06767647
37	0x3e017ee3	0.1264606
38	0x3e1fd0d1	0.15607001
39	0x3d4a228c	0.049349353
40	0xbd543f4d	-0.05181818
41	0x3d7b5e3d	0.06136917
42	0x3d64a107	0.05581763
43	0xbc64b305	-0.013958697
44	0x3bd7bfcb	0.006584143
45	0x3d6ef166	0.058335684
46	0x3e00d2e9	0.12580456
47	0x3e4fb92b	0.2028548
48	0x3df8ddd4	0.12151685
49	0x3e9ae897	0.30255577
50	0x3e0b17bd	0.13583274
51	0x3e9b94cd	0.30386963
52	0x3df9cafb	0.121969186
53	0x3e9bb2ca	0.30409843
54	0x3e7d44ba	0.24733248
55	0x3e2d46fd	0.16921611
56	0x3ea7e0db	0.3278874
57	0x3e65f902	0.2245827
58	0x3e939c61	0.28830245
59	0x3e9b1888	0.30292153
60	0x3e8a9fb3	0.27074966
61	0x3ea54581	0.3227959
62	0x3ebf6f7a	0.37389737
63	0x3e490856	0.19632086
64	0x3e80f731	0.25188592
65	0x3e4605d1	0.19338156
66	0x3e3c0981	0.18363
67	0xbe8d4845	-0.275942
68	0xbe8b4514	-0.2720114
69	0xbe1729c7	-0.1476203
70	0xbea44c8c	-0.3208965
71	0xbe5e13b3	-0.21687202
72	0x3ed37e5f	0.4130735
73	0x3f53f591	0.8279658
74	0xbd4859a4	-0.048913613
75	0x3baeaed5	0.0053309
76	0x3ea263fc	0.31716907
77	0x3e141c0c	0.14463824
78	0x3d67ef79	0.056624863
79	0x3e39b3d3	0.18135004
80	0xbd57d05c	-0.05268894
81	0xbc891c83	-0.016737228
82	0xbe922d06	-0.28549975
83	0xbe87e1fb	-0.26539597
84	0xbe13ecb2	-0.14445761
85	0xbebbbf8d	-0.3666958
86	0xbed50d2f	-0.4161162
87	0xbe8fe156	-0.28101605
88	0xbe986f3f	-0.29772374
89	0xbed45d6c	-0.41477525
90	0xbec9aeed	-0.3939127
91	0xbebc0a4c	-0.36726606
92	0xbe98b938	-0.2982881
93	0xbe96664a	-0.29374915
94	0xbe42c794	-0.19021446
95	0xbe5aaa5e	-0.21354052
96	0xbe484cc0	-0.19560528
97	0x3d7ec04f	0.06219512
98	0x3d54cf0b	0.051955264
99	0x3d59a13a	0.053132273
100	0xbcdcc293	-0.026948249
101	0xbd39f167	-0.045396235
102	0x3cb8f9a0	0.022579968
103	0x3e14227a	0.14466277
104	0x3d9e9e35	0.07745019
105	0x3e1eac2c	0.15495366
106	0x3e0e59f5	0.13901503
107	0x3e2f84e4	0.17140538
108	0x3d1b8c4e	0.0379756
109	0x3e612623	0.21987204
110	0x3e05c27d	0.13062473
111	0x3e8f1ee5	0.27953258
112	0x3e5f6bbe	0.21818444
113	0x3d6b1c1a	0.057399847
114	0x3d4bf5f0	0.04979509
115	0x3e4e8003	0.2016602
116	0x3e153fe4	0.14575154
117	0x3cc49a23	0.02399928
118	0x3e24de69	0.16100468
119	0xbc80e3d2	-0.015733633
120	0x3b408a97	0.002937948
121	0x3db4a1cc	0.08819923
122	0x3bf8beb1	0.0075910916
123	0x3c8ec4b6	0.017427783
124	0xbdc9ff88	-0.09863192
125	0xbdc76d9c	-0.09737703
126	0x3688300a	4.0587083e-06
127	0xbe56867e	-0.20949742
128	0xbda2a8f7	-0.07942384
129	0xbe56ce49	-0.20977129
130	0xbdee5623	-0.11637523
131	0xbe78ed8f	-0.24309371
132	0xbe7a9ddf	-0.24474286
133	0xbe58aa68	-0.21158755
134	0xbed8f2f0	-0.42372847
135	0xbeb6bc98	-0.3569076
136	0xbe977da9	-0.2958806
137	0xbe354d2c	-0.1770522
138	0xbe61cd36	-0.22050938
139	0xba5d7699	-0.00084481534
140	0x3e48c788	0.19607365
141	0x3e657d0a	0.2241098
142	0x3e8660be	0.26245683
143	0x3eecf8ae	0.46283478
144	0x3edcab43	0.43099412
145	0x3eddd05e	0.43323034
146	0x3f02d756	0.51109827
147	0x3edfa05e	0.43677038
148	0x3cdc78fa	0.026913155
149	0x3fc76130	1.5576534
150	0xbc272327	-0.010201252
151	0x3bf66d9d	0.007520391
152	0x3dcbdcb8	0.09954208
153	0xbdffd314	-0.12491432
154	0xbbd9070a	-0.0066231536
155	0xbddc2192	-0.107485905
156	0x3c8731cc	0.016503237
157	0x3d1ca215	0.03824051
158	0xbc4dfd41	-0.0125725875
159	0x3d36568f	0.044516142
160	0x3d96083d	0.0732579
161	0xbdc58ac1	-0.09645606
162	0x3dab762e	0.0837215
163	0xbc97023e	-0.018433686
164	0xbd66bc6b	-0.056332033
165	0x3b2f853e	0.00267823
166	0x3d536349	0.051608358
167	0xbd842eb5	-0.06454221
168	0xbd269f1f	-0.040679093
169	0x3daafea6	0.083493516
170	0x3d5ad7e1	0.053428534
171	0x3d858a5c	0.065205306
172	0xbc8b9925	-0.017040798
173	0xbd9cc156	-0.076540634
174	0xbdc41c59	-0.095757194
175	0xbd570c02	-0.052501686
176	0xbd114006	-0.035461448
177	0xbd90ca0e	-0.07069789
178	0xbd99ef76	-0.07516377
179	0xbc408729	-0.011750975
180	0x3d710e9b	0.05885182
181	0x3c320c1f	0.010867148
182	0x3a303a7f	0.0006722584
183	0xbc9bb23e	-0.019005891
184	0x3d8fc38c	0.070197195
185	0x3bc0a1b8	0.0058786534
186	0x3cbd3c2f	0.023099987
187	0x3c5843b9	0.01319974
188	0xbce6e9bb	-0.028187623
189	0x3d24746e	0.0401501
190	0xbdf3ec34	-0.119102865
191	0xbda9728f	-0.082738034
192	0xbd4303e1	-0.04761112
193	0x3d240006	0.040039085
194	0xbbfaa86c	-0.007649472
195	0x3d7d91bb	0.061906558
196	0x3c7dcf73	0.015491354
197	0xbdb0d530	-0.08634412
198	0xbbd620da	-0.006534678
199	0xbcfef084	-0.031120546
200	0xbde5ceeb	-0.11221107
201	0xbc8385f5	-0.016055087
202	0x3db11ab7	0.086476736
203	0xbde85503	-0.1134434
204	0xbcb0ae20	-0.021567404
205	0x3da87c76	0.08226864
206	0xbdbac360	-0.09119296
207	0xbddbc882	-0.10731603
208	0x3d18a36d	0.03726523
209	0xbd8743c5	-0.06604723
210	0xbdfb31ec	-0.12265381
211	0x3c39ba87	0.0113359755
212	0xbce6ec13	-0.02818874
213	0xbd01bced	-0.031674314
214	0xbdd2c192	-0.10290827
215	0xbdefe9a3	-0.117144845
216	0xbd6ff6eb	-0.05858509
217	0xbcf6355c	-0.03005474
218	0x3c1e6415	0.009667416
219	0xbdc79249	-0.097446986
220	0xbda7dea7	-0.081967644
221	0x3d9945ed	0.074840404
222	0x3d740083	0.0595708
223	0xbdf8d21c	-0.1214945
224	0xbd8d159c	-0.06888887
225	0xb9ca01b9	-0.00038529726
226	0xbd747424	-0.059681073
227	0x3c496e10	0.012294307
228	0xbd1201c6	-0.035646223
229	0x3d697482	0.056995876
230	0xbd8f003d	-0.06982467
231	0x3d4d8680	0.050177097
232	0x3d3ce707	0.046118762
233	0x3d6af28a	0.05736021
234	0xbd943e6e	-0.0723847
235	0xbc885f5d	-0.016647035
236	0x3ce069aa	0.027394135
237	0xbde7cddb	-0.11318561
238	0xbd923ace	-0.07140122
239	0x3da2b4c6	0.07944636
240	0xbd616473	-0.055027436
241	0x3b550159	0.0032502024
242	0x3d022bdc	0.03178011
243	0xbcdf47d2	-0.027255926
244	0x3d1a3435	0.037647445
245	0x3c5ce419	0.013482117
246	0x3d22c9de	0.039743297
247	0x3dc0f488	0.09421641
248	0x3ce35a02	0.02775288
249	0xbc0cd0dd	-0.008594719
250	0xbddcd222	-0.10782267
251	0x3d5eef89	0.054427657
252	0x3dc79d38	0.09746784
253	0xbd56ef1a	-0.05247412
254	0xbd4c9451	-0.049946133
255	0x3dd25d91	0.102717526

linear1.bias f4 [256]
0	0x3d98fb8f	0.07469856
1	0x3d950361	0.07276035
2	0x3d8ec02c	0.069702476
3	0xbde6cc0b	-0.11269387
4	0x3db75924	0.08952549
5	0x3e0d9a29	0.13828339
6	0xbd27f2f7	-0.041003194
7	0x3d2ffb36	0.042964183
8	0x3dae6b65	0.08516578
9	0xbd17dd6b	-0.037076395
10	0x3e54e80a	0.20791641
11	0x3d668cc2	0.05628658
12	0x3e78f3c9	0.24311747
13	0x3cc821ae	0.024430122
14	0x3dd6bd3a	0.10485311
15	0x3e012374	0.1261118
16	0x3a57162d	0.00082049036
17	0x3d823b7c	0.06359002
18	0x3de2d4dd	0.11075757
19	0x3dc84d0c	0.097803205
20	0xbcf80634	-0.030276395
21	0x3ed87faf	0.42284915
22	0x3e5343c7	0.20631324
23	0x3d3ead07	0.04655173
24	0xbd1854b6	-0.03719016
25	0x3d2cb4ef	0.04216474
26	0x3ccae29d	0.02476626
27	0x3e3fa618	0.18715703
28	0x3e0d0d73	0.13774662
29	0x3e10f65e	0.14156482
30	0x3db37adc	0.08763668
31	0x3e17737b	0.14790146
32	0x3e89e2ae	0.26930755
33	0xbca8e9ea	-0.020619351
34	0x3daab46e	0.083351955
35	0x3e3abd2b	0.18236224
36	0x3e625988	0.22104466
37	0x3dd6b069	0.10482866
38	0x3bab299e	0.005223467
39	0x3c7008b8	0.014650516
40	0x3d67c668	0.0565857
41	0x3dbdd21f	0.09268593
42	0x3dd123bd	0.10211895
43	0x3dabcbd1	0.08388484
44	0x3d9d5f98	0.07684249
45	0x3e04b4f6	0.12959656
46	0x3db422dd	0.08795712
47	0xbe00b424	-0.12568718
48	0xbc27173f	-0.010198413
49	0x3e559e73	0.20861225
50	0x3dfd46a1	0.12366987
51	0x3e069cfb	0.13145821
52	0xbd7cf8de	-0.061760776
53	0x3df8c68b	0.12147244
54	0x3bf50f9b	0.007478667
55	0xbde97163	-0.1139858
56	0xbd8ae895	-0.06782643
57	0x3e6f0f12	0.23345593
58	0x3e10f9bc	0.14157766
59	0x3dfb4fd1	0.12271083
60	0x3dd503d8	0.10401124
61	0x3e24e9ab	0.16104762
62	0x3e57a637	0.210595
63	0x3d647a4a	0.055780686
64	0x3b27c772	0.0025601056
65	0xbdd4b65a	-0.10386343
66	0xbdb6c7d8	-0.08924836
67	0x3d93a2c3	0.07208779
68	0x3e4c6c17	0.19963108
69	0xbe1c2112	-0.1524699
70	0x3e03b1b5	0.12860759
71	0x3d824489	0.06360728
72	0x3e134ff5	0.1438597
73	0x3d733080	0.059372425
74	0x3e181325	0.14851053
75	0x3e0f9ed4	0.14025432
76	0x3e79c597	0.24391781
77	0x3ca4de6c	0.02012559
78	0x3de643f3	0.11243429
79	0x3e42f80d	0.19039936
80	0x3eb171b8	0.34657073
81	0xbc6f3783	-0.014600637
82	0x3e193e94	0.14965278
83	0xbdc6cca1	-0.097069986
84	0x3da581f6	0.08081429
85	0x3e45b704	0.19308096
86	0x3e172565	0.14760359
87	0x3d8ef7a4	0.069808275
88	0x3de99561	0.11405445
89	0x3d19dbba	0.037563063
90	0x3dd30bc9	0.10304982
91	0x3d7d3f12	0.061827727
92	0x3cae5b8d	0.02128389
93	0x3e9f8a31	0.3116012
94	0xbe52bd78	-0.20580089
95	0x3dea5069	0.11441118
96	0x3d9ef7a9	0.07762081
97	0x3e1a7895	0.15085061
98	0xbd864d9a	-0.0655777
99	0x3e97fdf7	0.29685947
100	0x3d7dc0ed	0.061951566
101	0x3e1f1fd3	0.15539484
102	0xb91201c6	-0.00013924306
103	0xbcfaa424	-0.030595846
104	0x3e8184ad	0.25296536
105	0x3e4e3192	0.20136097
106	0x3d08ab24	0.033366337
107	0x3cf63302	0.03005362
108	0xbd8da7b5	-0.06916753
109	0x3e23c8ec	0.15994614
110	0x3e7d2080	0.24719429
111	0xbe03263a	-0.12807551
112	0x3c205ca3	0.009787711
113	0x3e42dcc5	0.1902953
114	0x3c05c436	0.008164456
115	0x3d0fe47e	0.035130017
116	0x3dacf10e	0.08444415
117	0xbd0a904d	-0.033829022
118	0x3d98cb84	0.074606925
119	0x3ec0881d	0.37603846
120	0xbcb96900	-0.022633076
121	0x3ad14db1	0.0015968588
122	0x3de24702	0.110487
123	0x3e6ed0de	0.23321864
124	0x3d14382d	0.036186386
125	0x3cd2891f	0.02570015
126	0xbdf1c42d	-0.11804996
127	0x3e4a258d	0.19740887
128	0x3ca8aa68	0.020589069
129	0xbd3e3310	-0.046435416
130	0x3dc4e88a	0.09614666
131	0x3e699496	0.22810587
132	0x3c4153f5	0.011799802
133	0x3e21b2da	0.15790883
134	0x3df6323e	0.12021302
135	0x3dcfad48	0.10140473
136	0x3ea34aa8	0.31892896
137	0xbde178c3	-0.110093616
138	0x3e3b343f	0.18281649
139	0xbe3acdf4	-0.18242627
140	0x3d8c04f4	0.06836882
141	0x3dce65b4	0.10077992
142	0x3d0ab18b	0.033860724
143	0x3d8706f9	0.06593127
144	0x3db0bdaa	0.086299255
145	0x3cd4aeb1	0.025962206
146	0x3e94419a	0.289563
147	0x3e8ca027	0.27465937
148	0x3b76e6b3	0.0037674129
149	0xbd3e6216	-0.04648026
150	0x3e87055d	0.2637128
151	0x3e5325be	0.20619866
152	0x3de1d3cd	0.11026726
153	0x3e9112e6	0.2833473
154	0x3e0aad45	0.1354266
155	0xbdc95129	-0.09829933
156	0x3dbff117	0.09372156
157	0x3e4eebd6	0.20207152
158	0x3cf2ea51	0.029652746
159	0xbde3adf5	-0.11117164
160	0x3d2f9e3d	0.042875517
161	0x3de56892	0.11201586
162	0x3c395d45	0.011313741
163	0x3dca9bba	0.09892984
164	0x3dd4aa79	0.103840776
165	0x3c9c2515	0.01906065
166	0x3ea1c372	0.31594425
167	0x3e084326	0.13306865
168	0xbbbb80fc	-0.0057221632
169	0xbd863d45	-0.06554655
170	0x3dcb95e1	0.099406965
171	0x3da8a187	0.08233934
172	0xbc729828	-0.014806785
173	0x3deb4942	0.11488582
174	0x3e561c43	0.20909218
175	0x3e453252	0.19257477
176	0x3e04504c	0.12921256
177	0x3e974955	0.29548135
178	0x3e0886a7	0.13332616
179	0x3d59bea1	0.053160314
180	0xbdb16b56	-0.08663051
181	0xbd765977	-0.060143914
182	0x3e7565ad	0.23964567
183	0x3e1dcc85	0.1541005
184	0x3d26a176	0.040681325
185	0x3e0e7171	0.13910462
186	0x3e6f42a4	0.23365265
187	0xbbec92f3	-0.007219666
188	0x3e5d0a81	0.21586038
189	0x3e46bfa7	0.19409047
190	0x3de0c073	0.10974207
191	0xbd988818	-0.07447833
192	0x3eaf9cd3	0.34299335
193	0x3d8cbe1c	0.06872198
194	0x3de97145	0.113985576
195	0x3e067cb8	0.13133514
196	0x3e8b448e	0.2720074
197	0x3d1427e0	0.03617084
198	0x3da11ac1	0.07866431
199	0x3e780c09	0.24223341
200	0x3d4ee059	0.050506923
201	0xbcb92c44	-0.022604115
202	0x3d5da165	0.054108996
203	0x3e5b6f59	0.21429195
204	0x3ec4806d	0.3837923
205	0x3c578619	0.01315453
206	0x3d90fdd5	0.070796646
207	0xbd8af12d	-0.06784282
208	0x3e232589	0.15932287
209	0xbdbf78d8	-0.09349221
210	0xbd2bef8f	-0.041976508
211	0x3d8818e4	0.066453725
212	0x3e0f15c2	0.13973144
213	0x3b9f87b3	0.0048684715
214	0xbd9db12e	-0.0769981
215	0xbc893240	-0.016747594
216	0xbdb46695	-0.088086285
217	0x3bbe2d5f	0.0058037485
218	0xbdbc265b	-0.09187003
219	0xbd20c0c7	-0.039246347
220	0x3e5ac3e8	0.21363795
221	0xbcc71978	-0.024304137
222	0x3d0b1bb5	0.03396197
223	0x3d50ec37	0.051006522
224	0x3ced6a0f	0.028981237
225	0x3e89b397	0.2689483
226	0x3e1b2ca5	0.1515375
227	0x3e5b5e2f	0.21422647
228	0x3b311111	0.002701823
229	0xbe5ee9c6	-0.21768865
230	0x3e60819c	0.21924442
231	0x3e21ed33	0.1581314
232	0x3d21bb8e	0.039485507
233	0x3cb355b1	0.021891447
234	0xbb234de7	-0.002491826
235	0x3eaf78af	0.34271762
236	0x3ec24af4	0.3794781
237	0x3df175c9	0.11790044
238	0xbdeedb53	-0.116629265
239	0x3d9d735c	0.07688019
240	0x3e658570	0.22414184
241	0x3d95f3ed	0.07321916
242	0x3dbc1be7	0.091850094
243	0x3da8eb12	0.08247961
244	0x3e8480d0	0.25879526
245	0x3e090dae	0.13384125
246	0x3d5fa04e	0.054596238
247	0x3cdc89ff	0.02692127
248	0x3daf3bad	0.08556304
249	0x3e932cdf	0.2874517
250	0x3decc6ed	0.115613796
251	0x3cde0797	0.027103228
252	0x3e904f70	0.28185606
253	0x3e40e234	0.1883629
254	0xbdb1f330	-0.086889625
255	0x3dac58e0	0.08415389

linear2.weight f4 [256, 256]
0	0xbd4f34f9	-0.050587628
1	0xbd431ce1	-0.047634963
2	0x3cfad488	0.03061892
3	0x3c06f5c8	0.00823731
4	0xbbffd4a4	-0.007807331
5	0xbcff9304	-0.031198032
6	0xbd3d332a	-0.046191372
7	0xbcee7d40	-0.029112458
8	0xbd76e8e6	-0.060280703
9	0xbc159e28	-0.009131946
10	0x3d4a0280	0.04931879
11	0x3cb74a80	0.022374392
12	0x3d041b2c	0.032252476
13	0xbc6000fb	-0.013672109
14	0x3c4a6429	0.012352982
15	0xbcd5254a	-0.026018757
16	0xbd91ecae	-0.07125221
17	0x3d4ac40e	0.04950338
18	0x3bed8ba0	0.0072493106
19	0xbb48d299	-0.0030643104
20	0x3d03f8a4	0.032219544
21	0xbbf0f40c	-0.0073533114
22	0xbafe71f4	-0.0019412623
23	0x3ce39ada	0.0277838
24	0xbc8af430	-0.01696214
25	0xbcd78a92	-0.026311193
26	0x3ccf4628	0.025302008
27	0xbd6532ab	-0.055956524
28	0xbd7b2e04	-0.06132318
29	0x3ccee228	0.025254324
30	0x3d54a5e2	0.05191601
31	0x3d7ff372	0.062488027
32	0x3d36b76f	0.04460853
33	0xbd3ee63e	-0.046606295
34	0x3ba2d440	0.00496915
35	0xbcc129a9	-0.023579435
36	0xbd344990	-0.044015467
37	0xbd795844	-0.060875192
38	0xbd5bd76a	-0.05367223
39	0xbd540774	-0.05176492
40	0xbd72740a	-0.059192695
41	0x3d2a339c	0.041553125
42	0x3c465838	0.012105994
43	0x3c894cdc	0.016760282
44	0xbd1afc36	-0.037838183
45	0xbd4e160e	-0.050314
46	0x3d2eaaf0	0.042643487
47	0xbc78f018	-0.015193962
48	0xbcc207ec	-0.023685418
49	0x3cff06c4	0.031131156
50	0xbd599c42	-0.053127535
51	0x3cc87be0	0.02447313
52	0x3d484c38	0.048900813
53	0x3d0ff334	0.035144046
54	0xbbe92b50	-0.007115759
55	0xbcb0f6bc	-0.021602027
56	0x3cdc8850	0.026920468
57	0xbc1a27b6	-0.009408882
58	0xbcc55349	-0.024087565
59	0xbd309b60	-0.043116927
60	0x3c172ec5	0.009227459
61	0xbb884e2d	-0.00415971
62	0x3d0bd5a0	0.034139276
63	0x3d705058	0.05867037
64	0x3cf2471b	0.029574921
65	0x3d79a882	0.060951717
66	0x3d085ad6	0.033289753
67	0xbd1f043e	-0.038822405
68	0xbd4822d1	-0.04886133
69	0xbca9c947	-0.02072586
70	0x3d533469	0.051563654
71	0x3c2ba69e	0.010476736
72	0xbcdd7d3a	-0.027037252
73	0xbd8859e5	-0.06657771
74	0x3c8836cc	0.016627692
75	0xbb222340	-0.002474025
76	0x3d2aa7ee	0.041664056
77	0x3c9bc550	0.019014984
78	0xbd7b8584	-0.061406627
79	0xbbdd2812	-0.0067491615
80	0xbc60b31b	-0.013714577
81	0xbd0e1646	-0.03468921
82	0xbd92ce76	-0.071682855
83	0xbd37bece	-0.0448597
84	0x3cf7bf34	0.03024254
85	0xbd8abf2d	-0.06774745
86	0xbd6d12c6	-0.057879232
87	0x3d7b6e94	0.061384752
88	0x3bd15581	0.0063883667
89	0x3d132915	0.03592785
90	0xbc8e9d64	-0.017409034
91	0x3d18108d	0.03712516
92	0xbd063bf4	-0.03277202
93	0xbd3d5b70	-0.04622978
94	0x3cd895c1	0.026438596
95	0xbc5f96ba	-0.013646776
96	0xbcd93564	-0.026514716
97	0xbb0d39e0	-0.0021549389
98	0x3cf6210b	0.030045053
99	0xbd85071d	-0.064954974
100	0xbd1d9258	-0.038469642
101	0xbcc51df0	-0.024062127
102	0xbd7419b4	-0.059594825
103	0x3bd019d0	0.0063507333
104	0xbc6fc5b3	-0.0146345375
105	0xbc082428	-0.008309402
106	0x3cb059f0	0.02152726
107	0xbd120e46	-0.035658143
108	0x3d481318	0.048846334
109	0x3d4be7a8	0.04978147
110	0xbd8c28e5	-0.068437375
111	0xbd1cae96	-0.038252436
112	0x3c998535	0.018740276
113	0x3cde04cc	0.027101897
114	0x3c565c39	0.013083511
115	0xbd836e85	-0.06417564
116	0x3c7654e0	0.015034884
117	0x3d51309e	0.051071756
118	0x3c4ceb08	0.012507208
119	0xbd841d85	-0.06450943
120	0x3d373ec0	0.044737577
121	0x3d483340	0.048877
122	0xbd44dbf0	-0.04806131
123	0xbc58b11a	-0.013225818
124	0x3d51ae2e	0.0511915
125	0xbc8f1eb5	-0.017470697
126	0xbcc4a8b4	-0.024006225
127	0x3b5ea3c1	0.0033972117
128	0x3cf7b10b	0.030235788
129	0x3d7b9b24	0.06142725
130	0xbc88fa0d	-0.016720796
131	0x3c8257b8	0.015910968
132	0xbd648f63	-0.055800807
133	0xbd155f7e	-0.03646802
134	0x3b80fcbc	0.0039363783
135	0x3c1e8f60	0.009677738
136	0xbabd6598	-0.0014449833
137	0x3c566628	0.013085879
138	0x3c9f4e75	0.01944659
139	0x3a9c5585	0.0011927342
140	0x3d58315e	0.052781455
141	0x3ca83374	0.020532347
142	0x3d504989	0.05085138
143	0x3d160905	0.036629695
144	0x3ba94650	0.0051658526
145	0x3d1341bc	0.03595136
146	0x3cfa4200	0.03054905
147	0xbd173a7e	-0.036921017
148	0xbd69b5ea	-0.057058252
149	0x3d5e63a4	0.054294243
150	0x3ca5b266	0.020226669
151	0xbccf18d9	-0.025280403
152	0x3c9dc514	0.019259013
153	0x3d7e84d6	0.0621384
154	0xbd86ef65	-0.0658863
155	0xbcdd92ac	-0.027047478
156	0xbd1b0f5c	-0.037856445
157	0xbd5e9102	-0.05433751
158	0x3cf4d75b	0.029887846
159	0x3d4368a8	0.04770723
160	0xbbffec14	-0.007810125
161	0xbce59318	-0.028024241
162	0x3cd234f1	0.02566001
163	0x3d38e21f	0.04513752
164	0xbc82e1e5	-0.015976856
165	0x3d25a552	0.040440865
166	0xbd3c5f18	-0.045989126
167	0xbc477c69	-0.012175658
168	0x3c8c37bc	0.01711642
169	0x3b9d92e0	0.0048087686
170	0x3d02bd2c	0.03191869
171	0x3b3cdb4f	0.0028817242
172	0x3d1e6940	0.038674593
173	0x3d29dae2	0.04146851
174	0xbd141780	-0.036155224
175	0x3a7d06ab	0.00096521777
176	0xbd7c4a1a	-0.061594106
177	0x3c013f24	0.007888589
178	0x3b88a5ac	0.0041701403
179	0xbd65bff2	-0.056091256
180	0xbb8a8be0	-0.0042281
181	0x3c94dafc	0.018170826
182	0xbd7d2844	-0.06180598
183	0x3cacbdf8	0.021086678
184	0x3c862c20	0.016378462
185	0xbd13db36	-0.036097728
186	0x3cfd7b13	0.030942475
187	0xbc05d305	-0.008167987
188	0xbd1841aa	-0.037171997
189	0xbd12fc8e	-0.035885386
190	0xbd2b5ad7	-0.04183468
191	0xbd3ea7d6	-0.04654678
192	0xbd5a29aa	-0.05326239
193	0x3c6f62e0	0.014610976
194	0xbd32c9f8	-0.043649644
195	0x3c39b05f	0.011333554
196	0xbcca0f2c	-0.024665438
197	0xbd3d9540	-0.046284914
198	0xbd56a16e	-0.052400045
199	0xbb21fdf7	-0.0024718025
200	0xbceceaf4	-0.028920628
201	0xbd5dbdc0	-0.054136038
202	0xba8723bd	-0.0010310333
203	0xbd2b41d7	-0.041810837
204	0xbd4a1c49	-0.04934338
205	0xbbd9e5b2	-0.0066496963
206	0xbd5b5270	-0.053545415
207	0x3d774c44	0.060375467
208	0xbd3f4ea8	-0.04670587
209	0xbca506b8	-0.020144805
210	0x3d4854d0	0.04890901
211	0x3d095ed4	0.0335377
212	0xbb6c2d63	-0.0036037795
213	0xbd34b7b8	-0.04412052
214	0x3d394c66	0.045238875
215	0x3d151334	0.036395267
216	0xbd8d1ca5	-0.06890229
217	0xbd1ed014	-0.038772658
218	0xbd0de702	-0.034644134
219	0xbc469399	-0.012120151
220	0xbcd2e00a	-0.025741596
221	0xbd0c0b35	-0.034190375
222	0x3c87a88c	0.016559862
223	0xbc8ea346	-0.01741184
224	0x3b18987d	0.002328425
225	0xbcaf17df	-0.021373687
226	0xbd78376c	-0.06059973
227	0xbd62e5ce	-0.05539494
228	0xbb485981	-0.0030570927
229	0x3d2a92d6	0.04164394
230	0xbd5caca2	-0.053875573
231	0xbd16759e	-0.036733262
232	0xbc6a7a80	-0.014311433
233	0x3d0cbfc4	0.03436257
234	0xbd6dfe08	-0.05810359
235	0xbd375dd8	-0.04476723
236	0xbd68eeeb	-0.056868475
237	0xbad414a2	-0.0016180465
238	0x3c1d8b60	0.009615749
239	0x3d01db64	0.031703368
240	0xbc17be88	-0.009261735
241	0x3ca8c5c8	0.020602122
242	0x3d249f92	0.04019124
243	0x3c80c544	0.015719064
244	0x3cf5f2f3	0.030023074
245	0x3d02353c	0.03178905
246	0xbd560712	-0.052252837
247	0xbd0c0045	-0.034179945
248	0x3c3dd240	0.011585772
249	0x3d47d258	0.048784584
250	0x3b7def80	0.003874749
251	0xbbd9cc50	-0.0066466704
252	0x3c33705f	0.010952084
253	0xbd4a8049	-0.04943875
254	0xbd14514e	-0.03621035
255	0xbd68d2fc	-0.056841835

linear2.bias f4 [256]
0	0x3ba5d656	0.005060951
1	0x3ce1e6ea	0.027575929
2	0x3c02f0bc	0.007991966
3	0x3e7b1b57	0.24522148
4	0x3dcd44ee	0.10022913
5	0x3afaead3	0.0019143469
6	0x3e5e77b7	0.21725355
7	0x3e2d054e	0.16896555
8	0xbd455411	-0.048175875
9	0x3e8f7719	0.28020552
10	0xbb955eb6	-0.0045584096
11	0x3a1c451d	0.00059612264
12	0xbccebf01	-0.025237562
13	0x3e58d104	0.21173483
14	0xbdcfa961	-0.10139728
15	0x3e6b255e	0.22963473
16	0x3e0aaa6e	0.13541576
17	0xbc0896d5	-0.008336742
18	0x3dbe3ad2	0.09288563
19	0xbda8b3ef	-0.082374446
20	0xbc136796	-0.008996865
21	0xbda6be5f	-0.08141779
22	0x3e52683f	0.20547579
23	0x3e734145	0.23755367
24	0x3c0cb3f4	0.008587826
25	0x3e2fc4c3	0.17164902
26	0xbd9c30ce	-0.07626496
27	0xbcbd92e8	-0.02314134
28	0xbdc4a8f9	-0.096025415
29	0xbd7abe4c	-0.061216637
30	0x3c0c0bfc	0.008547779
31	0xbce762d3	-0.028245365
32	0x3d226a8e	0.0396524
33	0x3e7619ac	0.2403323
34	0x3e78dfbf	0.24304102
35	0xbc89e75a	-0.01683395
36	0xbd9253ce	-0.07144891
37	0x3bfd245b	0.007725281
38	0x3d32f427	0.043689873
39	0x39d7b0d9	0.00041139757
40	0x3d3c31c7	0.04594591
41	0x3e03b404	0.1286164
42	0x3ce6ff9a	0.028198052
43	0xbd78ce34	-0.060743526
44	0xbd7e38ec	-0.062066004
45	0x3d22c20e	0.039735846
46	0xbd215c3f	-0.039394613
47	0xbd310028	-0.04321304
48	0x3e3fab9c	0.18717808
49	0xbd6e4f7b	-0.058181267
50	0xbd953b8e	-0.0728675
51	0xbda108a7	-0.078629784
52	0xbcaf6c3f	-0.02141392
53	0xbdbed400	-0.093177795
54	0xbd05f354	-0.03270276
55	0xbd24420a	-0.040102042
56	0xbc012305	-0.007881884
57	0xbd47aff9	-0.048751805
58	0xbca57897	-0.020199103
59	0x3e84ce65	0.25938717
60	0xbc23d9bf	-0.010000645
61	0xbd83e225	-0.06439618
62	0xbd897325	-0.06711415
63	0x3bb2e617	0.0054595578
64	0x3d1a2945	0.037637014
65	0xbcd8e63a	-0.026476968
66	0x3acf0680	0.0015794784
67	0x3db68c09	0.08913428
68	0x3d3de107	0.04635718
69	0xbd98bd36	-0.07457964
70	0xbda8116f	-0.0820645
71	0x3cfb72c3	0.030694371
72	0xbb3f09e8	-0.0029150192
73	0x3e658f9c	0.22418064
74	0x3b3b851f	0.0028613282
75	0xbd22851f	-0.039677735
76	0xbd3f63a8	-0.0467259
77	0xbcbf31c0	-0.023339152
78	0xbb5272aa	-0.0032111802
79	0xbd59c1ce	-0.053163342
80	0xbd494189	-0.049134765
81	0xbd68d90b	-0.056847613
82	0x3d3615b7	0.044454303
83	0xbd272e17	-0.04081544
84	0xbd7dba5c	-0.061945304
85	0xbd51b3ca	-0.05119685
86	0x3e07d13b	0.13263409
87	0xbcf20618	-0.029543921
88	0x3d07e0cc	0.033173367
89	0x3e413d55	0.18871053
90	0xbdbcda88	-0.09221369
91	0x3d485598	0.048909754
92	0xbd714934	-0.058907703
93	0x3e428cab	0.18998973
94	0x3cb4cf27	0.022071434
95	0x3ddb9105	0.1072102
96	0xbd4e2b59	-0.05033431
97	0x3c952b25	0.01820905
98	0x3ce38a72	0.027775977
99	0x3d01bc24	0.031673566
100	0xbdce6781	-0.100783356
101	0x3d38d667	0.045126345
102	0xbd419899	-0.04726467
103	0xbabe2690	-0.0014507342
104	0xbd359ca0	-0.044338822
105	0x3e855c26	0.26046866
106	0xba365758	-0.0006955764
107	0xbd8cecfd	-0.068811394
108	0xbcdbee02	-0.02684689
109	0x3e4356c9	0.19076075
110	0xbd19c7f2	-0.0375442
111	0xbd69e9b3	-0.05710764
112	0xbca33357	-0.019921942
113	0x3e2fd383	0.17170529
114	0xbd2f420f	-0.042787608
115	0x3e286ffe	0.16448972
116	0x3e40f3b0	0.1884296
117	0xbbc2ec71	-0.005948596
118	0xbc508fda	-0.012729609
119	0x3cd57d91	0.026060851
120	0xbd6f5213	-0.05842788
121	0xbcc190c9	-0.02362861
122	0x3cac1e26	0.02101047
123	0x3e778ce0	0.24174833
124	0x3e835f60	0.25658703
125	0xbd810d25	-0.06301335
126	0xbdbcf1f8	-0.092258394
127	0x3c4956a0	0.012288719
128	0xbc4a8111	-0.012359873
129	0x3e73d4a8	0.2381159
130	0xbbe31223	-0.0069296523
131	0x3e2b7685	0.1674443
132	0x3dedb4ec	0.11606774
133	0xbd5c5072	-0.053787656
134	0xbcb32308	-0.02186729
135	0xbd03dfa5	-0.032195706
136	0xbcb8a3a0	-0.02253896
137	0x3be045ba	0.0068442496
138	0xbd918fb6	-0.07107489
139	0xbca1d557	-0.019755049
140	0x3e7d6e17	0.24749027
141	0x3e3b7c12	0.18309048
142	0x3d354b5f	0.044261333
143	0x3e5d5b16	0.21616778
144	0xbdaea11f	-0.08526825
145	0x3d1f4dad	0.038892437
146	0xbcbca950	-0.023029953
147	0xbd491759	-0.04909453
148	0x3dec77e4	0.11546305
149	0xbc64f043	-0.0139732985
150	0xbda4fb97	-0.080557995
151	0xbd162f4e	-0.036666207
152	0x3ddb3b59	0.10704679
153	0x3cd14771	0.025546761
154	0xbce2fb7b	-0.027707806
155	0xbd9180be	-0.07104634
156	0x3e1c7d90	0.15282273
157	0xbcb80828	-0.022464827
158	0x3c71c4a3	0.0147563545
159	0x3e84c549	0.25931767
160	0xbc0fa1b5	-0.008766581
161	0xbc881a9d	-0.016614253
162	0xbcfecbcc	-0.031103037
163	0x3b304a1f	0.0026899648
164	0x3d489e7c	0.048979267
165	0xbcf2a1bc	-0.029618137
166	0x3cb1699f	0.02165681
167	0x3e5b076c	0.2138955
168	0xbce22953	-0.027607596
169	0x3e05419b	0.13013308
170	0xbd23838d	-0.03992038
171	0xbd3f3030	-0.046676815
172	0xbc531aa2	-0.012884768
173	0x3d027934	0.03185387
174	0x39b44d00	0.00034389645
175	0x3e73f206	0.23822793
176	0xbd75865c	-0.05994259
177	0xbd8b27dd	-0.06794713
178	0xbdaaa97f	-0.0833311
179	0xbd4ea6c9	-0.050452027
180	0xbd834e7d	-0.06411455
181	0x3c7912f3	0.015202272
182	0xbd249797	-0.04018363
183	0x3e105a5e	0.14096972
184	0xbd202ac7	-0.039103296
185	0x3b936770	0.0044984147
186	0xbb64c2f3	-0.0034906238
187	0xbc8c1625	-0.017100403
188	0xbd50f3da	-0.051013805
189	0xbd211a9f	-0.03933203
190	0xbd808823	-0.06275966
191	0xbdb66e00	-0.089076996
192	0x3c424090	0.011856213
193	0xbce2f3ab	-0.02770408
194	0xbd062f35	-0.032759864
195	0x3b1ff415	0.002440696
196	0x3c0641f4	0.008194435
197	0xbc83483d	-0.016025657
198	0x3c5b1ef9	0.013374084
199	0xbd69d883	-0.057091247
200	0xbcf4735c	-0.029840164
201	0xbd38fbe8	-0.04516211
202	0x3e27168e	0.16317198
203	0xbd932916	-0.07185571
204	0xbd4f9ce1	-0.05068672
205	0x3edfd6fb	0.43718705
206	0xbbc51bd1	-0.006015279
207	0x3c988f1d	0.01862293
208	0xbd8047af	-0.062636726
209	0x3dd9d731	0.10636748
210	0x3da97790	0.08274758
211	0xbd685373	-0.05672021
212	0x3b6e623a	0.0036374466
213	0x3d1779c5	0.036981363
214	0x3c9a9c1d	0.018873269
215	0x3e7f7e50	0.24950528
216	0x3c542308	0.012947805
217	0xbd19eb8e	-0.037578158
218	0xbcb10ca8	-0.02161248
219	0xbcd916aa	-0.026500065
220	0xbc103a4e	-0.008802963
221	0xbd89a13d	-0.06720207
222	0x3e90b462	0.2826262
223	0x3c9e36c5	0.019313226
224	0x3c340c9f	0.010989337
225	0x3c956685	0.018237362
226	0xbd56802a	-0.05236832
227	0xbbc3a981	-0.005971134
228	0xbc75ea5c	-0.015009489
229	0x3df05d58	0.11736554
230	0xbd179906	-0.03701117
231	0xbdc09601	-0.09403611
232	0x3b4deff8	0.003142355
233	0xbc32e938	-0.0109198615
234	0x3c775fdc	0.015098538
235	0x3ceb5112	0.02872518
236	0x3e8d2167	0.27564546
237	0xbdcd4671	-0.10023201
238	0xbcb76990	-0.022389203
239	0xbd160456	-0.03662523
240	0xbd306d48	-0.04307297
241	0xbd902110	-0.07037556
242	0xbdc6c409	-0.097053595
243	0xbc0060af	-0.007835551
244	0x3e65398b	0.22385232
245	0x3cc0b21f	0.023522435
246	0x3e182801	0.1485901
247	0xbd7025cc	-0.058629796
248	0x3db50aac	0.08839926
249	0xbdb61dc7	-0.08892398
250	0xbd5de072	-0.054169126
251	0xbd033af5	-0.032038648
252	0xbcb1eb50	-0.021718651
253	0x3d3ab69d	0.04558431
254	0xbd2c9997	-0.042138662
255	0xbc9a494e	-0.018833783

linear3.weight f4 [1, 256]
0	0x3b7bd2dc	0.0038425243
1	0x3bd39ac2	0.0064576576
2	0xb912fc8e	-0.00014017729
3	0x3f42c240	0.7607765
4	0xbf598fe6	-0.84985197
5	0x3b3b2507	0.0028556006
6	0x3f304d33	0.68867797
7	0xc038e883	-2.8891914
8	0xbca94e9e	-0.02066737
9	0x3f53166c	0.8245609
10	0x3d715743	0.05892111
11	0xbe35483f	-0.17703341
12	0xbd3974ff	-0.04527759
13	0xbf4d5f6a	-0.80223715
14	0xbe0e35e4	-0.13887745
15	0x3f3e9fdf	0.74462694
16	0xc05a16cb	-3.4076412
17	0x3ce87ffa	0.028381336
18	0xbf53c811	-0.8272715
19	0xbe23b1e6	-0.15985832
20	0x3cf0af4b	0.029380461
21	0xbe494ae8	-0.1965748
22	0x3f53bd56	0.8271078
23	0x3f643167	0.8913788
24	0xbe2e76ee	-0.17037556
25	0x3f3efd93	0.74605674
26	0xbe37d87f	-0.1795368
27	0x3b933d66	0.0044934032
28	0xbe215216	-0.1575397
29	0x3d35a78f	0.04434925
30	0xbe31afef	-0.1735227
31	0x3c1833b6	0.009289673
32	0x3d4732f8	0.048632592
33	0x3f5ffd83	0.87496203
34	0xc0a80301	-5.2503667
35	0xbfdaec9d	-1.7103459
36	0x3d4e21f8	0.050325364
37	0xbb24b2ef	-0.0025131067
38	0x3ce18f6a	0.027534205
39	0xbe374667	-0.1789795
40	0x3cd085b1	0.025454374
41	0xbf4e7552	-0.80647767
42	0xbe5f9460	-0.21833944
43	0xbe552de1	-0.20818283
44	0x3d503c41	0.050838713
45	0xbccd2fc8	-0.025047198
46	0xbe4d3798	-0.20040739
47	0x3d05b7ac	0.032645866
48	0x3f3537b6	0.70788133
49	0x3d0d2604	0.034460083
50	0xbe270ed6	-0.16314253
51	0xbe19c92d	-0.15018149
52	0x3b26b1de	0.0025435607
53	0xbe283f86	-0.16430482
54	0xbf36b95b	-0.7137658
55	0xbd082975	-0.03324266
56	0xbe42aa08	-0.19010174
57	0x3cf88653	0.030337488
58	0x3c865c84	0.016401537
59	0x3f4731d6	0.7781042
60	0xbe41f658	-0.18941629
61	0xbb52ce12	-0.0032166285
62	0xbc33d207	-0.010975367
63	0x3d144575	0.036199052
64	0xbbd8d69a	-0.0066173794
65	0x3c721c23	0.014777216
66	0xbd424120	-0.04742539
67	0xc03046d2	-2.7543225
68	0x3abd35ef	0.0014435629
69	0xbd340d67	-0.043958094
70	0x3c7c2033	0.015388536
71	0x3c8e2a2d	0.017354095
72	0xbe39ff47	-0.18163787
73	0xbf4811f5	-0.781524
74	0x3d2fe16f	0.0429396
75	0x3c01b9cc	0.007917833
76	0xc02915a8	-2.6419468
77	0x3b9cc08d	0.004783696
78	0xbb38eab8	-0.0028216075
79	0x3ce7c9e4	0.028294511
80	0xbe23ea26	-0.1600729
81	0x3b9ba9a6	0.0047504483
82	0xbd428b91	-0.047496382
83	0x3d553809	0.052055392
84	0xbe29edfe	-0.16594693
85	0xbc946024	-0.01811225
86	0xc0597896	-3.397985
87	0xbb94faf0	-0.0045465156
88	0x3c70ac2b	0.014689486
89	0xbf39791f	-0.7245044
90	0xbe459740	-0.19295979
91	0x3c7de233	0.015495825
92	0xbc8f2684	-0.01747442
93	0xbf498630	-0.7872038
94	0xbe180fc5	-0.14849766
95	0xbfca630d	-1.5811478
96	0x3b859b8c	0.0040773805
97	0xbe4cbcf0	-0.19993949
98	0x3d2b717e	0.04185628
99	0x3d23bcd6	0.03997501
100	0xbe26e316	-0.16297564
101	0x3d2a984e	0.041649155
102	0xbb6e493b	-0.0036359567
103	0xbe182735	-0.14858706
104	0xbe26767e	-0.16256139
105	0x3f4eaf36	0.807361
106	0xbe2dd086	-0.16974077
107	0xbd261666	-0.040548705
108	0xbd0f9bb4	-0.0350606
109	0x3f3da316	0.74076974
110	0x3d63c486	0.05560734
111	0xbe231f06	-0.15929803
112	0x3cb3976f	0.021922795
113	0x3f4285b5	0.7598527
114	0xbd42dd98	-0.04757461
115	0xbf5a0aff	-0.8517303
116	0x3f4aa6c4	0.79160714
117	0x3a9c1c7e	0.0011910347
118	0xbe0f161c	-0.13973278
119	0x3cbf91d7	0.023384972
120	0xbbfc5acc	-0.0077012535
121	0x3c16727d	0.00918257
122	0xbe4105b8	-0.18849838
123	0x3f3813ff	0.7190551
124	0xbf54114d	-0.828389
125	0xbce68d8a	-0.028143663
126	0xbe136795	-0.14394982
127	0x3d423e38	0.047422618
128	0x3c9119bd	0.017712468
129	0x3f364448	0.7119794
130	0x3c911e6d	0.017714703
131	0xbf4f9a0f	-0.8109445
132	0xbf5bf7cc	-0.85924983
133	0x3cca8430	0.024721235
134	0x3d2a19be	0.041528456
135	0xc02293b0	-2.5402641
136	0x3c45b4f0	0.012067065
137	0x3bbfdc0f	0.0058550905
138	0xbe05a1cc	-0.13050002
139	0x3bba8d78	0.005693134
140	0xbf3b3921	-0.73134047
141	0xbf3f2b6b	-0.74675626
142	0xbb27ff77	-0.0025634447
143	0x3f4200e9	0.7578264
144	0xbe3995cf	-0.18123554
145	0xbaec40eb	-0.0018024718
146	0xbe29d9ae	-0.16586944
147	0xbe2b6116	-0.16736254
148	0xbf4e962e	-0.80697906
149	0xbe192f45	-0.14959438
150	0xbe46f3b0	-0.19428897
151	0xbe326cff	-0.17424391
152	0xc05b2c89	-3.4245932
153	0x3c99959d	0.018748099
154	0xbcb7dd2f	-0.022444336
155	0xc127d506	-10.489508
156	0xc05a530f	-3.4113195
157	0xbe4999d0	-0.19687581
158	0xbe14800d	-0.14501972
159	0x3f3ccc47	0.737492
160	0xc01d3872	-2.4565701
161	0xbe432fa0	-0.19061136
162	0x3b3a1dbf	0.0028399078
163	0xbe659132	-0.22418669
164	0x3f035983	0.5130846
165	0xbe25010e	-0.16113684
166	0x3c92348d	0.017847324
167	0x3f37e18f	0.7182855
168	0xbe239e5e	-0.15978381
169	0xc06019ed	-3.5015824
170	0xbf2b1c1c	-0.66839767
171	0xbe478438	-0.19484031
172	0x3d1a8255	0.03772195
173	0x3c44b960	0.0120070875
174	0xbb048ea0	-0.0020226613
175	0x3f37fe92	0.7187282
176	0xbe539931	-0.20663907
177	0xbe381baf	-0.1797931
178	0xbe36a3e7	-0.17835961
179	0x3c0c1494	0.008549828
180	0xbe18699d	-0.14884038
181	0x3c2e548e	0.010640277
182	0x3cddf7e1	0.027095737
183	0xc063b068	-3.557642
184	0xbe294b7e	-0.16532704
185	0x3d3e67d6	0.046485744
186	0xbe16eeb5	-0.14739497
187	0xbe19319d	-0.14960332
188	0xbe0fcdb4	-0.14043313
189	0x3cf6210b	0.030045053
190	0xbe442298	-0.19153821
191	0xbe51b279	-0.20478238
192	0x3cb0217f	0.021500347
193	0x3c8f10a4	0.01746399
194	0xbe1e378d	-0.15450878
195	0x3d4606f8	0.04834649
196	0x3c498710	0.012300268
197	0x3d723dbb	0.059140902
198	0xbd47c830	-0.048774898
199	0xbc10278e	-0.008798493
200	0x3d1b60fd	0.037934292
201	0xbe39416f	-0.18091367
202	0x3f42e6e7	0.7613358
203	0xbb595142	-0.0033160006
204	0x3d165e2d	0.036710907
205	0x401538fe	2.3316035
206	0xbe528569	-0.20558704
207	0x3d4ec608	0.050481826
208	0xbc113066	-0.008861637
209	0x3d921eb4	0.071347624
210	0xbf4a6e4d	-0.79074556
211	0xbe1d38dd	-0.15353723
212	0x3ce82a0a	0.028340358
213	0xbb428939	-0.0029683842
214	0x3d81f9dc	0.06346485
215	0x3f3db619	0.74105984
216	0x3cff428c	0.031159662
217	0xbe1abb5d	-0.15110536
218	0xbe1622cd	-0.14661713
219	0x3d22130e	0.039568953
220	0xbcb6ac7f	-0.02229905
221	0xbe3526a7	-0.17690526
222	0x3f4388e0	0.7638073
223	0xbe5c2fa1	-0.21502544
224	0x3cae1226	0.021248888
225	0xbe341dcf	-0.17589496
226	0xbcd96019	-0.02653508
227	0xbbb79550	-0.0056025162
228	0xbe4aa370	-0.19788909
229	0xc0537f7a	-3.3046556
230	0x3d35b027	0.044357445
231	0xbe3124df	-0.17299221
232	0xbd64c54a	-0.055852212
233	0x3d58aa11	0.052896563
234	0xbf8048ca	-1.0022213
235	0x3ae02cbb	0.0017103174
236	0x3f58922e	0.8459805
237	0xbe22770e	-0.15865728
238	0xba7536ab	-0.00093541545
239	0xbe4afe10	-0.1982348
240	0xbe28ea9e	-0.1649575
241	0xc1214546	-10.079412
242	0xbe3d264f	-0.18471645
243	0x36b1289f	5.27974e-06
244	0x3f3af335	0.73027354
245	0xbf8f2948	-1.1184473
246	0xbf509143	-0.8147165
247	0xbe2331c6	-0.15936956
248	0xbf56c892	-0.83899796
249	0xbffbf0f0	-1.9682903
250	0xbe1f2da5	-0.15544756
251	0x3cf87393	0.030328548
252	0xbe36ec8f	-0.17863677
253	0xbf2a6bab	-0.6657054
254	0xbe524941	-0.20535757
255	0x3bf6ab54	0.007527748
