turtlebot3_rl_sim/src/models/td3/turtlebot3_top_12_obstacle/td3_critic2_model_ep2500.pt (torch_old, 692258 bytes, 5 tensors)

linear1.weight f4 [256, 416]
000000 bf 61 b7 3c 13 38 6b bd eb 23 75 39 9c 1b f3 bc
       0.022385476 -0.057426523 0.00023378401 -0.029676251
000010 5c 3e 01 3d 50 f8 33 bd 96 9c 1f bd b4 62 f3 bc
       0.03155361 -0.04393798 -0.03896769 -0.029710151
000020 d8 57 b8 bc d1 97 da 3b 20 3a 3b bd be 5e 12 bd
       -0.022502825 0.00667093 -0.04570973 -0.035734884
000030 1c 03 8e 3c 44 fd ff bc 52 19 54 bd 0c 3e 06 3d
       0.017335467 -0.031248696 -0.05178196 0.032774016
000040 fd 14 17 3c 55 01 0a bc 50 b4 b6 bc 56 50 1a bd
       0.009221313 -0.008423169 -0.022302777 -0.03767427
000050 81 ed 40 bd 97 fc a8 bb 80 50 bd bc 73 13 7b 3a
       -0.0471015 -0.005157064 -0.023109674 0.00095777883
000060 24 29 f4 bc e2 f4 51 bc 4f f4 23 bd 75 78 18 3d
       -0.029804774 -0.012814732 -0.040027913 0.03722425
000070 3c 53 7d bb b1 8f c6 bc 73 a7 f3 3c e4 64 82 3c
       -0.0038654348 -0.02423844 0.029742932 0.015917249
000080 a4 91 86 3c b8 18 42 3c c7 26 29 bd 9f 39 39 3b
       0.016426869 0.011846714 -0.041296747 0.0028263105
000090 e0 95 33 bd ec b5 7e bc 8d 50 05 bd 99 9f 44 bd
       -0.043844104 -0.015546303 -0.032547522 -0.048003767
0000a0 dd d5 87 bc ca 1d 50 bc 0a 69 d1 bb e2 c8 50 bb
       -0.01658147 -0.012702415 -0.0063906955 -0.0031858017
0000b0 f2 8f 00 3d d2 9d 59 bd 8d 5a 94 3c e9 9a dd 3c
       0.031387277 -0.053129025 0.018109584 0.027051406
0000c0 28 bf 3f bd c5 1d 1e 3d c3 c5 e9 bc 48 6a 3d bd
       -0.04681316 0.03860261 -0.028536683 -0.046243936
0000d0 e8 d1 bf bc 3d 12 8c ba 95 53 0e bb b4 23 0a 3c
       -0.02341552 -0.0010686588 -0.00217173 0.008431364
0000e0 5a a5 5b bd 39 c5 d1 3b 98 06 38 bd 5b 1a 6e bc
       -0.05362449 0.0064016846 -0.044928163 -0.014532651
0000f0 f6 d3 28 3d ab 67 71 3c 90 a4 42 3c ac 7b 0f 3d
       0.041217767 0.014734189 0.011880055 0.035030052
000100 3d fe 1f 3c 60 a4 3b bd 13 5b 7a 3b 74 a9 14 3d
       0.009765205 -0.045811057 0.0038201257 0.036294416
000110 5f ee b7 3c 99 c5 46 bc 9e 0b 17 bd 47 c7 ba 3c
       0.022452531 -0.012132072 -0.036876313 0.022800101
000120 6a e4 57 bd 2c 81 0c 3d 4a bd 5d bd 65 ef 9f 3c
       -0.052708067 0.034302875 -0.0541356 0.019523332
000130 42 c8 5a bd 7c 9f 02 3d 05 f9 07 bd d1 f6 df 3b
       -0.053413637 0.031890377 -0.033196468 0.0068348427
000140 20 b4 c8 3a 6c 17 8e 3c 5b 20 ed bc 24 f3 fc bc
       0.001531247 0.017345153 -0.028946092 -0.030877657
000150 36 00 2b 3d 0a 5e 57 bd d6 96 a1 3c 40 4a bd bc
       0.041748248 -0.052579917 0.019725244 -0.023106694
000160 11 d8 48 bd b2 4b e2 3c 68 f4 33 bd b6 2a bf 3c
       -0.049034182 0.027623985 -0.043934256 0.023335796
000170 27 9b ac bb a2 23 5e bd 4b cb e3 bc 9f 46 22 bd
       -0.005267519 -0.0542332 -0.027806899 -0.03961813
000180 96 4d 28 3b 28 b8 3c bd af 5c 29 bd 68 5d c8 3c
       0.002568101 -0.046074063 -0.041348156 0.024458602
000190 82 0b 55 bd 66 76 16 bc 17 8c a8 bc 1c 2c 03 3d
       -0.052012928 -0.009183502 -0.020574613 0.032024488
0001a0 e6 80 27 3d 31 12 c4 bc 9f 33 a1 bc be 07 2d 3d
       0.04089441 -0.023934456 -0.019677935 0.04224371
0001b0 83 2d e0 bc 0d 86 13 3d 5c 02 0b 3d 2e 5e 2f 3d
       -0.027365452 0.036016513 0.033937797 0.042814426
0001c0 0f 09 2c bd 3e 63 24 3d 19 31 4c bd 35 a8 8f bb
       -0.042000826 0.040133707 -0.04985151 -0.0043840655
0001d0 f2 76 e0 3c 74 23 09 3d 4d 1c 15 3d ea bd ec 3b
       0.027400468 0.033481076 0.036403943 0.007224788
0001e0 69 f9 47 bd 92 01 d9 bc 2a 12 00 3d c3 7c f1 3c
       -0.04882184 -0.026490007 0.031267323 0.029478436
0001f0 6b bc ff 3c d6 07 24 3c fc 4f 09 3d b1 24 5c 3c
       0.031217774 0.010011634 0.033523545 0.013436482
000200 7e 6d 1b bd c8 7c 3c bd bc 86 83 3c 86 aa 2b 3d
       -0.037946217 -0.04601744 0.016055457 0.04191067
000210 bc ca 80 3c 25 3b 0a bc 8f a4 a9 bb b8 95 c2 3c
       0.015721671 -0.008436953 -0.0051770876 0.023753032
000220 be ee 13 bd 4b 69 eb bb 5c 3a f1 bb 79 e2 49 bd
       -0.036116354 -0.0071841828 -0.0073616933 -0.049288247
000230 7b c1 74 3c e2 a6 5e bc 49 ea 49 bb 9b d4 e9 bc
       0.014938707 -0.013589593 -0.003080981 -0.028543761
000240 55 68 96 3c 8a 95 d4 bc 57 b7 bf 3c 9c da 01 3d
       0.018360296 -0.025950212 0.023402853 0.031702623
000250 00 fd 33 bc b7 d1 b8 3c 0e 6a 00 3d fc be 03 3d
       -0.010985613 0.022560937 0.03135114 0.03216456
000260 31 d5 49 bb 97 ef 26 bd f1 81 41 bd 60 e4 c1 3b
       -0.0030797238 -0.040755834 -0.047243062 0.005917117
000270 3b 64 76 3c 75 78 98 39 77 68 bc 3c a8 01 37 bc
       0.015038545 0.00029081447 0.022999031 -0.0111698285
000280 81 03 4e bd 66 cb 25 3c 37 72 31 3d b1 5b d7 3c
       -0.05029631 0.010119295 0.043321814 0.026288839
000290 34 b0 fd bc d6 3d 1b bd 4d 8f 1f 3c 01 bd 46 bd
       -0.03096781 -0.03790077 0.009738755 -0.048520092
0002a0 57 bc a1 bc aa a2 e3 3c 3d 9f 1a 3c a6 0b 2d 3d
       -0.019743128 0.027787525 0.009437379 0.042247437
0002b0 a5 26 03 bd fd 43 0b bd c2 08 e3 3c 70 b6 32 bb
       -0.032019276 -0.034000386 0.027714137 -0.0027269386
0002c0 ec a3 01 3b 18 2b 34 bd fd f2 0b bd 38 a9 c5 39
       0.0019781543 -0.04398641 -0.03416728 0.00037700846
0002d0 10 f0 44 3c ef db 32 3d 95 a1 01 bd fe 50 26 3d
       0.012020126 0.043666776 -0.031648237 0.040604584
0002e0 64 09 72 bb bb 5f e4 bc c6 d9 20 3d f2 72 e9 3c
       -0.0036931867 -0.02787768 0.039270185 0.028497193
0002f0 f0 a6 3f bd 5b 36 7a 3c 1a 79 59 bc f3 42 71 3c
       -0.046790063 0.015271748 -0.013273502 0.014725435
000300 af 52 33 3c 93 7d ee bc 8a 0b 52 bd a8 b2 3f bd
       0.010945006 -0.029112613 -0.051280536 -0.04680124
000310 e8 2d 39 bd 26 77 19 bd 64 b6 83 3b 38 a4 31 bd
       -0.045209795 -0.037467144 0.0040195454 -0.0433695
000320 8e 2a 1c bd 22 57 64 3b ea f5 eb 3b d0 bb 3b bd
       -0.03812652 0.0034841974 0.007200946 -0.04583341
000330 74 06 f9 bb 89 bd 45 bd 0f 57 b8 3b 9d ce 1c 3d
       -0.007599646 -0.048276458 0.0056256126 0.03828298
000340 e5 6f 15 3d c1 4d cb bc 54 c9 0a 3c 82 e4 67 3c
       0.036483664 -0.02481735 0.008470852 0.014153602
000350 e5 b5 1a 3d 10 0a 30 bd 82 62 53 bd 09 7a 4a bd
       0.037771124 -0.042978346 -0.051607616 -0.049432788
000360 a5 33 1e 3c 74 4e 06 3c 31 39 4a bd d2 4d de bc
       0.009655868 0.008197416 -0.04937095 -0.027136717
000370 c0 9a ba bc 94 2b 84 3c d4 c0 81 3c da 13 6d 3a
       -0.022778869 0.01613406 0.015839018 0.00090437906
000380 26 0b 92 b9 55 77 07 bd 75 99 06 bc 35 e4 1e 3c
       -0.00027855596 -0.03307279 -0.008215298 0.0096979635
000390 57 c9 a3 bc 84 fc 7c bc b6 34 9c bc 77 a6 21 bc
       -0.019993467 -0.015441064 -0.019068103 -0.0098663485
0003a0 7e 90 91 bc 2f 08 b5 3c 46 45 26 3d 49 85 45 bd
       -0.017769095 0.022098629 0.040593408 -0.048222814
0003b0 32 09 eb 3c d5 92 11 3c 06 db 25 3d d1 e8 c0 bc
       0.028690908 0.008885105 0.04049208 -0.023548516
0003c0 25 33 03 bd 66 c6 aa 3c c2 32 5c bd 16 27 24 3d
       -0.032031197 0.020846557 -0.053759344 0.040076338
0003d0 1a 41 da bc 77 97 30 3d 26 87 27 3d bd e4 04 bc
       -0.026642371 0.043113198 0.040900372 -0.008111176
0003e0 2d 7f 1d 3a b0 bf 3e bd 6e c7 2b 3d ab 1c f1 3c
       0.00060080254 -0.046569526 0.041938238 0.029432615
0003f0 e7 1e 2f bd f3 44 80 bc b2 ed e0 3c bd bc 13 3d
       -0.04275408 -0.015657878 0.027457092 0.036068667

linear1.bias f4 [256]
000000 7f b8 34 3c 6f 59 39 be 32 b0 3c 3e fa 8d d5 ba
       0.011030315 -0.18100522 0.18426588 -0.0016292923
000010 24 5b 01 bc ec 59 76 bc 4a 7e 5b bd aa b2 fa 3d
       -0.007895265 -0.0150360875 -0.053587236 0.12241109
000020 95 8d 74 3d 83 36 e2 3d 2c a6 0a 3d f7 07 31 3c
       0.059705336 0.110455535 0.03384988 0.010805122
000030 ac 84 50 bc 5a 7e 55 bd 9b da 9c 3d 66 b4 94 bc
       -0.012726944 -0.05212245 0.07658883 -0.018152427
000040 56 a8 31 3e 56 81 2f 3b 27 1c 3d 3d 92 6d d3 3d
       0.17349371 0.002677997 0.046169426 0.10323633
000050 87 39 54 bd 7d 59 16 3d 8f 08 2a ba 77 34 00 be
       -0.051812675 0.036706436 -0.00064862607 -0.12520014
000060 19 72 56 3c 32 cf 13 be 80 1b 58 3e c8 60 30 bc
       0.013088726 -0.14434507 0.2110424 -0.010765262
000070 7e af 76 be 3a b3 ed 3c 28 d1 3c bc 9f a7 11 bd
       -0.24090382 0.029016126 -0.011524476 -0.035560247
000080 b4 18 30 bd 7c 8c f3 3d 14 8c 76 bb bf d5 47 bd
       -0.04299231 0.1189203 -0.0037620114 -0.04878783
000090 48 80 56 bc 59 58 53 3d ef d7 a2 bc 59 5d 30 3d
       -0.013092108 0.051597927 -0.019878356 0.043057773
0000a0 1e 4d 23 3d 06 41 ae 3d 7a c6 56 bd 63 dd f0 3c
       0.039868467 0.08508496 -0.052435376 0.02940244
0000b0 a3 2c ac bc 72 f7 d5 bb 25 ca 50 be 5d a4 79 be
       -0.021017378 -0.006529742 -0.20389612 -0.24379106
0000c0 49 8a 3e 3e c7 6f 21 bd c2 fd f5 3d 78 9a 53 3e
       0.18607439 -0.03941324 0.12011291 0.20664394
0000d0 27 19 96 bc e2 2a e2 3c 03 a3 40 be 52 1a d8 ba
       -0.01832254 0.027608339 -0.18812184 -0.0016487336
0000e0 55 57 84 bc 00 b0 44 3c e4 a2 17 be 89 5b 4d bd
       -0.016154924 0.012004852 -0.14808232 -0.050136123
0000f0 57 14 24 bd ff 59 b1 3c 24 dc a4 bd 16 ac 92 bc
       -0.04005846 0.021649359 -0.08049801 -0.017904323
000100 8d 95 06 be 77 90 2d bc 42 6e 69 3b 34 5d f6 bc
       -0.13142987 -0.010593525 0.0035618697 -0.03007374
000110 d5 ae 2d 3e 3f c2 a9 bc 2f e9 af bd 59 92 da 3d
       0.16961224 -0.020722507 -0.08589398 0.10672445
000120 7e 7a 94 3e 25 dd 31 3d 52 ef da bc bd 1a 15 3e
       0.28999704 0.04342379 -0.026725445 0.14560981
000130 db 16 e0 bd fe c3 4f be 1d e4 16 bd 12 d5 55 bc
       -0.10941859 -0.20289609 -0.03683864 -0.013051288
000140 40 2e 16 3e d6 8e 1a bd c4 b8 23 3e 8e 7b f5 bd
       0.1466608 -0.037733875 0.15988451 -0.11986457
000150 29 1c 44 be f0 9d f2 bb 3f 20 1b be f0 a0 c0 39
       -0.19151367 -0.0074040815 -0.1514902 0.00036741002
000160 8a d0 32 be 30 b7 ce 3c 1e 60 45 3e 10 69 28 bb
       -0.17462364 0.025233835 0.19274947 -0.0025697388
000170 8e 74 29 3e 53 09 78 3c 28 28 3b bd 6d 40 33 3e
       0.16548368 0.015138942 -0.045692593 0.17505045
000180 e8 a7 60 3e 9a ef c3 3d 69 14 0d 3e 8b 9e f9 3d
       0.21939051 0.09567185 0.13777317 0.12188443
000190 61 00 69 3e 05 89 9e 3d 62 6a e6 3c 8a 92 48 3e
       0.22754051 0.07740978 0.0281269 0.1958715
0001a0 4f 06 21 bd 1f de d9 3c 5f af 35 3c 20 74 d1 ba
       -0.039312657 0.026595173 0.011089175 -0.0015980043
0001b0 26 e7 67 bd d7 65 25 bc 21 c5 da 3c 87 81 25 3d
       -0.056616925 -0.010095081 0.026705327 0.04040673
0001c0 dd 07 88 bd d6 d7 92 bc 55 ce 1e 3d a3 ba 65 3e
       -0.06642125 -0.017925184 0.038770992 0.22434478
0001d0 06 5d 21 3d 39 7d 44 bd a4 40 07 3c d6 f1 af 3d
       0.039395355 -0.047970984 0.008255158 0.085910484
0001e0 08 f8 35 bd 2b 56 55 be da 06 eb 3d 28 89 51 bd
       -0.044425994 -0.20833652 0.11475916 -0.051156193
0001f0 0f 68 71 3d fe 9f 65 3e f4 f7 09 3d a2 e0 e4 3c
       0.05893713 0.22424313 0.033683732 0.027939145
000200 60 7c 19 3c 07 14 29 bc 8d fb 0e bc 0f b2 15 3e
       0.009368032 -0.010319716 -0.008726967 0.14618705
000210 4d 21 1a 3d 12 a4 44 3e 63 45 6e 3c 95 bd 0d bc
       0.037629414 0.19203213 0.01454291 -0.008651157
000220 da c7 e8 3c 80 17 2f 3c 09 96 42 3e 48 2c 4e 3e
       0.02841561 0.010686755 0.19002546 0.2013408
000230 aa 01 50 bd bd c6 89 bc ef ab e1 3d eb 34 d0 3d
       -0.050782837 -0.016818399 0.11019122 0.10166343
000240 24 34 13 be e1 c3 bd 3d c9 00 59 3c c0 bc e9 bb
       -0.14375359 0.092658766 0.013244816 -0.0071330965
000250 2f 3b a0 bc 44 54 7a 3e 1e c2 1c bd 30 f7 3b bc
       -0.019559471 0.24446207 -0.038271062 -0.011472508
000260 a6 cc 2a 3c e2 d4 83 3e e5 fe fa 3d d9 6d 45 bd
       0.010424769 0.25748354 0.122556485 -0.048200462
000270 0e 9c cc 3c be 23 20 3d ca 9e c2 bd 8a 1d 77 3e
       0.024976756 0.039096586 -0.09502943 0.24132362
000280 37 20 2f bd fa 67 6c 3c f8 4c ec bb 1d f3 18 3c
       -0.04275533 0.014429087 -0.007211324 0.0093353065
000290 ae 2b 32 3e 41 7f fa bd 5e ca 4c 3e 66 ec 9c 3c
       0.17399475 -0.12231303 0.19999072 0.019155692
0002a0 64 4e 25 be 31 a2 c5 bd d7 00 ba 3b 3c 23 87 3e
       -0.16143185 -0.09650076 0.0056763696 0.2639407
0002b0 d0 f5 24 be 48 27 63 3e 67 06 75 3e 8b 17 e9 bc
       -0.16109395 0.22182953 0.23928224 -0.028453609
0002c0 dc 77 06 3d e9 e2 23 bd da af c6 3d 7c d2 86 3c
       0.03282915 -0.04001132 0.0970151 0.016457789
0002d0 ba 69 11 be 35 e1 02 be b5 4d 03 bd fd 3a 43 be
       -0.14200488 -0.12781222 -0.03205653 -0.19065471
0002e0 89 b8 59 3e bb 45 91 3e d5 11 01 bd 6a 75 17 3e
       0.21261801 0.28373513 -0.031511147 0.14790884
0002f0 c9 d5 42 bd 47 0c 23 bd 04 96 f2 bc ed 0c 16 3c
       -0.047567163 -0.03980663 -0.029612549 0.009158355
000300 d1 43 0c 3e e2 e2 54 bc bb ba 17 bd 32 ef 0c bc
       0.13697745 -0.012993546 -0.037043314 -0.0086019505
000310 6e 59 9c bc 71 c8 54 be 12 ec e6 3c 07 f7 31 3e
       -0.019085612 -0.20779587 0.028188739 0.1737939
000320 57 21 33 3e 45 84 16 3e 13 3a 8a 3d 71 4c cc bc
       0.17493187 0.14698894 0.06749358 -0.024938794
000330 eb 7d 4e 3d 15 f0 20 3e 0f a0 b0 3c 65 24 13 3d
       0.050413053 0.15716584 0.021560697 0.03592338
000340 4a 61 64 3c f1 a5 25 be 3b 72 63 bd 85 0a 9c 3b
       0.013939211 -0.16176583 -0.05552886 0.004761996
000350 da 9e da bc 20 d1 3f bd e5 a6 9a bc 13 d8 fa 3c
       -0.026687074 -0.046830297 -0.01887841 0.03062061
000360 3c 4c 20 3e e3 4b d4 bc 00 d3 28 3d 1d 11 9c bd
       0.15654081 -0.025915092 0.04121685 -0.076204516
000370 43 4e ff 3a fd de 0f be b4 fd 07 3e 16 c5 2b 3b
       0.001947828 -0.14049907 0.13280374 0.0026210002
000380 90 c3 58 3e ee a9 99 bb 1e 40 21 3c 52 ee 6f 3a
       0.21168351 -0.0046894467 0.009841947 0.0009152639
000390 ee 1e 8b 3d 10 aa d0 3d 84 e6 6f bc ff 42 39 3d
       0.06793009 0.10188687 -0.014642362 0.045229908
0003a0 a2 e2 6a 3e 7a fc d4 3d f9 f6 d0 3c 64 f0 f1 bd
       0.22938016 0.103997186 0.02550839 -0.11813429
0003b0 c3 73 3c bd da 1f eb 3c 76 75 69 3e 5f ec 62 be
       -0.046008836 0.028701711 0.22798714 -0.22160481
0003c0 be 66 19 bc cb e3 0d 3e c5 ff 09 bd 3e df f5 3d
       -0.009362875 0.13856427 -0.033691186 0.12005471
0003d0 76 50 a7 3d 8f bb a1 bc d4 bf fd bc 6f fd bb 3c
       0.081696436 -0.019742755 -0.03097526 0.022947995
0003e0 6c a7 f6 bb 30 63 1d 3e 9a 0d ed 3c b3 36 72 3d
       -0.0075272825 0.15369868 0.02893715 0.059134196
0003f0 29 17 96 3d 77 82 55 be 4f b7 0c be 7d a2 a4 bd
       0.07328636 -0.2085055 -0.13741802 -0.08038805

linear2.weight f4 [256, 256]
000000 60 dc ba bc e2 3a c3 bc 9a 6a 54 3f 10 e2 3e 3d
       -0.022810161 -0.023831788 0.8297516 0.04660231
000010 c0 14 7e 3b 00 69 b2 ba 47 c1 bb 3c fe 36 80 3e
       0.0038769692 -0.0013611615 0.02291931 0.25041956
000020 22 24 36 3f 54 e1 15 3f 34 26 2b bd e5 af 02 3d
       0.71148884 0.5854695 -0.04178448 0.031906027
000030 40 2e ff bc e1 10 45 bd c9 c4 21 bc 55 97 0a bd
       -0.031149983 -0.0481118 -0.009873577 -0.033835728
000040 14 58 f9 3d 1c c9 06 3f 4c 3c 76 3d a4 ad b7 3e
       0.12175003 0.5265062 0.060116097 0.35874665
000050 df c8 24 3d 85 84 10 3d 5b a1 7d 3c 1b f4 80 3f
       0.040230628 0.03528263 0.015480365 1.0074495
000060 17 b9 ad 3a f8 9d fa 3c 52 32 df 3e 68 c2 10 bd
       0.0013254014 0.030592903 0.4359308 -0.03534165
000070 45 68 1d 3d 02 88 2c bd 34 76 76 3c ee 24 12 bd
       0.038429517 -0.042121895 0.01504283 -0.03567975
000080 70 65 33 3c 2e 5d 56 be 82 04 75 bd c0 b2 52 bd
       0.010949478 -0.20933983 -0.059818752 -0.05144
000090 da 31 1c 3f 2b 76 00 bd 53 74 e2 bc ac 1a 61 bd
       0.6101357 -0.031362694 -0.027643358 -0.054957077
0000a0 b4 f5 8b 3c cd ee 8d bc 44 00 0c 3d 48 8f 6c bc
       0.017084934 -0.017325783 0.03417994 -0.014438458
0000b0 ac 55 f5 bc b8 08 bf bc 48 78 83 3c ae 39 a0 bd
       -0.029948078 -0.023319587 0.016048566 -0.078235015
0000c0 7c 97 0d 3e 8b f1 ff 3c 9c c9 8e bd 58 6a 00 3e
       0.13827318 0.031243106 -0.06972048 0.12540567
0000d0 31 fd 5d bd 1a 12 e6 3b 70 2c 04 bf 74 2a 10 3d
       -0.05419654 0.007021201 -0.51630306 0.035196736
0000e0 3f 04 b8 bc 1b 8c f3 3a 08 bd 76 be 8e 8a a5 3e
       -0.022462962 0.0018581183 -0.24095547 0.3233227
0000f0 66 ef 1d 3d 61 1e 49 3c 64 b9 32 3e 74 50 0e 3d
       0.038558386 0.012275309 0.17453533 0.034744695
000100 a9 4d 54 3d c6 43 20 3d 2e ff 29 3f 70 d9 41 bd
       0.051831875 0.039127134 0.66405 -0.047326505
000110 47 64 30 be a7 0e 39 3d da 8f 10 bd 3c c1 f3 39
       -0.17225753 0.04517999 -0.035293438 0.00046492543
000120 ef 0c 29 3f 5e e8 19 3d 7e 28 9a bd b5 95 10 3d
       0.6603536 0.03757512 -0.075272545 0.03529902
000130 64 91 85 3d e5 35 85 be c8 7c 5b bc 10 4b c7 3b
       0.06521872 -0.2601768 -0.013396449 0.006081946
000140 79 ce b1 bc 53 22 f8 bc 39 01 e2 3e 30 dc c0 be
       -0.0217049 -0.030289805 0.44141558 -0.3766799
000150 a4 3c 05 bf 59 d8 46 bd 36 ef 2d 3d 96 6b a3 3b
       -0.52045655 -0.04854617 0.042464457 0.0049871905
000160 4e e9 63 be 08 50 b8 bc b8 cb 75 3f f8 c0 64 bd
       -0.22256967 -0.0224991 0.96013975 -0.05584809
000170 df f1 c0 3c 77 a6 21 bd a9 10 5a 3d 88 f6 01 3f
       0.023552833 -0.039465394 0.053238545 0.507668
000180 90 ba 29 3b 9e 9a 0b 3f 8e fd b4 3d 7b 39 a3 bd
       0.0025898553 0.545328 0.08837424 -0.07969948
000190 d2 b4 6d 3d 7c be 3e 3f fd c4 82 3c 37 0a 0b 3f
       0.05803377 0.74509406 0.015963072 0.5431246
0001a0 b6 bf 22 3d 8e c1 36 bf 8e 10 18 bd b6 7a 2c bd
       0.03973361 -0.7138909 -0.037125163 -0.042109214
0001b0 db 4c 7e bc f5 5a 86 bd b4 59 81 3c a6 26 0c bf
       -0.015521253 -0.065603174 0.015789844 -0.5474647
0001c0 4c f3 86 3b dc db 06 bd cc 40 78 bb 65 ce 96 3f
       0.0041183587 -0.032924518 -0.0037880419 1.1781737
0001d0 95 6f 81 bc 80 7f b1 3c 82 b9 6a 3d e7 b8 3f 3d
       -0.015800277 0.021667242 0.05730582 0.046807196
0001e0 d8 6c d9 bc 1b 79 82 39 a3 63 64 bb 35 0c 5b bf
       -0.026541159 0.00024885763 -0.0034849427 -0.855655
0001f0 81 96 0c 3f fc 40 90 3e bc a9 f9 bc c3 ae f1 3b
       0.5491715 0.2817458 -0.030476443 0.0073755695
000200 19 d6 15 bf c0 d2 07 bc 46 b4 20 bd 0f 21 f0 3d
       -0.5852981 -0.008289993 -0.039234422 0.117250554
000210 40 d2 af bc 80 42 aa 3d 61 26 33 3e 4e 26 24 bc
       -0.02146256 0.08313465 0.17495109 -0.010018898
000220 af 67 23 bd a9 55 3d 3f 63 bf b1 3e 91 83 b1 3d
       -0.039893802 0.7395883 0.3471633 0.086676724
000230 82 f7 e8 3c 74 c3 ff bc ec 6c a9 be 1b d5 04 bf
       0.028438333 -0.031221129 -0.33090913 -0.51887673
000240 2b d4 4d bd 3e 61 da 3e 71 e8 4b 3c 98 fa 73 3d
       -0.050251167 0.42652315 0.012445555 0.059565157
000250 04 df 64 bd a3 63 a9 3e 18 a1 64 bc 33 d1 6b bd
       -0.055876747 0.3308383 -0.013954423 -0.057572555
000260 b0 25 a8 bc 34 1c 10 3e 2a 3d 73 bd 1d 3f 9d 3e
       -0.020525783 0.14073259 -0.059384502 0.30712214
000270 70 07 cd 3b 1b 1f 68 bd 4c 1b 1f 3f bd ab 8b 3c
       0.00625699 -0.05667029 0.62151027 0.017049665
000280 d0 43 41 3d 4e 66 91 bd ba 8b 3a bd ca 75 52 3d
       0.04718381 -0.07099591 -0.04554341 0.051381864
000290 62 91 3e bd c7 42 6e bd 7c 8e 32 3f 56 8f 74 bd
       -0.046525367 -0.058169153 0.69748664 -0.05970701
0002a0 5f bf 09 3d 9c fd f7 bc 97 54 2b bd 0b 19 e7 3e
       0.03362977 -0.030272298 -0.041828718 0.45136294
0002b0 89 c7 33 3d 98 2a 27 3f b5 83 48 3e c5 57 8c 3c
       0.043891463 0.6529937 0.19581492 0.017131696
0002c0 ba f7 53 3d d5 01 83 3e 23 3d f0 3e 25 30 10 bd
       0.051749922 0.25587335 0.46921644 -0.035202164
0002d0 dd 1a 64 be 31 a6 60 bc 40 39 6d bc a9 ff 30 3d
       -0.22275873 -0.013711498 -0.0144789815 0.043212567
0002e0 15 3a b8 3c 3f 16 ee 3c 75 ca 9b bc 6c d6 03 bc
       0.022488633 0.029063342 -0.019017437 -0.008046728
0002f0 e5 5a 8c bd 30 36 75 3d 90 f0 81 3c 8c 46 1d 3d
       -0.06853274 0.05986613 0.01586178 0.038397357
000300 44 f9 89 be f0 85 e5 bb d6 e1 7b bd 2c 49 bb 3c
       -0.26947987 -0.007004492 -0.06149467 0.02286204
000310 16 17 2f bc e7 52 54 be d8 5b 75 3d 0e 6c 4d 3e
       -0.010686656 -0.2073475 0.059902042 0.20060751
000320 29 2a 80 bb 74 b2 31 3f 99 57 80 3f 5b 17 fb bc
       -0.003911276 0.6941292 1.0026733 -0.030650785
000330 55 14 72 3e 78 95 90 3f c0 1a 06 bb 29 6f 5d bd
       0.23640569 1.1295614 -0.0020462722 -0.05406109
000340 ff bb 29 bc 0d 25 38 bf a1 3b 5a bd 47 24 38 bd
       -0.010359763 -0.71931535 -0.053279523 -0.04495647
000350 9a 4a 67 bc bf 04 a1 3c 30 ab 37 3d f1 16 d7 3c
       -0.0141169075 0.019655583 0.04484099 0.026256057
000360 a6 99 08 bd ae a1 15 bd 89 0a 2e 3d 71 70 3e bd
       -0.033349656 -0.036531143 0.042490516 -0.04649395
000370 28 3d 33 bd fd ee 16 bd f5 b0 99 3d f6 a9 16 3d
       -0.043759495 -0.03684901 0.07504455 0.03678318
000380 e2 bd 82 3e 25 c7 94 3e 88 69 ba 3c 28 32 4d bd
       0.25535494 0.29058185 0.0227554 -0.05009666
000390 1b a9 a9 3e eb ea 46 3f 8a b1 60 bd 96 80 93 3b
       0.3313683 0.77702206 -0.054856814 0.0045014126
0003a0 17 d5 6e 3f b0 e3 4a 3c ae 0c 15 3d 92 4f e5 3d
       0.932939 0.0123833865 0.036389045 0.111968175
0003b0 ee 74 4c bc a6 4f 91 bd 7f 8b 99 3f fe 01 49 be
       -0.01247905 -0.0709527 1.1995696 -0.19629666
0003c0 b8 8a 7e bc f0 da 20 3f 88 59 45 bd e3 f0 81 bd
       -0.015536003 0.6283407 -0.048181087 -0.063447736
0003d0 0a 99 e2 3e 50 d3 ce bc 60 d0 50 bb 75 ac 87 3d
       0.44257385 -0.025247246 -0.0031862482 0.066246904
0003e0 c0 0d a6 bb 98 d0 ac 3d 9d fb 88 ba cc e5 82 3d
       -0.005067557 0.084382236 -0.0010450963 0.063914865
0003f0 a9 a4 6b 3f 14 33 c2 be af 70 20 be 19 84 ea bc
       0.92048126 -0.37929595 -0.15667985 -0.028627442

linear2.bias f4 [256]
000000 c4 f1 41 3e 4f bb 8e bd 50 ae 61 3e 96 07 d5 3d
       0.18939883 -0.0696932 0.22039151 0.104018375
000010 e4 80 8e 3a 2f 9f a0 bd 7c bf 03 be b9 91 09 3e
       0.0010872153 -0.07842862 -0.12866014 0.13434495
000020 9f d7 9b 3d df a4 3d 3d d5 95 04 bd 27 5d ae bb
       0.07609486 0.04629981 -0.032369453 -0.005321163
000030 3c 13 63 3e 77 f7 60 3e 7d a1 46 3b 84 14 2b be
       0.22175306 0.219694 0.0030308657 -0.16707045
000040 8b 33 02 3d 31 86 0e 3e 0f b0 4e bd 11 d2 10 be
       0.031787436 0.13918377 -0.05046087 -0.14142634
000050 53 a3 43 3e 9b 07 fe 3d 81 1b 3c 3e 44 7d 17 3e
       0.19105272 0.124037944 0.18369867 0.14793879
000060 52 0e f9 3d f1 3d 5d 3c 3c b5 1a bd 5f c2 0d 3e
       0.121609345 0.0135035375 -0.037770495 0.13843678
000070 74 28 82 3e 29 fb 25 3e 8e 1c 12 be a6 28 7d bd
       0.25421488 0.16209091 -0.14268705 -0.061806343
000080 9c 7a 13 3e a6 0a 10 bd bc ea a1 bd 48 51 bd bc
       0.1440224 -0.035166405 -0.079061 -0.023110047
000090 6a 74 6d 3d fe 8b 7c 3e 2e 7a 1f be a6 31 79 3d
       0.05797235 0.24662778 -0.15573952 0.060838364
0000a0 39 9f 4d 3e 57 16 2c bd 62 d0 ea bd 14 56 7f bd
       0.2008027 -0.042013492 -0.11465527 -0.06233795
0000b0 6c fc 23 be 12 fb 6e 3e 92 7d 04 3e c2 ff 35 3e
       -0.1601426 0.23337963 0.12938526 0.17773345
0000c0 d1 6e 4c bd e7 75 1e 3e ee bf c4 bd 00 98 fc bb
       -0.04991037 0.15474664 -0.0960692 -0.0077085495
0000d0 96 30 98 bd 0f c9 25 bd 8d c3 22 3e 7f 3d ff ba
       -0.07431142 -0.040474948 0.15894909 -0.0019473283
0000e0 87 d5 1e be 78 a0 40 3e 2a 0e 50 bd f7 40 d9 bd
       -0.15511142 0.18811214 -0.050794758 -0.10608094
0000f0 8d f8 56 3e c8 10 2d 3e fe d9 22 3e 93 8b 44 3e
       0.20993252 0.16900933 0.1590347 0.19193868
000100 1e 0f e2 bd e8 1e d4 bc 5c 3a 71 bd c5 d2 04 bc
       -0.110380396 -0.025893643 -0.058893546 -0.008106892
000110 7f 76 a6 bd 0d ed 60 3e 2c 91 d4 bd 59 40 08 be
       -0.0812807 0.21965428 -0.10379252 -0.13305797
000120 1f f6 77 3e 94 1e be 3d d5 69 47 3e fa 63 5e 3e
       0.24214981 0.09283176 0.19473965 0.21717826
000130 e0 c6 2d 3e fc 61 e9 3d e5 00 02 bd 9f 48 4a 3e
       0.16970396 0.11395642 -0.031739134 0.19754265
000140 65 17 91 3c 1d b4 64 3e 43 d7 fd 3c 84 96 49 3e
       0.01771135 0.22334333 0.030986434 0.19686323
000150 5a 9d 28 3e 8b 11 11 3e 54 0e 78 bd 5c eb 79 bb
       0.16466275 0.14166848 -0.06056054 -0.003813467
000160 bc fc 73 3e ca 51 76 3e a9 c8 cc bb 4d 1c 66 3e
       0.2382688 0.24054638 -0.0062495065 0.22471733
000170 37 bb 12 3e 73 90 62 bd 7b 4d 5d 3e a2 f6 09 be
       0.1432923 -0.05531354 0.21611588 -0.13472989
000180 58 3b 60 3e 3e a0 60 be 84 78 fb 3d df 5c b6 bd
       0.21897638 -0.21936128 0.12278846 -0.089044325
000190 6e 4f b4 bd f1 b5 c9 bc 1f be 44 3e 86 21 ad 3c
       -0.088042125 -0.02462289 0.1921315 0.02113415
0001a0 60 b0 d2 bd 72 b1 e9 3c 1a cb a6 bc 8c cb e4 3d
       -0.10287547 0.028526995 -0.020360518 0.11171636
0001b0 ab 39 e8 bc 97 96 85 bc bb 33 23 3e 50 45 bc bc
       -0.02834781 -0.016307158 0.15937702 -0.02298227
0001c0 9c d6 0d bd 26 8e 91 bd 75 ad 0b bd 3a 06 00 3e
       -0.034628496 -0.07107191 -0.03410097 0.12502375
0001d0 69 b7 35 bd c5 45 8f bc 48 1b c6 3c a0 4f 46 3d
       -0.044364367 -0.017489323 0.02418293 0.04841578
0001e0 ad b5 96 3c da 26 01 3e b2 b0 2a 3e 95 89 85 bd
       0.018397177 0.12612477 0.16668966 -0.06520382
0001f0 53 07 6b 3e e1 f7 15 3c 08 a5 0f 3e ae ba 2a 3d
       0.22952013 0.009153337 0.14027798 0.041681938
000200 55 ec 51 3e ec 46 84 3b e5 d5 5f 3e 7e dd 3b 3e
       0.2050031 0.004036775 0.21858938 0.18346211
000210 44 19 0c 3d 11 e8 04 3e 85 f8 85 bd ac d1 f0 bc
       0.034203783 0.12979151 -0.06541542 -0.029396854
000220 f8 ab ae 3d 75 e8 27 3d 3c 7a 03 3d fb 1c 6c bc
       0.08528894 0.040993173 0.032098994 -0.014411206
000230 e0 79 c0 3c ba e2 72 3e 34 1f 20 3e 09 2f c0 bd
       0.023495615 0.23719302 0.15636903 -0.09383971
000240 08 41 ec bb 5d a9 84 bc ee f8 62 3e 13 3f 6e bd
       -0.0072099008 -0.01619404 0.22165272 -0.05816562
000250 78 7f 34 bd 1a 70 50 3e b8 ef ad bd 3f f4 29 bd
       -0.044066876 0.20355263 -0.08492988 -0.041492697
000260 19 64 4c 3e da b4 e7 3c 96 f1 c9 bd c3 55 6f 3e
       0.19960059 0.028284479 -0.09860532 0.23372559
000270 99 7c d2 3d 0c d0 0f 3c 87 9f f2 3d f5 7e 19 3c
       0.10277671 0.00877763 0.11846834 0.009368648
000280 73 8a fc 3c 0c 4c f0 3d f5 26 2f 3e 94 2c a7 bc
       0.030827736 0.11733255 0.17104705 -0.020406999
000290 84 b1 7c bd 40 09 61 bd 81 03 4e bd 15 ed dd 3d
       -0.06169273 -0.054940462 -0.05029631 0.108362354
0002a0 2e e2 d9 3d ad 7d 9f bd 3c 75 d5 bd 8d 65 0e bd
       0.106388435 -0.07787643 -0.10422751 -0.034764815
0002b0 5e 15 25 3c 73 19 61 bd 25 a6 0d bd 3b e1 2a 3e
       0.010075895 -0.05495591 -0.034582276 0.16687481
0002c0 66 91 74 3e ae 94 a8 3b 34 11 0b 3d a9 74 3f 3e
       0.2388359 0.005144677 0.033951953 0.18696846
0002d0 2a 0c c9 3d 29 80 15 3e 15 09 7a 3e dd 04 0c 3d
       0.09816773 0.1459967 0.24417527 0.034184325
0002e0 c9 aa ec bd 8e 58 cc bc c7 1e c3 bb 5f 99 26 be
       -0.11556012 -0.02494457 -0.0059545967 -0.16269444
0002f0 2d 48 2c 3e 21 94 56 3e be b3 2b 3e 79 52 55 3e
       0.16824408 0.20954944 0.16767785 0.20832242
000300 c0 71 2c 3e 7b 73 62 3e a2 77 ae bd f1 40 e6 3c
       0.16840267 0.22114365 -0.08518912 0.028107138
000310 3d 8c 99 3c 56 7d 9f bc 32 3f 3c bd fa 0f 25 3e
       0.018743629 -0.019468945 -0.045958705 0.16119376
000320 72 00 12 be 99 ea 13 bd ba ac 00 be 76 c4 79 3e
       -0.14257982 -0.0361124 -0.1256589 0.2439135
000330 72 85 f1 3d 72 4e 54 bd 04 47 cc 3d ba b8 d1 b9
       0.11793031 -0.051832624 0.09974483 -0.00040001218
000340 11 0b 4d bd 5a 0d 5b 3e 24 92 09 3e 2f b9 48 3e
       -0.050059382 0.21391812 0.13434654 0.19601892
000350 15 03 da bd 45 90 0e 3b ce 72 2a 3c 7a 87 16 3e
       -0.10645119 0.0021753472 0.010403348 0.14700118
000360 62 ca 93 bd 69 9b 7a 3e 17 f2 90 bd e9 5f 5a 3e
       -0.07216336 0.24473347 -0.07077425 0.2132565
000370 7d 7f 2b 3d 32 9a 5d bd 1f 38 52 3e 9a 45 53 bd
       0.04186963 -0.05410213 0.20529221 -0.05158005
000380 f6 2e 41 3e 9e 29 12 bc 3b 7b 18 3e ab 67 71 3c
       0.1886557 -0.008921055 0.14890759 0.014734189
000390 92 aa 04 be 1d 78 22 be ae 74 38 be ba 57 5d bd
       -0.12955692 -0.15866132 -0.1801326 -0.05403874
0003a0 ce b1 2c 3d 3e 6a 54 be 97 82 2f bd 4d 24 43 be
       0.042161755 -0.20743653 -0.04284915 -0.19056816
0003b0 36 f6 05 3e f6 f6 9e bd 3a 7c d1 3d 6a e8 29 be
       0.13082203 -0.07761948 0.102287725 -0.16592565
0003c0 fa 9b 44 3e c2 35 55 3e 9c 72 8a 3c 83 89 25 3e
       0.19200125 0.20821288 0.016900353 0.16165738
0003d0 05 e4 17 3b 44 38 28 3e bf 17 11 be 3e 63 a4 3c
       0.0023176682 0.16427714 -0.14169215 0.020066854
0003e0 c5 be 31 be 15 a5 0f bd 6c 72 47 3e c4 d6 fb bb
       -0.17357929 -0.035069544 0.19477242 -0.007685514
0003f0 72 6b 68 bd 4e 53 05 3e 16 68 ba bd dc 25 23 3e
       -0.056743093 0.1302006 -0.09101884 0.15932411

linear3.weight f4 [1, 256]
000000 d7 d5 7c bf 87 81 e2 3f 82 a2 66 bf 83 39 91 40
       -0.98763794 1.7695779 -0.9009172 4.5382705
000010 9c c8 04 bb 28 eb 40 3b 64 c5 c5 3f 50 24 3c bf
       -0.0020261174 0.002943704 1.5450864 -0.7349291
000020 2a 30 e2 3f e6 eb 11 bb e4 d1 74 bb c5 32 0e 3c
       1.7670949 -0.002226585 -0.003735655 0.008679097
000030 53 97 65 bf 5c 02 50 bf 78 fb e4 3f 1b ff 01 40
       -0.8968403 -0.812536 1.7889242 2.0311954
000040 9b 16 e2 bf 37 ff 59 bf 00 d7 2a 40 95 95 db 3f
       -1.7663149 -0.8515505 2.6693726 1.7155024
000050 7f 33 71 bf b5 dd 62 bf 9b 55 83 bf 2b 63 ae 3e
       -0.942192 -0.8861955 -1.02605 0.34060034
000060 6b 63 4d bf 00 67 cc 3c 82 67 84 3f da 4b 5b bf
       -0.80229825 0.024951458 1.0344088 -0.85662615
000070 2b a9 60 bf f5 0b 36 bf 41 ba a0 3f 2a 99 7a 3f
       -0.8775813 -0.71111995 1.255684 0.9788996
000080 84 1c 6d bf a6 5f 9f bb 09 51 08 40 a1 8c c0 bb
       -0.92621636 -0.004863697 2.129946 -0.0058761393
000090 6f 02 7b 3f eb af 59 bf 4b 60 53 3f fc 26 42 40
       0.9805059 -0.85034055 0.82568806 3.0336294
0000a0 46 5f 86 bf 60 23 44 3d e4 b7 93 3f 76 39 2f bd
       -1.0497825 0.0478853 1.1540494 -0.04277941
0000b0 9e b0 8c 3f a8 e4 63 bf a5 b2 b2 bf 6b db 63 bf
       1.0991399 -0.89020777 -1.3960768 -0.8900668
0000c0 58 44 4e bc cd f8 42 bf ab 8d 07 40 98 fb 72 bd
       -0.012589537 -0.7616089 2.1180217 -0.05932197
0000d0 a3 44 fe 3c b7 2f 3a 3d 83 fc 43 bf 82 ec 26 40
       0.031038588 0.04545566 -0.7655718 2.6081853
0000e0 b8 29 64 3f 35 fc 53 bf 7d 73 81 3b 07 4e 88 3f
       0.8912616 -0.8280671 0.003950535 1.0648812
0000f0 88 bb 07 c0 9b 2b 3d bf d5 18 68 bf 1c 28 49 bf
       -2.120821 -0.7389466 -0.9066289 -0.7857683
000100 b5 8a 58 3f ae 09 01 bd 3d c6 07 bc ec 5a 09 bd
       0.8458665 -0.031503372 -0.00828701 -0.033533975
000110 02 e9 60 3c 9c 8b 56 bf 96 ef a7 3f df 08 e3 3f
       0.013727428 -0.83806777 1.3119991 1.7737082
000120 ab 95 3f bf ab 1f 63 bf d1 32 48 bf b5 c1 49 bf
       -0.7483775 -0.88720196 -0.7820254 -0.788112
000130 a2 7f 18 c0 e4 9f 83 bf e9 d2 5c 3d 3f bd 3a bf
       -2.38279 -1.028317 0.053912077 -0.72945017
000140 48 b9 4d 3b da b0 4f bf 40 21 c8 bc c3 39 58 bf
       0.0031390954 -0.8112923 -0.024429917 -0.8446314
000150 32 0f 48 bf f9 e9 84 bf d7 0d 63 3f 68 1e c6 3b
       -0.78148186 -1.0383903 0.8869299 0.006046105
000160 aa d2 73 bf ea 1a 42 bf b4 6c 02 bc e4 47 56 bf
       -0.9524332 -0.7582232 -0.007960487 -0.83703446
000170 66 ff 52 bf 0a f9 eb bc bc d9 81 bf 13 36 0b 40
       -0.8242096 -0.028805275 -1.0144572 2.1751754
000180 c3 90 79 bf 23 48 b8 3f 5b 2d ad bf b7 b0 7f 3f
       -0.97486514 1.4397014 -1.3529466 0.9987902
000190 f8 da 94 3f 68 38 b1 3b 52 b8 6d bf ec d2 0e 3a
       1.1629324 0.0054083355 -0.92859375 0.00054483
0001a0 3c 0b 8e 3f 98 0f 43 bc 50 0e 5e 3f bb 62 77 bf
       1.1097178 -0.011905573 0.8674059 -0.96635026
0001b0 ef 79 a1 3b fe 60 52 3f d8 6b 3d bf a2 cc 78 3a
       0.0049278657 0.8217925 -0.7399268 0.0009490942
0001c0 a5 60 2e 40 08 40 c3 bc a4 07 84 3a 35 0a 32 bf
       2.7246487 -0.023834243 0.0010073078 -0.69546825
0001d0 52 fa 4d bc 70 07 4b ba 5a 19 51 3b 12 c1 69 bb
       -0.012571888 -0.0007744944 0.003190598 -0.0035668057
0001e0 2f 10 a3 bb f9 74 6a bf ee bd 41 bf 2c 41 06 bd
       -0.0049762945 -0.91584736 -0.75680435 -0.032776996
0001f0 75 f4 4f bf 9b 1c a0 bf 13 52 63 bf 76 b6 2f 3d
       -0.81232387 -1.250873 -0.8879711 0.042898618
000200 4b 59 44 bf 29 3d 5d 3d aa 2b 45 bf c7 03 84 bf
       -0.7669875 0.054013405 -0.7701975 -1.0313653
000210 78 b8 eb bf 16 f3 b1 bf ea ce 65 3c 3b a3 f8 ba
       -1.841567 -1.3902309 0.014026383 -0.0018969545
000220 c0 a3 7c 3f 96 e2 95 3f a0 86 c1 bc c8 d7 ca 3c
       0.9868736 1.1709774 -0.023623765 0.024761096
000230 3c d7 00 bd 72 21 35 bf 47 e0 4b bf ba d4 e1 3f
       -0.031455263 -0.7075416 -0.79639095 1.7643044
000240 78 84 38 40 3d a0 05 3c 34 7e 36 bf 95 f0 11 bd
       2.8830853 0.00815588 -0.7128632 -0.035629828
000250 1c 7a f6 bc 2a 37 37 bf 72 ec 93 3f 62 57 e5 3b
       -0.030087523 -0.7156855 1.1556532 0.0069989422
000260 c1 6a 65 bf 54 21 8d 3c a8 b2 80 3f 4d 6b 5e bf
       -0.8961602 0.017227806 1.0054522 -0.8688248
000270 4d ca 72 bf 2c 73 06 3d 04 bd 67 bf 08 d1 48 3d
       -0.94839936 0.03282468 -0.9052279 0.049027473
000280 50 10 49 3d 59 96 8f bf f0 43 4f bf 45 17 f1 3f
       0.049087822 -1.1217757 -0.8096304 1.8835226
000290 d5 cc 18 3c aa 68 6d 3f 69 b1 d3 bc 23 b4 86 bf
       0.0093261795 0.9273783 -0.025841432 -1.0523723
0002a0 79 04 6b 3e 09 19 b0 3f 3a 68 c7 3f b8 ae c2 bc
       0.22950925 1.375764 1.5578682 -0.023764953
0002b0 4a 11 d0 38 55 0d 08 bb 8c 38 70 bb 3e 32 36 bf
       9.921433e-05 -0.00207599 -0.0036654798 -0.71170413
0002c0 b5 be 53 bf 05 49 83 bb 6d a9 17 3d b1 5f 3b bf
       -0.8271287 -0.0040065073 0.03702681 -0.7319289
0002d0 b9 68 95 bf 84 c9 b6 bf 0f f3 56 bf 2d 2a 8d 3f
       -1.1672584 -1.4280248 -0.8396463 1.1028496
0002e0 cb aa 64 3f 61 42 83 3f e7 1d 78 3f 73 a7 cb 3f
       0.8932311 1.0254632 0.9692063 1.5910476
0002f0 4b d5 4a bf 47 7a 33 bf e7 c6 3f bf 6d 70 4c bf
       -0.7923171 -0.70108455 -0.74912876 -0.7985905
000300 96 cc 88 bf 52 da 2e bf 0d 2d f0 3f b1 9d e0 3f
       -1.0687435 -0.6830188 1.8763748 1.7548124
000310 51 c2 55 3d 59 19 51 3d 10 6b d9 3b ec 2c 61 bf
       0.052187268 0.051049564 0.0066350773 -0.8795917
000320 07 29 a7 3f 26 82 b0 3d bd 17 ff 3f 92 e3 6b bf
       1.3059396 0.08618574 1.9929119 -0.9214412
000330 ea 15 60 bf f2 25 e1 3b 3e 2c ae bf 46 01 29 3d
       -0.8753344 0.0068709785 -1.3607252 0.04126098
000340 db 4f e3 bb 34 af 76 bf f9 c9 52 bf 59 ac 53 bf
       -0.0069370097 -0.9636109 -0.82339436 -0.82684857
000350 e0 68 ad 3f 6d c1 80 3f 92 16 e2 3c 0e 37 43 bf
       1.354763 1.0059029 0.027598653 -0.7625588
000360 49 2a 89 3f 60 f1 4c bf c9 44 62 3f ab 7d 42 bf
       1.071603 -0.8005581 0.8838621 -0.75973004
000370 f3 65 77 40 6e 40 5f 3e d1 c1 27 bf 5d d2 92 bb
       3.8655975 0.21801922 -0.65530115 -0.0044806437
000380 3d 2e 6b bf 19 c3 55 3d 52 9b 88 bf f6 ae 11 3d
       -0.9186743 0.052188013 -1.06724 0.035567246
000390 74 bd c9 3f 46 55 f1 3f 23 82 80 3f a0 5d 33 bb
       1.5760942 1.8854148 1.0039715 -0.0027369037
0003a0 09 e7 55 3c 02 09 61 3f ca 3f 03 40 04 4f ce 3f
       0.013055571 0.8790437 2.0507684 1.6117864
0003b0 10 2d 82 bf 77 de 39 bd f5 c1 0d c0 84 11 cc 3f
       -1.0170002 -0.045378175 -2.2149632 1.5942845
0003c0 f8 12 70 bf cf f3 4f bf ef 39 34 3c 08 dc 47 bf
       -0.93778944 -0.812314 0.011000141 -0.78070116
0003d0 5f 05 30 3a d9 2d 35 bf da ab 89 3f 6b e4 70 bc
       0.00067146675 -0.7077308 1.075557 -0.014702897
0003e0 64 d5 67 3f 96 8a 22 bd cf bd 87 bf 86 00 a6 bb
       0.90559983 -0.039682947 -1.06048 -0.0050659804
0003f0 a8 7a 54 bd 97 ed 49 bf cf af 8a 3f f8 10 4e bf
       -0.051874787 -0.7887816 1.0834903 -0.8049464
