turtlebot3_rl_sim/src/models/td3/turtlebot3_top_12_obstacle/td3_critic1_model_ep2500.pt (torch_old, 692258 bytes, 5 tensors)

linear1.weight f4 [256, 416]
0	0xbcc5a833	-0.024128055
1	0x3d1c49f2	0.038156457
2	0x3cea2af3	0.028584933
3	0x3c8caf3b	0.0171734
4	0x3d81857b	0.063242875
5	0x3d281ec6	0.041044973
6	0xbc84e275	-0.016221264
7	0x3d186a9a	0.03721104
8	0x3cdcec95	0.02696828
9	0xbcd04deb	-0.02542778
10	0x3cea7380	0.028619528
11	0x3cf67ce0	0.030088842
12	0x3c1b1bed	0.009467107
13	0x3d1f915b	0.03895698
14	0x3d45b280	0.048265934
15	0xbcd91e21	-0.026503624
16	0x3d46ec56	0.04856523
17	0xbb3431b2	-0.002749544
18	0xbcf37a61	-0.02972144
19	0x3c6ed20a	0.014576444
20	0x3d4eff31	0.05053634
21	0x3ccfcfaf	0.025367586
22	0x3bb70130	0.0055848584
23	0xbd054c93	-0.03254373
24	0xbd70990e	-0.058739714
25	0x3d03589a	0.03206692
26	0x3be5db7d	0.0070146904
27	0x3d24bea3	0.040220868
28	0xbafaac76	-0.0019124884
29	0x3d394529	0.045231972
30	0xbbe40b7e	-0.006959378
31	0xbb76e884	-0.0037675211
32	0x3d0d660d	0.03452115
33	0x3d0181fb	0.0316181
34	0x3cbb4330	0.022859186
35	0xbd807f0a	-0.06274231
36	0xbcc3b991	-0.023892196
37	0xbd0ec7a2	-0.034858353
38	0xbd5f537a	-0.05452297
39	0xbae6f282	-0.001761988
40	0x3cee95f4	0.029124238
41	0xbc9fc92f	-0.019505112
42	0x3d596471	0.053074304
43	0x3c07842d	0.008271259
44	0xbd779f64	-0.06045474
45	0x3d3a8852	0.04554016
46	0xbc12129a	-0.008915568
47	0x3a682fed	0.0008857239
48	0x3be37598	0.0069415085
49	0x3c8f0d56	0.017462414
50	0x3ca25eac	0.019820534
51	0xbcfdea19	-0.030995416
52	0xb9a10969	-0.00030715324
53	0xbc3f7ce9	-0.011687496
54	0x3cb4ef69	0.022086816
55	0x3cc89f8e	0.024490144
56	0xbd1fd8e8	-0.039025217
57	0x3c373210	0.011181369
58	0xbd122f0a	-0.03568939
59	0x3cc52cea	0.024069268
60	0x3ce2d149	0.027687686
61	0x3a91c1f7	0.0011120428
62	0x3d2cddaa	0.042203583
63	0x3d549f14	0.05190952
64	0xbbd496f9	-0.006487724
65	0x3d5102d1	0.051028077
66	0x3cad40e0	0.021149099
67	0x3bbf4d19	0.005838048
68	0x3da898df	0.08232283
69	0xbc5db57e	-0.013532041
70	0x3c1b9c3d	0.009497699
71	0x3d2a8de4	0.041639224
72	0xbc8f4d33	-0.017492866
73	0xbcc5c1a6	-0.02414019
74	0xbc3dc8f1	-0.011583553
75	0xbd911a50	-0.07085097
76	0xbd00c557	-0.031438198
77	0xbd63dbf1	-0.055629674
78	0x3a2be8bc	0.00065578124
79	0xbd8fe6e8	-0.07026464
80	0xbd393c31	-0.04522342
81	0x3d2d56c5	0.042319078
82	0x3c3936d7	0.011304579
83	0xbb43fa7f	-0.0029903946
84	0xbd00a843	-0.031410467
85	0x3cae7890	0.021297723
86	0xbc03304f	-0.008007123
87	0x3ab8775f	0.0014073661
88	0xbc1ba29b	-0.009499217
89	0xbd8e1d45	-0.069391765
90	0xbd0bf313	-0.03416736
91	0x3c4387f1	0.011934266
92	0x3cd3c007	0.025848402
93	0xbcfb4d47	-0.030676497
94	0xbcee62ed	-0.029099906
95	0xbc713da0	-0.014724165
96	0x3cda16a5	0.026622126
97	0xbd4f33b3	-0.050586414
98	0xbb917af0	-0.004439704
99	0xbb3c28b7	-0.0028710791
100	0x3d164d04	0.03669454
101	0x3bc520ec	0.0060158875
102	0xbd1a0fe6	-0.03761282
103	0xbdc536c2	-0.09629585
104	0x3d3dd2db	0.046343666
105	0xbd2187d6	-0.039436184
106	0x3acfdd93	0.0015858881
107	0xbd460fa8	-0.048354775
108	0xbd1f3a51	-0.038873974
109	0x3d8690a0	0.06570554
110	0x3ccdd03c	0.025123708
111	0x3d5b3cfe	0.053524964
112	0x3cc2899f	0.023747263
113	0x3a9855ab	0.0011622211
114	0xbd4f809f	-0.050659772
115	0xbcbdbb56	-0.023160618
116	0x3c2cf9cf	0.010557606
117	0xbc016a77	-0.007898918
118	0x3c378de4	0.011203263
119	0xba8f51ba	-0.0010934391
120	0xbcdb8811	-0.02679828
121	0xbd16c5c7	-0.03680971
122	0xbce3c762	-0.027805034
123	0xbc9f798e	-0.019467141
124	0xbd2c5a8a	-0.042078532
125	0x3b16bea5	0.0023001817
126	0xbb824e44	-0.003976615
127	0xbd911529	-0.07084114
128	0x3cc12cec	0.02358099
129	0xbcd37547	-0.025812758
130	0x3c02970b	0.007970582
131	0x3cbf9c2a	0.023389895
132	0x3cea36f0	0.02859065
133	0x35749cb4	9.1125116e-07
134	0xbd10d72a	-0.035361446
135	0x3d2ddcf0	0.04244703
136	0x3d481710	0.04885012
137	0xbca9db04	-0.020734318
138	0x3c79ab8b	0.015238653
139	0x3cba06e9	0.022708373
140	0x3d7b802e	0.06140154
141	0xbbe46b95	-0.0069708326
142	0x3a1bf62e	0.00059494644
143	0x3c9933cf	0.018701462
144	0xbc73178f	-0.01483716
145	0x3c74950a	0.014928112
146	0x3d60d30b	0.054888766
147	0x3b52b568	0.0032151584
148	0xbb27227b	-0.002550273
149	0xbbab007f	-0.005218565
150	0x3d2b452a	0.041814007
151	0x3c493dbc	0.012282785
152	0x3bf2650f	0.007397301
153	0x3cdf20a4	0.027237244
154	0xbc1bf535	-0.009518911
155	0x3d31a8d2	0.04337389
156	0x3d07b4a9	0.033131275
157	0x3d877d8d	0.06615744
158	0x3d6040f7	0.054749455
159	0x3d895316	0.067053005
160	0x3d589823	0.052879464
161	0x3cbea29d	0.0232709
162	0xbc22c8c7	-0.009935564
163	0xbcac9e97	-0.021071715
164	0xbd594ab4	-0.053049758
165	0xbd0d5b6d	-0.03451102
166	0x3cc5a3f5	0.024126032
167	0xbc9d87e7	-0.019229842
168	0xbc4eaaa1	-0.012613923
169	0xbcf32bd2	-0.029683981
170	0x3d5f3071	0.054489557
171	0x3ca9ae39	0.020712959
172	0x3ce9d0e5	0.028541991
173	0xbcf54caa	-0.029943783
174	0xbd820267	-0.063481145
175	0xbc396a0f	-0.01131679
176	0x3c8adc38	0.016950712
177	0xbcc13989	-0.023587005
178	0x3d2ae3c3	0.041721117
179	0x3c978e78	0.018500552
180	0xbd242095	-0.040070135
181	0xbd48e4c2	-0.049046285
182	0x3b2eadb7	0.0026653835
183	0xbc8e3b99	-0.017362403
184	0xbca7b96e	-0.020474162
185	0x3cb4ac39	0.022054778
186	0x3bc15739	0.0059002903
187	0x3c632220	0.0138631165
188	0x3d8a76be	0.067609295
189	0xbd002f92	-0.031295367
190	0x3d394549	0.04523209
191	0x3d89ee97	0.067349605
192	0xbc95a6c5	-0.018267998
193	0xbbed5fcf	-0.0072440873
194	0xbc8998df	-0.016796527
195	0xbc91f358	-0.01781623
196	0xbcb8419e	-0.022492226
197	0x3c70e042	0.014701905
198	0xbcd536c7	-0.026027096
199	0xbcedfd44	-0.02905143
200	0xbd2c3464	-0.04204215
201	0x3ca08411	0.019594224
202	0x3c801e64	0.015639491
203	0xbd82dbc3	-0.063895725
204	0x3cbd3c40	0.023100019
205	0x3ad3ea55	0.0016167859
206	0xbc3cdeb5	-0.011527707
207	0x3d4a6cae	0.04942005
208	0xbce255a8	-0.027628735
209	0xbc96a65b	-0.018389871
210	0x3d1b6315	0.03793629
211	0x3d0755b1	0.033040706
212	0xbc5e9c6a	-0.013587097
213	0x3d0d2a52	0.034464188
214	0xbd06295c	-0.032754287
215	0xbcd00de7	-0.025397254
216	0x3d331f45	0.043730993
217	0x3a12f3ed	0.0005605806
218	0xbc94f31b	-0.018182328
219	0x3bb561e2	0.00553535
220	0xbce184eb	-0.0275292
221	0xbcf87d9b	-0.03033333
222	0xbab8e8a9	-0.0014107424
223	0x3bbf11ec	0.005830994
224	0x3c1053ca	0.008809039
225	0xbd14f830	-0.036369503
226	0xbb6566dc	-0.0035003936
227	0xbd27b796	-0.040946566
228	0x3ca1369d	0.019679362
229	0xbd27181c	-0.040794477
230	0xbcfe9577	-0.03107713
231	0xbd022046	-0.03176906
232	0x3cbc8eb1	0.02301726
233	0x3c9f3218	0.019433066
234	0x3d152c96	0.036419474
235	0x3cf65693	0.030070579
236	0x3cebefc3	0.02880085
237	0x3d1b467a	0.03790901
238	0xbc1fa00e	-0.00974275
239	0x3c879f74	0.016555525
240	0xbc25ff1d	-0.0101316245
241	0x3c40fb60	0.0117786825
242	0xbc7f4a3d	-0.015581665
243	0x3d39bea2	0.045347817
244	0x3cf0421a	0.029328395
245	0x3cbc5b00	0.022992611
246	0x3d0acfce	0.033889584
247	0x3bdda10d	0.0067635835
248	0xbbb7a797	-0.005604695
249	0x3cbb2a38	0.02284728
250	0x3d69b402	0.057056434
251	0x3ba91ec6	0.005161139
252	0xbd2174ca	-0.03941802
253	0xbc0695b3	-0.008214402
254	0x3d47ab5b	0.0487474
255	0x3d90db1a	0.0707304

linear1.bias f4 [256]
0	0xbe63d1b5	-0.22247966
1	0x3e220584	0.15822417
2	0xbbd9df72	-0.006648951
3	0xbe4dd81f	-0.20101975
4	0xbe643b38	-0.22288215
5	0x3a61e23a	0.0008616779
6	0xbd539afc	-0.051661476
7	0xbe27deb4	-0.16393548
8	0x3dbfa273	0.093571566
9	0xbd2439d7	-0.040094223
10	0x3d7bf933	0.06151695
11	0xbdd1693d	-0.10225151
12	0xbcb40020	-0.021972716
13	0x3cb91677	0.02259372
14	0x3d5323d2	0.051547833
15	0xbe1e107e	-0.15435979
16	0xbd5e0142	-0.05420042
17	0xbcf062bc	-0.029343955
18	0xbd2334e7	-0.039845373
19	0xbce02743	-0.027362471
20	0xbb24a950	-0.0025125332
21	0x3dee35b2	0.11631335
22	0xbd4b5979	-0.049645875
23	0x3c8c1df4	0.017104127
24	0xbbfb23b8	-0.00766417
25	0x3cd51991	0.026013168
26	0xbd4a2991	-0.049356047
27	0xbe2a17f8	-0.16610706
28	0x3ce50f82	0.027961496
29	0xbe262e7e	-0.16228673
30	0x3d24c676	0.04022833
31	0xbc88d2fd	-0.01670217
32	0xbcee31cb	-0.029076478
33	0x3e2b1e83	0.16710858
34	0xbe194b95	-0.14970239
35	0xbc93b106	-0.018028747
36	0xbd697ac3	-0.05700184
37	0x3b8b7534	0.004255915
38	0x3e107f0d	0.14110966
39	0xbe43ba7d	-0.19114108
40	0xbe3339b4	-0.17502481
41	0x3c684ada	0.014178002
42	0xbe375bc7	-0.17906104
43	0x3def2ba9	0.116782494
44	0x3c762004	0.015022282
45	0x3e3eff37	0.18652044
46	0xbe102a91	-0.14078738
47	0x3d1c9405	0.0382271
48	0x3b4d0340	0.0031282455
49	0xbd351fa0	-0.044219613
50	0xbe22de9e	-0.15905234
51	0x3d3744d9	0.044743393
52	0x3e34ffe1	0.17675735
53	0xbe2a20cd	-0.16614075
54	0xbca05a6f	-0.019574372
55	0xbe1dd825	-0.15414484
56	0xbcd4ab6a	-0.025960643
57	0x3d4408d1	0.04785997
58	0x3e11218d	0.14172955
59	0x3cd5a569	0.02607985
60	0xbe351665	-0.17684324
61	0xbd8f36a6	-0.06992845
62	0xbccf8639	-0.025332557
63	0x3d8e0120	0.06933808
64	0x3ce78a32	0.028264139
65	0xbe1fb6ee	-0.15597126
66	0xbcb74253	-0.022370493
67	0x3e3459be	0.17612359
68	0x3e02af1c	0.12762111
69	0x3db5782c	0.088608116
70	0xbd751dac	-0.05984275
71	0x3dabe504	0.08393291
72	0x3da69366	0.08133583
73	0x3cd77e11	0.02630523
74	0x3e191892	0.14950779
75	0xbe445855	-0.19174321
76	0x3dfae0e4	0.12249926
77	0x3e1cbc62	0.15306237
78	0xbe2f2523	-0.1710401
79	0x3c525d91	0.012839691
80	0x3c816184	0.01579357
81	0x3e18829d	0.14893575
82	0x3e6d9ed2	0.23205116
83	0x3e2aaa77	0.1666659
84	0xbe49bbef	-0.19700597
85	0xbca79217	-0.020455403
86	0x3e39fe5c	0.18163437
87	0x3baf2076	0.005344446
88	0x3de7b9fd	0.11314771
89	0x3c79e773	0.015252936
90	0x3db90485	0.09034065
91	0xbd1d711e	-0.038437955
92	0xbe2ae556	-0.16689047
93	0x3e736d59	0.23772182
94	0x3e19573a	0.1497468
95	0x3c8c7c7c	0.017149203
96	0x3dfb7c39	0.12279553
97	0x3d6bf963	0.05761088
98	0x3cc38c98	0.023870751
99	0xbcf9e6b3	-0.030505514
100	0x3e5c4785	0.21511658
101	0x3bd0ca71	0.006371789
102	0xbb84e715	-0.0040558674
103	0xbd0a95c5	-0.033834238
104	0x3c90a02d	0.017654503
105	0x3e370980	0.17874718
106	0x3e14e59d	0.14540716
107	0x3d3c7167	0.046006586
108	0xbc6beafb	-0.014399285
109	0xbc8ab11d	-0.016930157
110	0x3db49fb9	0.08819527
111	0xbdc9db7d	-0.09856317
112	0xbd2df6cf	-0.042471703
113	0x3def39e8	0.116809666
114	0xbcae7307	-0.021295084
115	0x3c94689d	0.01811629
116	0xbe21591f	-0.15756653
117	0xbe283cd9	-0.16429462
118	0x3dd0e8e9	0.10200674
119	0x3e102c94	0.14079505
120	0x3c74a3cb	0.014931629
121	0x3d2e9566	0.042622946
122	0x3d8bf186	0.06833176
123	0x3c8e5c3e	0.017377969
124	0x3da2b2d5	0.07944266
125	0x3bac5f51	0.005260386
126	0x3d1fe807	0.039039638
127	0x3c98586d	0.018596852
128	0xbcd4c3a2	-0.025972191
129	0xbd1645f6	-0.036687814
130	0x3de78211	0.11304105
131	0xbd199694	-0.037497118
132	0x3e353edd	0.17699762
133	0x3cc222e0	0.02369827
134	0x3ca97c46	0.020689141
135	0xbde20ba3	-0.11037376
136	0x3cb352a0	0.021889985
137	0xbde9c4fb	-0.11414524
138	0x3dd9ea61	0.10640407
139	0xbd5a4e62	-0.053297408
140	0x3dd381e9	0.10327513
141	0x3c947135	0.018120388
142	0x3e0040a6	0.12524661
143	0x3a39ad3f	0.00070830056
144	0xbd34fb2e	-0.044184856
145	0x3c88c424	0.01669509
146	0xbd7d9ab7	-0.061915126
147	0x3e5dcac0	0.21659374
148	0x3d435b1a	0.047694303
149	0x3e2a80ac	0.16650647
150	0x3e10d530	0.14143825
151	0x3ca541e6	0.020173024
152	0x3c52ec44	0.012873713
153	0x3de37942	0.111071125
154	0xbe0542d8	-0.1301378
155	0x3ce7f6d8	0.028315946
156	0xbca5f19d	-0.020256812
157	0xbce65613	-0.028117215
158	0xbd2d689f	-0.042336103
159	0x3c956365	0.018235872
160	0xbcab5f87	-0.020919574
161	0x3def0abc	0.11671969
162	0x3cd46c21	0.025930466
163	0x3c91a1ad	0.017777288
164	0xbc8fd368	-0.017556861
165	0xbe51ac6f	-0.20475934
166	0x3d28481e	0.0410844
167	0x3c59ab19	0.013285422
168	0xbe33f7bd	-0.17574973
169	0xba49ce29	-0.0007698262
170	0xbe4e3e1d	-0.20140882
171	0x3ddde79f	0.10835194
172	0x3cd0ba09	0.025479333
173	0xbb40bc3b	-0.002940907
174	0x3e4808b4	0.1953457
175	0x3d70e01b	0.058807474
176	0x3e0ef08f	0.13958953
177	0x3ddc6342	0.107611194
178	0xbdda6a52	-0.1066481
179	0x3e06b560	0.13155127
180	0x3ca577ce	0.020198729
181	0x3bf0324b	0.007330214
182	0x3df08723	0.11744525
183	0x3d21185d	0.039329875
184	0x3e0dd95f	0.13852452
185	0x3de495dd	0.11161397
186	0x3e01919a	0.12653199
187	0x3e2275ca	0.15865245
188	0xbdf3f63a	-0.11912198
189	0xbd903bab	-0.07042631
190	0x3d21320e	0.039354376
191	0x3d9ef587	0.077616744
192	0xbe33ee9e	-0.17571494
193	0x3d19814d	0.037476826
194	0xbdfe2b65	-0.124106206
195	0x3e01cd20	0.12675905
196	0xbd9faf19	-0.07797069
197	0x3c514069	0.012771704
198	0x3e4e573a	0.20150462
199	0x3e49275e	0.19643924
200	0xbe165b17	-0.14683186
201	0x3cc1ca98	0.023656175
202	0x3e36f7c0	0.17867947
203	0xbe279a9c	-0.16367573
204	0xbd22d727	-0.039755967
205	0x3cd71df9	0.02625941
206	0xbc3bbc88	-0.011458524
207	0xbdbb8e6a	-0.09158023
208	0x3b3e0cc7	0.0028999315
209	0xbe032e6c	-0.12810677
210	0xbdfca5bf	-0.12336301
211	0x3cacd366	0.021096896
212	0xbe25fd5c	-0.1620993
213	0x3c9957e5	0.01871867
214	0xbdf23fd5	-0.11828581
215	0xbdf4e26c	-0.11957249
216	0x3de3f89a	0.11131401
217	0x3e4bc454	0.19899112
218	0x3da23956	0.07921092
219	0xbe54c9a3	-0.20780043
220	0xbc58279a	-0.0131930355
221	0xbd10d436	-0.03535863
222	0xbd439789	-0.047751937
223	0x3dc9436e	0.09827314
224	0xbe3e086f	-0.18557905
225	0x3e61a917	0.22037159
226	0x3e2892b4	0.16462213
227	0x3d8da285	0.06915764
228	0x3d7b0563	0.061284434
229	0xbcb8f41c	-0.022577338
230	0x3e1d31d5	0.1535104
231	0x3e18acc9	0.14909662
232	0xbd332897	-0.04373988
233	0x3ce39ec2	0.027785663
234	0x3e233d7e	0.15941426
235	0xbe067298	-0.13129652
236	0xbe6369cd	-0.22208329
237	0x3e006ad6	0.12540755
238	0xbbb98568	-0.005661655
239	0x3d28b3ee	0.04118722
240	0x3b6e0dda	0.0036324174
241	0xbc5bd1e2	-0.013416739
242	0x3dd9c071	0.106324084
243	0x3e22dda7	0.15904866
244	0xbd28f1a7	-0.041246083
245	0x3e654e88	0.22393239
246	0x3e398289	0.18116201
247	0x3c5748f1	0.013139949
248	0xbe2aa21f	-0.16663407
249	0x3df5f08c	0.12008771
250	0xbe28d013	-0.16485624
251	0x3dc2ef1c	0.09518263
252	0x3e2729cd	0.1632454
253	0xbc81912d	-0.015816296
254	0x3c6c553a	0.0144246165
255	0x3d16ec5d	0.036846507

linear2.weight f4 [256, 256]
0	0xbd283627	-0.04106727
1	0xbca018cf	-0.01954308
2	0xbce8675c	-0.028369598
3	0x3d72a80e	0.0592423
4	0xbbb0cef0	-0.0053957626
5	0xbb9e346e	-0.0048280274
6	0xbb5076a0	-0.0031808987
7	0xbd7d25ec	-0.061803743
8	0xbd8be99d	-0.068316676
9	0x3d7c9e90	0.061674654
10	0xbc7e4e04	-0.01552153
11	0xbbf8f79c	-0.0075978767
12	0x3ba8323e	0.0051329425
13	0xbd27729a	-0.040880777
14	0xbd5405ca	-0.051763333
15	0xbd09adbd	-0.033612955
16	0x3d20cefc	0.039259896
17	0xbc7b98f8	-0.015356295
18	0x3d3192ee	0.043353014
19	0x3c54bbe8	0.0129842535
20	0xbcb3e6d0	-0.021960646
21	0xbd2c6e9f	-0.042097684
22	0x3d6d0502	0.057866104
23	0xbc9cf806	-0.019161236
24	0x3d6bf9d8	0.057611316
25	0xbd002fce	-0.03129559
26	0xbcb0594c	-0.021526955
27	0x3d466af8	0.048441857
28	0x3d25b54e	0.04045611
29	0xbd0faa8d	-0.03507476
30	0x3d783ce3	0.06060494
31	0xbc651753	-0.013982612
32	0xbc3c6588	-0.011498816
33	0x3ca3f76e	0.020015445
34	0xbc5c16a2	-0.01343313
35	0xbc86fdbc	-0.016478412
36	0x3cf52a70	0.029927462
37	0x3d15cf1a	0.03657446
38	0xbd4fa961	-0.05069864
39	0xbd22ae87	-0.039717223
40	0x3d71535e	0.058917396
41	0x3b1bd600	0.0023778677
42	0xbd3b9bc8	-0.04580286
43	0xbd1a4f8e	-0.037673526
44	0xbc13879e	-0.009004502
45	0x3cd810f1	0.026375266
46	0xbd81129d	-0.06302378
47	0xbbed7713	-0.007246861
48	0x3cb5a3f8	0.022172913
49	0x3d47cd7c	0.04877995
50	0x3d46ef00	0.048567772
51	0x3d066800	0.032814026
52	0xbc576fa0	-0.013149172
53	0xbcc3f6d9	-0.023921417
54	0xbd68828c	-0.056765124
55	0xbd131c96	-0.035915934
56	0x3d45b5b8	0.048269004
57	0xbc992c84	-0.018697985
58	0xbc378678	-0.011201493
59	0x3d46c728	0.048529774
60	0xbd2a24af	-0.04153889
61	0xbca0c577	-0.019625409
62	0x3c2f6aae	0.010706587
63	0x3a69033a	0.00088887254
64	0xbd44ea20	-0.04807484
65	0xbd398180	-0.045289516
66	0x3d6ffcce	0.058590703
67	0x3a70bbcb	0.0009183257
68	0xbd233357	-0.039843883
69	0xbd8edd15	-0.06975762
70	0xbcb7d560	-0.022440612
71	0x3beb009a	0.0071717026
72	0x3c40ae38	0.011760287
73	0xbadd4d00	-0.001688391
74	0xbc5f0f58	-0.013614498
75	0xbd82cc05	-0.0638657
76	0x3ccfe650	0.025378376
77	0xbd8dd375	-0.06925098
78	0x3d2eb88e	0.042656474
79	0xbb8c6960	-0.0042850226
80	0xbcf163c4	-0.029466517
81	0x3d14670d	0.03623109
82	0x3c17343d	0.009228763
83	0xbd4cc4c1	-0.049992327
84	0x3d15a8ed	0.036538053
85	0xbd5aa9ca	-0.05338458
86	0x3d004bfa	0.031322457
87	0xbcc0b479	-0.023523556
88	0x3d21efe6	0.039535426
89	0xbd229aa4	-0.039698258
90	0x3cd78131	0.02630672
91	0x3bd85cb9	0.0066028503
92	0xbb2eca87	-0.0026671009
93	0xbcd71ba2	-0.026258294
94	0x3b92d005	0.0044803643
95	0x3cfd57f0	0.03092572
96	0xbceffd2b	-0.029295525
97	0xbc7ebc2c	-0.015547793
98	0xbc0bd165	-0.00853381
99	0xbc9613e4	-0.018320031
100	0x3bd9e1b0	0.0066492185
101	0xbd04ddb5	-0.032438
102	0xba8d45c0	-0.0010778233
103	0x3b824d10	0.0039764717
104	0x3c804b32	0.015660856
105	0x3cfff893	0.03124646
106	0x3c09932c	0.008396905
107	0xbbcefa61	-0.0063164686
108	0x3d075068	0.033035666
109	0x3d20adc2	0.03922821
110	0x3c626a2a	0.013819257
111	0xbd85378d	-0.06504736
112	0xbd5ce17a	-0.05392597
113	0xbc6f8283	-0.014618519
114	0x3ca0af74	0.019614913
115	0x3cf1e9cc	0.029530428
116	0x3cf3925b	0.029732874
117	0xbcd1e092	-0.025619779
118	0x3c93c3c5	0.018037686
119	0x3d174a1d	0.036935914
120	0x3d28159e	0.04103624
121	0x3d6f13d0	0.058368504
122	0x39fa3bd3	0.00047728288
123	0xbc029d25	-0.0079720365
124	0xbb908eae	-0.00441154
125	0xbd80f35d	-0.06296418
126	0x3c9e8628	0.01935108
127	0x3d68b036	0.056808673
128	0x3c2abfc0	0.010421693
129	0xbd541baa	-0.051784195
130	0x3d7f6f50	0.062362015
131	0xbcc870fc	-0.024467938
132	0xbd821f5d	-0.06353638
133	0x3cea96dc	0.028636388
134	0xbd65395e	-0.055962913
135	0x3d138c4d	0.036022473
136	0x3d665482	0.056232937
137	0xbcc000c9	-0.023437874
138	0xbc3e1240	-0.011601031
139	0xbd71658a	-0.058934726
140	0x3d435db8	0.0476968
141	0xbc06a84d	-0.008218837
142	0xbd8807dd	-0.06642125
143	0x3d77eadb	0.06052671
144	0x3c56afa8	0.013103403
145	0xbc213ed8	-0.009841643
146	0x3c919785	0.017772445
147	0x3c93bcbd	0.018034333
148	0x3d2d7456	0.042347275
149	0xbd0a8b9d	-0.03382455
150	0x3d3285ff	0.04358482
151	0xbd768b6a	-0.06019155
152	0x3c8d8504	0.01727534
153	0x3ce30732	0.027713392
154	0x3ced958a	0.02900197
155	0x3d471b88	0.04861024
156	0xbc0bacad	-0.008525056
157	0xbc6f94d0	-0.014622882
158	0x3cc37d74	0.023863532
159	0xbd1318d0	-0.035912335
160	0xbb935170	-0.004495792
161	0xbcedfd73	-0.029051518
162	0xbd4417ac	-0.047874138
163	0xbd453862	-0.048149474
164	0xbc8cccd8	-0.01718752
165	0xbd3e8900	-0.046517372
166	0xbcd3ae88	-0.025840059
167	0xb9482c00	-0.00019089878
168	0xbd949c2e	-0.072563514
169	0x3cbb14cc	0.022837065
170	0x3cfbbc33	0.030729389
171	0xbd80ad0d	-0.06283007
172	0x3d4f0b44	0.050547853
173	0xbce858eb	-0.028362712
174	0xbd42dc10	-0.04757315
175	0xbd785904	-0.060631767
176	0xbd92a9be	-0.07161282
177	0x3c6cee5a	0.014461124
178	0xbc89b1a5	-0.01680834
179	0x3c3eadb7	0.0116380965
180	0xbc445088	-0.011982091
181	0x3d5bb71c	0.053641424
182	0xbccd13a9	-0.025033789
183	0xbaee5500	-0.0018183291
184	0x3d4de698	0.05026874
185	0xbd7c9384	-0.06166412
186	0x3c2c4856	0.010515293
187	0x3c514131	0.0127718905
188	0xbaf471cc	-0.0018649637
189	0xbcdbbe5a	-0.026824165
190	0xbd80c47d	-0.06287477
191	0x3d30c6a0	0.043158174
192	0x3d3f2f66	0.046676062
193	0x3d3a9e68	0.045561224
194	0x3d18fed5	0.0373524
195	0x3ce80552	0.02832285
196	0xbc9f3a26	-0.019436907
197	0x3c302268	0.010750391
198	0xbd7e5124	-0.0620891
199	0x3ce7ed1a	0.028311301
200	0xbd57de2a	-0.052702107
201	0x3d06cc4c	0.032909676
202	0xbd52a3e2	-0.051425822
203	0xbc7db41c	-0.015484836
204	0x3d1d9cde	0.03847968
205	0xbb6f0620	-0.0036472157
206	0x3d5430c2	0.05180431
207	0xbca16bdf	-0.019704757
208	0x3d0c880e	0.03430944
209	0xbbce3af9	-0.006293651
210	0x3cf79c74	0.03022597
211	0xbcdc351a	-0.02688079
212	0xbc195d08	-0.009360559
213	0x3d59c419	0.05316553
214	0xbd0cc45d	-0.034366954
215	0xbd37b3c8	-0.044849187
216	0x3d0ee0fc	0.03488253
217	0xbd5f745a	-0.05455432
218	0x3d02f184	0.03196861
219	0xbd5be0ba	-0.053681113
220	0x3b8a35e0	0.004217848
221	0xbd486ab6	-0.048929892
222	0xbc4d4c08	-0.012530334
223	0xbb8852dd	-0.0041602687
224	0xbc529f32	-0.012855338
225	0x3d2a7dbe	0.041623823
226	0xbd92762e	-0.07151447
227	0xbb80c225	-0.003929394
228	0xbd87128d	-0.06595335
229	0xbc6e9ef8	-0.014564268
230	0xbc8686b5	-0.016421655
231	0xbcc41188	-0.02393414
232	0x3d37cb4e	0.04487162
233	0xbc6cc363	-0.014450881
234	0x3cab3dee	0.020903554
235	0xbc352450	-0.011056021
236	0xbd59c8ca	-0.053170003
237	0x3c6575da	0.014005149
238	0xbcbeaf00	-0.023276806
239	0x3d4c2df8	0.049848527
240	0x3cb8f1bf	0.022576211
241	0xbc74b2e0	-0.014935225
242	0x3c09acf4	0.008403052
243	0xbd600cb3	-0.05469961
244	0x3d6c1082	0.05763293
245	0xbcc12369	-0.023576455
246	0xbc9758f6	-0.018475037
247	0x3cc08bc0	0.023504138
248	0xbbf82aec	-0.007573476
249	0xbd435d70	-0.04769653
250	0xbc5b34da	-0.0133793
251	0xbb9b01ae	-0.004730425
252	0x3ca4efde	0.020133909
253	0xbc513290	-0.012768403
254	0xbc9054b4	-0.017618515
255	0xbc89fab0	-0.01684317

linear2.bias f4 [256]
0	0xbd96277e	-0.07331751
1	0xbe1fbc3f	-0.15599154
2	0xbd7b29d8	-0.061319202
3	0xbced889c	-0.028995804
4	0xbdb0befe	-0.08630179
5	0x3e4dc46f	0.20094465
6	0x3e6a0d97	0.22856747
7	0x3d2169cc	0.039407536
8	0x3e08104b	0.13287465
9	0x3dd2242c	0.102608055
10	0x3e1ee384	0.15516478
11	0x3e165f8c	0.14684886
12	0x3e275fd0	0.16345143
13	0xbd9ee75a	-0.077589706
14	0xbd0c4ff5	-0.03425594
15	0x3e3c9552	0.18416336
16	0xbd56a74c	-0.05240564
17	0x3d281f7e	0.04104566
18	0xbda8908f	-0.08230697
19	0xbc0422b0	-0.008064911
20	0xbd531912	-0.05153758
21	0x3e08d6e1	0.1336322
22	0x3e607e0d	0.21923085
23	0x3e3f1870	0.18661666
24	0x3e4ca625	0.19985254
25	0x3bc40b28	0.0059827752
26	0xbd457ade	-0.04821288
27	0xbcef4273	-0.02920649
28	0x3e093f7c	0.13403124
29	0x3e5e6b51	0.21720625
30	0x3e4ddbbe	0.20103356
31	0xbd1309d6	-0.035898052
32	0x3e41300d	0.18865986
33	0x3e4d482d	0.20047064
34	0xbd6e060b	-0.05811123
35	0x3da1231e	0.07868026
36	0xbd6c3083	-0.057663452
37	0xbc52937a	-0.012852544
38	0xbe242544	-0.1602984
39	0x3c15f3ed	0.009152395
40	0xbde41d72	-0.11138429
41	0x3d9a409a	0.07531853
42	0x3e57559c	0.21028751
43	0xbdf45419	-0.11930103
44	0x3dd74db3	0.10512867
45	0x3e08b1d9	0.13349093
46	0xbd4bcf71	-0.04975838
47	0xbe0e17ea	-0.1387631
48	0x3de488a9	0.11158878
49	0x3db98bc6	0.09059863
50	0xbd613d62	-0.05499018
51	0xbe41f4f2	-0.18941095
52	0x3e1fc51c	0.15602535
53	0x3e4b0bf7	0.19828783
54	0x3e1e2ffd	0.15447994
55	0xbda8c5d0	-0.08240855
56	0x3e13ea32	0.14444807
57	0x3e229a5a	0.15879193
58	0xbd8d1bdd	-0.0689008
59	0x3d345b87	0.0440326
60	0xbe0472b4	-0.12934381
61	0xbd455d76	-0.048184834
62	0x3e5ba683	0.21450238
63	0x3d0d55ac	0.03450553
64	0x3e64aad4	0.22330791
65	0x3e4eb22d	0.20185156
66	0x3e4c6553	0.19960527
67	0x3e221573	0.15828495
68	0x3e175a41	0.14780523
69	0x3e5758d2	0.21029976
70	0xbd732f24	-0.05937113
71	0xbe242b9f	-0.16032265
72	0x3cf0db0b	0.029401323
73	0x3e24d227	0.16095792
74	0xbda10983	-0.07863142
75	0xbe000416	-0.12501559
76	0x3d1c3e45	0.038145322
77	0xbdcb5f3c	-0.09930274
78	0xbddfdb0a	-0.1093045
79	0xbd0ea51f	-0.03482544
80	0xbdcb21fb	-0.09918591
81	0x3df89271	0.121373065
82	0x3e867e0d	0.26268044
83	0x3c94eeec	0.018180333
84	0xbd287323	-0.041125428
85	0xbe00e61f	-0.12587784
86	0xbda35f84	-0.079772025
87	0xbdabc837	-0.08387797
88	0x3ce56a22	0.02800471
89	0xbe1f731e	-0.15571257
90	0x3e21e7a5	0.15811022
91	0x3e3c0a72	0.1836336
92	0x3e421bb7	0.18955885
93	0xbd8ff1e8	-0.07028562
94	0xbda439d7	-0.080188446
95	0xbe318fbc	-0.17339987
96	0x3e0d4705	0.13796623
97	0x3c4d6c01	0.012537957
98	0x3dd11cc5	0.102105655
99	0x3e314692	0.17312077
100	0x3dec4c34	0.11537972
101	0xbd202167	-0.039094355
102	0xbd18aa9f	-0.037272092
103	0x3e090da0	0.13384104
104	0xbacee161	-0.0015783721
105	0x3cd13af1	0.0255408
106	0x3e0b25c7	0.1358863
107	0xbd483d61	-0.04888666
108	0x3cc16120	0.023605883
109	0xbd470f09	-0.048598323
110	0x3de18133	0.11010971
111	0xbd871805	-0.06596378
112	0xbc985eae	-0.018599834
113	0x3e35adf0	0.17742133
114	0x3e25270d	0.16128178
115	0x3d43bf5e	0.047789924
116	0xbe552649	-0.20815386
117	0xbd08992d	-0.033349205
118	0xbd722e1c	-0.059126005
119	0xbcfd5b0c	-0.030927204
120	0xbdeebba2	-0.11656882
121	0x3acb71b0	0.0015521552
122	0x3d76ceaa	0.060255684
123	0x3e3eb841	0.18624975
124	0x3e4d9065	0.20074613
125	0x3b0580fc	0.002037107
126	0x3e70a582	0.23500636
127	0xbc9f3a99	-0.019437121
128	0xbe0e1c4a	-0.13877979
129	0x3db592d0	0.08865893
130	0x3e4e6e51	0.2015927
131	0xba726caf	-0.00092477625
132	0xbe263ed0	-0.16234899
133	0x3e4583da	0.19288579
134	0xbd5d8488	-0.05408147
135	0x3e1341f5	0.1438063
136	0xbd867585	-0.06565384
137	0xbda05cf3	-0.07830229
138	0xba133596	-0.000561559
139	0xbd250b37	-0.0402939
140	0xbe1d7ecd	-0.15380402
141	0xbc02168a	-0.007939944
142	0x3e242076	0.16028008
143	0xbd5ab3f2	-0.053394265
144	0xbc96d4ee	-0.01841208
145	0x3e44c2cf	0.19214939
146	0xbd15f966	-0.036614798
147	0x3e50fbb2	0.20408514
148	0xbdfb13dc	-0.12259647
149	0xbdf7c56f	-0.12098204
150	0x3e52c9bf	0.20584773
151	0xbd312350	-0.043246567
152	0xbd680b93	-0.056651663
153	0xbc994396	-0.018708985
154	0x3e9b51ad	0.3033575
155	0x3d3ac96d	0.04560225
156	0xbd587362	-0.052844413
157	0x3e148cdf	0.14506863
158	0xbdfcd167	-0.12344628
159	0xbd3823a1	-0.044955853
160	0x3e551f89	0.20812811
161	0x3b1f124d	0.0024272383
162	0x3d2ef326	0.042712353
163	0x3e2644a9	0.1623713
164	0xbdcfa8b9	-0.10139603
165	0x3dff5476	0.124672815
166	0x3d2b1486	0.04176762
167	0xbe263baf	-0.16233705
168	0xbe212cd3	-0.15739755
169	0xbcb16108	-0.021652713
170	0x3e28e22e	0.1649253
171	0x3e0072b7	0.1254376
172	0x3e3ca55c	0.18422455
173	0xbc964aa6	-0.018346142
174	0xbc0819d5	-0.00830694
175	0x3d9bd73a	0.076094106
176	0x3c88834c	0.01666417
177	0x3df8c978	0.12147802
178	0xbe28a8ac	-0.16470593
179	0x3c5b4d11	0.013385073
180	0xbc8a86ed	-0.01691004
181	0xbd889c4d	-0.06670437
182	0x3e4d3db1	0.20043065
183	0xbe4cc7a4	-0.19998032
184	0xbd55f977	-0.05223986
185	0x3c970495	0.018434802
186	0xbe163d7f	-0.14671896
187	0xbdcc3603	-0.099712394
188	0xbe3178a7	-0.17331181
189	0x3e043bd3	0.12913446
190	0x3e60cb81	0.2195263
191	0x3df12156	0.117739365
192	0xbb894125	-0.004188674
193	0xbe05b397	-0.1305679
194	0x3d38a07f	0.045074936
195	0xbce54c73	-0.027990555
196	0xbe36e261	-0.17859794
197	0x3e465f45	0.1937228
198	0xbd8cbf03	-0.0687237
199	0xbda97b27	-0.082754426
200	0x3d142955	0.03617223
201	0xbd0fc83d	-0.03510307
202	0xbdc664f4	-0.09687224
203	0x3e439a3b	0.19101803
204	0x3de0b5f1	0.109722026
205	0xbccba5bc	-0.024859302
206	0xbe1078d4	-0.14108592
207	0x3e01e222	0.12683919
208	0x3e0168d5	0.12637646
209	0x3c739ac8	0.014868446
210	0xbdeb904b	-0.11502131
211	0x3e4cfb0d	0.20017643
212	0x3e4d2ad5	0.2003587
213	0x3e5d71e4	0.21625477
214	0xbd693473	-0.056934785
215	0x3e55d199	0.20880736
216	0x3c0560f4	0.008140791
217	0xbd95d606	-0.07316212
218	0x3e22d83f	0.15902804
219	0x3b7e52b3	0.0038806617
220	0xbda58685	-0.08082298
221	0xbdd26883	-0.1027384
222	0xbd2b716c	-0.041856214
223	0xbda3d1dc	-0.07999012
224	0xbcbfd9e4	-0.023419328
225	0xbd362f1a	-0.044478513
226	0xbe0b1532	-0.13582304
227	0x3e46282f	0.19351266
228	0xbc831c7d	-0.016004795
229	0x3e457297	0.19281994
230	0x3c838464	0.01605434
231	0xbd220528	-0.0395557
232	0xbde628ad	-0.11238227
233	0x3cba708f	0.02275875
234	0x3da3d0b1	0.07998789
235	0xbe025ba6	-0.12730274
236	0xbd9bdf8e	-0.07610999
237	0x3e256a37	0.16153799
238	0x3c790a5b	0.015200223
239	0x3e40e6eb	0.18838088
240	0xbd0e86c5	-0.034796495
241	0xbd737296	-0.05943545
242	0xbab2e6e0	-0.0013649128
243	0x3e3c710f	0.18402503
244	0xbcb88140	-0.022522569
245	0x3e472ea0	0.1945138
246	0xbc45de59	-0.012076938
247	0xbe340498	-0.17579877
248	0x3e0451e4	0.12921864
249	0x3e65a270	0.22425246
250	0xbe125fba	-0.1429433
251	0xbc212e27	-0.009837664
252	0x3e248986	0.16068086
253	0x3e189e4b	0.14904134
254	0xbd9e2d7e	-0.07723521
255	0x3c0dd5cc	0.00865693

linear3.weight f4 [1, 256]
0	0x3bc79ba8	0.0060915537
1	0x3f94bf64	1.1620908
2	0x3f7c9938	0.98671293
3	0x3f4a3ccd	0.78999025
4	0x3f64588e	0.89197624
5	0xbf1d9899	-0.6156097
6	0xbf37376c	-0.7156894
7	0xbfb1d56a	-1.3893254
8	0xbf193798	-0.59850454
9	0xbf482551	-0.7818194
10	0xbf16dda0	-0.5893192
11	0xbf0b8d9a	-0.5451294
12	0xbf1d4998	-0.6144042
13	0x3fd42528	1.6573839
14	0xbd22f666	-0.039785765
15	0xbf2213f6	-0.6331171
16	0x3f504e6e	0.81369674
17	0x3b437780	0.0029825866
18	0x3fe0812c	1.753942
19	0x3fae7c2e	1.3631647
20	0xbc17343d	-0.009228763
21	0xbf359a0f	-0.709382
22	0xbf2ffb2d	-0.6874264
23	0xbf0d548f	-0.5520715
24	0xbf62d5f4	-0.88607717
25	0xbcc5fcd0	-0.024168402
26	0x3f49288a	0.7857748
27	0x3d28e77e	0.041236393
28	0xbf58ec5d	-0.8473566
29	0xbf3f09d5	-0.7462438
30	0xbf435077	-0.76294655
31	0xbd1cd415	-0.038288195
32	0xbf81d1d6	-1.0142162
33	0xbf472329	-0.77788025
34	0x3c2ee516	0.0106747355
35	0xbf4fff84	-0.8124926
36	0x3cf30813	0.029666936
37	0xbce91c3a	-0.028455842
38	0x3fbdd9ce	1.4832094
39	0xbcad4256	-0.021149796
40	0x3f4a5ad7	0.7904486
41	0xbf72b7d6	-0.9481176
42	0xbf1103dc	-0.56646514
43	0x3fd2f75d	1.6481739
44	0xbf57e75f	-0.8433742
45	0xbf549f94	-0.83055997
46	0x3c00de44	0.007865492
47	0x3fd9a79c	1.7004275
48	0xbf8623fd	-1.0479733
49	0xbf333864	-0.7000792
50	0x3fb5e7e5	1.4211394
51	0x3fbaf312	1.4605429
52	0xbf34e996	-0.70668924
53	0xbf1ea8ac	-0.6197612
54	0xbf36c493	-0.713937
55	0x3f49c9ae	0.78823364
56	0xbf2f9195	-0.68581516
57	0xbf695078	-0.9113841
58	0xbc7e9773	-0.015539038
59	0x3c086e34	0.008327056
60	0x3fac7978	1.3474569
61	0x3fcf6ba6	1.6204727
62	0xbf358b9a	-0.7091614
63	0x3ce30f02	0.027717117
64	0xbf2c3ee5	-0.6728347
65	0xbf3e149c	-0.742502
66	0xbf1a112a	-0.6018244
67	0xbf362932	-0.7115661
68	0xbf7fc6e0	-0.99912834
69	0xbf3d3382	-0.7390672
70	0x3bda7e09	0.0066678566
71	0x3fe4693b	1.7844614
72	0x3c1bd17e	0.009510396
73	0xbf6ef355	-0.93340045
74	0x3f9a15af	1.2037867
75	0x3fa1e730	1.2648678
76	0xbf883d7c	-1.0643764
77	0x3f763db4	0.961879
78	0x3fde4386	1.7364357
79	0xc00b0231	-2.1720088
80	0x3f6e4f1a	0.9308945
81	0xbf5c0ad8	-0.85954046
82	0x3f39ed58	0.7262778
83	0x3fd9cf91	1.7016469
84	0x3fc0ddb3	1.5067657
85	0x3fd0afb2	1.6303618
86	0x3fcfcc9a	1.6234314
87	0x3f3da56a	0.74080527
88	0xbd102b75	-0.035197694
89	0x3fe754c2	1.8072741
90	0xbf26d882	-0.65174115
91	0xbf801785	-1.0007178
92	0xbf098210	-0.53714085
93	0x3fe1fa16	1.7654445
94	0x3a37ef27	0.00070165325
95	0x3f88e24d	1.0694062
96	0xbf7a93b6	-0.9788164
97	0x3f37097e	0.7149886
98	0xbf20172c	-0.6253536
99	0xbf10a7fc	-0.56506324
100	0xbf0b9029	-0.54516846
101	0x3c99bb1d	0.01876598
102	0x4055aa80	3.3385315
103	0x3f845c91	1.0340749
104	0x3ba626ce	0.005070544
105	0xbbbc6acf	-0.0057500373
106	0x3f48080b	0.7813727
107	0x3c428b90	0.011874095
108	0xbb23adfe	-0.0024975534
109	0x3c1949d6	0.009355983
110	0xbf423594	-0.75863004
111	0xbbdfd472	-0.0068307454
112	0x3d3efe2f	0.046629127
113	0xbf0faea3	-0.5612585
114	0xbf4dd0f2	-0.8039695
115	0x3facbcbc	1.3495097
116	0x3fb2126d	1.3911873
117	0x3c5d0039	0.013488823
118	0x3a5981b2	0.0008297219
119	0x3b8dd8ed	0.004328838
120	0x3f705711	0.9388285
121	0x3d42dff1	0.04757685
122	0xbf808051	-1.0039159
123	0xbf191d46	-0.5981029
124	0xbf18ab22	-0.5963613
125	0xbd28e846	-0.04123714
126	0xbf65d496	-0.89777505
127	0x3f87f6c4	1.0622182
128	0x3f98ad32	1.1927855
129	0xbf40671e	-0.75157344
130	0xbf5c555c	-0.8606775
131	0x3f8ea23d	1.1143261
132	0x3f46e698	0.7769561
133	0xbf39373a	-0.72349894
134	0x3c136358	0.008995853
135	0xbf24c257	-0.6435904
136	0xbca35a66	-0.019940566
137	0x3f46b18c	0.77614665
138	0x3ca2e216	0.019883197
139	0x380c4d9d	3.3450884e-05
140	0x3f865698	1.0495176
141	0xc01d7e49	-2.4608328
142	0xbf51bb2f	-0.81926244
143	0xbc5b5e41	-0.013389171
144	0xbb449639	-0.0029996766
145	0xbf2420ad	-0.6411236
146	0x3d19765d	0.037466396
147	0xbf162a7a	-0.58658564
148	0x3f561a4b	0.8363387
149	0x3fe374db	1.7770036
150	0xbf17eb2a	-0.59343207
151	0x3bc6d089	0.00606734
152	0xba52568a	-0.00080237596
153	0xbb59d228	-0.0033236835
154	0xc050524b	-3.2550228
155	0xc0144b8e	-2.3171115
156	0xbb97c016	-0.0046310527
157	0xbf2309e8	-0.6368699
158	0x3f9d9c3e	1.2313306
159	0x3f504dc5	0.81368667
160	0xbf35adc9	-0.709683
161	0x3b8e4ee4	0.0043429006
162	0xbc349237	-0.011021188
163	0xbf20e682	-0.62851727
164	0x3f6349d9	0.8878456
165	0xbf4d5d40	-0.80220413
166	0xba60bed2	-0.00085733563
167	0x3fa27d17	1.2694424
168	0x3fdcf1a8	1.7261248
169	0xbbd2caf2	-0.0064328844
170	0xbf32e502	-0.6988069
171	0xbf703034	-0.9382355
172	0xbf227d06	-0.6347202
173	0xbb8a341d	-0.004217638
174	0xbcdd2e51	-0.026999624
175	0xbfe52613	-1.7902244
176	0x3c5a3d31	0.013320253
177	0xbf6dc7e3	-0.9288313
178	0x3f926dff	1.1439818
179	0xbb799c74	-0.0038087638
180	0x3c93621d	0.01799112
181	0x3ce83432	0.028345201
182	0xbf107e6c	-0.56442904
183	0x3fddb7c0	1.7321701
184	0x3f512f50	0.8171282
185	0x3ca3422e	0.019929018
186	0x3f87eec7	1.0619744
187	0x3fdd288d	1.7278
188	0x3fb7c5ca	1.4357235
189	0xbf43aaeb	-0.76432675
190	0xbf422720	-0.7584095
191	0x405a9445	3.4152997
192	0x3d42ac60	0.04752767
193	0x3fc1dab1	1.5144864
194	0x3d1babfd	0.038005818
195	0x3b60e772	0.003431764
196	0x3f6be583	0.9214708
197	0xbf46c584	-0.77645135
198	0x3fbc87c0	1.4728928
199	0x3c111446	0.008854931
200	0xbbb2a9f0	-0.005452387
201	0x3d3b6ce7	0.045758154
202	0x3f41a0ca	0.7563597
203	0xbf2d5d29	-0.67720276
204	0xbf391d78	-0.7231059
205	0x3c06a7b8	0.008218698
206	0x3f7581eb	0.95901364
207	0xbf303b39	-0.68840367
208	0xbf86ca92	-1.053057
209	0x40126ab2	2.2877622
210	0x3fd67278	1.6753683
211	0xbf3b6052	-0.7319385
212	0xbf1b622a	-0.6069666
213	0xbf46ddd6	-0.77682245
214	0x3b9ea105	0.0048409724
215	0xbf2aeafc	-0.6676481
216	0xbd3a5aaf	-0.04549664
217	0x3fc4a555	1.5362955
218	0xbf3528e7	-0.7076554
219	0x3d1711dd	0.03688227
220	0x3f4fbb66	0.8114532
221	0x3f67271f	0.9029407
222	0xbd2f6550	-0.04282123
223	0x3f428cab	0.7599589
224	0x3f8c1d12	1.0946372
225	0xbd715302	-0.058917053
226	0x3f542021	0.82861525
227	0xbf18b91f	-0.5965747
228	0xbd2951be	-0.04133772
229	0xbf22aefe	-0.63548267
230	0xbab8e21f	-0.0014105475
231	0x3f73b0d3	0.9519169
232	0x3fa491fe	1.2857053
233	0xbd868a9c	-0.065694064
234	0xbfa11a72	-1.2586195
235	0x3f4cacfd	0.7995146
236	0x3c0c61ed	0.008568269
237	0xbf2e3ab3	-0.6805832
238	0x3ce25512	0.027628455
239	0xbf1c83e3	-0.61138743
240	0x3fdabe98	1.7089415
241	0x3cddda1d	0.027081544
242	0x3c047a7c	0.008085843
243	0xbf09842e	-0.53717315
244	0xbb798823	-0.0038075529
245	0xbf16f288	-0.58963823
246	0xbd4583b9	-0.048221324
247	0x3f5b4004	0.85644555
248	0xbf1fbbe9	-0.62396103
249	0xbf52039a	-0.82036746
250	0x3f822e20	1.0170326
251	0x3d346cb7	0.04404899
252	0xbf7afaf2	-0.9803916
253	0xbf45ea0b	-0.77310246
254	0x3f515783	0.8177416
255	0xbce7238a	-0.028215189
